backend/Model_Pytorch/RNN_Model/checkpoints/best_checkpoint.pth (torch, 672347 bytes, 27 tensors)

lstm.weight_ih_l0 f4 [256, 19]
-0.2560379 -0.1286723 -0.08720187 -0.093083024 -0.02949457 -0.10209339 0.1218469 -0.059984785
0.10747487 0.012996971 0.12696488 0.19488718 0.14026462 0.116837025 0.038410235 -0.24706118
-0.21166395 0.00039266006 0.088566676 0.052295804 -0.04253616 0.0070538633 -0.22577545 -0.1492517
0.12978546 -0.12650491 0.099360265 -0.07298519 -0.09173743 0.10554057 -0.0013563145 -0.035711356
0.05443598 -0.0037648007 -0.105418034 -0.25482285 0.055590816 0.13824646 0.07214099 0.1351179
0.23272808 0.23093723 0.20315275 0.009845161 0.17654419 0.033669207 0.10238634 0.13310516
-0.2630506 0.3151643 0.17521432 0.57095975 0.41561273 -0.030947873 0.25334355 -0.04805114
-0.03681521 0.11215612 -0.09261688 0.015559369 -0.12071082 -0.30518237 0.2392539 0.1157429
0.15687503 0.079195835 -0.06980664 -0.039532665 0.7080452 -0.16402912 0.9749177 -0.13648543
-0.553686 0.0030226558 0.2520891 0.05970482 -0.02293851 -0.09800696 -0.1670992 -0.06747025
0.35436293 0.053705174 0.22691837 -0.10654317 0.017062314 0.23825333 0.14660646 0.34497207
0.29004413 0.34929696 0.04597581 0.12765585 0.23768176 -0.19556284 -0.086076975 -0.20222542
-0.12207924 -0.007675323 0.054144975 0.057806972 0.03260263 0.019930605 0.1200003 0.11660229
0.16051216 -0.021228528 -0.14208181 -0.014802226 -0.11044225 -0.1058246 0.3934321 0.23572828
0.39392832 0.26308033 0.08437816 -0.05159261 0.06170366 -0.2353168 -0.49864134 -0.031970304
0.004711137 0.23724122 0.08600941 -0.083580285 0.011955866 -0.045825068 0.44792527 0.109883346
0.2438208 -0.22075793 0.38360852 0.16159151 -0.13671973 -0.013097904 -0.011870608 0.019347804
0.027489923 0.12955467 0.13914901 0.28151605 0.26618695 0.077351466 0.2667341 0.09684337
-0.04536086 -0.051424157 -0.04819877 -0.00025349026 0.016383985 0.059523106 -0.050091386 -0.028999152
-0.08280958 -0.019862387 -0.17162848 -0.24458879 0.044977304 0.11405345 -0.035887457 -0.10045558
-0.07033975 -0.066633895 -0.034693405 0.041815214 0.036479842 -0.08982629 -0.14617755 -0.11181744
0.08263943 -0.06362461 -0.06847504 0.09307398 0.15693286 0.09980875 -0.008147442 0.08845586
0.0893252 0.12358947 -0.019514762 0.17885722 0.31738803 0.044216212 0.19198209 0.20881207
0.11008826 -0.106027514 0.1508203 0.21046336 0.18578278 0.22262967 0.31565204 -0.20780611
-0.0062537193 -0.0015225114 0.4011138 -0.12609452 0.017893942 -0.09344613 0.050921474 -0.045610864
0.23117803 0.6139947 -0.07807271 0.38517728 -0.23432124 0.09258187 0.280554 0.09054048
0.011418592 0.16779426 -0.03895271 -0.17201833 -0.02724899 -0.11956502 0.10065459 0.12189504
0.18666059 -0.0240482 0.12066987 -0.022538703 -0.054707807 -0.09049907 0.016820785 0.044994563
-0.086105436 0.011587957 0.017534155 0.15117055 -0.4625597 -0.038712256 -0.052302584 -0.20062077
-0.21466663 0.108239114 -0.075889416 0.19521265 -0.17768575 -0.064814866 0.060750287 -0.055980142
0.26142922 -0.06265102 0.11958648 0.26981494 -0.40424672 -0.12269627 0.18641333 -0.32914662
-0.029132564 0.0042186817 -0.038790114 0.05271618 0.20048718 0.036697622 0.21115752 0.045107637
00000000: 6617 83be acc2 03be e596 b2bd 50a2 bebd
00000010: 999e f1bc 5716 d1bd de8a f93d 9bb2 75bd
00000020: c91b dc3d 3ff1 543c 1503 023e 8190 473e
00000030: 87a1 0f3e 4048 ef3d 0d54 1d3d 9bfd 7cbe
00000040: 6fbe 58be f1dd cd39 7262 b53d 2034 563d
00000050: 663a 2ebd 1824 e73b ae31 67be 70d5 18be
00000060: 7be6 043e 818a 01be 657d cb3d 4279 95bd
00000070: d5e0 bbbd a825 d83d 5dc6 b1ba 1246 12bd
00000080: 43f8 5e3d e0ba 76bb 69e5 d7bd 2478 82be
00000090: 32b3 633d 7b90 0d3e a8be 933d 595c 0a3e
000000a0: 4550 6e3e cf7a 6c3e 4607 503e 994d 213c
000000b0: 00c8 343e b9e8 093d eeaf d13d b84c 083e
000000c0: 91ae 86be 375d a13e 626b 333e 6b2a 123f
000000d0: 31cb d43e 6586 fdbc 3fb6 813e 46d1 44bd
000000e0: 8ccb 16bd 1cb2 e53d ebad bdbd b9ec 7e3c
000000f0: 3c37 f7bd dd40 9cbe f9fe 743e 9d0a ed3d
00000100: d9a3 203e 6d31 a23d c9f6 8ebd 01ed 21bd
00000110: 7342 353f 40f7 27be 3594 793f d6c2 0bbe
00000120: 5ebe 0dbf c017 463b d311 813e 0b8d 743d
00000130: 8be9 bbbc dfb7 c8bd 0d1c 2bbe d82d 8abd
00000140: 0f6f b53e f5f9 5b3d 4a5d 683e 4e33 dabd
00000150: 44c6 8b3c aef8 733e 0120 163e 2ea0 b03e
00000160: aa80 943e 0dd7 b23e 2251 3c3d 37b8 023e
00000170: d962 733e a041 48be 2049 b0bd 2e14 4fbe
00000180: ae04 fabd 4781 fbbb 1fc7 5d3d 01c7 6c3d
00000190: 568a 053d 8245 a33c b8c2 f53d 2ecd ee3d
000001a0: 4d5d 243e 73e7 adbc e57d 11be 0985 72bc
000001b0: 8c2f e2bd 91ba d8bd ef6f c93e c162 713e
000001c0: f9b0 c93e 77b2 863e 75ce ac3d c652 53bd
000001d0: fabc 7c3d e3f6 70be eb4d ffbe 4bf3 02bd
000001e0: e25f 9a3b 5def 723e b425 b03d 242c abbd
000001f0: 89e2 433c 11b3 3bbd 7656 e53e 850a e13d
00000200: 29ac 793e 5e0e 62be 5668 c43e 3f78 253e
00000210: 4200 0cbe 9798 56bc f07c 42bc 497f 9e3c
00000220: 8c32 e13c fba9 043e 147d 0e3e df22 903e
00000230: a849 883e 726a 9e3d 5f91 883e d155 c63d
00000240: 4fcc 39bd 23a2 52bd 136c 45bd e3e6 84b9
00000250: b537 863c 80ce 733d a02c 4dbd a18f edbc
00000260: 1298 a9bd 72b6 a2bc 60bf 2fbe 7c75 7abe
00000270: 1f3a 383d db94 e93d bafe 12bd a8bb cdbd
00000280: 490e 90bd 5a77 88bd ac1a 0ebd 6e46 2b3d
00000290: e36b 153d d9f6 b7bd 91af 15be 8b00 e5bd
000002a0: dd3e a93d 9f4d 82bd a43c 8cbd 929d be3d
000002b0: 02b3 203e 8868 cc3d d97c 05bc 5928 b53d
000002c0: 21f0 b63d 7a1c fd3d 6cdd 9fbc 5926 373e
000002d0: af80 a23e 0f1c 353d f496 443e d5d2 553e
000002e0: f475 e13d f424 d9bd a370 1a3e b583 573e
000002f0: d73d 3e3e 08f9 633e 259d a13e 20cb 54be
00000300: 00ec ccbb 018f c7ba ca5e cd3e ec1e 01be
00000310: 5196 923c af60 bfbd 0993 503d 75d2 3abd
00000320: efb9 6c3e c22e 1d3f 96e4 9fbd f535 c53e
00000330: e8f1 6fbe 909b bd3d c6a4 8f3e 4a6d b93d
00000340: 0c15 3b3c 42d2 2b3e e08c 1fbd 9325 30be
00000350: 4639 dfbc 81de f4bd fe23 ce3d 1ba4 f93d
00000360: f423 3f3e bb00 c5bc c421 f73d 16a3 b8bc
00000370: 4b15 60bd 9457 b9bd becb 893c 384c 383d
00000380: 0c58 b0bd 6adb 3d3c caa3 8f3c 74cc 1a3e
00000390: a0d4 ecbe be90 1ebd 3c3b 56bd 886f 4dbe
000003a0: 92d1 5bbe 78ac dd3d e96b 9bbd d3e5 473e
000003b0: 41f3 35be a8bd 84bd 4bd5 783d 6f4b 65bd
000003c0: 0dda 853e 2e4f 80bd c2e9 f43d 2f25 8a3e
000003d0: 6df9 cebe 2f48 fbbd 23e3 3e3e e885 a8be
000003e0: 6aa7 eebc de3c 8a3b 62e2 1ebd ecec 573d
000003f0: 834c 4d3e 3f50 163d ad39 583e c9c2 383d

lstm.weight_hh_l0 f4 [256, 64]
-0.2050804 0.20467113 0.19313748 0.070987895 0.017467082 0.21593516 -0.16581297 0.00685083
-0.19130515 0.13861686 0.018428307 -0.13260357 -0.040614117 -0.24686831 -0.0025586402 0.01076295
0.054994524 -0.03382605 -0.038196165 0.025962882 0.10094729 -0.08655993 -0.022720473 -0.06925082
-0.07436701 0.16333364 -0.0803657 -0.09431528 0.024308674 -0.15249346 0.057068132 0.15156238
0.015797248 -0.0693143 -0.039246477 0.27486503 -0.13439585 0.08586457 -0.015601911 -0.20605952
-0.1637651 -0.023172215 0.058889404 0.06945518 0.105540626 -0.06997981 0.10763017 0.084424555
0.11037177 0.11542561 0.00046774434 0.047212325 -0.0065857647 -0.20770189 -0.08235569 -0.011263265
0.066719495 0.16413344 -0.057344545 -0.08166203 -0.12907416 0.048430435 -0.09229113 0.012333955
-0.11303771 0.12414622 -0.16495258 0.11088388 0.010417918 -0.22498077 -0.025187006 0.04670531
0.014309937 -0.0034818912 -0.10820142 -0.21720892 -0.07073459 0.0036738145 -0.11342592 -0.065555096
0.10478462 0.18696362 0.18697727 -0.049302474 0.2287622 -0.10193917 0.11679289 0.2912223
-0.15414837 -0.03852401 -0.117770046 -0.19389859 0.051435668 0.03542288 0.14187755 0.0104826465
0.05603986 0.11032157 0.03748102 0.00882732 0.039090954 0.16566233 -0.07537007 0.0052517075
-0.08126696 -0.067936234 0.013981893 -0.07067623 0.16427214 -0.029889451 0.18732567 0.11573559
0.11715454 0.10178304 -0.2185644 0.014956936 0.03557638 -0.21599905 -0.1816 0.1479509
0.26421323 0.18074426 -0.087115794 -0.018175477 -0.11395151 0.09795576 -0.16164877 0.069867
-0.062166438 0.09968067 -0.11747128 0.01100574 -0.14010334 -0.0024190221 0.06908172 -0.1112947
-0.0788228 -0.12043029 -0.13355416 0.046225704 0.035756733 0.2520031 -0.117446624 -0.1496645
-0.22266105 0.07640602 -0.18881603 0.21328461 -0.16062771 0.31234995 -0.35540873 0.03331713
0.17347491 0.42085773 -0.12558898 -0.06840092 0.10442799 0.072553515 -0.07515604 -0.25363857
-0.1167711 -0.2781703 0.2726746 -0.042358212 0.23360224 0.13739987 0.21682486 -0.013204628
-0.030462557 -0.2952175 0.17872214 0.09458476 -0.20619848 0.031073231 -0.33868247 -0.13331905
0.3564117 -0.099953614 0.08440016 0.3175032 0.32010543 -0.1633228 0.11656735 -0.2597325
-0.05587387 -0.18569322 0.49756896 0.08754951 0.04508621 0.114179246 0.013210638 -0.06694702
-0.15480977 -0.026361858 -0.005852948 0.024648812 0.157517 -0.31642377 -0.0133981565 0.26187608
-0.20917097 0.3219748 0.40297285 -0.11965309 0.12194235 -0.056450978 -0.30003807 0.030458365
0.26001173 -0.89114183 -0.30695403 -0.052813157 -0.13338497 -0.09068797 -0.0010624646 -0.18378848
-0.1562872 0.036014102 -0.19122134 -0.09679239 0.011363592 -0.3179991 0.07389503 0.0046370993
0.050104957 0.026128378 -0.07488847 -0.013366794 0.013402836 0.47453374 0.20811851 -0.15154244
-0.056230873 0.058180053 0.11269384 0.0046961806 -0.10972745 0.22411966 0.07649043 0.03233142
0.0032076538 0.16121584 0.08778526 -0.06755989 -0.20789394 -0.26887476 -0.43555954 0.1817297
-0.024643747 0.11314772 0.15705192 -0.29404503 0.08542305 -0.07384034 -0.18413639 -0.25270858
00000000: 9900 52be 4f95 513e d5c5 453e 1a62 913d
00000010: 2017 8f3c 1b1e 5d3e e0ca 29be ed7c e03b
00000020: 7fe5 43be 94f1 0d3e f6f6 963c 3bc9 07be
00000030: fd5a 26bd 0ccb 7cbe dcae 27bb 1657 303c
00000040: f041 613d 2f8d 0abd 9573 1cbd 1cb0 d43c
00000050: 74bd ce3d 5546 b1bd 4920 babc 60d3 8dbd
00000060: bb4d 98bd ef40 273e c696 a4bd 5f28 c1bd
00000070: fc22 c73c 3f27 1cbe 46c0 693d 2b33 1b3e
00000080: 3b69 813c a8f4 8dbd eac0 20bd 1cbb 8c3e
00000090: 119f 09be c4d9 af3d 289f 7fbc 4401 53be
000000a0: 0ab2 27be a8d3 bdbc 0436 713d 843e 8e3d
000000b0: af25 d83d 9351 8fbd 356d dc3d c8e6 ac3d
000000c0: 980a e23d 4364 ec3d 953b f539 b661 413d
000000d0: 66cd d7bb ceaf 54be 1aaa a8bd 8f89 38bc
000000e0: 3ba4 883d 9912 283e 1de2 6abd 6c3e a7bd
000000f0: 042c 04be fe5e 463d 2203 bdbd 5b14 4a3c
00000100: 5180 e7bd 6040 fe3d 54e9 28be 1617 e33d
00000110: eaaf 2a3c 5c61 66be fb54 cebc 114e 3f3d
00000120: 3a74 6a3c 7130 64bb b598 ddbd 046c 5ebe
00000130: 4cdd 90bd 61c4 703b d94b e8bd c041 86bd
00000140: 5299 d63d 6473 3f3e f876 3f3e 64f1 49bd
00000150: a340 6a3e 7cc5 d0bd 1c31 ef3d 171b 953e
00000160: 12d9 1dbe 5acb 1dbd 6c31 f1bd 5a8d 46be
00000170: 35ae 523d 9517 113d 5948 113e 68bf 2b3c
00000180: 0d8a 653d 46f0 e13d b385 193d 77a0 103c
00000190: d61d 203d 63a3 293e a05b 9abd 8416 ac3b
000001a0: 4b6f a6bd 2722 8bbd 4f14 653c b3be 90bd
000001b0: f536 283e b9da f4bc 4dd2 3f3e c806 ed3d
000001c0: b8ee ef3d a073 d03d 59cf 5fbe f00d 753c
000001d0: 8ab8 113d db2e 5dbe 5af5 39be 7180 173e
000001e0: f546 873e 0615 393e c469 b2bd bde4 94bc
000001f0: 695f e9bd 089d c83d 4187 25be 6e16 8f3d
00000200: 3ca2 7ebd 6125 cc3d c894 f0bd 6b51 343c
00000210: 4077 0fbe 7588 1ebb b87a 8d3d 7aee e3bd
00000220: d96d a1bd 28a4 f6bd 6cc2 08be 2a57 3d3d
00000230: a775 123d 8d06 813e db87 f0bd a741 19be
00000240: 4201 64be c27a 9c3d fd58 41be 4867 5a3e
00000250: 977b 24be 55ec 9f3e 22f8 b5be 8b77 083d
00000260: 68a3 313e aa7a d73e 669a 00be c815 8cbd
00000270: 58de d53d f096 943d 69eb 99bd eadc 81be
00000280: b025 efbd 566c 8ebe 019c 8b3e ce7f 2dbd
00000290: 6d35 6f3e 8db2 0c3e 5607 5e3e 3958 58bc
000002a0: 9d8c f9bc c026 97be f002 373e a8b5 c13d
000002b0: b225 53be 4a8d fe3c ca67 adbe ca84 08be
000002c0: 987b b63e 7bb4 ccbd fed9 ac3d c88f a23e
000002d0: dce4 a33e 183e 27be ddba ee3d a9fb 84be
000002e0: 00dc 64bd 5d26 3ebe 5cc1 fe3e 284d b33d
000002f0: 51ac 383d cfd6 e93d 6f71 583c 851b 89bd
00000300: 7486 1ebe d3f4 d7bc 16ca bfbb 4eec c93c
00000310: 234c 213e 4c02 a2be f183 5bbc 9f14 863e
00000320: ea30 56be e2d9 a43e 7552 ce3e ae0c f5bd
00000330: e9bc f93d 2439 67bd 979e 99be d283 f93c
00000340: 4220 853e df21 64bf 1429 9dbe 9c52 58bd
00000350: 1296 08be 9dba b9bd 6542 8bba 0c33 3cbe
00000360: c009 20be 8683 133d 87cf 43be 173b c6bd
00000370: 5c2e 3a3c c7d0 a2be 4756 973d cff2 973b
00000380: db3a 4d3d 2e0b d63c 205f 99bd 6600 5bbc
00000390: 9297 5b3c 16f6 f23e 051d 553e f12d 1bbe
000003a0: 5852 66bd 354e 6e3d 07cc e63d 6be2 993b
000003b0: c9b8 e0bd a07f 653e 04a7 9c3d f36d 043d
000003c0: 8037 523b c415 253e c2c8 b33d d75c 8abd
000003d0: 26e2 54be f4a9 89be a901 dfbe 5a17 3a3e
000003e0: afe1 c9bc feb9 e73d 38d2 203e 128d 96be
000003f0: 48f2 ae3d 9b39 97bd 408e 3cbe 0563 81be

lstm.bias_ih_l0 f4 [256]
-0.21412222 -0.20823804 -0.2716027 -0.069227695 -0.05838524 -0.39413366 -0.48854315 0.1605891
-0.17499612 -0.0784202 -0.24446577 -0.13572519 -0.17346413 -0.41980428 -0.00805518 -0.2379904
-0.21409066 -0.11782675 -0.12909824 -0.15799809 0.051276304 -0.14579044 -0.4400521 -0.5260923
0.18267718 -0.35000834 -0.21442726 -0.17980874 -0.040902182 0.18490383 -0.10464006 -0.22403051
-0.253642 -0.29572883 -0.20313388 -0.33958867 -0.36344558 -0.10817927 -0.3823706 -0.18735464
-0.13663137 -0.16739951 -0.08273842 -0.25891894 -0.1714208 -0.6807701 -0.24746287 -0.43632346
-0.45437956 -0.15010482 -0.30892065 -0.47846138 -0.28768644 -0.2902625 0.37224942 0.07869279
-0.7663254 -0.35209316 -0.30185872 -0.3297343 -0.45579118 -0.13614538 -0.8863872 0.13594389
-0.081589535 -0.042900957 -0.28579408 -0.10675833 0.03838162 -0.06872856 -0.08659506 -0.03027256
0.05051096 -0.049261555 -0.08709411 -0.016153332 -0.016151274 -0.28965455 -0.16467395 -0.16351514
-0.16152598 0.083491206 -0.25688675 -0.1306151 -0.15856276 -0.07279665 -0.062014863 -0.34660232
-0.020600311 -0.18190284 0.028647123 0.10068736 0.20538968 -0.2744222 -0.08431276 -0.11217787
-0.30032635 -0.16347896 -0.16088428 0.10483028 0.01344944 -0.12905425 0.22410814 -0.12804236
-0.18045282 -0.22507179 0.051520042 -0.11685665 -0.08181736 -0.4128653 -0.009697463 -0.12414933
0.58850956 0.17958307 -0.2524728 -0.5246905 -0.101771705 0.12576391 0.025257202 0.092913374
-0.7318909 -0.21012568 -0.2382313 -0.29506576 -0.18573667 -0.16064973 -0.41352767 0.06485207
-0.22557214 -0.0781856 0.18130529 -0.12507091 0.0054860134 -0.1727456 -0.014172577 0.010279056
-0.05918916 -0.011210479 -0.10149358 0.08531368 0.10697452 0.07522668 0.02019473 0.1474677
-0.16984795 -0.078265816 -0.1385996 0.13006502 0.0041330857 -0.07420928 0.1225143 -0.055078864
0.033639703 0.10368136 0.01983661 0.19666988 0.14407922 0.06520213 -0.018593464 -0.03586221
0.038763057 -0.0052322205 0.24507503 0.17576508 0.16088901 -0.008980503 0.06640072 0.03967387
-0.06047751 0.049169164 -0.044116363 0.13495952 -0.19006807 0.27731618 0.11833417 -0.013187087
-0.08556617 0.019836921 -0.2361565 0.09099675 -0.04378112 -0.11581569 0.12167842 -0.026006902
0.043946095 0.056718245 0.041235883 0.19384262 -0.21512969 0.04994864 -0.030519225 0.08184321
-0.2899628 -0.17732506 -0.15723296 -0.16203468 0.034941684 -0.15201153 -0.42637172 0.37037304
-0.1776796 -0.108993076 -0.26207265 -0.0837935 -0.14101377 -0.3313621 0.027165355 -0.09519313
-0.15603918 -0.19927481 -0.06256062 0.036450896 0.20048314 -0.28581545 -0.19300961 -0.39915493
-0.039873686 -0.4663032 0.073848784 -0.19646668 0.256096 0.127606 0.02977402 -0.2104271
-0.34998292 -0.08011518 -0.3222351 -0.2719707 -0.13215193 -0.041861486 -0.17761387 -0.049578473
-0.31752524 -0.0593908 -0.25000906 -0.33639637 -0.2630035 -0.4073674 -0.023237487 -0.46354485
0.17131504 -0.15528095 -0.66005045 -0.3856142 -0.351988 -0.27172443 0.011956843 0.11673159
-0.8144665 -0.2994021 -0.21678472 -0.20654821 -0.22158003 -0.14954922 -0.7006656 0.25209177
00000000: db42 5bbe 5a3c 55be 820f 8bbe 40c7 8dbd
00000010: 5d25 6fbd e3cb c9be 5422 fabe 7871 243e
00000020: 2f32 33be c59a a0bd 3c55 7abe 8bfb 0abe
00000030: 95a0 31be 96f0 d6be e0f9 03bc c1b3 73be
00000040: 953a 5bbe 274f f1bd 5432 04be 40ca 21be
00000050: 1a07 523d 174a 15be 824e e1be fcad 06bf
00000060: ba0f 3b3e 4b34 b3be d292 5bbe c81f 38be
00000070: 0c89 27bd 6e57 3d3e 874d d6bd 4168 65be
00000080: 5ddd 81be c569 97be 5402 50be 91de adbe
00000090: 8a15 babe 188d ddbd 14c6 c3be e5d9 3fbe
000000a0: 18e9 0bbe c76a 2bbe c372 a9bd 0691 84be
000000b0: ef88 2fbe f346 2ebf e866 7dbe ca65 dfbe
000000c0: 70a4 e8be 14b5 19be d92a 9ebe e4f8 f4be
000000d0: a34b 93be 499d 94be 7a97 be3e af29 a13d
000000e0: e72d 44bf 8e45 b4be 3a8d 9abe efd2 a8be
000000f0: 765d e9be b269 0bbe 46ea 62bf e034 0b3e
00000100: 6a18 a7bd eab8 2fbd 9a53 92be 1ca4 dabd
00000110: 0c36 1d3d 8fc1 8cbd c058 b1bd 29fe f7bc
00000120: 95e4 4e3d 7cc6 49bd 665e b2bd fe53 84bc
00000130: ad4f 84bc 9a4d 94be 4aa0 28be 8370 27be
00000140: 1167 25be 70fd aa3d a986 83be f7bf 05be
00000150: 475e 22be 6916 95bd 4c03 7ebd dc75 b1be
00000160: fcc1 a8bc bd44 3abe 5fad ea3c 2d35 ce3d
00000170: ac51 523e 1181 8cbe 2bac acbd 83bd e5bd
00000180: 60c4 99be 0767 27be d9be 24be 42b1 d63d
00000190: 0a5b 5c3c cc26 04be 9b7c 653e 891d 03be
000001a0: a0c8 38be 3879 66be ae06 533d 8a52 efbd
000001b0: dc8f a7bd 1563 d3be 1ce2 1ebc 0142 febd
000001c0: 90a8 163f a0e4 373e 1d44 81be 1e52 06bf
000001d0: af6d d0bd 41c8 003e 31e8 ce3c 5e49 be3d
000001e0: 345d 3bbf 302b 57be e8f2 73be dc12 97be
000001f0: c131 3ebe 5d81 24be e6b9 d3be 29d1 843d
00000200: 62fc 66be c61f a0bd 18a8 393e 9712 00be
00000210: 04c4 b33b 39e4 30be 1934 68bc 7c69 283c
00000220: 5570 72bd 28ac 37bc dedb cfbd f0b8 ae3d
00000230: 7515 db3d 7210 9a3d 6b6f a53c c601 173e
00000240: 9fec 2dbe d449 a0bd 0eed 0dbe c42f 053e
00000250: d66e 873b 09fb 97bd c7e8 fa3d 609a 61bd
00000260: c9c9 093d e556 d43d 6380 a23c d463 493e
00000270: 8189 133e b288 853d 5251 98bc 41e4 12bd
00000280: 03c6 1e3d 0c73 abbb f3f4 7a3e c3fb 333e
00000290: 17c0 243e f622 13bc 1afd 873d 1181 223d
000002a0: 44b7 77bd 9b65 493d 5cb3 34bd d432 0a3e
000002b0: 34a1 42be 63fc 8d3e 2f59 f23d a70e 58bc
000002c0: 513d afbd 0a81 a23c 02d3 71be 815c ba3d
000002d0: d553 33bd c730 edbd 8932 f93d 6d0c d5bc
000002e0: d200 343d 6451 683d f5e6 283d ae7e 463e
000002f0: f54a 5cbe f296 4c3d 7403 fabc 6a9d a73d
00000300: 0176 94be b394 35be ad01 21be 6bec 25be
00000310: 031f 0f3d e9a8 1bbe 654d dabe 89a1 bd3e
00000320: a4f1 35be c337 dfbd 632e 86be ed9b abbd
00000330: ea65 10be 4ba8 a9be e189 de3c 9ef4 c2bd
00000340: bcc8 1fbe b20e 4cbe c81f 80bd 894d 153d
00000350: 744b 4d3e 6756 92be 50a4 45be 095e ccbe
00000360: 9752 23bd 4bbf eebe 083e 973d 902e 49be
00000370: 041f 833e 26ab 023e a5e8 f33c 347a 57be
00000380: f630 b3be 6d13 a4bd 00fc a4be be3f 8bbe
00000390: d652 07be f376 2bbd 69e0 35be cc12 4bbd
000003a0: ab92 a2be c443 73bd 3001 80be 253c acbe
000003b0: 65a8 86be 7692 d0be 8b5c bebc c055 edbe
000003c0: 366d 2f3e f801 1fbe 11f9 28bf 396f c5be
000003d0: c537 b4be 771f 8bbe a2e6 433c f910 ef3d
000003e0: e080 50bf 3b4b 99be d0fc 5dbe 6081 53be
000003f0: e0e5 62be 6e23 19be d25e 33bf 2c12 813e

lstm.bias_hh_l0 f4 [256]
-0.25817245 -0.27248096 -0.26248127 -0.25984082 -0.0926194 -0.40061206 -0.37079364 0.1292597
-0.16335106 -0.14336121 -0.31737676 -0.15482052 -0.123198345 -0.2771608 -0.02025394 -0.15292268
-0.20989054 -0.18942836 0.026456513 -0.009077981 0.07483041 -0.23945522 -0.25517085 -0.39334333
-0.047334816 -0.32759228 -0.18217726 -0.16363949 0.01721717 0.14468288 -0.13054197 -0.1247576
-0.05856333 -0.313417 -0.24676704 -0.21809036 -0.39109078 -0.07511423 -0.33209872 -0.22091691
-0.20714791 -0.13761526 -0.13682288 -0.1782661 -0.28528062 -0.62963116 -0.27202615 -0.47043267
-0.6010614 -0.18128912 -0.25089234 -0.57153374 -0.14853683 -0.4435227 0.43204308 -0.095770486
-0.8235725 -0.31538883 -0.3040786 -0.29048276 -0.38612387 -0.28797683 -0.6811336 0.22556446
0.073283136 -0.052839752 -0.27039406 0.1052945 0.09366467 -0.03380826 -0.12262011 -0.058158763
-0.106629536 -0.0076776342 -0.044691686 0.091265604 -0.10345454 -0.18347338 -0.15829873 0.034041096
-0.07509868 -0.052747216 -0.20114055 -0.1325559 -0.14929114 -0.16489059 0.08145904 -0.16387333
0.1354527 -0.1136981 0.13461772 0.0953785 0.07730133 -0.27141833 -0.08708516 -0.09918312
-0.21438852 0.0056672595 -0.19187577 0.12747914 -0.03539342 -0.29955548 0.21915036 0.036206268
-0.21206945 -0.20517671 -0.07743519 0.01131729 -0.013177319 -0.29073855 -0.17750868 -0.17062064
0.50834054 -0.0057649803 -0.32650578 -0.29707485 -0.1141781 0.09099819 -0.01029311 -0.053046577
-0.6934781 -0.0499186 -0.13938992 -0.1275878 -0.25145078 -0.019690035 -0.35070184 -0.08384002
-0.1601593 -0.106590524 0.038727358 -0.11368597 0.06505291 -0.14705516 -0.08527221 0.06909047
0.06924696 -0.24982388 0.09170265 0.07034094 0.12259366 -0.002299665 0.121451735 0.12734707
-0.11112019 -0.12043418 -0.13378046 -0.04419129 0.018393172 0.14799182 -0.021069841 -0.07782223
-0.0818159 0.04088739 -0.14795107 0.096877925 0.062388115 0.0667372 -0.02291004 -0.019207677
0.029941613 -0.041665938 0.04523901 0.07361348 -0.044351242 -0.06532291 0.021076648 0.1733244
-0.03707132 -0.017569037 0.00848066 0.1724915 -0.09213986 0.07935198 -0.08782039 0.029244164
-0.24140759 -0.026941942 -0.07418171 0.24631624 0.060228836 0.10335592 0.036060706 0.0056116213
-0.09123304 -0.08687136 -0.026937157 0.0034534323 -0.24584463 0.03646231 0.08191124 -0.10573593
-0.25249493 -0.3907693 -0.20632692 -0.1666748 0.12567437 -0.1904072 -0.41486678 0.2699248
-0.18156318 -0.009557849 -0.19768284 -0.09603717 -0.1409416 -0.20850834 -0.020380104 -0.19930905
-0.11622042 -0.18596734 -0.035644617 0.07071339 0.19829838 -0.2556089 -0.18800652 -0.3265205
0.16687751 -0.41213217 -0.086131044 -0.1826047 0.22633475 0.26192692 0.039704517 -0.22844012
-0.22248614 -0.23533492 -0.3190226 -0.32852378 -0.28530163 -0.08422271 -0.18455607 -0.14592142
-0.3255413 -0.12416994 -0.12251228 -0.43965495 -0.22275735 -0.53787863 -0.033792324 -0.47164854
0.2578713 -0.18169613 -0.52982724 -0.36019653 -0.44002002 -0.12992895 -0.03721482 0.048027422
-0.8198889 -0.40514418 -0.18937518 -0.17423272 -0.35470355 0.023999738 -0.69483936 0.3797022
00000000: 2e2f 84be a082 8bbe f263 86be db09 85be
00000010: 3daf bdbd 061d cdbe aad8 bdbe a85c 043e
00000020: 8045 27be 48cd 12be 357f a2be 4589 1ebe
00000030: 6a4f fcbd 05e8 8dbe 97eb a5bc c397 1cbe
00000040: 8ced 56be 82f9 41be 54bb d83c d0bb 14bc
00000050: b040 993d c033 75be c1a5 82be 4c64 c9be
00000060: 27e2 41bd 2dba a7be ad8c 3abe 1c91 27be
00000070: 060b 8d3c c027 143e cbac 05be ea80 ffbd
00000080: 1ae0 6fbd 3178 a0be 80b0 7cbe 1453 5fbe
00000090: 0d3d c8be 7dd5 99bd d808 aabe 0b38 62be
000000a0: 951e 54be 04eb 0cbe 4c1b 0cbe 638b 36be
000000b0: 4d10 92be 822f 21bf 0347 8bbe 8ddc f0be
000000c0: 29df 19bf dba3 39be f674 80be 0950 12bf
000000d0: 0a1a 18be 6815 e3be c034 dd3e 5123 c4bd
000000e0: a6d5 52bf a57a a1be 31b0 9bbe 28ba 94be
000000f0: 07b2 c5be b371 93be c65e 2ebf 5ffa 663e
00000100: 7815 963d 7f6e 58bd 1771 8abe a5a4 d73d
00000110: 43d3 bf3d 887a 0abd 4120 fbbd e237 6ebd
00000120: 9660 dabd aa94 fbbb a10e 37bd 76e9 ba3d
00000130: f9df d3bd 72e0 3bbe 1019 22be ad6e 0b3d
00000140: 56cd 99bd 770d 58bd caf7 4dbe bcbc 07be
00000150: c7df 18be 14d9 28be ffd3 a63d 69ce 27be
00000160: 1db4 0a3e 8dda e8bd 3ad9 093e ce55 c33d
00000170: 2950 9e3d 58f7 8abe b459 b2bd 8520 cbbd
00000180: aa88 5bbe 6bb4 b93b 157b 44be e489 023e
00000190: b1f8 10bd 565f 99be f468 603e 064d 143d
000001a0: bc28 59be d819 52be 5796 9ebd 286c 393c
000001b0: afe5 57bc afdb 94be d6c4 35be 2db7 2ebe
000001c0: 9b22 023f 29e8 bcbb c42b a7be 321a 98be
000001d0: 35d6 e9bd 425d ba3d 6fa4 28bc 5e47 59bd
000001e0: c887 31bf 7277 4cbd 3bbc 0ebe 60a6 02be
000001f0: 28be 80be ff4c a1bc 318f b3be 51b4 abbd
00000200: cd00 24be 224c dabd 94a0 1e3d 31d4 e8bd
00000210: 763a 853d a195 16be 32a3 aebd 4e7f 8d3d
00000220: 5ad1 8d3d d5d1 7fbe 99ce bb3d e90e 903d
00000230: 6312 fb3d fab5 16bb b0bb f83d 4567 023e
00000240: fb92 e3bd 32a6 f6bd bffd 08be ed01 35bd
00000250: 47ad 963c 2b8b 173e a99a acbc 4361 9fbd
00000260: 188f a7bd 8979 273d 7c80 17be ef67 c63d
00000270: ae8a 7f3d 83ad 883d d6ad bbbc 6b59 9dbc
00000280: 1d48 f53c e7a9 2abd 8a4c 393d aac2 963d
00000290: a6a9 35bd 05c8 85bd efa8 ac3c f47b 313e
000002a0: 19d8 17bd f1ec 8fbc 77f2 0a3c 9da1 303e
000002b0: d3b3 bcbd 4a83 a23d 2ddb b3bd 7591 ef3c
000002c0: 8d33 77be 59b5 dcbc 95ec 97bd 533a 7c3e
000002d0: 83b2 763d 45ac d33d 64b4 133d b1e1 b73b
000002e0: 63d8 babd 9de9 b1bd 50ab dcbc fb52 623b
000002f0: b2be 7bbe 8159 153d 15c1 a73d 148c d8bd
00000300: 0447 81be ea12 c8be 5d47 53be ccac 2abe
00000310: c8b0 003e 1bfa 42be 6b69 d4be 9533 8a3e
00000320: b3eb 39be 8698 1cbc 5f6d 4abe 23af c4bd
00000330: ff52 10be 3683 55be 2df4 a6bc ac17 4cbe
00000340: f904 eebd 396e 3ebe 1700 12bd 2fd2 903d
00000350: bb0e 4b3e 2bdf 82be c884 40be b22d a7be
00000360: f0e1 2a3e fd02 d3be 7965 b0bd bafc 3abe
00000370: 4cc4 673e 491b 863e 34a1 223d 35ec 69be
00000380: 68d3 63be a3fb 70be ee56 a3be 4534 a8be
00000390: 0e13 92be f57c acbd 44fc 3cbe 6d6c 15be
000003a0: 59ad a6be cf4c febd b8e7 fabd 741a e1be
000003b0: 811a 64be 6ab2 09bf d269 0abd eb7b f1be
000003c0: b507 843e 8d0e 3abe c2a2 07bf ae6b b8be
000003d0: 4e4a e1be 180c 05be 916e 18bd 67b8 443d
000003e0: 3de4 51bf 0f6f cfbe 91eb 41be 106a 32be
000003f0: b49b b5be 199b c43c fee0 31bf 5468 c23e

lstm.weight_ih_l1 f4 [256, 64]
-0.10962507 -0.057870254 -0.15403946 0.54473543 -0.06401276 0.08264469 0.042793855 -0.08713549
0.058677517 -0.054857776 0.08782165 0.16635758 -0.020315137 0.23440322 -0.17863844 -0.357094
-0.07795478 0.31457493 0.018225668 -0.16042534 -0.20188461 -0.02542781 -0.3246833 0.0050716563
0.26826644 0.07923894 -0.024607943 -0.25561532 -0.17608935 -0.26719165 -0.030925767 -0.20712966
0.15996228 -0.08101598 0.08573708 0.13381703 0.11087888 0.32339826 0.024810404 0.009173224
0.11727654 -0.033225603 -0.34261075 -0.33959985 0.059346415 -0.0038494593 0.17030059 -0.07600426
-0.16298386 0.16247308 0.38896188 -0.34112015 0.12861896 -0.5035103 0.34457275 -0.0044025662
0.12825476 0.14410302 0.1669973 -0.60964626 -0.057831027 -0.13180786 0.16499086 -0.013943974
-0.05411107 0.1289484 -0.089995414 0.41308758 -0.030719642 0.04685018 -0.025113514 -0.12465289
0.08767493 -0.13458732 -0.26460478 0.21247688 -0.06660719 0.047648564 -0.1455679 -0.18949978
-0.18427834 0.13563676 -0.24391928 0.16167001 -0.36723417 0.1946892 -0.14389095 0.060254432
0.0899242 0.20160119 -0.06515985 -0.24199744 -0.07229773 0.14024734 0.13791971 -0.25208336
-0.12340881 -0.0040433123 0.12466887 0.06870237 0.26632142 -0.10252884 0.03365985 0.1145546
0.0348872 -0.32086456 0.22930337 -0.36092633 0.14996849 0.08181189 0.1259099 0.035581015
0.03758344 0.018320223 0.041619755 0.01390532 0.15813424 0.14670385 0.262057 -0.038790733
-0.040038787 -0.24755703 0.22557692 -0.37421083 0.09188262 -0.24745537 0.06333093 0.19258909
0.1767115 -0.31637093 -0.22193988 -0.022731258 0.11323484 0.07309677 0.12142759 0.089943
0.0220651 -0.041145504 0.26149446 -0.19707248 -0.20627576 -0.010578524 -0.28226057 -0.083607174
0.19679378 0.022756802 -0.038601227 0.024193678 -0.13130939 -0.09884284 -0.24353643 0.13725612
-0.21677172 -0.3743504 0.074745916 -0.09576423 -0.13533999 -0.06598737 -0.07533904 0.027855637
0.23548526 -0.1334685 0.006535292 -0.029423824 -0.05891802 0.08168705 -0.009596589 0.02256502
0.18021004 0.15278457 0.17801712 0.121691294 0.12980026 -0.074108124 -0.21197022 -0.057482276
0.081644446 -0.07032828 0.27307194 -0.03922411 -0.0013540224 0.106915355 0.015489444 0.01873487
-0.044639617 0.044371035 -0.17258757 0.20325401 0.12272557 -0.011101582 0.02452056 -0.25301686
-0.009070841 -0.18843049 -0.23627973 -0.05297657 0.1780765 0.07008583 -0.023492884 0.36439875
0.18890707 0.028582862 0.619417 -0.045300752 -0.1417397 -0.2120617 -0.2788872 -0.15008451
0.08901543 -0.11557325 -0.0064108227 -0.1652671 -0.016054042 -0.27319565 -0.116535515 0.16890876
-0.10598534 -0.33170158 0.17561139 0.14941332 -0.036044464 -0.20820677 -0.085749805 0.12783703
0.23671393 -0.04517787 -0.013963789 -0.033573847 0.03163734 0.31395128 0.1253631 -0.12297453
0.3803215 0.110024214 0.028743744 0.107092895 0.0968059 -0.007921924 0.00259026 -0.04585487
-0.048875086 -0.36240083 -0.122727424 -0.016226081 -0.15627976 -0.1529703 -0.16662708 -0.0026586505
0.14850393 0.103637725 -0.1495954 0.10220061 0.09284933 0.051119633 -0.16826046 -0.19181655
00000000: 1c83 e0bd 5c09 6dbd 85bc 1dbe c873 0b3f
00000010: 1f19 83bd 9f41 a93d 9c48 2f3d 1774 b2bd
00000020: d657 703d 8cb2 60bd d6db b33d a459 2a3e
00000030: ee6b a6bc 6607 703e ffec 36be 06d5 b6be
00000040: c1a6 9fbd f70f a13e ff4d 953c 8a46 24be
00000050: d7ba 4ebe fc4d d0bc e43c a6be 2330 a63b
00000060: 385a 893e 0648 a23d 9996 c9bc 03e0 82be
00000070: c450 34be 58cd 88be 0958 fdbc cc19 54be
00000080: 27cd 233e b5eb a5bd ec96 af3d 5507 093e
00000090: 7714 e33d 7594 a53e 303f cb3c 4a4b 163c
000000a0: af2e f03d 9217 08bd ad6a afbe 08e0 adbe
000000b0: 3a15 733d 3647 7cbb 4763 2e3e 1fa8 9bbd
000000c0: 3ee5 26be 585f 263e 0326 c73e 4da7 aebe
000000d0: b0b4 033e 0de6 00bf d76b b03e 6743 90bb
000000e0: 3755 033e be8f 133e 5701 2b3e c711 1cbf
000000f0: 3ae0 6cbd a4f8 06be 5df3 283e 4475 64bc
00000100: 92a3 5dbd 0d0b 043e 844f b8bd 3780 d33e
00000110: c2a7 fbbc f9e5 3f3d dbba cdbc 044a ffbd
00000120: ea8e b33d 42d1 09be 477a 87be 8a93 593e
00000130: 5a69 88bd 242b 433d c00f 15be 3b0c 42be
00000140: 76b3 3cbe 5de4 0a3e fac5 79be d38c 253e
00000150: 1e06 bcbe 9b5c 473e 2658 13be 5acd 763d
00000160: 2e2a b83d 8b70 4e3e 8772 85bd 2dce 77be
00000170: d510 94bd 009d 0f3e d33a 0d3e 1211 81be
00000180: c2bd fcbd c37d 84bb 6452 ff3d d4b3 8c3d
00000190: 485b 883e a4fa d1bd e9de 093d 9a9b ea3d
000001a0: e1e5 0e3d 5c48 a4be 81ce 6a3e 56cb b8be
000001b0: 5791 193e fe8c a73d 86ee 003e 66bd 113d
000001c0: 18f1 193d 4b14 963c 7a79 2a3d 24d3 633c
000001d0: f1ed 213e 8939 163e 562c 863e 08e3 1ebd
000001e0: b6ff 23bd 977f 7dbe a3fd 663e 9098 bfbe
000001f0: f42c bc3d f164 7dbe a6b3 813d 1336 453e
00000200: dcf3 343e 5ffb a1be 3544 63be e736 babc
00000210: abe7 e73d c2b3 953d 07af f83d 0934 b83d
00000220: dec1 b43c 3088 28bd 9ae2 853e 5ecd 49be
00000230: f439 53be 8c51 2dbc 7584 90be 3d3a abbd
00000240: 4f84 493e 796c ba3c 521c 1ebd d231 c63c
00000250: f875 06be 1d6e cabd 9d61 79be de8c 0c3e
00000260: 68f9 5dbe dbaa bfbe 6314 993d 0920 c4bd
00000270: 9196 0abe 6324 87bd 5b4b 9abd 8131 e43c
00000280: 0c23 713e f7ab 08be 0126 d63b 3b0a f1bc
00000290: 0654 71bd 8a4b a73d 033b 1dbc 47da b83c
000002a0: fb88 383e 8f73 1c3e 1f4a 363e 4939 f93d
000002b0: 5cea 043e 00c6 97bd b90e 59be 8972 6bbd
000002c0: 3435 a73d 4608 90bd 16d0 8b3e 76a9 20bd
000002d0: 7479 b1ba 70f6 da3d 70c7 7d3c df79 993c
000002e0: 08d8 36bd 67be 353d ccba 30be d221 503e
000002f0: 8b57 fb3d 69e3 35bc 57df c83c 6d8b 81be
00000300: dd9d 14bc ecf3 40be 50f3 71be f6fd 58bd
00000310: b059 363e 2989 8f3d 2674 c0bc 7992 ba3e
00000320: db70 413e 9b26 ea3c 1d92 1e3f 488d 39bd
00000330: 3624 11be b426 59be 4eca 8ebe c1af 19be
00000340: b94d b63d abb1 ecbd e111 d2bb c73b 29be
00000350: c483 83bc 4de0 8bbe 2caa eebd 6bf6 2c3e
00000360: d80e d9bd cad4 a9be 79d3 333e ceff 183e
00000370: 5ca3 13bd 2834 55be 989d afbd b6e7 023e
00000380: 2365 723e 6e0c 39bd 60c8 64bc bb84 09bd
00000390: 2896 013d 39be a03e 2f5f 003e 12da fbbd
000003a0: 80b9 c23e 6054 e13d 0078 eb3c 8553 db3d
000003b0: 2c42 c63d f5ca 01bc 5ac1 293b 51d2 3bbd
000003c0: 3e31 48bd 9a8c b9be 8458 fbbd 8fec 84bc
000003d0: cd07 20be 3fa4 1cbe 4aa0 2abe c13c 2ebb
000003e0: 6a11 183e 0440 d43d 892f 19be 8e4e d13d
000003f0: ca27 be3d d262 513d 784c 2cbe 8f6b 44be

lstm.weight_hh_l1 f4 [256, 64]
-0.07575432 0.28678486 -0.008924434 0.38885865 -0.120378405 0.19743091 -0.050103545 -0.056954842
-0.09427343 0.05392362 0.30083445 0.028965324 0.011669137 -0.104962006 0.06779682 -0.00043410662
0.13214605 0.17437156 -0.0033272135 0.051076032 0.17295998 -0.05504613 0.03371059 -0.049219172
-0.08320516 -0.14464067 -0.07796358 -0.10417305 0.037969343 -0.22066888 -0.2528942 0.06447194
-0.11375528 0.014953511 0.15800768 -0.2813283 -0.121286854 0.17114542 0.10265121 -0.19295353
0.16215461 -0.103565894 -0.0030574806 0.13195516 0.112934396 -0.034358248 0.029961437 0.016953837
0.010736197 0.1265757 -0.116586655 0.02191162 -0.17727476 0.19324836 0.043851458 -0.21989027
0.14528832 0.07853575 -0.018303916 -0.07558069 0.15583731 -0.24641524 -0.089360446 0.017318796
-0.084831215 0.1241517 -0.17266983 -0.10252024 0.027771248 0.043315586 0.06007831 -0.067487024
-0.307511 0.02904184 0.035545 0.26234433 -0.003409127 0.1274583 0.16909558 0.10453332
0.16151956 0.008973869 0.051867027 -0.060481768 0.09451146 -0.0989585 0.15423845 0.10958608
0.06478972 -0.05360389 0.0692513 0.123454615 -0.14952643 0.031375308 -0.06412395 0.12060772
-0.046092365 0.048331086 -0.018122656 -0.08204211 0.1393023 0.019144224 0.17276977 0.15308608
-0.07484505 0.00881869 -0.054286864 0.060635448 -0.09913453 -0.08971061 0.06397725 -0.030628912
0.0945722 -0.06053257 -0.0416703 0.052923184 0.04046874 0.05232456 -0.122390054 -0.067343734
0.12729004 0.17253247 0.057625726 -0.08083778 0.077161714 -0.19526705 0.14019293 -0.06828153
0.19575787 -0.110768765 -0.030249394 -0.20304728 0.21799275 0.012896245 0.035992056 0.033761177
0.014371799 -0.0506182 -0.10366683 0.08918306 0.09006914 0.10319278 -0.3638909 0.06699962
-0.19193785 -0.03905338 0.030154115 0.19937675 0.020282427 -0.06459999 0.00012110251 0.20050149
-0.26022306 0.14338973 0.19469452 0.026193837 -0.073424116 0.1543411 0.1501541 -0.101843536
-0.19472347 -0.243603 -0.14816882 0.0070704105 0.113319874 -0.1568007 -0.036695395 0.22458348
-0.14157365 0.13944758 -0.16972265 0.055700496 -0.025384696 -0.017158147 0.054474078 0.030301815
0.21534427 -0.0254505 0.11701911 0.17890881 0.06237537 -0.13902315 -0.08597486 0.056937054
0.12368011 -0.02745654 0.06665918 -0.07450728 -0.14818431 0.17577381 -0.014129552 -0.009751665
0.018761367 0.08919973 0.14364526 -0.24724035 -0.0033447396 0.006135776 -0.09650662 0.05072423
0.2360751 0.15009673 -0.25199836 -0.042414963 0.010223835 0.0027447937 -0.3549973 -0.048674874
-0.014441633 -0.00046505185 0.20094018 0.21506669 0.19322042 -0.22639564 0.029349372 0.16572468
-0.1148144 0.20444454 0.11592991 -0.0064368774 -0.16133735 0.25412974 -0.07139944 -0.20840335
-0.2823175 -0.2971447 -0.025106722 0.19194634 0.08548538 0.073165834 0.09932788 0.18537863
-0.0015343416 -0.045664642 -0.12454525 -0.050957717 0.15191449 0.115547664 -0.032189444 -0.20987992
-0.09809736 -0.1856991 0.35742822 0.44700482 -0.014307978 0.0944592 -0.14816473 0.42677158
0.16289918 -0.2150658 -0.04424051 0.06519039 -0.01813147 0.32400322 0.038969636 -0.059602443
00000000: 1525 9bbd 77d5 923e ca37 12bc 7b18 c73e
00000010: f488 f6bd 542b 4a3e 6039 4dbd 7b49 69bd
00000020: 6e12 c1bd 04df 5c3d f906 9a3e b048 ed3c
00000030: e82f 3f3c 52f6 d6bd 0fd9 8a3d ce98 e3b9
00000040: 4b51 073e 758e 323e 610d 5abb 1a35 513d
00000050: 6c1c 313e 0d78 61bd 1e14 0a3d 0b9a 49bd
00000060: 7867 aabd af1c 14be 5fab 9fbd ae58 d5bd
00000070: be85 1b3d 06f7 61be 597b 81be dd09 843d
00000080: 87f8 e8bd 92ff 743c c4cc 213e 430a 90be
00000090: 3e65 f8bd bf40 2f3e cc3a d23d 9c95 45be
000000a0: dc0b 263e 5b1a d4bd 0360 48bb 411f 073e
000000b0: 264a e73d 3cbb 0cbd b071 f53c c6e2 8a3c
000000c0: e0e6 2f3c 0f9d 013e fcc4 eebd ff7f b33c
000000d0: 8487 35be e6e2 453e 969d 333d ea2a 61be
000000e0: 76c6 143e 5ad7 a03d 18f2 95bc 0cca 9abd
000000f0: d193 1f3e 4754 7cbe 9c02 b7bd 26e0 8d3c
00000100: fdbb adbd 3f43 fe3d 5cd0 30be 22f6 d1bd
00000110: 8780 e33c af6b 313d ad14 763d a336 8abd
00000120: 1572 9dbe 27e9 ed3c a297 113d ff51 863e
00000130: a96b 5fbb 6e84 023e 6427 2d3e 9115 d63d
00000140: 6265 253e 2207 133c 8572 543d bbbb 77bd
00000150: 398f c13d c1aa cabd aff0 1d3e ab6e e03d
00000160: 79b0 843d c18f 5bbd a0d3 8d3d c6d5 fc3d
00000170: 751d 19be 6583 003d 6b53 83bd 2e01 f73d
00000180: 59cb 3cbd d1f6 453d f775 94bc b205 a8bd
00000190: 43a5 0e3e 59d4 9c3c 8fea 303e 99c2 1c3e
000001a0: 5d48 99bd 447c 103c e75b 5ebd e05c 783d
000001b0: 0b07 cbbd 32ba b7bd 8106 833d 7ce9 fabc
000001c0: 12af c13d 00f1 77bd 7aae 2abd fbc5 583d
000001d0: 8dc2 253d 4752 563d a3a7 fabd 83eb 89bd
000001e0: 5258 023e 5aac 303e f408 6c3d 478e a5bd
000001f0: f606 9e3d 16f4 47be bc8e 0f3e 30d7 8bbd
00000200: c074 483e bcda e2bd 94cd f7bc a0eb 4fbe
00000210: 7e39 5f3e c64a 533c 686c 133d 2949 0a3d
00000220: b277 6b3c 0855 4fbd 464f d4bd 9ca5 b63d
00000230: 2b76 b83d bc56 d33d e84f babe 1937 893d
00000240: 5b8b 44be 70f6 1fbd c305 f73c 6b29 4c3e
00000250: 5527 a63c 004d 84bd 6af8 fd38 4350 4d3e
00000260: f53b 85be c2d4 123e 005e 473e 7594 d63c
00000270: 625f 96bd 980b 1e3e ffc1 193e 5893 d0bd
00000280: 9765 47be 1173 79be 91b9 17be e7ae e73b
00000290: 4014 e83d 5d90 20be e94d 16bd 36f9 653e
000002a0: aff8 10be 59cb 0e3e c6cb 2dbe 3426 643d
000002b0: 91f3 cfbc 3e8f 8cbc 3620 5f3d 833b f83c
000002c0: 3583 5c3e 917d d0bc b7a7 ef3d df33 373e
000002d0: 517d 7f3d 165c 0ebe 9613 b0bd d436 693d
000002e0: ff4b fd3d 8aec e0bc 9c84 883d 4697 98bd
000002f0: a1bd 17be 0dfe 333e a37f 67bc 73c5 1fbc
00000300: 70b1 993c 59ae b63d be17 133e 932c 7dbe
00000310: 6b33 5bbb 9f0e c93b 43a5 c5bd 36c4 4f3d
00000320: acbd 713e f5b2 193e ee05 81be 50bb 2dbd
00000330: df81 273c ffe1 333b 35c2 b5be 4e5f 47bd
00000340: 999c 6cbc 34d2 f3b9 43c3 4d3e 713a 5c3e
00000350: 93db 453e 42d4 67be 186e f03c bbb3 293e
00000360: d023 ebbd e959 513e a96c ed3d 71ec d2bb
00000370: 9e35 25be 4b1d 823e df39 92bd b067 55be
00000380: eb8b 90be 5a23 98be 9dac cdbc 958d 443e
00000390: f512 af3d f8d7 953d 6a6c cb3d e5d3 3d3e
000003a0: f61b c9ba d90a 3bbd 9411 ffbd 0ab9 50bd
000003b0: 798f 1b3e 41a4 ec3d 14d9 03bd c3ea 56be
000003c0: 45e7 c8bd e827 3ebe d500 b73e d1dd e43e
000003d0: 026c 6abc d373 c13d 7fb8 17be ce81 da3e
000003e0: 0bcf 263e 363a 5cbe 8935 35bd 8a82 853d
000003f0: 7388 94bc c0e3 a53e a09e 1f3d b121 74bd

lstm.bias_ih_l1 f4 [256]
-0.7504902 -0.37862346 -0.1746252 0.050897975 -0.607964 -0.45504615 -0.018946324 -0.36329937
-0.36968058 0.03297718 -0.01197296 -0.38852316 -0.015676124 -0.6926338 -0.679225 0.06613968
-0.617964 0.29531038 -0.27385432 -0.23161845 -0.3374977 0.054532014 -0.24024011 -0.18019958
-0.76323116 -0.32156196 -0.07533784 -0.949402 -0.032042664 -0.3466978 -0.48704776 -0.043366343
-1.0313517 -0.87446713 -1.110421 -0.15557969 -0.64885026 -0.5587855 0.038337354 -0.094247274
-0.20007491 -1.1595485 -0.22409526 -1.1221411 -0.47878435 -0.25172183 0.0902012 -0.38079792
-0.36282262 -0.329822 -0.28889823 0.10390881 -0.092320494 0.05935233 -0.21629415 0.026196219
-0.566653 -0.149259 -0.42303044 -0.6761137 0.008082901 -0.045951713 -0.35203165 -0.9327298
-0.81141776 -0.19799204 0.16087084 0.0015734769 -0.38555625 -0.27209932 0.11612536 -0.27133283
-0.39153495 0.1031779 -0.02417243 -0.18424444 0.27422002 -0.29643166 -0.56127965 0.10077294
-0.388645 -0.036863737 0.084243506 -0.14181873 -0.0095410105 -0.05853628 0.0212876 0.20270944
-0.53400046 -0.033096172 -0.14813618 -0.7131226 -0.19001858 0.020275326 -0.22527908 -0.018018926
-0.87588644 -0.68007344 -0.68862075 -0.119971275 -0.16722472 -0.17682314 0.09779479 0.019045662
-0.024785113 -0.97127485 -0.027658455 -0.88255733 -0.37964848 0.11675766 0.002435075 0.07525761
-0.18941443 -0.17587095 -0.118034266 0.16768701 0.041369412 -0.017886985 0.047710694 -0.031066386
-0.43974388 0.007702636 -0.16572505 -0.39609239 -0.17804384 0.024543438 -0.12618157 -0.724349
-0.06381042 -0.044255357 0.056751136 0.08212081 0.090481274 0.008162062 0.10966388 0.019503707
0.011550424 0.005896762 -0.039834123 0.07993448 0.10164386 -0.08734772 -0.029703094 -0.010757085
-0.032431975 -0.0348761 -0.06575189 -0.05963206 0.02579873 0.031225903 0.034017812 0.013058996
0.12995267 0.021105297 -0.055436064 0.08931623 -0.029448882 -0.09064781 -0.05603439 0.031142134
0.0015417502 -0.011618024 -0.025332613 -0.014708656 0.008168233 -0.039299425 0.031657744 0.027701681
0.071658015 0.0691142 -0.02940769 -0.023110181 0.058585778 -0.0039655585 -0.06521984 0.12111018
-0.034547385 -0.0776994 0.032530606 -0.12849744 -0.061420806 -0.030817833 0.0036920873 0.040175784
-0.026443044 -0.06395959 0.0550299 0.040692963 -0.046287075 -0.08511511 -0.11304593 0.065772094
-0.67871046 -0.5124063 -0.021928672 0.12938967 -0.8145613 -0.5745092 -0.028399354 -0.5052494
-0.33435005 -0.095505945 -0.1631585 -0.535271 0.042188466 -0.6597815 -0.68902904 -0.08574661
-0.5130855 0.29877976 -0.293471 -0.21400528 -0.33454132 0.013850749 -0.3453093 -0.10262135
-0.8114073 -0.25199637 -0.14283909 -0.9911243 -0.30637345 -0.1628355 -0.67794144 -0.14635824
-0.9268458 -0.98537683 -1.0170898 -0.016295636 -0.6159759 -0.4667832 0.06195448 0.015651258
0.016124727 -1.1111146 -0.25910786 -1.1632099 -0.6421493 -0.04789656 0.13928418 -0.19645566
-0.41409567 -0.4071585 -0.23642282 0.124777146 0.090517566 0.1803679 -0.04670448 -0.15804707
-0.6493008 -0.27285653 -0.26824626 -0.61032516 -0.1730146 -0.1752913 -0.35531655 -0.9951095
00000000: 2020 40bf efda c1be f3d0 32be 657a 503d
00000010: 87a3 1bbf cffb e8be 5235 9bbc 6002 babe
00000020: c646 bdbe 1413 073d 3c2a 44bc 82ec c6be
00000030: 376b 80bc 7350 31bf b1e1 2dbf 3e74 873d
00000040: e432 1ebf ec32 973e a236 8cbe 632d 6dbe
00000050: 80cc acbe f65c 5f3d 8101 76be 3d86 38be
00000060: 1e63 43bf c5a3 a4be ba4a 9abd 020c 73bf
00000070: 2b3f 03bd 6082 b1be 535e f9be e8a0 31bd
00000080: 5503 84bf 14dd 5fbf 4622 8ebf 4850 1fbe
00000090: 0d1b 26bf 910c 0fbf a107 1d3d b704 c1bd
000000a0: 70e0 4cbe 166c 94bf 3a79 65be 52a2 8fbf
000000b0: 3923 f5be afe1 80be 68bb b83d f2f7 c2be
000000c0: e3c3 b9be 6ede a8be 78ea 93be 24ce d43d
000000d0: 8712 bdbd 6e1b 733d 377c 5dbe 7499 d63c
000000e0: 2c10 11bf 5ad7 18be 7297 d8be ca15 2dbf
000000f0: 256e 043c dd37 3cbd 7e3d b4be 61c7 6ebf
00000100: 13b9 4fbf 6dbe 4abe 53bb 243e 203d ce3a
00000110: a167 c5be 9a50 8bbe 22d3 ed3d 23ec 8abe
00000120: 4577 c8be ef4e d33d 4305 c6bc 93aa 3cbe
00000130: 9166 8c3e e4c5 97be 06b0 0fbf 0b62 ce3d
00000140: 7afc c6be 6efe 16bd dc87 ac3d ee38 11be
00000150: e651 1cbc bdc3 6fbd 5563 ae3c 1093 4f3e
00000160: 41b4 08bf da8f 07bd 03b1 17be 348f 36bf
00000170: 3b94 42be 7118 a63c 8faf 66be 6d9c 93bc
00000180: 183a 60bf 4b19 2ebf 7349 30bf 80b3 f5bd
00000190: f53c 2bbe 2011 35be a348 c83d a605 9c3c
000001a0: 260a cbbc 78a5 78bf fc93 e2bc 47ef 61bf
000001b0: 4961 c2be a41e ef3d c795 1f3b a920 9a3d
000001c0: dbf5 41be 8417 34be f3bb f1bd 25b6 2b3e
000001d0: f972 293d ba87 92bc 4a6c 433d ef7e febc
000001e0: 1c26 e1be 6566 fc3b d4b3 29be 9fcc cabe
000001f0: 2051 36be 520f c93c be35 01be f06e 39bf
00000200: 0aaf 82bd 1b45 35bd e173 683d f52e a83d
00000210: 3f4e b93d 2bba 053c 7597 e03d 3dc6 9f3c
00000220: fd3d 3d3c a039 c13b 1b29 23bd b0b4 a33d
00000230: a82a d03d 5de3 b2bd e753 f3bc 7c3e 30bc
00000240: 64d7 04bd 3eda 0ebd eda8 86bd bf40 74bd
00000250: dc57 d33c 77cd ff3c 4356 0b3d 66f5 553c
00000260: 5012 053e 04e5 ac3c ed10 63bd 6deb b63d
00000270: c83e f1bc 8fa5 b9bd 5184 65bd ca1d ff3c
00000280: 8d14 ca3a 8659 3ebc 5786 cfbc 93fc 70bc
00000290: 0dd4 053c 6ff8 20bd 8dab 013d a3ee e23c
000002a0: 70c1 923d bf8b 8d3d 65e8 f0bc 9051 bdbc
000002b0: a4f7 6f3d 84f1 81bb fb91 85bd 9d08 f83d
000002c0: 8f81 0dbd dd20 9fbd d03e 053d d594 03be
000002d0: 6294 7bbd ae75 fcbc f2f6 713b 5d8f 243d
000002e0: 159f d8bc 3ffd 82bd 0867 613d aaad 263d
000002f0: 8497 3dbd d550 aebd a084 e7bd 85b3 863d
00000300: f8bf 2dbf 0f2d 03bf c2a3 b3bc ba7e 043e
00000310: 1787 50bf 0913 13bf c3a5 e8bc 0658 01bf
00000320: ee2f abbe 9f98 c3bd 0613 27be 8507 09bf
00000330: d0cd 2c3d 71e7 28bf 3564 30bf eb9b afbd
00000340: 9259 03bf a9f9 983e d541 96be 3324 5bbe
00000350: 0049 abbe 40ee 623c 61cc b0be 242b d2bd
00000360: 64b8 4fbf ab05 81be 6944 12be 52ba 7dbf
00000370: fbdc 9cbe 59be 26be 928d 2dbf efde 15be
00000380: c445 6dbf a841 7cbf 0030 82bf 6d7e 85bc
00000390: 99b0 1dbf 35fe eebe fbc3 7d3d 1137 803c
000003a0: 0118 843c 0139 8ebf c9a9 84be 10e4 94bf
000003b0: e663 24bf 2f2f 44bd 83a0 0e3e ac2b 49be
000003c0: 5904 d4be 1477 d0be d318 72be 298b ff3d
000003d0: 4661 b93d 5db2 383e 324d 3fbd 17d7 21be
000003e0: 9438 26bf dab3 8bbe 9357 89be 453e 1cbf
000003f0: bd2a 31be 907f 33be 0dec b5be 7fbf 7ebf

lstm.bias_hh_l1 f4 [256]
-0.77218115 -0.4136719 0.07245268 0.0051839366 -0.7683282 -0.55209506 -0.038437746 -0.31255352
-0.40411553 0.013968513 -0.02051031 -0.385052 -0.027327782 -0.5716026 -0.6641095 0.011122307
-0.66059154 0.35028225 -0.34508735 -0.19204134 -0.27566472 -0.084810995 -0.18091291 -0.17752339
-0.73620075 -0.26719353 -0.21880795 -0.890463 -0.16482753 -0.27781588 -0.49522892 -0.12139543
-1.033441 -0.97928727 -1.2171165 -0.2528327 -0.46689197 -0.33765072 -0.07709587 0.06797208
-0.13994052 -1.1387626 -0.3200101 -1.0275692 -0.5829492 -0.04541519 -0.0067113466 -0.17830995
-0.31563172 -0.44254428 -0.34928533 0.08187739 -0.021490566 -0.046529267 -0.21993436 -0.027778313
-0.45857173 -0.284403 -0.3217448 -0.66231185 -0.10578575 -0.006913096 -0.33324772 -0.948432
-0.76397973 -0.34264573 -0.049245358 -0.12032013 -0.338506 -0.22575171 -0.011403931 -0.0937137
-0.41214636 0.15568814 -0.08494657 -0.26580006 0.20974666 -0.5082873 -0.71267545 0.025467766
-0.3264538 0.104177035 0.07086097 -0.044813313 -0.17406558 0.04097274 -0.019131517 0.06661862
-0.5639677 -0.1986381 -0.0884851 -0.6146145 -0.01689731 -0.044653922 -0.38040388 -0.13712221
-0.7254408 -0.49962047 -0.75088996 0.08039022 -0.35324243 -0.31499076 0.16597474 0.08422819
0.028966645 -0.83133185 -0.21113336 -0.69371516 -0.21919227 0.1900059 -0.02853686 -0.091545664
-0.2872473 -0.2802146 -0.03692886 0.064022064 0.17332649 0.06774843 -0.1106236 0.10237898
-0.32392865 -0.15314442 -0.13979681 -0.4107532 -0.074689895 0.057223707 -0.09953886 -0.814649
0.07309762 -0.0044710953 -0.09907806 -0.07004965 -0.073870935 -0.04774038 -0.015432398 -0.008110146
-0.017790424 0.08290337 0.050810467 -0.09122609 -0.048673015 0.10448064 -0.018790238 -0.0574813
-0.012939817 0.0088247415 0.010289246 0.002051811 -0.062544465 0.087762624 -0.110502824 -0.19702297
-0.10148871 0.024088154 0.08336315 -0.102324866 -0.006289262 0.08528395 0.06420587 -0.072097644
0.048568208 -0.016910167 0.008845943 0.032136098 0.008731643 -0.013727158 -0.07050809 0.028606592
0.1331804 -0.12191753 0.028853351 0.022035481 -0.021860348 0.106672496 0.045861818 -0.026727747
0.012003755 0.047270644 -0.084825605 0.038227443 0.048207693 -0.056424484 0.07717475 0.10543461
-0.0019399787 0.06429631 -0.025702894 -0.061916668 0.14844541 0.060740698 0.06708201 -0.057766132
-0.6935245 -0.39256826 0.032812204 0.26231503 -0.8142229 -0.5511322 -0.077616006 -0.37936214
-0.26222965 -0.074499674 0.0029462113 -0.4245394 0.028704867 -0.6544477 -0.84146637 -0.11339614
-0.5331286 0.14507496 -0.2632297 -0.15964209 -0.2948904 0.13252531 -0.16679563 -0.017365437
-0.8139894 -0.23167397 -0.23094143 -0.8810679 -0.23083925 -0.24409413 -0.6016298 -0.2216703
-1.0647458 -0.9455818 -1.0375798 -0.20998569 -0.64983106 -0.480022 0.018065626 0.18112653
-0.039673142 -1.2240275 -0.2188298 -1.0996941 -0.6184542 -0.039082717 0.12599929 -0.27177173
-0.3655449 -0.22819002 -0.40674433 0.08979399 -0.0067652324 0.19526194 0.039665725 -0.089852914
-0.45755085 -0.13947153 -0.2500343 -0.572513 -0.1544076 -0.028428571 -0.1492969 -0.8400544
00000000: aaad 45bf cecc d3be 1262 943d 03de a93b
00000010: 28b1 44bf 1a56 0dbf e670 1dbd 0407 a0be
00000020: 3be8 cebe 31dc 643c 3d05 a8bc 8925 c5be
00000030: 83de dfbc 8c54 12bf 1503 2abf 563a 363c
00000040: 871c 29bf 3258 b33e 4aaf b0be 7ca6 44be
00000050: ed23 8dbe 63b1 adbd 3c41 39be b1c8 35be
00000060: a777 3cbf 97cd 88be 310f 60be 62f5 63bf
00000070: 8cc8 28be e23d 8ebe a58e fdbe 2b9e f8bd
00000080: cb47 84bf 92b2 7abf 79ca 9bbf 4a73 81be
00000090: 770c efbe 8ee0 acbe 71e4 9dbd f234 8b3d
000000a0: 914c 0fbe f9c2 91bf 5dd8 a3be 6387 83bf
000000b0: 293c 15bf 4705 3abd dbea dbbb e296 36be
000000c0: 7b9a a1be 2a95 e2be 87d5 b2be 55af a73d
000000d0: fc0c b0bc 7995 3ebd 7936 61be 588f e3bc
000000e0: eac9 eabe 459d 91be bcbb a4be 458d 29bf
000000f0: 33a6 d8bd 4187 e2bb 729f aabe 71cc 72bf
00000100: 2d94 43bf 436f afbe 80b5 49bd 666a f6bd
00000110: a950 adbe 752b 67be 8ed7 3abc f8ec bfbd
00000120: d904 d3be b66c 1f3e 78f8 adbd f216 88be
00000130: d4c7 563e 1e1f 02bf e671 36bf c7a1 d03c
00000140: f424 a7be c55a d53d 8e1f 913d 2a8e 37bd
00000150: 3f3e 32be 08d3 273d b3b9 9cbc 586f 883d
00000160: 3060 10bf c967 4bbe ad37 b5bd 6057 1dbf
00000170: 3a6c 8abc 08e7 36bd 4cc4 c2be c469 0cbe
00000180: 7db6 39bf 41ce ffbe 533a 40bf a1a3 a43d
00000190: 31dc b4be 7846 a1be 48f5 293e d47f ac3d
000001a0: 754b ed3c 2ad2 54bf 5833 58be 5197 31bf
000001b0: f073 60be e890 423e 22c6 e9bc 4b7c bbbd
000001c0: 1412 93be 4a78 8fbe b742 17bd 001e 833d
000001d0: 807c 313e b0bf 8a3d a08e e2bd 12ac d13d
000001e0: fad9 a5be e4d1 1cbe e526 0fbe 3e4e d2be
000001f0: 04f7 98bd 6863 6a3d 08db cbbd d68c 50bf
00000200: 34b4 953d 4482 92bb 70e9 cabd 3176 8fbd
00000210: a549 97bd 6b8b 43bd 2bd8 7cbc 6be0 04bc
00000220: 39bd 91bc 3ec9 a93d a31e 503d bfd4 babd
00000230: 5b5d 47bd f2f9 d53d fced 99bc 8371 6bbd
00000240: 8701 54bc a695 103c 3a94 283c ad77 063b
00000250: 5017 80bd e4bc b33d 4e4f e2bd 64c0 49be
00000260: 50d9 cfbd 8554 c53c 4dba aa3d b38f d1bd
00000270: 2716 cebb 5aa9 ae3d 5e7e 833d eea7 93bd
00000280: 75ef 463d 3187 8abc 93ee 103c 24a1 033d
00000290: 2a0f 0f3c e0e7 60bc 8c66 90bd 5f58 ea3c
000002a0: 7160 083e e6af f9bd dd5d ec3c c183 b43c
000002b0: 7914 b3bc 1c77 da3d 9ad9 3b3d 26f4 dabc
000002c0: 66ab 443c dd9e 413d 0cb9 adbd 6194 1c3d
000002d0: 6e75 453d 5c1d 67bd cc0d 9e3d 1aee d73d
000002e0: e246 feba c9ad 833d e08e d2bc 559c 7dbd
000002f0: 1302 183e 3dcb 783d 4b62 893d 2e9c 6cbd
00000300: d28a 31bf b5fe c8be 1766 063d 284e 863e
00000310: e970 50bf 0017 0dbf 24f5 9ebd c13b c2be
00000320: f742 86be 4993 98bd 3915 413b 3a5d d9be
00000330: 7826 eb3c e289 27bf 576a 57bf 3c3c e8bd
00000340: 1e7b 08bf 888e 143e 0bc6 86be 3779 23be
00000350: e0fb 96be b7b4 073e 79cc 2abe f641 8ebc
00000360: 9c61 50bf f13b 6dbe e97b 6cbe aa8d 61bf
00000370: 2061 6cbe d0f3 79be 6904 1abf 8afd 62be
00000380: 9749 88bf a611 72bf 6acf 84bf 7d06 57be
00000390: 545b 26bf 72c5 f5be 5dfe 933c 3c79 393e
000003a0: 4e80 22bd efac 9cbf eb14 60be c7c2 8cbf
000003b0: 0453 1ebf 3315 20bd f505 013e aa25 8bbe
000003c0: b328 bbbe a5aa 69be cb40 d0be e9e5 b73d
000003d0: e2ae ddbb bff2 473e 8778 223d ce04 b8bd
000003e0: 1b44 eabe a0d1 0ebe 7f04 80be 3690 12bf
000003f0: 071d 1ebe 09e3 e8bc 49e1 18be ce0d 57bf
