backend/Model_Pytorch/RNN_Model/checkpoints/best_checkpoint.pth (torch, 672347 bytes, 27 tensors)

lstm.weight_ih_l0 f4 [256, 19]
000000 72 e2 d5 bd 62 2e 04 be de 52 21 be ac c3 1d bd
       -0.10443582 -0.12908319 -0.15754268 -0.038516685
000010 19 47 56 3e 68 2d fb 3c e6 fc c0 bd 07 a2 81 3d
       0.20925559 0.0306613 -0.094232365 0.063297324
000020 04 70 d6 3d be f8 c4 bd 8a 58 a3 39 b5 38 1d bb
       0.10470584 -0.09617756 0.0003115575 -0.00239901
000030 aa 17 c0 bb 47 d5 35 3e 65 c2 0a be 0d c4 4b 3e
       -0.005862196 0.1775714 -0.13550718 0.19899006
000040 a7 4a e7 3e 38 f8 d8 3d f6 87 b5 be 4c 5b a3 3c
       0.45174143 0.10594219 -0.35455292 0.019940995
000050 81 9e 58 bd e9 bd f1 bd 32 26 94 bd 86 3e cd 3d
       -0.052885536 -0.118038006 -0.07233848 0.10021691
000060 75 c2 a4 3b 92 53 ec 3d cd 35 04 3e cf 8b 89 3d
       0.005028064 0.11539377 0.12911148 0.067161195
000070 d0 cb 1b 3e b5 c3 05 3c 51 92 56 be 3b c2 ae bd
       0.15214467 0.008164336 -0.20954253 -0.0853314
000080 81 2d 94 be db 81 9c bd f3 a0 40 bd 5e ba d2 bd
       -0.28940967 -0.076419555 -0.047028493 -0.10289453
000090 2c c9 d9 bc 6f f5 30 3e 46 c2 04 3e d0 31 11 be
       -0.026585184 0.17281125 0.12964734 -0.14179158
0000a0 8d 3d ce bd cc c4 dd bd a6 05 7c be c4 e8 49 3e
       -0.10070334 -0.10828552 -0.2461153 0.197177
0000b0 1b 7b 34 3d 60 bb 91 3e e2 7d 52 bd 14 6e bc 3d
       0.044062715 0.28463268 -0.051389582 0.09200683
0000c0 96 b9 86 3d 63 da ee 3e 27 45 63 be ac 02 21 3f
       0.065783665 0.4665099 -0.22194348 0.628947
0000d0 1f db df bd 54 43 38 be 4a f5 94 3d e1 47 0b be
       -0.10930466 -0.17994434 0.07273348 -0.13601638
0000e0 1e ee c1 bd 01 56 96 3e 76 25 c6 bc da ad 4c be
       -0.094692454 0.2936249 -0.024187785 -0.19988194
0000f0 95 63 0d 3d b8 5e 2e 3e 65 09 1b 3e c5 00 d8 3c
       0.034518797 0.1702832 0.15140302 0.026367554
000100 96 83 84 3e 21 e2 47 3d 14 48 82 3d e1 b0 6c 3d
       0.25881642 0.048799638 0.06361404 0.057785872
000110 e3 c4 e2 bd 9d e2 98 3e 7b 35 d6 bd ed fa 9a 3e
       -0.110727094 0.29860392 -0.10459419 0.30269566
000120 7f 5a 88 bd 97 bc 29 3e 1f 22 3c 3c 2c a3 47 bd
       -0.06657886 0.16575848 0.0114827445 -0.048739597
000130 ac 2c 48 bd 36 22 16 bd a0 0a f0 bc 81 d4 af bd
       -0.048870727 -0.03665372 -0.029301941 -0.08585454
000140 ad 50 29 3e 7e 28 94 3d a6 0d d8 3d ae cc 5e 3e
       0.16534682 0.07234286 0.10549478 0.21757767
000150 23 71 82 3d ab d1 13 3d 94 f9 d4 bd 58 4d 06 be
       0.06369235 0.036088627 -0.10399166 -0.13115442
000160 57 6e 1e 3e 52 7d ed 3d b8 fa 88 bc da ee 11 3c
       0.15471779 0.115961686 -0.016721115 0.008907044
000170 c8 89 d0 3b fa 49 03 be 7f 7b 62 3d 12 b3 88 be
       0.006364081 -0.12821189 0.055293556 -0.2669912
000180 f3 08 3d be 5c e5 44 bc 26 25 ed bd f4 fc ce bd
       -0.18460445 -0.012017574 -0.11579351 -0.10106841
000190 2b 35 06 3e c2 ba 9e bd 90 c7 98 3e f3 72 ca bc
       0.1310622 -0.07750465 0.29839754 -0.024713015
0001a0 85 c3 08 3e 2b f7 38 3d 58 f7 f6 bd 78 32 0c 3e
       0.13355835 0.045157593 -0.12058896 0.13691127
0001b0 08 c7 fd bd 25 32 a4 3d f0 99 a9 3b d6 84 4f be
       -0.12391478 0.08017377 0.0051758215 -0.20265517
0001c0 89 f8 8d 3c 09 8d a0 3e 68 4f d4 bd b0 fa ae bd
       0.017330425 0.313576 -0.10366708 -0.085439086
0001d0 6a 85 15 be c4 c7 51 be fc 8f 0c 3e 92 b4 76 3e
       -0.14601675 -0.20486361 0.137268 0.2409232
0001e0 5d 5e 0d 3e 98 11 79 3d 69 68 8c 3d c2 41 1a bd
       0.13805528 0.060807794 0.06855852 -0.037660368
0001f0 5c c4 36 3e c6 64 16 be 0a ae 8d bb f7 3c 93 3d
       0.17848343 -0.1468688 -0.0043237256 0.071893625
000200 73 6b db 3d d1 54 e6 bc 6a f9 de be b5 ee ec 3d
       0.10713854 -0.028116615 -0.43549663 0.11568967
000210 1b 5f ef bb dd 49 5c 3c c2 75 5a bd 60 e1 2c be
       -0.0073050386 0.013445345 -0.05333496 -0.16882849
000220 4b 53 58 be 6e dc 6b 3c 8c 84 da 3c 3a 7a f5 3b
       -0.21125524 0.014395816 0.026674531 0.007491377
000230 e0 16 2e 3e 67 e4 e5 bb 08 5a 49 3e 60 5c 28 3e
       0.17000914 -0.007015753 0.1966325 0.16441488
000240 f9 c7 1f 3d 9f cf 08 bd 32 86 3b 3e ad 6e 59 3d
       0.03900907 -0.033401128 0.1831291 0.053084064
000250 61 6e 15 3d f0 ef ca 3a ac e5 80 bd d0 15 8f bc
       0.03648222 0.0015482884 -0.062938064 -0.017466456
000260 83 1e bf bc a0 4e cc bd 12 86 fd bd af f3 5f be
       -0.023329979 -0.09975934 -0.123790875 -0.21870302
000270 b1 d1 89 3e 50 26 20 3d 89 27 a1 3d 40 e0 ef 3d
       0.26917794 0.039099038 0.07868869 0.11712694
000280 cb 2f ae 3d 4c 00 25 3e 3f 82 09 3e 2e d8 98 3d
       0.085052095 0.16113394 0.13428591 0.07463108
000290 6d ed b4 bd ee 12 08 3e c2 1b d5 bc 31 c1 f3 bd
       -0.08834348 0.13288471 -0.026014213 -0.11902083
0002a0 f8 32 64 bc 12 85 07 3d d2 05 a8 bd 81 08 04 3e
       -0.0139281675 0.03308589 -0.08204235 0.12893869
0002b0 69 f2 9c bc fa a7 1b 3c 9d aa 0a be fe 2f 19 bd
       -0.019158559 0.009500498 -0.13541646 -0.037399285
0002c0 f1 bb 15 3e 96 31 4d 3d a5 96 eb 3d aa b0 39 3e
       0.14622475 0.050096117 0.115033425 0.18133798
0002d0 01 c8 22 3e 04 8c 2a 3e 35 6f 0c bd 5e b0 97 bd
       0.15896608 0.16654974 -0.034285743 -0.07406686
0002e0 5d f2 f8 3d a0 fb 28 3d 3a 08 d6 3d 76 12 1a bd
       0.12155602 0.041255593 0.10450788 -0.037615262
0002f0 81 0b b2 3d b4 f2 25 be c6 ff 13 3e 53 f4 89 bd
       0.086936004 -0.16205865 0.14453039 -0.06736054
000300 ac 84 49 3d a5 e5 22 be a4 0b 61 3b 2c bc 0a 3c
       0.04919879 -0.15907915 0.0034339214 0.008467715
000310 f8 f9 2c 3d 85 ba 0f 3e ad 32 37 bd b7 c7 2c 3d
       0.042230576 0.14035995 -0.044726063 0.04218265
000320 1c 7c 19 3e 2e 14 08 be 75 7c 62 3e 16 51 91 3d
       0.1498875 -0.13288948 0.22117789 0.07095544
000330 e0 e3 f0 3c 35 a3 59 3e e9 5e a9 bd 79 fc 2b be
       0.029405534 0.21253665 -0.08270056 -0.1679553
000340 ae fc 07 3d 3e a4 ca 3e c6 ed 48 be c0 93 8a be
       0.03319996 0.39578432 -0.19621953 -0.2706585
000350 5b 96 71 bb 05 99 25 3e ba ac bf 3c d9 8b 18 3c
       -0.00368633 0.16171654 0.023397792 0.009310686
000360 66 b9 4d be 16 1f 23 3e 12 16 dc 3d 31 79 1b 3e
       -0.20090255 0.15929827 0.10746397 0.1518295
000370 72 43 f6 3e aa 66 a6 3e ed 97 9d 3e b9 e8 e4 3d
       0.48098332 0.325002 0.30779973 0.11177201
000380 1e c0 d8 3d de 30 e2 bd 5a da 16 3e 77 7a 51 be
       0.105835184 -0.11044477 0.14731732 -0.20456873
000390 05 1c c5 be 66 0b ac bc 60 28 07 3c b0 f0 10 bc
       -0.3849794 -0.021001529 0.008249372 -0.008846447
0003a0 36 b5 2f 3e f3 69 08 3e cd 29 d5 3d 9c d3 55 3e
       0.1715897 0.13321666 0.104083635 0.20881504
0003b0 45 fa 37 3d c2 87 36 3e 0f 30 da 3c 71 15 87 bd
       0.04491641 0.17825225 0.026634244 -0.065958865
0003c0 0f 83 ae 3d a0 bf f0 bd 68 05 66 3d e7 f9 4c 3d
       0.08521091 -0.117552996 0.0561575 0.050043013
0003d0 66 34 68 3e 64 dc d2 bc 28 0a ae bd cc f6 a5 bd
       0.22676238 -0.025739856 -0.08498031 -0.081037134
0003e0 f8 43 2b be 2c 3f 08 bd 49 26 5d be 96 06 ad be
       -0.16725147 -0.03326337 -0.21596636 -0.33794087
0003f0 28 9a 11 3d b0 59 97 3d c5 52 09 3e e4 4e ff 3d
       0.035547405 0.073901534 0.1341048 0.12466219

lstm.weight_hh_l0 f4 [256, 64]
000000 da a9 c1 be 61 b5 6c bc d5 31 73 3e 78 7c 2c bd
       -0.378249 -0.014447541 0.23749478 -0.04211089
000010 72 0b ae 3c 17 97 30 be 64 e4 80 be 9d d5 0f 3e
       0.021245692 -0.17245136 -0.25174248 0.14046331
000020 b1 d2 94 bd df 1a 7d be 7d df 8b 3e 4b 95 99 be
       -0.07266749 -0.24717282 0.27318946 -0.29996714
000030 66 08 fa bd 46 33 91 3e a4 cb 5f be c6 2a c0 3c
       -0.12208633 0.2835943 -0.21855026 0.023457896
000040 18 af 8d bd ac 80 8a be ca 8c e3 3e d4 5d 3d bc
       -0.06918162 -0.27051294 0.4444335 -0.011558015
000050 da fa cf bc 26 a2 d6 3e f2 2f bd 3d 58 74 0f 3d
       -0.02538817 0.41920584 0.092376605 0.035023063
000060 81 d3 c4 be bd 37 45 3e 68 eb 43 bd 39 ad a1 3e
       -0.38442615 0.19259544 -0.047831923 0.3157747
000070 69 7e f8 3e 68 5a 06 be b2 ce 36 be 4d a1 c6 3d
       0.48533943 -0.13120425 -0.17852286 0.096987344
000080 aa eb 25 3d 91 84 e7 bc be 00 05 be 8f 62 a4 be
       0.04050795 -0.028261455 -0.12988564 -0.32106444
000090 58 f2 b4 3d 77 29 69 bd 93 ae e4 bd 45 08 94 be
       0.08835286 -0.05692431 -0.1116611 -0.2891256
0000a0 0a b9 6d be 9a 29 ae be 40 5c 8c bd cf b9 c4 3c
       -0.23215118 -0.34016114 -0.06853533 0.024014382
0000b0 8b 18 10 be ca 63 c5 bd 9e 41 08 bd a9 db 71 3d
       -0.14071862 -0.09638174 -0.033265702 0.059047375
0000c0 c1 65 7a 3d 30 da 45 3c af 20 c2 3d 5a d9 8f 3e
       0.061132196 0.012075946 0.0947889 0.28095514
0000d0 f8 58 48 bd 3b e7 8f 3e d0 0b c9 bd 45 d9 56 be
       -0.048912972 0.28106102 -0.09816706 -0.20981319
0000e0 ef c5 71 be 14 39 d2 3d 8e 76 ef 3d ef f6 50 3e
       -0.23610662 0.10264793 0.116925344 0.20406698
0000f0 47 0b 2b be a5 c1 ed bd c3 41 82 be 12 c2 b3 bd
       -0.1670352 -0.116092004 -0.25440797 -0.0877725
000100 d5 70 0d 3e 8d df 86 bd 22 26 a6 3e 92 b3 66 3d
       0.13812573 -0.06585608 0.32450968 0.056323595
000110 3d 5d a6 bd 24 5b a8 bd a3 d2 99 bd e2 9b 1f bd
       -0.081232525 -0.08220509 -0.07510879 -0.03896702
000120 15 31 25 3d 25 bd 9e bd 9e 00 36 3e ad 8b fe 3d
       0.04033001 -0.0775092 0.17773673 0.12428985
000130 fb 7e e2 bd a7 bd 25 be 1d fa d3 bd d9 98 62 bc
       -0.11059376 -0.16185628 -0.1035044 -0.013830387
000140 a2 88 58 3d 1a 09 4b bd 88 da a1 3e c6 c5 c8 3d
       0.05286468 -0.049569227 0.3161204 0.09803347
000150 ef ce 3b 3d 3b 01 9a bd 27 19 1a 3e ce 5d 76 3e
       0.045851644 -0.07519766 0.15048657 0.24059221
000160 52 83 a4 be 94 66 05 be d4 98 40 bc d4 d2 b2 bc
       -0.3213144 -0.13027412 -0.011755187 -0.021829046
000170 0d e0 cf 3d d9 6e a9 3c 1b 07 35 bd 3e e9 c9 bd
       0.10150156 0.02068274 -0.04419623 -0.098589405
000180 50 5f 99 ba 6c b4 11 be 13 f1 a6 bd 73 a5 b9 bd
       -0.0011701379 -0.14228982 -0.0815145 -0.0906476
000190 8b 26 c7 bc 52 6f 18 be 1f 72 6c be 6e 9f 67 bd
       -0.02431037 -0.14886215 -0.23090409 -0.05654853
0001a0 24 97 3e bd a4 43 1d 3d 7a ba 8a be d2 5c bb 3d
       -0.046530858 0.038394585 -0.27095395 0.091485634
0001b0 df b5 90 be 02 58 a8 be bd c8 ea 3d 7c e8 3b be
       -0.28263757 -0.32879645 0.11464069 -0.18350405
0001c0 cd de a6 bc 2c c1 14 bd 7b ec a7 3d 42 1c 7c bd
       -0.020369912 -0.036317036 0.08199402 -0.061550386
0001d0 11 63 05 3e ee 4d cc 3d d7 43 34 3d 70 d6 be bd
       0.13026072 0.099758014 0.04401001 -0.093182445
0001e0 9a d3 b9 3e a7 61 d8 bc c0 ca 9d bd 43 af ec 3d
       0.36294252 -0.026413752 -0.07704687 0.11556866
0001f0 bb 92 ec bd 38 33 a7 3c 11 03 46 be 5e 99 19 3d
       -0.11551424 0.020410165 -0.19337107 0.037499778
000200 34 ad 94 3d 93 81 5e be 25 7b f6 bb 05 66 cb bb
       0.072595984 -0.21729116 -0.007522004 -0.00620723
000210 58 fc ea bd 26 70 d7 ba 18 a6 4f be 18 b3 02 be
       -0.11473912 -0.0016436621 -0.20278203 -0.12763631
000220 3c 8b eb 3d 5b 64 08 bd 7f c5 a4 3d f3 28 5e bd
       0.11501166 -0.03329883 0.08045482 -0.05423827
000230 2b 74 11 bd f2 bc c6 bd ac 67 55 bd c8 46 74 be
       -0.035511177 -0.09704007 -0.052100822 -0.23855126
000240 1b 49 cf 3e 3d f8 8a bb 09 fa 5d 3e fc c2 ca 3c
       0.40485463 -0.004241018 0.21677412 0.024751179
000250 1c 1b 4d be 6f 4e 3d 3e 36 be c0 3d 85 ed 01 3e
       -0.20029873 0.18486951 0.0941128 0.12688263
000260 86 7a 80 be 22 8a 22 3e c8 03 af 3d bc 56 47 bd
       -0.25093478 0.15873006 0.08545643 -0.0486667
000270 7a 9d fe 3d 9a 19 00 3d c9 9f 83 bd 95 fd 39 be
       0.1243238 0.031274416 -0.06426961 -0.1816314
000280 30 ba 41 be 0a d6 8d bd 8a 10 95 3e 68 dc a3 be
       -0.18918681 -0.0692559 0.2911418 -0.32004094
000290 69 1f da bb b0 07 f6 bd 31 98 b4 3d 41 02 89 bd
       -0.0066565764 -0.12013185 0.08818091 -0.06689883
0002a0 9e f5 36 3e b4 49 cd 3b 42 1b 91 bd df 38 25 3e
       0.17867133 0.0062648896 -0.07085277 0.16134976
0002b0 9d f1 b9 bd c9 71 1d 3e d5 67 19 be b5 55 a8 bd
       -0.09079287 0.15375437 -0.14981015 -0.08219472
0002c0 27 88 f7 3d cf cb 5b 3e 3f a9 41 3e 48 a2 bc 3c
       0.12086516 0.21464466 0.18912219 0.0230266
0002d0 82 98 98 3d f5 bb 06 3e bf ee 23 3d 25 9b 40 3e
       0.074509636 0.13157637 0.040022608 0.18809183
0002e0 9e 75 29 3e 88 d8 da 3d 91 1e 9b bd d9 27 52 bd
       0.16548774 0.10685831 -0.075741895 -0.051307533
0002f0 b4 8c 52 bd 05 5c bf be 01 39 88 bd f4 87 bf 3c
       -0.051403716 -0.37374893 -0.06651498 0.023380257
000300 57 16 13 be 14 0b c7 3d 23 af 16 bd b9 fb 80 bc
       -0.1436399 0.0971891 -0.036788117 -0.01574503
000310 dc 68 d5 bb d6 c5 59 3e 9f 5c bd 3d 5c d5 66 3e
       -0.0065127444 0.21266875 0.09246182 0.22542328
000320 d1 cb 38 bd c1 a7 1b 3e 5b b6 7d bd b1 c5 a1 3e
       -0.04511625 0.15200712 -0.061941486 0.3159614
000330 80 49 1d be d0 32 00 3e 17 cd 26 3c 65 7d 2a 3e
       -0.1536007 0.12519383 0.010180733 0.16649397
000340 93 d9 f4 bd 8a ae 17 3e 9f 70 6f be e8 2d 82 3e
       -0.119555615 0.14812675 -0.23382805 0.2542565
000350 09 08 19 be 7e b0 74 be f4 8f 51 bd 15 d2 6c be
       -0.14944471 -0.23895451 -0.051162675 -0.23127015
000360 6c 2c e6 3d 4a ad 47 be f8 75 1b bd 14 c6 46 3d
       0.112389416 -0.19499698 -0.0379543 0.048528746
000370 42 df 03 3d 3d 48 1d bd 3e 93 88 3e a2 51 7a bc
       0.032195337 -0.03839897 0.26674837 -0.015278252
000380 58 f2 21 bd 0c a4 b1 3e cc 1b 82 be 5d 31 a5 3d
       -0.039537758 0.3469547 -0.25411832 0.08066056
000390 d1 71 14 3e 15 2e a3 3e 72 8e 88 bd af 65 37 ba
       0.14496543 0.31871095 -0.06667794 -0.0006996048
0003a0 2a 49 d6 3c ce 6e b5 bd 63 29 3e be e7 a1 dd 3d
       0.026157934 -0.08859025 -0.18570475 0.10821896
0003b0 39 cd 82 bc f4 d7 9c 3d 1c ea 8c 3e 3a 05 2a bd
       -0.015966998 0.07658377 0.2752236 -0.04150889
0003c0 67 fe 07 be 70 e9 b4 3d 13 40 a6 bd e4 58 22 be
       -0.1328064 0.08833587 -0.0811769 -0.15854222
0003d0 bc 38 aa 3e 30 7e 2c be 6b d8 3a be fb 20 c0 bd
       0.3324641 -0.16845012 -0.1824662 -0.093812905
0003e0 a6 e4 a4 3d 71 6c f6 bd e2 65 15 3e 4e 5b e9 bd
       0.08051424 -0.12032402 0.14589646 -0.11394368
0003f0 ad 45 c2 3d 7d 2c e5 3c 62 89 df 3d f8 93 66 be
       0.09485946 0.027975315 0.109148756 -0.22517383

lstm.bias_ih_l0 f4 [256]
000000 89 52 d3 3e 2f c6 a5 be 69 dc 18 3b f1 ab ba be
       0.41273907 -0.32377765 0.0023324734 -0.36459306
000010 af 8b 8c 3d f3 3b 4d be 3a 71 71 be ba 92 95 be
       0.0686258 -0.200424 -0.23578349 -0.29213506
000020 ee 3a 98 bd 6e 2f 99 bd 1c 68 9a be 43 91 b1 be
       -0.07433115 -0.074797496 -0.30157554 -0.34681138
000030 7a 8d a9 be cc b6 1c be a0 30 f9 be 7c b0 25 3e
       -0.3311575 -0.15304106 -0.4866991 0.16180605
000040 41 80 92 3d 0a 85 15 be f9 ee 45 bd ba 37 bb be
       0.07153369 -0.14601532 -0.048323605 -0.36565953
000050 d7 da bd bd dd 48 9c be 0e a8 fd be 85 01 29 be
       -0.09270256 -0.3052434 -0.49542278 -0.16504486
000060 0c b8 89 bd a9 1c 15 3d d1 e3 92 be 54 f0 81 be
       -0.06724557 0.036404286 -0.28689435 -0.25378668
000070 d9 3a 8d bd a6 9d b5 be ab 35 dc bc ff e6 19 bf
       -0.0689599 -0.3547184 -0.02688106 -0.601181
000080 d5 aa a2 bd b8 52 89 be ff cd 1b be 49 4f 89 be
       -0.0794274 -0.26820922 -0.152153 -0.26818302
000090 f1 81 6f bd ba e5 25 bd 50 31 57 3d 76 eb cc be
       -0.05847353 -0.040502287 0.052537262 -0.40023392
0000a0 c7 b4 90 be c6 d3 80 3e a2 9a f8 be 86 5d 1d be
       -0.28262922 0.2516157 -0.48555475 -0.15367708
0000b0 da 0c 80 be 9d 37 d9 be 0d 48 98 be d4 b4 90 be
       -0.25009805 -0.42425242 -0.2974247 -0.2826296
0000c0 75 85 07 be d5 9e 04 bf c1 46 10 bc fa b9 b9 bc
       -0.13234504 -0.5180486 -0.008805932 -0.022671688
0000d0 97 06 70 3c 20 9f 85 3d 66 ce 05 bd 78 39 1b be
       0.014650009 0.06524491 -0.03266754 -0.15158641
0000e0 94 6f 16 be 7e 09 6f be 11 ab c4 bd 59 be d4 bd
       -0.14691001 -0.23343465 -0.09602941 -0.103878684
0000f0 b6 c5 de bd fe 51 f2 be 61 ac c4 be 35 0d 96 bd
       -0.10877554 -0.4732818 -0.38412765 -0.07326738
000100 2a 1e f5 3d d5 04 0b be f4 8c 0d 3e 77 da 4d bc
       0.11968644 -0.13576062 0.138233 -0.012564293
000110 b8 11 d0 bd 02 e4 12 3d 09 7e 01 be 38 f9 17 be
       -0.101596296 0.035861976 -0.12645735 -0.14841163
000120 2c 64 a0 3b b4 3c 9d 3d f1 c7 68 be f8 2c 92 be
       0.004894754 0.07677594 -0.22732522 -0.28549933
000130 83 70 ef bd 1b f7 ff bd 8f 9f a2 be 27 35 f4 bb
       -0.11691382 -0.124983035 -0.3176236 -0.0074526253
000140 7a 31 3c 3d 3d 1f a9 bd fb f1 25 bc 15 00 46 be
       0.045945622 -0.08257911 -0.010128493 -0.19335969
000150 f3 47 8c 3d bc b5 78 3c f4 10 ab be 7f 6a 67 be
       0.06849661 0.015180048 -0.33411372 -0.22599219
000160 d4 a4 3b be fd ea 60 bd 16 00 4e be 7f 1b 36 3d
       -0.18324596 -0.054911602 -0.2011722 0.044459816
000170 ce b8 70 be 9c 1f f3 bd 04 28 b5 bd f5 36 ab be
       -0.23507997 -0.118712634 -0.08845523 -0.33440366
000180 3a 01 41 be 68 0d 07 bd 77 58 f8 3d 9e 1b a1 be
       -0.18848124 -0.03297177 0.12126248 -0.31466383
000190 f7 bc af bd f9 ee 08 3d 71 8f ad bd 40 c0 5c be
       -0.08580964 0.033431027 -0.08474625 -0.21557713
0001a0 52 99 00 3d 7d f2 48 3d b5 a1 61 be cb 3d 80 be
       0.031396218 0.04905938 -0.22034343 -0.25047144
0001b0 41 30 3d be c5 c1 9e bd ad 94 87 bb 37 3b c4 bd
       -0.18475439 -0.07751802 -0.0041375966 -0.09581607
0001c0 e4 fd 9f 3d fe 6f a5 be fe 1f b0 3c cd 6c 83 3c
       0.07812098 -0.32312006 0.02149963 0.016043091
0001d0 8e ea d8 bd 2f 5e 2a 3d 6c 40 00 be 13 18 56 be
       -0.10591613 0.041593727 -0.12524575 -0.20907621
0001e0 49 cc ca bc 66 8d 79 be f4 1f b1 bd 2f bd 82 bc
       -0.024755614 -0.24370345 -0.08648673 -0.01595935
0001f0 7d f2 30 bd 34 be b3 be 37 5d 63 bd a2 1f ac 3d
       -0.043200005 -0.3510605 -0.05550882 0.08404471
000200 a0 cb f3 bd c6 1c 54 3d 52 86 f8 3d c3 ab 0b 3c
       -0.11904073 0.051785253 0.121349946 0.008524838
000210 1d b4 a2 3c 30 0e 85 3d aa d6 67 3c c8 5e 8f bc
       0.019861275 0.06496847 0.014150301 -0.01750125
000220 fd 20 54 3d be 25 bd bd 43 1f 6a 3a 92 3d b8 bc
       0.051789273 -0.092357144 0.000893105 -0.022490297
000230 29 8e 95 bd b9 55 b9 3d 8d 0f 18 bd e3 ed ea bd
       -0.073025055 0.090495534 -0.037124205 -0.114711545
000240 f9 05 46 be e8 f4 b4 bd ae 85 38 bd d7 15 3f bd
       -0.19338216 -0.08835775 -0.045049362 -0.046651687
000250 42 31 c9 3d ab 32 76 3d ea 1a 9a bb 82 fa 09 bb
       0.09823848 0.060106914 -0.0047029154 -0.0021053855
000260 0e b0 34 3e 1b e1 51 bd 35 d7 45 be 20 f9 c4 3d
       0.17645285 -0.051240068 -0.19320376 0.09617829
000270 c1 84 5f bd 12 af dd bd f0 e8 9f bd 30 6d 04 3e
       -0.054569963 -0.10824408 -0.07808101 0.12932277
000280 60 12 d8 bc 52 e8 3c bd 8f 94 d8 3d f3 4c ba 3d
       -0.02637595 -0.046119995 0.1057521 0.09096708
000290 e0 0c c2 3d a9 df df 3c 5b 37 49 bd 58 7a f7 3d
       0.09475112 0.02732833 -0.049125057 0.12083882
0002a0 b8 24 ec 3c 6f 1f cd bd 46 b2 17 3d e3 33 c9 b9
       0.028826103 -0.10015761 0.03703525 -0.00038376366
0002b0 a1 f5 b8 bc 4c 5a dd 3d f3 07 b1 bd 7c 04 8f 3d
       -0.022578062 0.108082384 -0.08644094 0.06983277
0002c0 13 58 33 bd c5 f7 23 bc e6 74 44 3c 08 c7 47 be
       -0.043785166 -0.010007803 0.011990761 -0.19509518
0002d0 44 b7 5d 3d c7 a0 83 3d 7d a6 28 3c 2a cb 12 be
       0.054129854 0.0642715 0.0102936 -0.14335313
0002e0 28 52 a0 bd 4c 9b 04 bd 29 94 55 bb bb f5 fd bc
       -0.0782817 -0.032374665 -0.003258953 -0.031000962
0002f0 06 fe 9c 3e a0 d3 b0 3c d0 55 71 3c f8 3f a4 bd
       0.30662555 0.021585286 0.014729932 -0.080200136
000300 53 47 fb 3d 12 b4 b1 be 27 90 88 bd 4a 3c a5 be
       0.122694634 -0.34707695 -0.0666812 -0.3227256
000310 00 37 67 3e b4 e5 f7 bd bc d2 77 be 77 c0 4b bd
       0.22579575 -0.12104359 -0.24201483 -0.049744096
000320 d8 53 63 3e b5 6b b1 3d 30 b7 c5 bd 6a 77 9a be
       0.22199953 0.086631216 -0.09654081 -0.3016923
000330 58 90 67 be d9 58 72 be f1 37 f2 be a6 be 47 3e
       -0.22613657 -0.23666705 -0.47308305 0.1950632
000340 0c fd 4d be a0 47 e5 3c e7 b8 fa 3d 12 61 d8 bd
       -0.20116061 0.027988255 0.122422986 -0.1056539
000350 e3 c7 73 3d 89 ba 22 be 84 4a bd be c5 a6 8b bd
       0.0595168 -0.1589147 -0.36970913 -0.06818918
000360 8a df 4b 3d 43 4f c1 bd 86 ee dd bd 9c 39 7c be
       0.04977373 -0.09438946 -0.1083651 -0.24631351
000370 16 3b 86 be 61 77 bb be 3d 04 08 3d e8 75 1b bf
       -0.26216954 -0.36614516 0.033207167 -0.60726786
000380 dc e2 04 be 9c f7 45 be bd 51 62 be 9a 23 35 be
       -0.12977165 -0.19332737 -0.22101493 -0.17689362
000390 b6 27 37 be 69 cd 88 be ce 0a b2 bd 99 42 7b be
       -0.17886242 -0.26719216 -0.08693467 -0.24537124
0003a0 3f 6b 99 be c2 5f e4 bd dd f7 cd be 2f 20 a6 bb
       -0.29964635 -0.11151077 -0.40228167 -0.0050697546
0003b0 6f 3a 82 be ae 02 d8 be 43 b7 64 be 04 e1 0e bd
       -0.25435206 -0.42189544 -0.22335534 -0.03488256
0003c0 88 24 1f be 97 27 a1 be 1c 14 21 3b 28 d7 88 bd
       -0.1554128 -0.31475517 0.0024578637 -0.06681663
0003d0 be 87 af bc a1 a4 93 bd 5d 1e 71 3e 8a ce 6b be
       -0.021427032 -0.07209135 0.23546739 -0.23028007
0003e0 4b 5b 18 be 5c c7 88 be 3f 87 62 bc a3 fc 09 bd
       -0.14878576 -0.267146 -0.0138261905 -0.0336882
0003f0 29 00 73 be 6d e4 9a be e9 b5 8b be 8e 66 48 be
       -0.2373053 -0.302524 -0.27287224 -0.19570372

lstm.bias_hh_l0 f4 [256]
000000 87 5c ce 3e d7 76 60 be 7b 69 98 bd 37 4e c5 be
       0.40304968 -0.21920334 -0.07441994 -0.38536236
000010 5b 66 34 3e 45 da 8f bd 58 44 cb bd 39 cc 92 be
       0.1761717 -0.070240535 -0.09925145 -0.28671435
000020 4f 0e 24 3d 48 cc 3d be cb 17 19 be 8f 22 d9 be
       0.04005271 -0.18534958 -0.14950483 -0.4240918
000030 d7 2d 57 be 13 92 07 be fb 15 f1 be 8c cf 46 3d
       -0.2101358 -0.13239317 -0.47087082 0.048537776
000040 0a 59 f5 bd d9 7f e9 bd 74 a0 1b be 33 ac 99 be
       -0.119798735 -0.11401338 -0.15197927 -0.3001419
000050 6c 5c fd 3c ca 15 b1 be 56 c9 2f bf ef 9f 82 be
       0.03092786 -0.34586936 -0.6866659 -0.25512645
000060 46 68 27 bd 71 0f b5 3c 31 53 83 be fb 7d 53 be
       -0.040870927 0.02210209 -0.25649408 -0.20653526
000070 94 61 06 bd 19 b6 84 be 37 34 db 3d 9b 2c 1c bf
       -0.0328079 -0.2592018 0.107033186 -0.6100556
000080 de 10 2b be f0 db a4 be 3a 5b a6 bd ab a8 01 be
       -0.16705653 -0.3219905 -0.08122869 -0.12661998
000090 0c 5a 1e be c1 bf 48 be 61 6b 77 bc b3 29 6f be
       -0.15464038 -0.19604398 -0.015101285 -0.2335575
0000a0 64 b6 6e be 7a 08 cd 3e 87 3d 0c bf 2a 7a 40 be
       -0.23311764 0.4004553 -0.54781383 -0.18796602
0000b0 8f 81 97 bc b2 15 9e be 38 ed 90 be 9c 67 48 be
       -0.018494396 -0.30875927 -0.28305984 -0.19570774
0000c0 4b c9 7c bc b9 f7 e7 be 23 53 c4 bc c7 a0 44 be
       -0.015428851 -0.45306185 -0.023965424 -0.19201957
0000d0 72 3a 05 be 0f 20 ce bd c4 15 18 be a2 7e 8f bd
       -0.13010576 -0.100647084 -0.14852053 -0.07006575
0000e0 7a 86 b1 be a9 7c 88 be d9 69 9f be 48 dd 52 be
       -0.3467291 -0.26657608 -0.31135443 -0.20592225
0000f0 03 b3 0e be 2c 95 c1 be 6a a7 c1 be 93 ca 82 be
       -0.13935475 -0.37809122 -0.3782304 -0.25545177
000100 b4 68 dc 3d f9 b1 23 be 9b 91 3d 3d ed d1 01 be
       0.10762158 -0.1598586 0.04628144 -0.12677737
000110 42 ca 5c 3d 56 45 15 3d 6a 31 48 be cf 21 77 3c
       0.053903826 0.036443077 -0.195501 0.015083744
000120 0b ac b6 3b 50 a4 18 3e 16 89 9c bd 23 31 3f be
       0.0055747083 0.1490643 -0.076433346 -0.18671088
000130 33 26 c5 bd f8 a0 28 be fb aa e2 be 18 35 c8 3d
       -0.096264265 -0.16467655 -0.44271073 0.09775752
000140 0a e9 0f be 43 96 46 bd ae eb 84 bd d1 3a dd bd
       -0.14053741 -0.048483144 -0.06490265 -0.10802234
000150 6e 27 c4 bd f6 cc 2e bd 81 20 a6 be 9f 08 c3 be
       -0.09577833 -0.042675935 -0.32446674 -0.38092515
000160 15 cc 95 bd 2d 1f 0d be 4c 21 03 bd 1d 71 7a bc
       -0.07314316 -0.13781424 -0.032014176 -0.015285757
000170 4f 92 d9 bd bf 58 1d be 2d 8f dd 3d c3 ff d7 be
       -0.10623609 -0.15365885 0.10818324 -0.42187318
000180 4a 7a 10 3d 48 ad 49 be 49 b4 1d 3e 77 ba 84 be
       0.035272874 -0.19695008 0.15400805 -0.2592351
000190 f0 84 82 bd f1 84 6f 3c 57 38 23 be 40 3b c6 bd
       -0.06373012 0.014619098 -0.1593946 -0.0967927
0001a0 db 57 9f 3d 44 ee 25 bd c1 03 6b bd 5e 0b 3d be
       0.07780429 -0.04051043 -0.057376627 -0.18461367
0001b0 29 f7 54 be 60 05 09 be 6f e5 4f 3d a8 d3 ee bd
       -0.20797409 -0.13380957 0.050755914 -0.11661464
0001c0 cf e4 0e 3d 8d 36 d9 be be de 9c bd cb 31 13 be
       0.034886178 -0.4242443 -0.07659672 -0.14374463
0001d0 ee 9f b9 bd 13 94 38 3d e3 35 25 be 3b 74 3e be
       -0.09063707 0.04506309 -0.16133837 -0.18599026
0001e0 45 ec 81 be 56 92 a9 bd 6f c5 17 bd 99 0d 31 3d
       -0.25375572 -0.082798645 -0.03705352 0.04322586
0001f0 e8 6b 9e bc 81 fd 65 be 36 87 d5 bd 20 f5 ba bd
       -0.019338563 -0.22459985 -0.1042618 -0.09128785
000200 e6 b4 7b bd ff 93 91 bd 3a 16 49 3c 97 31 da 3c
       -0.061451815 -0.07108306 0.012273366 0.026634974
000210 1a 9f 76 3d 61 cc a8 3d 1f fd f5 3c 0e 0d ad 3c
       0.060210325 0.08242107 0.030027924 0.021124389
000220 a7 26 a1 bd bd f8 dd bb e6 96 5f bb 52 2e 7f 3d
       -0.078687005 -0.0067740367 -0.0034117042 0.062300034
000230 be 54 9c bd e2 37 14 bd 7b b9 b5 3d a4 ac 58 3d
       -0.07633351 -0.036186107 0.08873268 0.052899018
000240 21 38 59 bb 56 4b d0 bc 22 5a be bd 99 ad 56 bb
       -0.0033145028 -0.025426548 -0.09294535 -0.003275728
000250 83 7e 98 3c df 1b c5 3d 8f 0e e6 bd 67 04 46 3d
       0.018615013 0.096244566 -0.112332456 0.048344042
000260 20 39 30 3e f4 70 df bd d0 e5 d8 bd ef 8d bb 3d
       0.17209291 -0.10910216 -0.10590708 0.09157931
000270 e0 3a 28 bd f4 03 b3 3d d8 46 c3 3d 10 2e 82 3e
       -0.041071773 0.087409884 0.09534997 0.25425768
000280 a5 1f cb bd b8 a4 b3 3d 63 38 00 bd 17 b0 3b 3d
       -0.09918145 0.08771652 -0.031303775 0.04582223
000290 38 07 9c 3d 13 2a da 3d 01 bc 5b bd fb 2a b2 3d
       0.07618564 0.10652556 -0.05364609 0.08699604
0002a0 6b 52 b8 3b 8c 7a bd bd 51 ab de 3d e3 46 23 bd
       0.0056250594 -0.092518896 0.1087252 -0.039862525
0002b0 6b 7c c1 bd d2 a6 87 3d be e3 08 bd bc cf 90 3d
       -0.09447559 0.06623615 -0.033420317 0.07070872
0002c0 4d 5d 0b bd 5d 0b 50 bd ad 1b 0f 3b ec 44 01 bb
       -0.034024525 -0.050792087 0.0021836564 -0.0019724919
0002d0 fa a0 07 be 52 b2 26 3d 86 ec e3 b9 a6 e0 07 bd
       -0.13245001 0.040697403 -0.00043473038 -0.033173226
0002e0 f2 8c 34 bd 6d 62 8c 3d 52 48 9b 3d 27 30 1b 3e
       -0.04407973 0.06854711 0.075821534 0.15155087
0002f0 b9 25 dd 3d b0 67 3c bd ce 92 90 bd 60 97 b9 3d
       0.10798211 -0.04599732 -0.07059251 0.090620756
000300 a5 cd 05 3e dd 1c bf be 06 c3 03 bd 3c c3 9a be
       0.13066728 -0.37326708 -0.03216841 -0.30227077
000310 cb c9 66 3e 77 43 27 bd 99 eb c2 bd 95 0b ef bc
       0.22537915 -0.040835824 -0.09517593 -0.029180327
000320 a9 f7 a7 3d 9c 8d 1e bd 6c 57 21 bd f8 6a 9d be
       0.08201534 -0.038709268 -0.039390013 -0.30745673
000330 c3 cf c9 be 3a 34 5e be 56 44 1f bf 13 46 9a 3d
       -0.39416322 -0.2169961 -0.6221365 0.07532897
000340 27 9c 9e be 8c 3d c7 bd a2 b0 0d 3e 05 5c 90 be
       -0.3097851 -0.09728536 0.13836911 -0.28195205
000350 ee e6 2c bc ab bb 77 be 7e e4 11 bf 20 32 22 be
       -0.010553105 -0.24192683 -0.56989276 -0.15839434
000360 4e aa 5a bc 0b 92 17 be 10 70 02 be 68 e6 59 bc
       -0.013346268 -0.14801805 -0.12738061 -0.013299562
000370 93 79 83 be 73 33 62 be 55 6b 25 3e 8e f3 01 bf
       -0.2567869 -0.22089939 0.16154225 -0.5076226
000380 cf d8 84 be 8e a1 80 be fe dd 08 be 06 71 6b be
       -0.25946662 -0.25123256 -0.13365933 -0.22992334
000390 ac 32 0a be b2 96 95 be 21 75 7a be 20 78 26 be
       -0.13495892 -0.29216534 -0.24458744 -0.16256762
0003a0 7d 3f 22 be 28 20 8e 3c 7a 82 94 be 95 88 b8 bd
       -0.15844531 0.017349318 -0.29005796 -0.09010426
0003b0 e9 a7 3e be bc f0 fd be 4f c5 50 be 2a 59 9a bd
       -0.1861874 -0.49597728 -0.20387767 -0.07536538
0003c0 37 b0 be bd d9 2b 9b be a1 9b 4d bc 7e cf 93 3d
       -0.09310954 -0.3030689 -0.012549312 0.0721731
0003d0 15 59 bd bb cf e3 01 3c 20 86 02 3e 9e dc 95 be
       -0.0057784417 0.007927849 0.12746477 -0.2926988
0003e0 ff f9 35 be 24 d2 94 be f7 2d 44 be 15 ac 19 be
       -0.17771147 -0.29066575 -0.19158159 -0.1500705
0003f0 bd 9e 06 bc 5e a5 b5 be 0b 84 3a be 44 42 13 be
       -0.008216557 -0.35477728 -0.18214433 -0.14380747

lstm.weight_ih_l1 f4 [256, 64]
000000 48 4b a3 3e d6 0e b7 bd bd ca 00 3d fa 4e 6e 3d
       0.31893373 -0.089383766 0.031443346 0.058180787
000010 f3 00 9c 3d 6c ca 73 3d 94 c6 38 be 93 89 33 be
       0.076173685 0.059519216 -0.18044502 -0.17532949
000020 a6 34 f0 3d 1b 9e ab 3d c9 cc 74 3d bb 09 96 bd
       0.11728792 0.083797656 0.05976561 -0.07326075
000030 03 bd 9c bd 12 bb 21 3d 09 c3 17 bd 21 05 54 3e
       -0.076532386 0.039485045 -0.037051234 0.20705082
000040 f0 a5 5c be f8 7c 36 bd 3d b0 be be 28 f9 10 3e
       -0.21547675 -0.044552773 -0.37243834 0.14157546
000050 27 b0 9c bd 4d cb 94 bc 53 8e f0 3c 1c dd 47 3e
       -0.07650786 -0.018163348 0.02936474 0.1951794
000060 10 6c 40 3d a4 0c 7e be 78 4e 54 be 1b 66 ed bd
       0.046978056 -0.2480951 -0.20733058 -0.11591741
000070 06 c7 42 be 15 62 92 3d 79 24 1b 3d 4e 79 fc bd
       -0.19021234 0.07147614 0.03787658 -0.123278245
000080 9b fd 3b be 33 01 5f 3d bb 03 03 3e 5e 96 bc be
       -0.18358462 0.054444503 0.12794392 -0.3683347
000090 5e 23 3e be ea 9e 96 bd de 23 7f 3e 82 0c 9d 3d
       -0.18568179 -0.07354529 0.24916026 0.07668401
0000a0 3d 1a 5b 3e cc 09 bb be 95 42 85 3e ae cc 8a 3d
       0.21396728 -0.36530912 0.2602736 0.06777321
0000b0 9c 1b a6 bd 47 35 c1 3d a6 3e 65 3c 7f 30 e0 bd
       -0.08110735 0.0943399 0.013991987 -0.1094675
0000c0 3b eb 4e 3e b4 86 fd bd 55 f8 2c 3e e1 b8 6d be
       0.20206921 -0.12379208 0.16891606 -0.23215057
0000d0 94 7b 95 be 75 2f 67 bd 47 d8 49 bd 44 34 9b bc
       -0.29195845 -0.056441743 -0.049278524 -0.01894582
0000e0 ca 70 2b 3e 68 f2 5c 3d c3 0a a3 bd fd 70 f1 3d
       0.16742244 0.053942114 -0.07961037 0.11789129
0000f0 bd 2a 81 3d 78 53 0d bd 4a 11 64 3e 64 06 fb bd
       0.0630698 -0.03450343 0.2227222 -0.12257078
000100 9e ce 2d 3e 2d d6 d9 bd 68 7d c9 bd 62 d6 f8 3d
       0.1697335 -0.10636554 -0.098383725 0.12150265
000110 d8 b0 fe 3d f8 1a e0 bd 1f 6e d1 3c b2 94 a0 3d
       0.12436074 -0.10942644 0.025565205 0.078408614
000120 84 52 a7 3d 3e 9e 37 3d 64 96 08 3e 78 d2 31 be
       0.081700355 0.044828646 0.1333862 -0.17365444
000130 fa 38 ba 3d 28 e7 88 3c c4 b5 b3 bd 33 aa 76 bd
       0.09092899 0.016711786 -0.087749034 -0.06022091
000140 e3 29 13 be c6 11 ae bd 08 7f a2 bd 33 8b 14 3e
       -0.14371447 -0.08499484 -0.079343855 0.14506225
000150 47 2a e3 3c 51 25 6d 3c d4 d0 09 3e 88 b0 25 bd
       0.02773012 0.014474229 0.13458568 -0.040451556
000160 ac f3 d2 bd 56 df 57 bc b0 6a fb 3d db 69 65 bd
       -0.10300383 -0.013175806 0.122762084 -0.056009155
000170 b8 69 dc 3c d5 52 5f 3d 2d 2a a3 3d fc 63 8c be
       0.02690588 0.054522354 0.07967029 -0.27420032
000180 62 a4 4c be 17 ce 08 3e cc c9 0d bd a7 b6 cc bc
       -0.19984582 0.13359867 -0.034616277 -0.02498944
000190 4b 64 58 bd a4 58 aa 3b cf 98 49 bd d5 cb fb 3c
       -0.05283002 0.005198555 -0.049217995 0.030736843
0001a0 b3 0d c6 3d c1 36 39 be 1d 83 f6 ba 47 c6 18 3e
       0.09670582 -0.18087293 -0.0018807385 0.14919387
0001b0 de e6 ef 3c d7 2a 16 3e d9 56 3a 3d 9a a5 74 3b
       0.02928489 0.1466478 0.04549298 0.0037330152
0001c0 12 34 46 3d 0e a7 c1 3d 1f ad 28 3d f7 52 e5 bd
       0.048389502 0.09455691 0.041180726 -0.11197465
0001d0 a7 fd fd 3d 8d d4 37 3d d7 3a 30 be fd 69 d5 3d
       0.12401896 0.04488044 -0.17209946 0.10420606
0001e0 78 6c 32 bd 19 13 47 be 8b 56 c3 bc 72 09 9a 3d
       -0.043560475 -0.19440879 -0.023844978 0.07521333
0001f0 dd a1 9c bd 85 d9 44 3c 49 e3 82 3d bd 15 20 be
       -0.076480605 0.012014751 0.063910075 -0.15633292
000200 91 92 27 be 8e 3c cd 3d 73 09 0b bc d5 97 0d bd
       -0.16364504 0.100213155 -0.00848614 -0.034568626
000210 59 c2 be 3c eb ec 2b bd 75 05 b9 3d b6 20 c4 3b
       0.023286032 -0.04197399 0.09034244 0.0059853448
000220 8f 67 3d be 28 73 0a 3e 0d 64 49 bd e5 ab d5 3d
       -0.18496536 0.13520491 -0.04916768 0.10433177
000230 a1 de ed bd 26 ac c1 bd 23 f9 df 3d 4a 8f 4c 3b
       -0.11614729 -0.09456663 0.10936191 0.0031213337
000240 9c de 24 be 84 d1 8e 3d c3 bd f6 bd 64 bd a1 3d
       -0.16100544 0.06973556 -0.12047913 0.078974515
000250 a2 7a 2f 3e ee 5a 41 3b 1d c4 ad bd 5e 00 ed bd
       0.17136624 0.0029503661 -0.08484671 -0.11572336
000260 dc dc 71 bd 51 41 3f bd 8c b0 4d bd 71 cb ff 3d
       -0.05904852 -0.04669315 -0.050217196 0.12489975
000270 5d 87 2b bd 24 15 ca bd 4d ff 2f bd 64 74 15 bd
       -0.04187714 -0.098673135 -0.042968083 -0.036487952
000280 01 bd 28 bc fc d8 e3 bb d7 02 e0 bd 46 f6 4a be
       -0.010298968 -0.006953357 -0.10938042 -0.19820508
000290 ba c7 a3 bc f1 f3 1e bc 2f 7b bf bd 0c 92 b0 bd
       -0.019992698 -0.009701715 -0.09349667 -0.08621606
0002a0 2e 5b e8 bd 3b 74 ac bd 48 24 80 ba 70 3f 44 3d
       -0.11345516 -0.08420607 -0.0009776438 0.04791206
0002b0 bf 79 4f bd 35 a3 2a 3e e3 76 3c 3d 83 45 e7 3d
       -0.050653215 0.16663821 0.046011817 0.11292555
0002c0 5b 1c 07 be d9 00 5d 3d 48 7a 20 be 51 db 8c 3c
       -0.1319441 0.053955887 -0.15671647 0.017194422
0002d0 59 03 83 3e ab 14 86 bd fa a2 5a be b9 08 ac 3d
       0.25588492 -0.06546911 -0.21351233 0.08400101
0002e0 be 85 00 3e c6 66 9c bd 26 e6 26 3e 3a 3d 35 be
       0.12551019 -0.0763679 0.16298732 -0.17699137
0002f0 1e 27 b1 3c 22 f9 2f be b7 88 02 be 2e 80 a2 bd
       0.021625098 -0.1718488 -0.12747465 -0.079346046
000300 3d 53 57 3d b2 f9 e9 bc d6 fe 69 be c2 0b 48 be
       0.052569617 -0.028561447 -0.22851118 -0.19535735
000310 57 66 73 3d c5 7e 38 3d 4d b3 e3 3d 66 77 60 3d
       0.05942377 0.04504277 0.11118183 0.054801367
000320 e3 27 fc 3c 4b 2a 4f 3c ef cc c0 3b 40 f8 d9 bd
       0.030780738 0.012644361 0.005883805 -0.10643053
000330 4f bd 82 3d 47 f2 0f be e1 c2 bd 3c b2 1a dc bd
       0.06383764 -0.14057265 0.023164215 -0.10747279
000340 07 5e a6 bc af 24 04 3e 8a 33 0b bd 0e 6d 1a 3e
       -0.020308508 0.12904619 -0.0339847 0.15080664
000350 cf 2b 9c bd 19 1d 65 bd d6 1e 19 3e eb 91 d7 3c
       -0.07625543 -0.055935953 0.14953169 0.026314696
000360 dd 00 9e 39 db fd 18 3e d5 22 8b 3c ef f0 d4 3d
       0.00030136752 0.14940588 0.016984383 0.10397517
000370 9e 3a 8d bc 25 b3 94 3c 82 2d da 3c 63 98 ac bd
       -0.017239865 0.018151829 0.026633028 -0.08427503
000380 9c 90 59 3d 60 6b 62 3d b3 6c c7 bd eb 3d 1b be
       0.053116426 0.055278182 -0.097375296 -0.15160339
000390 96 42 32 bd 9d 08 e0 bd 0e e7 2a 3c 4d b8 3a be
       -0.043520533 -0.10939143 0.010431064 -0.18234368
0003a0 50 ad c9 bd 33 c1 3e 3d 5e 70 dd 3c a6 cc 40 3c
       -0.0984751 0.046570968 0.02703112 0.011767542
0003b0 ca 49 ad bd da 10 44 3c 29 e8 de 3b 41 2c f2 bd
       -0.0846134 0.011966908 0.006802578 -0.11824847
0003c0 c5 4e b1 bd e8 7c 5f 3d b4 ef 96 bc 8b 9b 1b 3c
       -0.08657602 0.05456248 -0.018424846 0.009497534
0003d0 49 87 dd 3d 00 2b 12 3d 00 c9 f2 bd 98 49 1c bc
       0.10816819 0.03568554 -0.11854744 -0.0095390305
0003e0 f4 1b d7 bc 87 05 47 bd b3 8f 04 3e 73 65 82 3d
       -0.026258446 -0.048589256 0.12945442 0.06367006
0003f0 04 e4 25 be 76 be fa bd 73 e1 1a bc 86 76 6b 3d
       -0.16200262 -0.12243359 -0.009453165 0.05748608

lstm.weight_hh_l1 f4 [256, 64]
000000 63 a9 a0 bd b2 ca 01 bd 8a 43 a0 3e 70 a8 37 be
       -0.07844808 -0.031687446 0.31301528 -0.17935348
000010 38 72 2b be d0 4e bb 3d 21 00 29 be 26 bf 53 bc
       -0.1674279 0.09145892 -0.16503955 -0.012923991
000020 f4 d7 0d bd f0 23 c6 be 90 1d 21 3e bb e6 02 be
       -0.034629777 -0.38699293 0.15733933 -0.12783329
000030 8d 6a b8 3d 50 4b a6 3d bc 7d 58 bd 75 82 3a 3e
       0.09004698 0.081198335 -0.052854285 0.18213828
000040 4f 57 be bc dd 0a c2 3c 79 79 95 be d3 52 1f 3e
       -0.023234991 0.02368682 -0.2919424 0.15558939
000050 75 28 c8 3c a2 c4 0a be d1 f6 4c 3d 35 85 00 be
       0.024433354 -0.13551572 0.05004007 -0.12550814
000060 aa a6 be 3d cc 62 ae bd b3 e9 10 3e 5c ba e3 bb
       0.093091324 -0.08514938 0.14151649 -0.006949706
000070 44 28 83 3c b3 35 f1 3d d6 24 02 3f 28 e0 60 bd
       0.016010411 0.117778204 0.5083746 -0.054901272
000080 ff 09 7c 3e 96 bb e8 3e 14 23 81 3d be bb c9 bb
       0.24613188 0.45455617 0.06305519 -0.006156414
000090 d5 3d 22 3e bd b3 ef 3c d8 1c 2a bd 05 ed 9f bd
       0.158439 0.02926051 -0.041531414 -0.0780888
0000a0 61 40 df 3d 57 d8 ca bd fa e8 2f 3e 42 f2 0b be
       0.10900951 -0.09904545 0.17178717 -0.13666633
0000b0 f8 a1 29 3d 81 5e 08 be 12 44 a8 be b4 86 75 be
       0.04141423 -0.133173 -0.32864434 -0.23977166
0000c0 80 74 d5 bd b5 fb 72 be 4f a9 01 bd c9 33 b7 bd
       -0.10422611 -0.23728831 -0.031655606 -0.08945424
0000d0 ba c8 0c 3c f4 3f fa 3c 02 45 09 3e 1a ab 4e 3b
       0.008592779 0.030548073 0.1340523 0.003153509
0000e0 48 b9 c5 3d a0 33 9a bc 30 64 8c be 83 3d 8e bc
       0.0965448 -0.018823445 -0.27420187 -0.017363315
0000f0 6f 94 01 3e 5f ed 9a 3e a3 66 18 be ae 2a 30 3b
       0.12654279 0.30259225 -0.14882903 0.0026880908
000100 98 7f 2e be d9 82 fe 3c b5 ce a0 3c 4b bf 03 3c
       -0.1704086 0.031068252 0.019629816 0.008041213
000110 12 46 90 3d 7f 10 fb bc 89 9d 74 bd 78 fa cd 3c
       0.07044615 -0.030647514 -0.05972055 0.025143847
000120 2e 82 86 bd 20 b9 20 be e2 a9 83 bd ea 1b a3 3a
       -0.065677986 -0.1569562 -0.06428887 0.0012444232
000130 1b b7 8a 3d 3c b2 d9 3c 10 a4 1f be 9e b1 e3 3d
       0.06773206 0.026574247 -0.15589929 0.11117862
000140 c4 02 8f 3c e9 97 4c bd 18 fc 43 be 7d 63 16 3e
       0.017457373 -0.04994956 -0.19139135 0.1468639
000150 3f 44 09 3e 24 1a cd 3d c4 48 72 bd d2 19 95 bd
       0.1340494 0.100147516 -0.059151426 -0.072803155
000160 67 53 90 3d 31 74 e2 3d f5 3e 12 3e b5 9a 8f bc
       0.07047158 0.11057318 0.14281829 -0.017529825
000170 fa 56 48 3c a6 80 93 3d 74 8d 15 3e 13 03 ac bc
       0.012227768 0.07202272 0.14604741 -0.02099756
000180 74 08 42 3d e2 2c a9 3d dc fc 86 bd e8 99 49 be
       0.047371343 0.08260514 -0.06591198 -0.19687617
000190 c9 02 1e 3e 2c 95 10 bd 7e 48 f4 bc 4e 54 77 3d
       0.1543075 -0.03529851 -0.029819723 0.060383134
0001a0 a5 61 5d 3d 45 48 18 3d 62 01 0a bc 2d a0 92 bd
       0.0540482 0.037178297 -0.008423181 -0.07159457
0001b0 35 ed 72 3e 37 c4 54 bc 02 4b 96 3c c1 8f 13 be
       0.237233 -0.012986234 0.018346313 -0.14410307
0001c0 4a 34 f0 3d 0f 9b a6 bd 16 41 ee 3d 0c 28 88 bb
       0.11728723 -0.08135044 0.11633508 -0.0041551646
0001d0 3d 95 3a bd bd 6a a1 3d 8b a1 04 3d 68 85 ae bb
       -0.04555248 0.07881687 0.032380622 -0.005325962
0001e0 fc 29 a6 bd d3 d7 42 bd 7f aa 80 3d d7 8f 8e bc
       -0.08113477 -0.047569107 0.062825195 -0.017402573
0001f0 62 74 6f 3d 3d 43 0e 3e 68 7e 67 3c 1c 65 a2 bd
       0.0584606 0.13892837 0.014129259 -0.07929441
000200 90 86 10 bd 69 08 8e bd 1f b6 fb 3d 73 f6 0b be
       -0.03528458 -0.06935198 0.12290596 -0.13668232
000210 32 4d c8 bd a2 80 84 bc 99 3b 85 3d 41 f5 07 3e
       -0.09780349 -0.016174618 0.06505508 0.1327715
000220 e8 16 1c bd 3f 95 6c 3e 37 00 8e 3d 31 09 5f bd
       -0.038107783 0.23103808 0.06933635 -0.054452125
000230 56 b6 93 bd 81 46 42 3e 16 26 04 be 37 4f 2f 3e
       -0.07212512 0.18972208 -0.12905154 0.17120062
000240 54 25 d3 3d de 29 84 bc eb 82 23 bd 0f 1b 8d 3d
       0.10309854 -0.016133245 -0.039919775 0.06889927
000250 44 c5 b3 3d 54 1e 7a bd 03 54 fa 3c 90 c7 f1 3c
       0.0877786 -0.06106408 0.030557638 0.029514104
000260 6f 33 aa 3d 29 78 af bc 98 80 05 3e 5a ff fd bd
       0.083105914 -0.021419602 0.13037336 -0.1240222
000270 8e 09 15 be 69 e4 df 3a f5 99 d3 bd 2f bf d8 3d
       -0.14554426 0.0017081621 -0.10332099 0.105833404
000280 65 3d 62 bd 36 89 fe 3d 21 fb db bc 32 a7 02 3e
       -0.05523433 0.12428515 -0.026853146 0.12759092
000290 80 fc e5 bd a6 b0 49 3c 79 c4 9c bd 04 91 eb 3d
       -0.11229801 0.012310183 -0.07654662 0.11502269
0002a0 ee 9c b2 bd 54 5b ea 3c 7c 1d db 3d e3 3d a0 bd
       -0.08721338 0.028608002 0.10698983 -0.07824304
0002b0 13 cd 35 3d e6 c0 18 3e 70 30 fe bd c3 19 83 bd
       0.044385027 0.14917335 -0.124115825 -0.06401398
0002c0 65 5e 07 3e 92 23 9a 3c 41 b6 ce bc c0 12 d1 3a
       0.13219602 0.01881579 -0.02523339 0.0015951023
0002d0 08 3e 39 3c 2a d2 ab 3d ca 0d 84 bd 89 a2 82 bc
       0.011306293 0.08389695 -0.064479426 -0.015946643
0002e0 ab 1e 2b 3e b6 61 0b be 50 5c f8 bd 20 98 e5 3d
       0.16710918 -0.13611493 -0.12126982 0.11210656
0002f0 a0 52 20 3e 03 f2 b2 bd e4 2a 10 be fc 5c 70 be
       0.15656519 -0.08737566 -0.14078861 -0.2347297
000300 70 75 a3 3d b7 77 95 bd 1f 18 d9 bc eb a4 56 bc
       0.07981384 -0.072982244 -0.02650076 -0.013100843
000310 79 72 f5 3d 01 7b 3a bb f6 b2 31 3d 88 58 76 bd
       0.119847246 -0.0028454664 0.04338356 -0.060143024
000320 ce be ff 3d 4c df 83 bd 01 65 8e bd bd 39 d6 bb
       0.12487565 -0.06439075 -0.06952859 -0.0065376447
000330 97 90 97 3d c2 bc 77 bd b5 5d f4 39 84 c8 ba 3d
       0.07400625 -0.060482748 0.00046609124 0.091202766
000340 82 ae 10 3d 3b c9 fd 3a 8b 2e 3a bd 18 29 1a be
       0.035322674 0.001936234 -0.045454543 -0.15054739
000350 15 18 ac 3d d8 dd 9f 3d 27 33 41 bd 7b 49 d2 bd
       0.08403031 0.07805985 -0.047167923 -0.102679215
000360 11 38 41 be 33 46 4b bd 72 07 16 bd 04 5e 11 be
       -0.18869044 -0.049627494 -0.036628194 -0.1419602
000370 8c d9 37 3d 4d 3c e0 bd e8 30 c2 bd 68 2a d1 bd
       0.044885203 -0.109490015 -0.094819844 -0.102131665
000380 1f 56 ce 3d 22 9e 5f bd b8 e7 86 3d fe 30 bd bd
       0.1007502 -0.054594167 0.065871656 -0.0923786
000390 d2 0d 61 bd 8e 5f 23 3d bf f8 28 3e 76 1b 58 3d
       -0.05494482 0.03988605 0.16501139 0.052760564
0003a0 96 da 56 3d cd 6b 96 bd 42 30 da bd ee f7 06 3e
       0.052454554 -0.0734478 -0.10653736 0.13180515
0003b0 5a 4b 39 bd 81 7b d7 bd bd b2 18 bd 2d 96 56 bd
       -0.045237876 -0.105216034 -0.037279833 -0.052389313
0003c0 28 f3 9b 3d c7 1e 36 bd ba 1d 82 bd d1 fa e9 3c
       0.07614738 -0.044462945 -0.06353326 0.028561981
0003d0 d8 82 b0 bd 72 e1 00 3e b9 c2 97 bd d4 8e 91 bd
       -0.086187065 0.12586 -0.07410187 -0.071073204
0003e0 1c 7c a5 bd 08 a0 17 bd c7 5f b7 bc e8 4b 65 3d
       -0.080803126 -0.037017852 -0.022384537 0.055980593
0003f0 33 d6 58 3d 2e 21 0d 3d c3 0b 1b 3e 15 bc 9f bb
       0.05293865 0.03445547 0.15141205 -0.004874716

lstm.bias_ih_l1 f4 [256]
000000 cc cb 20 bf 35 e8 93 be 86 a5 76 bb 90 dc 81 bd
       -0.6281097 -0.28888097 -0.003763528 -0.06340897
000010 3a aa 88 bd 61 e0 7d bd db c6 45 be 60 dd ff be
       -0.06673093 -0.061981563 -0.19314139 -0.49973583
000020 d8 b8 c8 be 3d d4 ef bc 3a 5d 6b 3d 96 c6 0c bf
       -0.39203525 -0.029276008 0.057461955 -0.5499052
000030 cc 2d cf bd 3a 99 91 be 4d 67 b7 be 60 90 20 be
       -0.10116157 -0.28437215 -0.35821 -0.15680075
000040 16 ec 25 bf 6f 05 16 3d a0 fe 58 be c5 2b 3b be
       -0.64813364 0.036626276 -0.21190882 -0.18278416
000050 a0 e5 cf bd 41 a5 13 bf bd 17 0f bf ea f8 4b be
       -0.10151219 -0.5767403 -0.55895597 -0.19919172
000060 d2 11 3e be 64 7b 9b be 77 6e 39 bb 25 e0 76 3c
       -0.18561485 -0.30367577 -0.0028294602 0.015068089
000070 bc 39 35 bd 6e 97 ba bd 5e 8c 89 3d 4d f5 6f bf
       -0.044244513 -0.09110914 0.06716226 -0.93733674
000080 e2 f2 73 3d 33 68 cd 3c ce 1b ee bc c4 9c 36 be
       0.059557803 0.0250741 -0.029065993 -0.17833239
000090 05 d3 a8 bd 8d 5a 04 be f9 e4 64 be ea 07 b9 be
       -0.08243374 -0.12925167 -0.22352971 -0.3613885
0000a0 b1 25 6e bf 51 b8 2f 3d 77 8c 6d be 92 45 0e bf
       -0.9302626 0.042900387 -0.23198114 -0.55574906
0000b0 25 1f 33 be 61 ef e6 bd 07 d3 d4 3c e6 93 3e bd
       -0.1749235 -0.11276127 0.025979532 -0.046527766
0000c0 5d 6b ad be 22 63 e8 bd cd bf 14 bf d5 d1 6d be
       -0.33870974 -0.11347033 -0.58105165 -0.23224576
0000d0 fd dc 5d be d3 f4 ea bd 14 59 76 be d1 66 53 bf
       -0.21666332 -0.11472478 -0.24057418 -0.8257876
0000e0 2b 49 d6 bc 00 ba 21 be ca db 0c 3d 76 9e f3 be
       -0.026157936 -0.1579361 0.034389295 -0.47581834
0000f0 f7 82 b1 bd 38 18 50 3d da 11 a9 bd 84 1e c7 3d
       -0.08667558 0.050804347 -0.08255358 0.09722617
000100 8e 6d 08 bf 3a df 28 be 98 06 13 3e e1 e2 9c 3d
       -0.5329217 -0.16491404 0.14357984 0.07660461
000110 fe bc 01 be 6f e4 c5 3d 7d cf a1 3b 70 f3 e1 bd
       -0.12669751 0.09662711 0.0049380646 -0.1103276
000120 02 84 02 bd 2c 85 0a 3d 7f 03 ba 3a 50 7c 74 be
       -0.031864174 0.03381841 0.0014191716 -0.23875546
000130 97 ad 4b 3c fc e5 89 be db a8 32 be 40 8e 5b 3c
       0.012431524 -0.26933277 -0.17447226 0.013400614
000140 9f c3 12 be c0 92 a1 bb f5 cf cd 3d c1 41 56 bd
       -0.14332436 -0.004930824 0.1004943 -0.0523088
000150 81 06 5b bd 67 7f b0 be 19 53 e8 be 0d 87 94 bd
       -0.053473 -0.344722 -0.45375898 -0.072523214
000160 46 46 c6 bd aa f8 db bc 09 da 3e 3d eb 8a c5 3d
       -0.09681372 -0.02685197 0.046594653 0.09645637
000170 44 37 77 bd 81 ee 9b bd 5e 19 fc 3d f1 c1 ff be
       -0.06035544 -0.076138504 0.12309526 -0.49952653
000180 62 93 da 3c 43 9c ba 3d dd 71 37 3d 42 ab cf bd
       0.026681606 0.09111836 0.044786323 -0.10140087
000190 db 48 ee bd 3f b1 44 3d 33 9d 97 bd 98 bf 29 bc
       -0.1163499 0.048020598 -0.0740303 -0.010360621
0001a0 b2 2b f1 be 93 83 b3 3d 93 84 17 bd ac cb a0 bd
       -0.4710365 0.0876533 -0.036991667 -0.07851347
0001b0 63 b9 fe bd 6b ba 14 3d 32 30 83 bd 1e 05 41 bd
       -0.124377035 0.036310595 -0.06405677 -0.04712402
0001c0 41 25 60 be 44 09 ab 3d 2e c0 c5 bd af 16 24 bd
       -0.21889211 0.08351377 -0.09655796 -0.040060695
0001d0 53 16 c6 3d 22 67 26 bd d8 66 36 3d 49 6a 0f bf
       0.09672227 -0.0406257 0.044531673 -0.56021553
0001e0 f7 90 3d 3e de b1 08 be 08 e1 f8 3c d7 81 76 be
       0.18512331 -0.13349101 0.03038074 -0.24072967
0001f0 9a d8 91 bd 57 80 54 bd 7c 1c 93 bd e3 80 4b bd
       -0.071213916 -0.051880207 -0.07183167 -0.049683463
000200 51 ff c2 bd 58 3d 89 3c 0b 90 6a 3d d8 e4 2a bc
       -0.09521354 0.016752884 0.057266276 -0.010430537
000210 6f a5 d1 bd 22 cb 33 3d 40 a2 bb 3d 2f 66 bb bc
       -0.10236632 0.043894894 0.09161806 -0.022875873
000220 58 5b 70 3d 70 6b 7b 3d 7b f9 ad 3d 70 45 89 ba
       0.058680862 0.061381757 0.0849485 -0.0010472964
000230 46 f9 40 bd f8 86 95 bc a3 c4 b5 3d d3 72 00 bc
       -0.047112726 -0.018252835 0.08875396 -0.007839876
000240 29 a7 24 3c dc ca 99 3d 92 0c 87 3d 0f 5a 49 bc
       0.01004962 0.075093955 0.065941945 -0.012289538
000250 46 4c 7e bd 12 2b cc 3d a5 48 af 3c 1f c1 a1 3c
       -0.06208446 0.099691525 0.021396944 0.019745408
000260 55 1b 15 3d 70 97 89 3c ce 40 9d 3c 73 18 5c 3d
       0.03640302 0.016795844 0.01919594 0.053734254
000270 d4 8d 52 3d 63 1c ba bd cc df bd bd f3 35 4d bd
       0.05140479 -0.090874456 -0.092712015 -0.050100278
000280 37 af ea bc 98 ba 26 3d 15 e1 a5 3c e4 cc 12 3d
       -0.028648002 0.040705293 0.020248929 0.03583993
000290 fc 09 7d bc 1e ad 95 bb ab 2d 8c 3d f7 e1 d4 bc
       -0.015444275 -0.0045677563 0.06844648 -0.025986655
0002a0 d7 f1 a1 3c f5 15 0e bc 06 b4 ad bd 73 f9 98 3d
       0.019768639 -0.008672227 -0.08481602 0.07469454
0002b0 bb 34 0d 3d aa db 35 bd e4 43 17 3d 19 5f ff bb
       0.034474116 -0.04439894 0.03692998 -0.007793319
0002c0 a6 71 9d 3d 0d b6 a9 bd 35 99 89 bc b4 d6 28 3c
       0.07687692 -0.082866766 -0.016796688 0.010305095
0002d0 ff 91 17 bd 52 97 1c bd 9b d2 a3 3d 22 2e 90 bd
       -0.037004467 -0.038230248 0.07999154 -0.07040049
0002e0 16 be 1c 3d ce d0 f2 bd f6 a8 b7 bd 7d 31 3b 3d
       0.038267218 -0.118562326 -0.089677736 0.045701493
0002f0 7e 5f 83 3d 9f ee 1c bd 3e d3 da 3d 6b 51 4a 3d
       0.06414698 -0.038313504 0.106848225 0.049394052
000300 9f bf 20 bf 33 4d 9a be 37 27 fc bc 4e ee bb bd
       -0.6279239 -0.30137023 -0.030780418 -0.091763124
000310 54 c0 7d 3d b1 92 43 3d 4f 6d 14 be 90 33 a6 be
       0.061950997 0.047747318 -0.14494823 -0.32461214
000320 a1 f8 b7 be 72 d4 47 3d ba 00 b4 bc 14 37 05 bf
       -0.35931876 0.048786588 -0.021973003 -0.5203717
000330 50 fc 20 bd fb 5e b2 be 95 ad 96 be 25 b6 7c bc
       -0.039303124 -0.3483809 -0.29429308 -0.015424286
000340 2c 60 3f bf 5f c7 13 3e 17 65 05 be 6d 62 30 be
       -0.7475612 0.14431523 -0.13026844 -0.17225046
000350 fa 61 5c 3d 6a 3c 31 bf ee 27 17 bf cf 81 c6 bd
       0.053804375 -0.6923281 -0.590453 -0.09692728
000360 21 ed 1b be e5 7c 9f be dc eb 87 3d df 3a db bc
       -0.15227176 -0.31149974 0.066367835 -0.02676147
000370 8d 84 b6 ba 2d 10 c4 bd d9 72 9c bd 15 69 46 bf
       -0.0013925001 -0.09573398 -0.07639093 -0.7750409
000380 77 1a 67 3d e2 30 5d bd b0 dd 82 3d c7 05 da bd
       0.056421723 -0.054001696 0.0638994 -0.10645633
000390 67 a5 1f be e8 5e 9f be 2f 7a 3f be a6 02 16 bf
       -0.1559044 -0.31127095 -0.18698953 -0.5859779
0003a0 87 e7 5c bf b8 54 19 be e5 6d 9e be f3 13 13 bf
       -0.8629078 -0.14973724 -0.30943218 -0.57452315
0003b0 33 42 6d bd 01 f9 86 3d 58 53 af bd 25 87 68 bd
       -0.05792446 0.065904625 -0.085608184 -0.05676951
0003c0 d1 33 9a be b8 93 02 bd 0a cd 14 bf ba 2d 0f be
       -0.30117658 -0.031879157 -0.58125365 -0.13982287
0003d0 6b 7a 56 be 2c c7 ee bd b7 d3 60 be e8 c1 4d bf
       -0.20945136 -0.11659083 -0.21955763 -0.80374
0003e0 0c aa 89 3d 05 73 24 bd 7a 4c 68 bd e7 cf 0e bf
       0.06721887 -0.040148754 -0.05671356 -0.55785984
0003f0 5f c1 82 bd b7 a5 79 3b cd 89 89 bd 89 bf 89 bd
       -0.06384539 0.0038093159 -0.067157365 -0.067259856
