backend/Model_Pytorch/RNN_Model/checkpoints/latest_checkpoint.pth (torch, 673430 bytes, 27 tensors)

lstm.weight_ih_l0 f4 [256, 19]
00000000: 9499 203d b259 d1bd 4fdc c6bd 24ba 8b3c
00000010: adcf 913d 873e d9bd d5a5 e33d 3282 68bd
00000020: 0d72 c8bd a763 b3bd c0fb 2cbc 7486 283d
00000030: cd14 18bc f703 b73c 03f9 86bb 5873 8b3c
00000040: 18fa febd 9005 9bbd 3c3b 483d 7cc1 323d
00000050: c2f0 1f3d e6b0 dd3d a070 2b3e 687d bdbd
00000060: 44ae 123e edca ffb9 0f4e 273e e709 203d
00000070: d3bb 4f3d ce4e 01be 1175 bbbd 2fda 843b
00000080: a614 51bd a90e 453d 8fe3 f03c b59f b53c
00000090: 17ed 1d3e d0f4 01bd c487 eb3d 368c b1bd
000000a0: c38c 59bd a583 65bd 879e e9bd d33c 2dbd
000000b0: 3a01 a9bd 4438 a13b b69a 17bd 8ff9 093e
000000c0: f73b e2bc b34b b93c 83c9 8bbd 4097 9fba
000000d0: dda8 083e f5e9 00be fcf9 78bd 000c 9cbd
000000e0: b0e7 c13c 1096 1e3e 7f4f 3dbd 8e1f e9bb
000000f0: 71b6 9fbc dc86 d13d 07ed 9a3d d293 133c
00000100: b8ed cebd deab 3cbd 5b23 1f3b 4c71 e23d
00000110: ef96 303e 640e a33d 368c f1bb c4c9 2cbb
00000120: 6188 d5bd ede7 883d 204a d83d 5bad b93d
00000130: edea 5d3d ae21 6a3c 0b9b debd 65fe 30bd
00000140: 74a5 473d 8ebc 083e 6dbe 0e3c a177 303d
00000150: cb6b bd3d b668 8c3d 28f4 dc3d 705d edbd
00000160: b31f 22bd d628 e43d c74c 58bd afc2 b7bd
00000170: 6baf ce3d a0b1 adbd d523 20bd 8a93 be3d
00000180: 42db 123d 03fa c63d 9933 04be 2638 8dbd
00000190: eab0 b13d e75b c93d 0037 003e f084 4cbc
000001a0: fab5 7cbd ba54 9d3c 48ef e03d 5ead c73c
000001b0: 39f9 d23c 71d4 c8bd 6c39 e5bd aba5 943d
000001c0: 1c02 e73c 42f2 d03c b5f6 f4bc b797 ed3c
000001d0: 3319 19bd 0587 9f3b c562 c0bd 7425 f43d
000001e0: adf4 013c b996 1e3e 702b 5dbb bc6f 123d
000001f0: 42be 883d 4c11 163e 8213 1b3e c5c0 35bd
00000200: 0cc1 123e 153b 0a3e 8fba 153e 9a19 02bd
00000210: 09a8 ba3d 8a74 bfbd 92d0 b6bd f11a 963d
00000220: a9e3 87bd dab2 463d 738c 66bd 8280 c73b
00000230: bde2 e7bc f3ae ad3d 1eac 13bd 1693 ab3d
00000240: 697a 5abd a2e3 0f3d ab82 fa3c c1d5 a33d
00000250: efed 65bd b630 1fbd 2612 82bd b06e cabd
00000260: 2368 99bc a095 a0bd 5d51 f13d 09a6 3bbd
00000270: 8e70 063c aa51 cbb8 4152 ad3d 9d4e c2bd
00000280: 3a12 ae3d 3a50 fc3d 4ead 013e ca4f cd3d
00000290: 290a 943d b855 4cbc c765 573d 25ec d4bd
000002a0: 1638 a4bd 089b cabd e1b0 453d 0070 58bc
000002b0: 8962 7bbd ac93 4ebd 1c32 c13b 2379 9ebd
000002c0: 9950 38bd b09c d9bc 4993 c63d a56a 163d
000002d0: 198f b53d a964 553d 6d1b e7bd 9e68 b1bd
000002e0: 03f6 633d 5aee d63a 84fe 393e 8b2b 3abd
000002f0: a2c9 94bd 8ed1 8e3c d166 55bd 1461 2ebc
00000300: d250 e9bd 0046 1dbc 5c7a 893d 4854 92bb
00000310: 45cc 293d c08c 8bbd cb6a b7bd 68c2 003d
00000320: 5fb4 d33d bf71 0bbc ef9e 993b 9986 8fbd
00000330: 3f20 a53d cb25 0ebc cf8c 5e3d babb 2e3c
00000340: c682 66bd 7e1a ccbd 8689 b53d ee41 ff3c
00000350: b7c8 7bbd 0da4 98bc 59b4 433e d593 f33d
00000360: fbc8 c03d 0b01 153d 6af2 043e dc5e d03c
00000370: 4bce dbbd e480 b63d e17b 7ebd 3298 1cbc
00000380: f216 283e bf00 69bd bca5 0a3e 2eb9 1abd
00000390: 5439 223d d2d3 d4bd 11c0 5dbc c079 c2bd
000003a0: f552 8b3d 820a 153d 9905 abbd 8592 753d
000003b0: 1470 0e3e 18a1 013d 306a 9d3c 2620 c6bd
000003c0: 8cca 80bd bc43 57bd d67e 3d3d 5c40 373d
000003d0: dddd 463e 81e6 c7bb 91db e7bd cc97 a43d
000003e0: 4f98 9bbc c8a5 c83d 9c01 f1bd 2002 48bd
000003f0: ff96 be3d 23d3 69bc 00d0 793d 68ad 2cbc
0.039208964 -0.10222186 -0.09709989 0.017056532 0.07119689 -0.10607629 0.11115614 -0.05676479
-0.097873785 -0.087592416 -0.010558069 0.04114385 -0.009282303 0.022340758 -0.00411904 0.017022774
-0.12450045 -0.0756942 0.048884615 0.043641552 0.039047964 0.10824756 0.16742182 -0.09252435
0.1432429 -0.00048788582 0.1633837 0.039071944 0.050716233 -0.12627718 -0.09153188 0.00405433
-0.051045083 0.048109684 0.029405383 0.02217088 0.15422474 -0.031727612 0.115005046 -0.08669321
-0.053112756 -0.05603375 -0.1140719 -0.042294335 -0.08252187 0.0049200375 -0.03701278 0.13474105
-0.027616484 0.022619104 -0.06825545 -0.0012175813 0.13345666 -0.12589248 -0.06078528 -0.07619476
0.023670048 0.15486932 -0.04621839 -0.0071143573 -0.019496175 0.102308005 0.07564741 0.009007411
-0.10103935 -0.046062343 0.0024282548 0.11056766 0.17245077 0.07961729 -0.007371451 -0.002636538
-0.10426403 0.06684861 0.10561013 0.09066268 0.05417912 0.014290256 -0.10869416 -0.04321136
0.048741773 0.13353178 0.008712393 0.043082837 0.092490755 0.068559095 0.107887566 -0.115900874
-0.039581012 0.11140601 -0.052807596 -0.0897268 0.10092052 -0.08481145 -0.039096672 0.093054846
0.03585363 0.09715655 -0.12910308 -0.06895475 0.08676322 0.09831982 0.12520981 -0.012482867
-0.061696984 0.01920544 0.10983139 0.02437466 0.025753604 -0.09806145 -0.11192593 0.07258161
0.028199248 0.025506143 -0.029902795 0.029003007 -0.037377547 0.0048683905 -0.09393839 0.11921206
0.00793187 0.15487184 -0.0033747815 0.03575109 0.06676914 0.14655036 0.1514416 -0.044373292
0.14331454 0.134991 0.14621948 -0.031762697 0.091140814 -0.093484 -0.089265004 0.073293574
-0.066352196 0.04851041 -0.056286287 0.0060883174 -0.02830636 0.084806345 -0.036052816 0.08377664
-0.053339396 0.035129197 0.030579885 0.07999755 -0.056135114 -0.038864814 -0.06351118 -0.09884393
-0.018726414 -0.07841039 0.11783097 -0.04581264 0.008205546 -9.6950054e-05 0.08462954 -0.094876505
0.0849957 0.123199895 0.12663767 0.10024984 0.072285004 -0.012471609 0.052587297 -0.103966035
-0.0801851 -0.09892851 0.048264388 -0.013210297 -0.061373267 -0.0504338 0.005895866 -0.07737949
-0.04499874 -0.026563972 0.09696061 0.036722798 0.08865184 0.05209795 -0.11284528 -0.08662532
0.055654537 0.0016397939 0.18163496 -0.045451682 -0.07265021 0.017433908 -0.052100006 -0.010643262
-0.113923684 -0.009599209 0.06712791 -0.0044656135 0.041454572 -0.06813955 -0.08955916 0.0314354
0.103371374 -0.008511006 0.004688136 -0.07008094 0.08062791 -0.008676003 0.054333504 0.010664875
-0.05627706 -0.099659905 0.08864121 0.031159367 -0.061470713 -0.018632913 0.19111766 0.11893431
0.09413334 0.036377948 0.12983099 0.025435857 -0.10732707 0.08911303 -0.06212986 -0.009557771
0.16415003 -0.056885477 0.13539785 -0.037774257 0.039605454 -0.10391964 -0.013534562 -0.09495878
0.06802932 0.036386974 -0.08350677 0.059954185 0.13909942 0.03164777 0.019215673 -0.096741006
-0.06288633 -0.05255483 0.04626354 0.044739112 0.19420572 -0.0061004763 -0.11321176 0.080367655
-0.018993525 0.09797245 -0.11767885 -0.04883015 0.09306144 -0.01427153 0.06098938 -0.01053939

lstm.weight_hh_l0 f4 [256, 64]
00000000: d4b2 2bbd 220b b7bd 6362 8ebd 71ab f33d
00000010: 5481 5e3d 5fd8 28be ea61 be3c 996f 83be
00000020: 390e 833e 180e 15bb 4e43 783e 8011 b23d
00000030: f4bc 8f3d a2d5 103e 6e72 963c e24c acbd
00000040: 1fae 383e 62fd 8c3d a682 3fbe c8bb aebc
00000050: 3dfe a7bd e64d 00be a4e3 2bbd fe28 973d
00000060: dc77 403e 8f72 1bbe 3355 8bbe bf21 30be
00000070: 7d3a 13bc 45d1 0cbd 4b0c a2bc 99db 9abd
00000080: 45d1 e7bd 4cce 1bbe 4b67 b1ba b22a e7bc
00000090: df5a 3d3e f4c8 b8bd 7e70 0bbe 8cab 82bd
000000a0: c106 863b 773d bdbd 29a0 eabc f9ab b8bc
000000b0: 399a 0bbe f28b 2f3c 3b5b 9b3d 406d e73d
000000c0: c531 ae3e 5652 42be 0daf c7bd 1405 ffbd
000000d0: 6525 913d 8b5f ad3e 3c7c 8b3e 94e3 8b3d
000000e0: 40ab 1e3e 2143 5a3e 5828 473e 9873 6a3e
000000f0: 9d68 1cbd 71bc 893d 5bda 01be 7d04 de3d
00000100: f086 ddbd a6e9 6a3d 7413 163e 5c37 183e
00000110: 7ec7 fabb ff36 b33c d90d dcbd 18f9 0fbe
00000120: a31d 1e3e d1b7 f53d f114 ecbd cc31 45bd
00000130: 7567 6aba 31bf 523d 0333 6abc b4e6 00bd
00000140: d542 403d bb74 e0bb 33e3 aebb 6d4e 94bd
00000150: 8e91 92be c6be 7fbc 2d6b 9d3d bebe b33c
00000160: f5e5 10bc 06c2 c93d 59c3 c9bc 7dc6 c53c
00000170: 3442 10bd deac debd 5428 58bd 41a8 fe3d
00000180: 72dd 853d 2b81 abbd f717 a23d 2f40 e23c
00000190: 85be 99bd 7879 8f3d 5e63 e23d 48a8 7bbd
000001a0: 2def 7a3d 0ad1 c6bd 8ed3 03be 5c96 d6bc
000001b0: 648d dfbd d647 1bbe dfc4 693d 6682 91bd
000001c0: 0391 59bd 5352 083e 9b39 a5bc bbb1 9bbd
000001d0: 0d34 b5bd bf04 263d 9bc3 803d de3d e9bd
000001e0: 7092 b5bd 6829 45bc 36f8 bb3b 6bff 4bbd
000001f0: 782b a5bd a86a 563c 6383 09bd f8f9 6b3d
00000200: a144 e53d 0adf 5cbd efe2 82bd 6cda 4bbc
00000210: 1c67 fb3d 1921 5b3c a691 433e 54a6 0bbe
00000220: 1629 56bc 4df2 dfbc db0d 3f3d 5a2e 363e
00000230: d67b 003e abe6 993c 35c4 b3bd cae0 ea3d
00000240: 1cd1 99bd 7049 7e3d a5f1 89bd a2c1 283d
00000250: 39aa 0abe cf7d d9bb 8d04 bf3d a451 fdbc
00000260: 9093 f0bd 5adc 72bd 7da2 8b3d 626a f73c
00000270: aed2 0b3e a414 4c3d 9d47 e23d 046f ff3d
00000280: ac3f eabc ffea 15be 0d49 95bd 3e4f e43d
00000290: 1658 79bd cd51 3abe 8973 513e f2b8 0fba
000002a0: 5c00 d93d 09e2 03be c795 60bd 4e0a f2bd
000002b0: a10f 0c3d ff16 c5bd 7ebc f1bd 142d 223e
000002c0: 615e 033e 7f47 c13c bb7d 83bd aa28 903d
000002d0: 6e64 93bb 75c8 acbd 694a 583e 6058 163d
000002e0: 75bf d73d 51a3 9dbd efd5 adbd e970 b8bc
000002f0: 14da 093d faba 313d 0122 8bbd b781 7b3e
00000300: c8cd 113d d4b3 28be 9f99 373d 2f38 3bbd
00000310: bf1b 1e3e 8268 063c 0feb 8cbd d813 26be
00000320: a35f c13d 2761 afbd 4b62 02be cd28 ab3d
00000330: 5fc1 3bbb 9eea 8d3d d5b1 26bd 48f0 ab3d
00000340: e98c 833d 5107 b83d 14cf 33bd 8ab2 0dbe
00000350: 90ff b0bd 45c4 933c f983 193e 9d6e 97bd
00000360: ea66 17bc 5169 2fbe a21d 093d 198c 1cbe
00000370: da26 c7bd f213 293d 836b e13d d092 9a3d
00000380: e1bf 46bd 711b 063e 6804 783c f079 e9bd
00000390: a57b 0f3d 62fd 003e 1a27 3fbd 12ae b6bd
000003a0: cd8d 7cbc 4804 ba3d 374e 59be 209c 12bd
000003b0: efb0 f0bd 2a88 a8bd 6391 023e 825d f83c
000003c0: 498b 223e fe4f adbc 9f4b dfbd 1949 96bc
000003d0: 43a7 b63d 0d0e be3d 3958 28bd f922 e63d
000003e0: 68cc a9bc adfd 68bc 7222 a2bb c4f4 aa3d
000003f0: 7585 2cbd d8a8 11be fc82 00bd ddff 2b3d
-0.04191859 -0.0893767 -0.069523595 0.11897934 0.054322556 -0.16488789 0.023240048 -0.2567108
0.2559679 -0.0022743996 0.24244425 0.08694744 0.07018462 0.14143994 0.018365111 -0.08413102
0.18035172 0.068842664 -0.18702182 -0.021329775 -0.08202789 -0.12529716 -0.041965142 0.073808655
0.18795723 -0.1518042 -0.2721344 -0.17200373 -0.008986113 -0.034379262 -0.019781252 -0.07561416
-0.11319212 -0.15215415 -0.0013534812 -0.0282186 0.18491696 -0.09022704 -0.13617131 -0.06380376
0.0040901606 -0.09240239 -0.028640823 -0.02254294 -0.1363305 0.010714518 0.0758576 0.11300135
0.34022346 -0.18976721 -0.09750185 -0.124521405 0.070872106 0.33861956 0.2724322 0.068305165
0.15495014 0.2131467 0.19448984 0.22895658 -0.038185704 0.067253955 -0.12680952 0.108407
-0.10816753 0.05735173 0.14655858 0.14864868 -0.007653176 0.02187681 -0.10744829 -0.14059865
0.15440993 0.11997951 -0.11527432 -0.048143193 -0.0008941808 0.051451866 -0.014294389 -0.031470016
0.046938736 -0.006849853 -0.005337143 -0.07241521 -0.28626674 -0.015609449 0.07686458 0.021941539
-0.0088438885 0.0985146 -0.024629282 0.024142498 -0.035219386 -0.108728155 -0.052772835 0.12434436
0.06536378 -0.08374246 0.07914727 0.027618496 -0.07507042 0.0700559 0.11054109 -0.061439782
0.061263252 -0.0970784 -0.1287367 -0.026194744 -0.1091564 -0.15164122 0.057072517 -0.0710495
-0.05311681 0.13312654 -0.02016907 -0.07602259 -0.088478185 0.04053187 0.06287309 -0.11388753
-0.08865821 -0.012033798 0.005736376 -0.049804132 -0.08064932 0.013086952 -0.033572566 0.057611436
0.111947306 -0.053923644 -0.063909404 -0.012442213 0.12275526 0.01337459 0.19098529 -0.13637668
-0.013071319 -0.027337218 0.046644073 0.17791119 0.1254724 0.018786749 -0.08777658 0.11468656
-0.075105876 0.062081754 -0.06735543 0.041200288 -0.13541497 -0.006637312 0.0932704 -0.030922718
-0.11746895 -0.059292175 0.068181016 0.030202094 0.13654587 0.049824372 0.110488154 0.124723464
-0.028594814 -0.14640425 -0.07289324 0.11147927 -0.06087502 -0.18195267 0.2045423 -0.0005482576
0.10595772 -0.12879194 -0.05483034 -0.11818372 0.034194592 -0.09623527 -0.1180353 0.15837508
0.12828971 0.023593662 -0.064204656 0.07039006 -0.004498056 -0.08436672 0.21122135 0.036705375
0.105345644 -0.07697166 -0.0848807 -0.022514777 0.03365524 0.043391205 -0.06793595 0.24561201
0.03559664 -0.16474849 0.04482424 -0.045707878 0.15440272 0.008203628 -0.06880771 -0.16218507
0.094420694 -0.08563452 -0.12732808 0.083573915 -0.0028649194 0.06929515 -0.040696938 0.083954394
0.06423361 0.089857705 -0.043898657 -0.13837638 -0.08642495 0.018037925 0.1499175 -0.07394145
-0.009240845 -0.17130019 0.033475526 -0.15287818 -0.09724207 0.041278787 0.11006834 0.075475335
-0.048522834 0.13096406 0.015137769 -0.11400211 0.035030026 0.12596658 -0.04666815 -0.0891992
-0.015414667 0.09082848 -0.21221243 -0.035793424 -0.117524974 -0.08229096 0.12750773 0.030318025
0.15873446 -0.021156307 -0.109030955 -0.018345403 0.089186214 0.09280024 -0.04109976 0.11237139
-0.020727351 -0.014220637 -0.004947954 0.083474666 -0.042119462 -0.14224565 -0.031374916 0.041992057

lstm.bias_ih_l0 f4 [256]
00000000: 0d7e 08bd ff06 1bbd b250 173b 9ada 4ebd
00000010: 7828 143e 992e 983d 0d58 293d cfbd 1abe
00000020: 6ab6 b33d 44b6 5c3d 623c 3b3a d012 bcbc
00000030: 55d5 83bd f223 593b a6bb 563d 483a ef3b
00000040: a1a0 c43d 5f6c c7bc 7837 1aba 0d3f b93c
00000050: 01c1 963d f5a0 853c 806f d0bd 0da7 32bd
00000060: 6818 a9bc 692e 19bc 509b 82bc d3ba cebc
00000070: 22ff 0bbc 7963 99bc 167d 8a3c 82ae babd
00000080: df1b 27bd 311f d03d ebc1 7e3b b958 a9bd
00000090: 6c7e df3d d201 053e 3d8f 14bc e643 973d
000000a0: 2d03 783d 332f dabd c9c4 553c 78a5 e9bd
000000b0: d8b6 663d c87e 0f3d 0843 57bd 1b6b a03d
000000c0: d498 bb39 b2cd 86bd b838 fe3d c6fa a0bd
000000d0: c6ef 033d 9f52 313d 67f2 18bc 0ed8 fdbd
000000e0: ad67 333c 3d44 e73b 1d54 3dbc 3111 1c3d
000000f0: dced ac3d 9fec aebd 7a99 44bd affb b53c
00000100: 9afe 993d 0aa2 7d3d aa0e 133e f76b ed3a
00000110: 02ad bb3c 4175 dd3d 1ebd e83d 6b8b 5d3d
00000120: ccbc 97bd 2547 433d e73e 643d b0c8 abbd
00000130: 0b0b 303e 9852 33bd 33a8 793c 34d8 87bd
00000140: 2cc4 c43d 93f0 e03d 8b96 05be 026b f33d
00000150: 8d9e f43d ce2c 8cb9 88e6 7e3c bfed 943d
00000160: 4363 dcbc 1114 ae3a e8d9 e23d 8687 e13d
00000170: 39ed eebd 3ad7 88bd fe17 5abc 69e2 8fbd
00000180: bcb8 ccbd 0734 7abd 6273 593d ae5a 993d
00000190: 4187 6c3d fbe6 5b3e 3a0f 883d 856f 943d
000001a0: ec28 b03d b883 cb3d b144 433e 1f68 fcbd
000001b0: fad7 473d 304b e33d 8743 d7bd 4138 f63d
000001c0: 3963 8bbd ad99 b33d 9ac0 663d 2a9b 0f3d
000001d0: fb91 c6bd 912b 053e 538e 2d3e 0d85 353d
000001e0: 735a 523d cee5 0b3e 794f a9bc bb5c d4bd
000001f0: 8be1 c13d 45b2 133e 9798 193d da31 583e
00000200: 0d22 f3bc 4e26 5bbd 61b0 e03d 24bc 0cbe
00000210: 7fc2 94bd df12 743d 39f3 91bd 4697 8e3d
00000220: fb34 7e3d 7838 3f3d 151a 42bd 250f ab3d
00000230: 1b77 07be 609e 933c b550 6c3e 6164 f3bc
00000240: 8288 16bd 6919 ecbd bc2a 8c3d e4af a8bd
00000250: 1f2b aa3d 3547 d7bd 580a 7c3d b7c8 d03d
00000260: e630 ce3d 9354 28bc 9ae4 483d 772d 21be
00000270: 688f 0b3d a243 073e 6e1a 8abd 43df 07bd
00000280: 5d3d 79bd e666 80bd f096 9b3c d474 8d3d
00000290: 7ec1 c4bc c499 203d 3dc2 acbd 9bd5 5d3a
000002a0: 860a 27be 91dd 973d ea96 153e f224 ba3d
000002b0: 5c06 a53d 4837 2a3e d98a c83d 83ea 9cbc
000002c0: b838 7a3d a155 7e3c cee3 0b3e c7d8 213c
000002d0: 4f16 493d 1dbd 123e 48b7 543d 355b 91bd
000002e0: b7d7 3cbd 5113 233d bcf5 1e3d e8cd 133d
000002f0: 7581 de3d 08a3 10be f68f 1c3e 82d4 efbd
00000300: 9f4d 333e 138e 153d 2b05 bbbc 9b9c d0bd
00000310: c5f5 e0bd 057a 4ebd 38c0 52bd 9621 8dbd
00000320: f7a9 c23d 4b73 e1bd c437 8d3d 1fc1 83bc
00000330: 5d54 c6bd 1452 bfbd e693 e7bc a32d 21bd
00000340: f09f 333d 28bb 583d 87f5 5b3d ea54 243d
00000350: 1dca 4c3e 8349 ed3c f81c b33c 19ee df3d
00000360: 961c 933d 77c2 7fbd b77c 093d d85f 013e
00000370: 161f 27bd d1e3 cabd c33a d4bd faf3 d3bc
00000380: 759f a1bd 44e7 fbbc f7dd f53d 0026 a13d
00000390: 11ef 873d 7ba9 20bb ac16 233e 8518 c93d
000003a0: 4ba7 613d b435 1dbd 4510 68bd 91cc 3fbd
000003b0: 289a bdbd ff09 7f3c 36df 82bc 1439 cdbd
000003c0: 7733 07be 6053 dcbc 998b 063e f354 bfbd
000003d0: 9e0f fbbd b6aa 5dbc 64a5 8fbc 3870 bbbd
000003e0: 08d5 22be e68b 283d 37c1 e0bd e289 2ebd
000003f0: 5810 dfbd 2ca8 133e 5ed6 e8bc 962f 293e
-0.033323336 -0.03784847 0.002308887 -0.050501443 0.14468563 0.07430763 0.041343737 -0.15111469
0.08775027 0.05388476 0.00071424816 -0.02295819 -0.06437174 0.0033132997 0.05242505 0.007300649
0.0960095 -0.024343668 -0.0005882899 0.022613073 0.07361031 0.016312102 -0.10177517 -0.043616343
-0.02064152 -0.009349444 -0.0159432 -0.02523557 -0.008544715 -0.01872419 0.016905349 -0.09115316
-0.040798064 0.10162199 0.0038872908 -0.08268876 0.10912785 0.12988976 -0.009067354 0.073859975
0.060549904 -0.10653534 0.0130474055 -0.11408514 0.056326717 0.035033017 -0.05255416 0.07832929
0.00035781285 -0.06582202 0.12413162 -0.07860331 0.032211088 0.043291684 -0.009335137 -0.12394725
0.010950011 0.007057695 -0.011555699 0.038102333 0.084438056 -0.08541226 -0.04799793 0.022214739
0.075192645 0.06192211 0.14361063 0.0018113841 0.022909645 0.1081338 0.11364196 0.054088037
-0.07409057 0.04767527 0.05572405 -0.083878875 0.17191713 -0.04377994 0.015237856 -0.06633034
0.09607729 0.10983386 -0.13045709 0.118856445 0.11944304 -0.00026736263 0.015557893 0.07271909
-0.0269028 0.0013281127 0.110767186 0.11012177 -0.116663404 -0.06681676 -0.013311384 -0.07025606
-0.09996173 -0.061084773 0.053088553 0.07487999 0.057746176 0.21474831 0.06643529 0.07247833
0.08601555 0.09937233 0.19069172 -0.12324547 0.048789956 0.11098325 -0.10510927 0.12022448
-0.068060346 0.08769546 0.056336023 0.035060085 -0.09695812 0.130049 0.16948824 0.04431634
0.05135579 0.13661882 -0.020667778 -0.103692494 0.09466847 0.14423473 0.037499037 0.21112767
-0.029679323 -0.053503327 0.109711416 -0.13743645 -0.0726366 0.05958831 -0.07126469 0.06962447
0.062062245 0.046684712 -0.047388155 0.08352498 -0.13229029 0.018019855 0.23077662 -0.02971095
-0.036751278 -0.11528284 0.068440884 -0.082366735 0.08309006 -0.105116285 0.061533302 0.10194533
0.100679204 -0.01027407 0.049046136 -0.1574 0.03407231 0.13209394 -0.06743322 -0.033171903
-0.060849536 -0.06269626 0.018992871 0.06907049 -0.024018046 0.039209142 -0.084354855 0.00084623107
-0.16312608 0.07415307 0.1460835 0.09089078 0.080578536 0.1662265 0.09792108 -0.019154793
0.061089247 0.015523345 0.1366112 0.009878344 0.04909354 0.14329953 0.051932603 -0.070974745
-0.04610416 0.039813343 0.03880857 0.03608504 0.10864536 -0.14124691 0.15289292 -0.117104545
0.17510079 0.036512446 -0.022829613 -0.1018612 -0.10984377 -0.050409336 -0.051452845 -0.06891172
0.095050745 -0.110083185 0.06895402 -0.016083298 -0.0968406 -0.09341827 -0.028268766 -0.039350163
0.0438537 0.05291286 0.05370095 0.040120043 0.19998975 0.028965717 0.0218644 0.109340854
0.07183187 -0.062441316 0.033566203 0.12634218 -0.04080113 -0.09906734 -0.103627704 -0.025873173
-0.07891742 -0.030749924 0.12005227 0.07868576 0.06637395 -0.002451508 0.15926617 0.0981913
0.055091184 -0.038381293 -0.05665614 -0.04682595 -0.092579186 0.015566348 -0.015975576 -0.100206524
-0.13203226 -0.026895225 0.1313919 -0.09342375 -0.12258838 -0.01352947 -0.01753492 -0.091522634
-0.15901577 0.041149043 -0.10974353 -0.042611964 -0.10891789 0.14419621 -0.02842253 0.16522059

lstm.bias_hh_l0 f4 [256]
00000000: e5db 623d 2116 ab3c 0fa0 413c f851 283d
00000010: 4c77 0b3e f998 cbbd 3998 45bc 86fa 8dbd
00000020: c525 babc 0c2f 70bd 9a41 cbbc 91e1 97bd
00000030: 01ba dabd 8c74 8abd 877a 993d 4baf ac3d
00000040: 433e 593b 478f d53b 3904 80bd 5b36 18bd
00000050: a514 a83d e384 85bb b76e 333d 18da 85bc
00000060: 6478 713d 8a1b 233d 416e 80bd 4a43 133c
00000070: a0c0 ac3c aaec 0abd 956d 99bc d2be 02be
00000080: d9b5 3b3d 2f5c 143e 8171 953d 04d4 a03c
00000090: 371e 483d 4a1f bd3d 810c be3d 7a58 fd3c
000000a0: fde9 44bd d8b9 0eb7 98c4 c93d 209c eabd
000000b0: 7e21 a13b 7982 86bd 509f ffbd 52b6 2d3d
000000c0: d530 9dbd 787f 78bc b870 353e 1a97 a3bd
000000d0: 7b6d 00bd 3f39 653d 1dda bdbd ea6c d5bc
000000e0: a551 763d 08f8 823d 218a 1a3d 9afd c3bd
000000f0: 6866 8c3d b136 b4bd 2a4b 503d 57a6 203e
00000100: affb 553e 436b a3bc 9288 a73d a8db bd3d
00000110: 7481 e43d 4139 98bd 627c 513c 30ad dc3c
00000120: 2fad 223e 4556 8b3d 956e 893d f60c 85bd
00000130: 7514 2d3e 1634 0dbe d3ac 77bc 5167 01be
00000140: 8a0b f63d b63d 13bd d455 743a 9a5a 933d
00000150: 3bb6 933e 490e f73d 7b89 e1bd 1706 e6bd
00000160: 681a b03d 1e4c b13d f797 433d 4337 c93c
00000170: 397b a13d 6f22 6f3d 07fa c4bb d7f2 d4bd
00000180: 6de8 2b3d 4120 7dbd d0c5 4a3d d1f4 47bd
00000190: f092 cbbd 9813 5b3c fa2c 113d 2d99 493c
000001a0: a4c5 bfbd a26d bfbd 8588 283e df89 8d3d
000001b0: 65f1 ecbc 9201 263d 0f24 6dbd 248d 3d3d
000001c0: dc78 b03c c9a7 933c 60c7 a73c 3ed1 b53d
000001d0: c1b7 443d ac80 bcbb 8b9e 043d 11e3 a8bc
000001e0: 93e8 4ebd 719c b5bc 00af 75bc 96aa 5c3d
000001f0: 55d8 ba3d 0da1 d83d 87d3 59bd f893 713e
00000200: fc72 08bd 87db d9bd d54a a0bd 7f69 923d
00000210: 65d1 683d 9615 e93d eb70 a3bd 829c a23d
00000220: 08aa 1bbe cf07 fdbd ba0e 083e 1a93 4f3b
00000230: b7a3 cfbd 433b 873d 0752 2b3e f6f6 733d
00000240: 2dc1 f43d 0114 10be e236 1bbb 6a18 0fbe
00000250: 2086 57bd 55c8 babd 96e8 43bd 6b13 a3bd
00000260: baba bdbb b9a1 863d 1b38 403c efeb 3abe
00000270: 6a26 a8bd 033b 92bc 2634 e3bd 5f2c 153d
00000280: 56dd a43c 6a31 343a 283b a9bd ff32 f63c
00000290: 1a51 a03c 0e40 7d3d 2e6d 0dbe 7f17 5ebd
000002a0: 9718 02bd ab63 dcbd ae32 f83b b951 063d
000002b0: 5546 023d cb5d 26bd 2309 f83d 443f 8a3d
000002c0: c24c d03d 9f7f 17bd 55e0 7dbd ecd6 83bd
000002d0: 5823 813d dd9d 2c3e 9715 a6bd 39ba e1bd
000002e0: baa3 133e 9a42 b2bd f206 e9bd 60cf 8e3c
000002f0: 67c6 3fbd 3ab2 0cbe b5b5 163d 57c7 813d
00000300: bb94 5b3b c606 df3d cf66 50bd cf29 95bc
00000310: 6fb7 983d df14 953d 2a2c b8bd f7da 7cbd
00000320: 0bae a13d 0a35 30bc c2d9 d03d 5826 48bd
00000330: 766b cb3c 5d34 6e3d 9657 93bc 59c6 dcbc
00000340: 58cb fcbc 1821 a93d 9a26 20be 463d 84bd
00000350: fffd 363e c1ce d53c 2045 4d3c 61db cfbd
00000360: 929c b43d d331 c63d 2a11 873d 3f8b 113e
00000370: 768c 173d e15c 313d db72 98bd dea7 19be
00000380: 438a 5e3d 6dd7 0a3e f113 be3d 86fc cdbd
00000390: 793e c93d 5dd0 aa3d ac01 643e 6406 4d3d
000003a0: 5f1e b5bd a09a 3bbd 1459 49bc c43d db3c
000003b0: 3b3e 003d a7b9 093b 0a0c ae3c 8e2a 87bd
000003c0: 09ad 23bd 2380 b7bd 3e71 1e3d af84 c4bd
000003d0: 9143 65bd edcf ba3d 2cbd cd3d a855 b5bd
000003e0: 4857 c0bd 5ead bbbc bfa1 843d 1d8f ddbd
000003f0: 2e4d 9f3d 3dcf 4ebd fd7c 9e3d a297 d83d
0.05538549 0.020884575 0.011817946 0.041093796 0.13619727 -0.099412866 -0.0120602185 -0.06932549
-0.022723088 -0.058638617 -0.024811555 -0.0741607 -0.10680009 -0.06760511 0.07494073 0.08431872
0.0033148683 0.006517324 -0.062508054 -0.037161212 0.08207063 -0.004074679 0.043806758 -0.016339347
0.058952704 0.039821185 -0.06271029 0.008988211 0.021087945 -0.033917107 -0.01872901 -0.12768105
0.04582772 0.1448829 0.0729704 0.019632347 0.04885694 0.092344835 0.09279729 0.030925978
-0.04807471 -8.50713e-06 0.098519504 -0.1145556 0.0049173227 -0.065678544 -0.12481558 0.042410202
-0.076753296 -0.01516711 0.1771878 -0.07987805 -0.03135441 0.055962797 -0.092701174 -0.02605291
0.060136456 0.063949645 0.037729386 -0.09569855 0.0685547 -0.08799494 0.050852932 0.15688454
0.20896791 -0.019948607 0.081803456 0.09270412 0.11157504 -0.07432795 0.012786003 0.026938051
0.15886377 0.06803564 0.06710545 -0.06496613 0.16902335 -0.137894 -0.015116888 -0.12637068
0.1201392 -0.035947524 0.0009320651 0.07195015 0.28849968 0.120632716 -0.110125504 -0.1123163
0.085987866 0.08657096 0.047752347 0.024562484 0.07884831 0.058382448 -0.006011251 -0.103978805
0.041969705 -0.061798338 0.049505055 -0.04881746 -0.099401355 0.013371371 0.035443284 0.012304586
-0.09363869 -0.09347083 0.16458328 0.069110624 -0.0289237 0.04052884 -0.057895716 0.04627718
0.021542005 0.018024342 0.020480812 0.088778004 0.048026804 -0.0057526436 0.03237776 -0.020616086
-0.05051477 -0.022169324 -0.0149953365 0.05387362 0.09123293 0.10577593 -0.053180244 0.23591602
-0.033312783 -0.10637575 -0.07826773 0.07149028 0.05684032 0.1138107 -0.07980522 0.07940008
-0.1520158 -0.12355005 0.13286868 0.0031673373 -0.10138648 0.066031 0.1673051 0.059561692
0.11950908 -0.14070131 -0.0023683836 -0.13974157 -0.052618146 -0.091202416 -0.047829233 -0.07962688
-0.005790082 0.06573815 0.011732127 -0.18254064 -0.08210452 -0.017850405 -0.11093931 0.03641927
0.020125072 0.00068738183 -0.08263236 0.030053614 0.019569922 0.061828665 -0.1381118 -0.054221626
-0.031761732 -0.10761198 0.007574401 0.03279278 0.031805355 -0.04061679 0.12111118 0.06750348
0.101708904 -0.036986943 -0.061981518 -0.064374775 0.063055694 0.16857095 -0.08109587 -0.11021847
0.14417925 -0.087041095 -0.11378278 0.017432868 -0.04682007 -0.13739863 0.036794383 0.06336849
0.0033505398 0.10889964 -0.050879296 -0.018208412 0.07456862 0.072793715 -0.089927986 -0.06173226
0.07894524 -0.010754833 0.10197784 -0.048864692 0.024831515 0.058155406 -0.0179861 -0.026950048
-0.03085868 0.08258265 -0.15639725 -0.064569995 0.1787033 0.026099565 0.012528688 -0.10149265
0.08818926 0.09677472 0.06595071 0.14213274 0.03699919 0.043301467 -0.07443782 -0.15005443
0.054331075 0.13558741 0.09281147 -0.10057931 0.09826369 0.083405234 0.22266263 0.050054923
-0.088436835 -0.04580176 -0.012289304 0.02676285 0.031309348 0.0021015198 0.021245975 -0.065999135
-0.03995994 -0.08959987 0.038682215 -0.0959562 -0.05597264 0.0912169 0.10045847 -0.08854228
-0.093916476 -0.022909816 0.06476163 -0.10818312 0.07778393 -0.050490607 0.077386834 0.10575797

lstm.weight_ih_l1 f4 [256, 64]
00000000: 7ce5 0b3d 085b a73d a6e0 913d 9aac 00be
00000010: f064 49bd 01d5 f13c dfca febc dda4 7e3d
00000020: fb5a f23c 96a8 bbbd 3c51 ebbd 19b1 abbc
00000030: 4220 0bbe 318d c2bd 28c9 dc3c 55ff 993c
00000040: 1272 ad3d 5e96 263d eca5 263e 966b a3bc
00000050: c743 d6bc 81f3 76bd 2d25 34bd acce e4bd
00000060: 6db1 17bc 7876 523d b48c bfbc 18b8 163e
00000070: b82e 383e 6af8 9cbd c8f5 08be c206 91bd
00000080: 3004 95bd a844 953d f518 863d 359a c6bd
00000090: 60e3 9bbd adb5 093e 554b d23d a88f 23be
000000a0: a404 c4bd 7598 a6bc 87bf cabd 89e2 cdbc
000000b0: b910 8eba 0a45 dfbd 6212 fd3d ac59 2b3c
000000c0: 4dd7 c2bd 4c62 afbd 3823 baba 0fa2 4bbd
000000d0: b00f 00be 4e87 a8bd 2f79 3d3d d18b 4e3d
000000e0: a7a3 d53d c9a5 b2bd 02b8 e7bc febb 31bb
000000f0: 23a5 dcbb 59d5 5c3d 0270 953d 06d5 eabd
00000100: f54e 93bd 6b14 46be 2aed 94bd d3a9 1e3e
00000110: 1d9b 0b3e df46 f9bd 5357 843d 13d7 07bd
00000120: a57b 3a3e 6c8f 37bc 2e01 0e3e ac4b 683e
00000130: 1da9 173e 8225 3e3e 7a53 7f3c a499 b938
00000140: bd33 803d 1064 163d c850 e83c ddc5 e13d
00000150: 5503 e5bd 8aff fabd a6cf 583e dc7e dabc
00000160: 729a 793d e97b 063e a052 4a38 ad18 a43c
00000170: d1b7 27be 1950 d9bd 7d57 993d d3e6 8cbd
00000180: 7c47 41be bc95 733c f148 4c3d dc70 2a3d
00000190: 4fa3 33be 1872 52bd 35a7 163e d0e6 223d
000001a0: f243 86bc b578 9ebd 53bc bfbd 5bea 96bc
000001b0: dbd8 84bd 0e49 29bd 882e cdbc 5f66 82bd
000001c0: 5a2c 523c d0dd fe3d 88bb a63c e367 91bd
000001d0: 8293 14be 600d 7e3c 7c5c 8dbb ce01 f2bb
000001e0: 6d74 683d c5b3 c03c bc6b 0f3e 558f b33d
000001f0: b6a8 983d c102 ab3d a803 6bbd ddcc 5d3e
00000200: daf9 fd3d a08e 05be 2d8e d4bd 0018 c03c
00000210: 4d77 4cbd 55c7 eabc 019a 913d 36af 493d
00000220: fb3f d03c a8fc d3bd 3eec b1bd 786f 233e
00000230: 8842 9abd 70e1 17bd e8b2 913d b1d7 f5bd
00000240: c644 cb3d 182b 153e 426f 9abd b7a3 37bc
00000250: 641b 09be d804 dbbd 4d02 433d 5222 b5bd
00000260: 6306 903d 0472 b1bd d069 5f3d 84e2 2b3c
00000270: c7a9 543b ebc6 9abd f429 d03d 34ac 013e
00000280: d9ac e4bd fc0b f9bd c68b fd3c 042e 133d
00000290: 6295 2c3d fe65 b4bc 9cbb 743d 41ad 523d
000002a0: 773d 803c 351b cd3d ffcc 1abe 4001 39bd
000002b0: c196 e1bd 1e0a d23d 29c0 be3d 0953 653c
000002c0: 1463 b3bd 3463 643d f01c 803d 260f 973d
000002d0: 2493 8bbc c7c5 963d 66e3 bfbd ea31 a23d
000002e0: f850 00be 8260 aebd 8399 4c3d fb61 0bbe
000002f0: 0608 2e3d 2c5e 533d 5a64 20bc 6135 453e
00000300: 111e 8b3d 6052 84bd 947d c03d 096f f43b
00000310: 5280 a93c 176a 0fbe 3096 093e bfa8 12bb
00000320: df38 243d f906 3dbc 6769 bfbd 5336 9d3d
00000330: 917b ba3d b60e b93c a6d7 14bd 9ee3 9a3d
00000340: e94a cf3c 1e64 01bd bec0 d73d 67b4 fb3c
00000350: 735c e3bc 52e6 debd 19b5 84bd 713a 1abe
00000360: b90e 993b 6dea bdbd f255 0e3e 472c 073e
00000370: 3e19 3a3d 15eb a1bc c1f7 e93b b868 023e
00000380: 4df4 6b3d 930e db3d 3627 a2bd 37f1 95bd
00000390: 2c14 0fbd 6891 5fbc c09b 153e 15bc 843d
000003a0: a020 71bc daa1 a5bc ea52 09bd 638d b9bd
000003b0: c50b df3d 7579 dcbd 9242 9cbd e70c c23d
000003c0: 7f20 9b3c 5a38 a63b 6926 813b cd2f 69bd
000003d0: aea3 073e c7b3 c23d 524d 233e d1a0 35bd
000003e0: 19bc daba f492 66bd 42e0 3dbc d9b4 0e3d
000003f0: 2dea 39bd a961 0f3c c269 3bbd f822 38bc
0.0341544 0.0817166 0.071229264 -0.12565842 -0.049168527 0.029520513 -0.031102596 0.062168945
0.029584398 -0.091630146 -0.114901036 -0.02095847 -0.13586524 -0.094995864 0.026951388 0.01879851
0.08469023 0.040670745 0.16274232 -0.019948762 -0.026155366 -0.060290817 -0.043980766 -0.11172232
-0.00925861 0.05138251 -0.023382522 0.14718664 0.17986572 -0.07664569 -0.13375008 -0.07081367
-0.07276189 0.07288486 0.06547729 -0.096973814 -0.07611728 0.1344821 0.10268275 -0.1597277
-0.09571198 -0.020336369 -0.09899812 -0.025132434 -0.0010838724 -0.1090184 0.12357022 0.010458391
-0.095137216 -0.085636705 -0.001420117 -0.049715098 -0.12505984 -0.08228932 0.046258148 0.050426308
0.10431605 -0.08723027 -0.028285984 -0.0027120109 -0.006733553 0.0539144 0.072967544 -0.11466412
-0.07192794 -0.19343726 -0.07271798 0.1549447 0.1363339 -0.12171721 0.06461968 -0.033164095
0.18211229 -0.011203628 0.13867638 0.22685117 0.14810605 0.18568996 0.015583867 8.850105e-05
0.06259868 0.03671652 0.028358832 0.110240676 -0.11182276 -0.122557715 0.21172962 -0.02667182
0.060938306 0.13133205 4.8237504e-05 0.020031298 -0.16378714 -0.106109805 0.0748739 -0.06879964
-0.18874925 0.014867242 0.04987425 0.041611537 -0.17542766 -0.05137834 0.14712222 0.0397709
-0.01638982 -0.07737867 -0.09362092 -0.018422296 -0.064866744 -0.041329436 -0.025046602 -0.06367182
0.012827957 0.12444651 0.020353094 -0.07099893 -0.14509395 0.015506119 -0.0043140035 -0.007385469
0.056751657 0.02352322 0.14005941 0.08767573 0.07454054 0.08350135 -0.057376534 0.2166018
0.12401171 -0.13042688 -0.103786804 0.023448944 -0.04991846 -0.028659502 0.07109452 0.04923936
0.025421133 -0.10350925 -0.08687638 0.1596049 -0.07532221 -0.03708023 0.07114202 -0.120040305
0.09925227 0.1456722 -0.07540752 -0.011208466 -0.13389355 -0.10694283 0.047609616 -0.08844437
0.07032468 -0.08664325 0.05454427 0.010491017 0.0032449828 -0.07557472 0.10164252 0.12663347
-0.111657806 -0.12160489 0.030950438 0.035932556 0.04213465 -0.02202129 0.05974923 0.05143476
0.015654309 0.10014955 -0.15117262 -0.045167208 -0.11015082 0.10255836 0.093139954 0.013996848
-0.08759132 0.05575867 0.062555194 0.07375936 -0.017037936 0.07361942 -0.09369545 0.079196766
-0.12530887 -0.08514501 0.049951088 -0.13611595 0.04248812 0.05160348 -0.009789551 0.19258644
0.06792844 -0.06461024 0.09398952 0.0074595255 0.02069107 -0.14005314 0.13436198 -0.0022378413
0.0400933 -0.011537307 -0.09346276 0.07676377 0.091056 0.022590023 -0.03633847 0.07562946
0.025304275 -0.03158962 0.105348095 0.030725671 -0.027754044 -0.10883774 -0.06479854 -0.15061356
0.0046709445 -0.09273229 0.13899973 0.13200484 0.04543423 -0.019765416 0.0071401303 0.1273526
0.05760603 0.10696139 -0.07917635 -0.07321399 -0.034931347 -0.013645507 0.14610195 0.06481186
-0.014717251 -0.020218778 -0.03352634 -0.090601705 0.10890917 -0.107653536 -0.07629885 0.09475117
0.018936394 0.0050726356 0.0039413464 -0.056930352 0.13246033 0.09506946 0.15947464 -0.04434282
-0.0016688138 -0.05629249 -0.011589112 0.03484044 -0.045389343 0.008751311 -0.045755155 -0.011238806

lstm.weight_hh_l1 f4 [256, 64]
00000000: fb6d 373c 89dd c23c c7c5 903d 1363 cc3c
00000010: c80e d3bd 7835 353d af60 f53d 068c efbd
00000020: 345e 013d cee0 7939 41db 1cbb 6256 103e
00000030: a02c 15be 5e30 4fbd ae66 563d 0f39 d33d
00000040: 6730 dfbd 61db 903d 0c52 5ebd a908 e0bd
00000050: 9cb1 76bd aeb3 8abd 7d62 ecbc 18d3 ed3d
00000060: fa26 89bd 95d4 95bc 41ec 34bc 6995 ddbd
00000070: 49ed 37bc 193f 033e 30d5 6fbd 5ce4 a13d
00000080: 9ceb ce3a ec89 18bd f096 673c f2f7 ff3c
00000090: 04e7 c6bd 5166 e43d 9f1d 7dbd cbc9 87bd
000000a0: b74d fe3d 8424 f0bd be20 1ebe 615f 57bd
000000b0: a41c 113e 284a 0a3a 1bf5 9cbd 4bd9 f53d
000000c0: ca74 4ebd 402b cabd d052 843d 2ddb 1abb
000000d0: b5e0 813d 62cc b23d 105d 85bd ae04 e0bc
000000e0: ca9a b2bd 1f4f 18be 2694 48bd 903d 78bd
000000f0: 1a79 c5bd 01b0 e6bc f53d 0e3e e59e 913c
00000100: 188f aa3d ddd0 d63d 3958 17be 2563 ccbc
00000110: 5e13 f1bc b932 2dbd 8339 9bbd eb5f 67bd
00000120: fed0 31bd 069b 583d 1ae1 97bd 80f0 ae3d
00000130: 58f3 f43d 62b9 023e e44b ebbd 290a 163e
00000140: ecb9 333e 09dd 1d3e 3aae adbc be80 01bc
00000150: 21bf ae3d eb3a e03d 0f33 e33d 8bca 05bd
00000160: d780 4ebd 8ded 9abd 95b3 223e 053d f23c
00000170: 493a 12be 1def 52bd 8152 38bd 198d 0d3e
00000180: 2537 16ba 03cc 87bc d41c 633e eddc 9dbd
00000190: 3aa8 233e f1e7 34be 7fc6 0a3b 993b 683d
000001a0: c87f b13d ae64 86bd 9599 e4bd 9634 6b3d
000001b0: 8b78 093e aaef efbd 6c65 b2b9 7432 213e
000001c0: 81f1 933d 97dd 0c3e f0c6 573d 8350 06be
000001d0: 35e2 f43d 8bbc ff3a f3ff 3ebe 5623 1ebe
000001e0: e376 8d3d 1c24 0ebe c5af 29bd 4eb4 363e
000001f0: 05ae 853d 53fe cf3d 4031 ddbc f533 20be
00000200: 60f2 273c c236 01bd 235b 96bd a6dc 0abd
00000210: 9e11 a0bd 74de 163e 0c8c 1e3d 65da ffbc
00000220: d058 8fbd 102b c5bb 292e 063d 80a6 b4bd
00000230: 06cb 9abd c5d9 db3d c61e b7bc c7de efbd
00000240: f64d 793c 171a 5ebd de13 c1bd 7cd7 c13d
00000250: d6f0 f0bd 645c a8bd 37d1 fe3d c0f5 bd3d
00000260: 087e 8bbc 7e57 cdbd 38d8 593d 31ed db3d
00000270: 3af4 1a3d 7188 9cbc c262 f6bd aac5 14bd
00000280: 2da5 3bbd 8d64 83bd 400f ac3c d801 17be
00000290: 2eb8 de3d 3806 e4bd d2fb c0bd 11df 093c
000002a0: 5b3f 153d a0fa 10be 7ebe 30bd 0ae5 42bd
000002b0: 9171 423d b799 1e3d 3f87 803d 178f df3d
000002c0: 9aec aebc 6254 d33d 6907 0a3d 6332 cfbd
000002d0: 5da7 f2bd 4061 1c3d a103 953d 310e b6bd
000002e0: 7ea4 113d c3ef dfbc 124a c8bd 3e56 65bc
000002f0: 7a5e dd3c c225 973d ee9b 883c a2b2 6cbb
00000300: 0326 2ebd 7e3c 1e3d 3f63 c43d d416 ccbd
00000310: 292b 513b c2a8 85bd 7a82 813b aa90 e23c
00000320: b493 11bd b44e 153c d08d 1dbe 1a52 cc3c
00000330: 982f 753d 53b2 953d 9019 fd3d 2f10 86bd
00000340: c2ca 5a3d 40dd a4bd 814c 5cbd dfa9 c43c
00000350: d0de c23c 9eab 303d ffa2 85bd e18b 0d3e
00000360: 2080 333d bf1d f0bd f65c 053e d065 f13d
00000370: 1845 af3d 9a1e a43d ebea 8cbc 31e0 883d
00000380: 78af 963d 4140 993d bb47 2a3d aee9 e3bd
00000390: 59b1 013e 5342 bb3d 7691 78bd c4cf bc3c
000003a0: efd4 85bd d38e 1ebe c3b0 543d 752c 0abd
000003b0: 1702 8dbd c297 07be c5ec a3bd 148c 263e
000003c0: c661 f03c 348c 283d 922d f83d ea66 b93d
000003d0: 6df2 09be 69e1 be3d b756 11be 6a19 3c3d
000003e0: 2fef cdbc 36a3 8d3d f158 853d b9de 63bb
000003f0: cb17 223d b999 e83d 2c30 823d de16 ab3c
0.011195655 0.023787277 0.07068973 0.024949586 -0.10305554 0.044240445 0.119813316 -0.11696629
0.03158398 0.00023830237 -0.0023934396 0.14095452 -0.14567804 -0.050583236 0.052344017 0.103136174
-0.10897904 0.07073093 -0.054277465 -0.10939152 -0.060227975 -0.067725524 -0.028855557 0.116125286
-0.06696887 -0.018289844 -0.011042655 -0.10819513 -0.011226007 0.12817039 -0.05855292 0.07904884
0.001578677 -0.037240908 0.014135107 0.03124616 -0.097120315 0.11152328 -0.061795827 -0.06630286
0.12417167 -0.11725715 -0.15442178 -0.052581195 0.14171082 0.00052753324 -0.07663938 0.12004336
-0.050404347 -0.098715305 0.06461108 -0.0023629174 0.063416876 0.08730389 -0.06511891 -0.027345981
-0.0872093 -0.14873932 -0.04896941 -0.060605586 -0.09642239 -0.028160097 0.13890822 0.017775962
0.08328074 0.10489056 -0.14779748 -0.02494962 -0.02942818 -0.0422847 -0.07579329 -0.05648796
-0.0434122 0.052882217 -0.074159816 0.085419655 0.11960477 0.1276603 -0.11489084 0.14652313
0.17551392 0.1541635 -0.021201242 -0.00790423 0.08532549 0.10948738 0.11093723 -0.032663863
-0.05041584 -0.075648405 0.15888818 0.029570112 -0.14280047 -0.051497567 -0.045000557 0.13823356
-0.0005730263 -0.016576773 0.22178966 -0.07708154 0.15982142 -0.17666604 0.0021175442 0.05669746
0.086669505 -0.06562172 -0.11162106 0.057423197 0.1342489 -0.11715634 -0.0003402637 0.15741903
0.072237976 0.13756405 0.052679956 -0.1311665 0.11957208 0.0019511146 -0.18652324 -0.15443167
0.069074415 -0.13880962 -0.041427393 0.17842218 0.06527332 0.1015593 -0.027001023 -0.1564482
0.010250658 -0.03154636 -0.07341602 -0.033901833 -0.0781586 0.14733297 0.038707778 -0.031232068
-0.069993615 -0.0060170963 0.032758866 -0.0882082 -0.07558255 0.107348956 -0.022353541 -0.11712413
0.015216341 -0.0542241 -0.094276175 0.094649285 -0.11764686 -0.08220747 0.12442248 0.09275389
-0.01702787 -0.100264534 0.053184718 0.107386 0.03783057 -0.01910803 -0.12030555 -0.03632132
-0.04581182 -0.06415663 0.021003366 -0.14746797 0.10874973 -0.11133999 -0.09423031 0.008415
0.036437374 -0.14158106 -0.043150418 -0.04758171 0.047471587 0.038720813 0.06275796 0.10915964
-0.021353055 0.10318829 0.033698473 -0.101170324 -0.11848328 0.038178682 0.07276083 -0.088894255
0.035557263 -0.027336007 -0.09779753 -0.0139976125 0.027022589 0.073802486 0.016675916 -0.0036117216
-0.04251672 0.03863191 0.09589242 -0.099652916 0.0031916595 -0.065263286 0.0039523216 0.027656872
-0.03554125 0.009113003 -0.15386128 0.024941493 0.059859842 0.07309403 0.12358391 -0.065460555
0.05341602 -0.080500126 -0.053783897 0.024006782 0.023787886 0.043132417 -0.0652523 0.13822891
0.04382336 -0.117244236 0.13023743 0.11786997 0.085581005 0.08013649 -0.017201861 0.06683386
0.07357687 0.074829586 0.041572314 -0.11128555 0.12665309 0.0914351 -0.060685597 0.02304829
-0.065347545 -0.1548417 0.051926386 -0.033733804 -0.06885164 -0.13241485 -0.080041446 0.16264373
0.029343497 0.041149333 0.12118067 0.090528324 -0.13471384 0.09320337 -0.14193235 0.045922674
-0.025138466 0.06915896 0.06511105 -0.0034770204 0.039573472 0.11357445 0.06356844 0.020884927

lstm.bias_ih_l1 f4 [256]
00000000: b080 4ebd 11b9 313d 869c 8cbd 2d48 0c3c
00000010: b454 be3d 956d f83c 9f05 ad3d 4a38 98bd
00000020: 8f38 ccbd d985 a9bc 4394 4c3c 50ec 503d
00000030: d16c d7bd 5d85 fd3d 2d9a adbd 3e7e 28bd
00000040: b6b1 95bd 9bfc 983d 2457 82bd a6fc c43d
00000050: 2cdd dcbd 9d9e d53d 9ba4 12be 4d3c 9fbc
00000060: 6a06 833b abb9 9bbd 1d50 f13d 00b9 e73d
00000070: c8f6 0ebe b888 0f3d d18d 223d 1097 183d
00000080: 2fff a6bd 45aa 09bd f320 ba3d 625f 14be
00000090: 43c2 cdbd a85e b13d 5b31 3a3d c1d8 8d3d
000000a0: bf95 df3d cf66 5cbd d2bc 65bd 8832 c33d
000000b0: c3b0 ec3c 86bd 143d 0e02 7fbd e2c4 a2bd
000000c0: fb92 e73d 6386 b23b a079 3cbd f712 5cbd
000000d0: 3881 823c 7a0a 353d ea4e 09be 2758 07be
000000e0: 0f07 283e b17d 8a3d bb89 37bd 645d cdbc
000000f0: 43ba 623d fc1f 86bd cd2f c83d 5e50 9d3d
00000100: 0715 093e d56f ce3d 26e6 a2bd 88a7 b63d
00000110: 1b92 77bb 3ecf 493d 175b 4bbb 33f8 84bc
00000120: 9cf0 4dbb 8584 4f3d 6d8b d73d 2f7c 883e
00000130: 294e 273e 8f5c 193e 7cad 50bd 59de 743e
00000140: 176e 33bd 64fc 79bd 84ba a13c c246 093e
00000150: 2503 abbd 869d 1c3d c2ca 87bb c847 47bd
00000160: d7a2 313d 64c5 a13d e970 78bd aae1 073e
00000170: 782f a3bc 6be0 1ebd 1f50 d5bc edb7 733c
00000180: 6614 98bd 23e3 633d 02c0 1e3e 87f8 aebd
00000190: 4ee5 f23d 3dbd 9dbc d618 d43d 6087 923d
000001a0: 5bfe 003e 6cdf a63c f01f bf3d d55a 9cbc
000001b0: 35bc 45bc 3304 95bd 83d4 7b3d 3f71 2abd
000001c0: 0321 3b3e 4a03 243e ec22 a2bd da12 143e
000001d0: 46e1 a3bd c943 af3d ca74 f23d 5697 51bd
000001e0: bf27 d73d bf33 493e acca 573d 7414 793d
000001f0: 0617 b83c 8f35 f0ba e132 113d 0a8e 5fbd
00000200: 7295 49bd db85 a63d db05 b43d 106e 43bd
00000210: d9e7 c6bd bdfc 3abd 9dcd cf3d f072 12bd
00000220: b249 a0bd d042 8abc c812 273d c8f0 0abe
00000230: af00 873d 5e15 9a3d fbab 593c 2830 223d
00000240: fbd4 c9bb b9fd adbd 2008 b3bd d99c 95bc
00000250: 2048 bfbd bfa3 3abd d08b 5e3b 7a2a f43b
00000260: 615b 893d 5604 203b d1f3 ed3d e447 f1bc
00000270: a827 d23d 1d31 823d 379d ddbd b02e 7abd
00000280: ca87 43bd 1724 93bd 2bef 2b3d ee35 dbbd
00000290: 1385 ab3d 34bb 76bd d844 14bc 0065 413c
000002a0: bf3c e4bd 5d48 84bd 493e 34bc f5e2 643d
000002b0: 8147 99bd 0eeb 773d 736e 88bd 399a 523d
000002c0: 9149 37bc 8560 9cbd cc8c 89bd e017 983d
000002d0: 991e e1bd e1c5 3b3d 5c49 b63b acb3 9e3d
000002e0: 7914 34bc 42b0 96bd 6df9 5a3c 5594 543c
000002f0: b5bc dcbd c741 273d 556b 473d d319 673d
00000300: 1f5e 58bd 71c1 a43d 8f9c ab3d 3300 f83d
00000310: 19aa 9cbd 6360 383d 08a9 743d 57e4 963d
00000320: 5679 0bbd 9231 20bd 22a2 f5bd ddfd 903d
00000330: 58f8 0b3d 41b7 9bbd 605a 81bb c566 9f3d
00000340: bb12 6b3c b8a8 e43d 444a ea3d 43da 80bc
00000350: 0734 cd3d cfc9 013d 2eb4 12bd 71b1 a2bd
00000360: c2e2 21bd 3c3d 63bd ab02 a63d d3dd 853d
00000370: 2c24 3d3d b628 a43d c255 f23d e72c ba3d
00000380: 6608 4d3d 442c 433d 024a d5bc b330 963d
00000390: 6f75 b9bc eb45 8ebb d89f 783d 7ded 0d3c
000003a0: 42ea e7bb 1fd8 163c 36ad e3bd 5591 24bd
000003b0: d4a2 07bc 8d92 4fbd c3c4 16bc faba f53d
000003c0: 2914 633d 7b15 063e 533a 89bd eece 00bd
000003d0: 08ea 5ebd d400 763d b15a 1abd 7c39 da3d
000003e0: 6a84 1d3e f3d8 00bd 2455 0f3c 449d de3c
000003f0: 1dd6 563d 8419 5d3d ff84 e1bc 33e9 8fbd
-0.050415695 0.043389384 -0.06865792 0.00856213 0.092934996 0.03032569 0.08448338 -0.07432611
-0.09971725 -0.020693706 0.01248652 0.051006615 -0.10518802 0.12378953 -0.08476672 -0.04113602
-0.07309286 0.07470056 -0.06364277 0.09618501 -0.10784373 0.10430644 -0.14320605 -0.019437933
0.0039985674 -0.07603773 0.117828585 0.11314583 -0.13961327 0.035042495 0.039686028 0.03725344
-0.08154141 -0.033609647 0.09088316 -0.1448951 -0.10046818 0.08660632 0.045457225 0.06926108
0.10917234 -0.053808983 -0.056088276 0.095311224 0.02889288 0.036313556 -0.06225782 -0.07947709
0.11307331 0.005448149 -0.04601443 -0.053729024 0.015930757 0.044199444 -0.1340901 -0.13217221
0.16408943 0.06762255 -0.044809084 -0.025068946 0.055353414 -0.06549069 0.09774742 0.076813444
0.13386928 0.10079924 -0.079540536 0.08918673 -0.0037776295 0.049269907 -0.0031029636 -0.016231632
-0.0031423932 0.05066349 0.1052464 0.26657245 0.1633841 0.14976715 -0.050946698 0.23912944
-0.04380616 -0.061031714 0.019742258 0.13405898 -0.08350209 0.038236164 -0.0041440437 -0.04865244
0.043368187 0.078989774 -0.060654555 0.13269678 -0.019920096 -0.03878824 -0.026039181 0.014875394
-0.07425766 0.055636536 0.15502933 -0.085434966 0.11860143 -0.019255275 0.103562996 0.07154727
0.12597029 0.020370208 0.093322635 -0.01908628 -0.012068798 -0.072761916 0.061481964 -0.041611906
0.18274312 0.1601688 -0.07916817 0.14460316 -0.08001952 0.08557851 0.11838682 -0.051169716
0.10505628 0.19648646 0.052683517 0.06081052 0.022471916 -0.0018326509 0.035448913 -0.05457882
-0.049214788 0.08131 0.08790179 -0.047712386 -0.0971219 -0.045651186 0.101466395 -0.035754144
-0.07826556 -0.016877562 0.040789396 -0.13568413 0.06591927 0.07523607 0.013285632 0.039596707
-0.0061594225 -0.084956594 -0.08741784 -0.018263267 -0.093399286 -0.045566317 0.0033957846 0.0074513527
0.06706882 0.0024416647 0.1161877 -0.029453225 0.1026147 0.06357024 -0.10821002 -0.06107968
-0.04773692 -0.07184618 0.041976135 -0.10703646 0.08374991 -0.060237125 -0.009049617 0.011803865
-0.11144399 -0.06459115 -0.011001178 0.055880506 -0.074843414 0.0605269 -0.066616915 0.05141661
-0.011186973 -0.07635597 -0.06716308 0.07426429 -0.10992164 0.04584301 0.0055629443 0.077491134
-0.010991209 -0.07357837 0.013365132 0.012974818 -0.107781805 0.040834215 0.048686344 0.056421112
-0.052824136 0.080447085 0.083794706 0.12109413 -0.07649631 0.045013797 0.059731513 0.07367771
-0.03405126 -0.039109774 -0.11993815 0.070796706 0.034172386 -0.07603312 -0.003947541 0.077832736
0.014347727 0.11164993 0.11439946 -0.015729075 0.10019689 0.0316866 -0.035816364 -0.079440005
-0.039522894 -0.05547832 0.081059776 0.0653645 0.046177074 0.080155775 0.11832763 0.09090596
0.050056837 0.047649637 -0.026036266 0.073335074 -0.022639005 -0.004341831 0.060699314 0.008662579
-0.0070774863 0.009206801 -0.11117022 -0.040177662 -0.008278567 -0.05067687 -0.009202185 0.119985536
0.055439148 0.13094132 -0.067005776 -0.031447344 -0.05442241 0.060059384 -0.037684146 0.106554955
0.15382543 -0.0314569 0.008748326 0.0271746 0.052450288 0.05397941 -0.027529238 -0.07026901
