backend/Model_Pytorch/RNN_Model/checkpoints/latest_checkpoint.pth (torch, 672421 bytes, 27 tensors)

lstm.weight_ih_l0 f4 [256, 19]
00000000: 4f75 18be d5d8 53be 8be6 6abe ff90 b2bd
00000010: a3e2 ab3e 7d08 123d f3d6 c5bd e8a7 8f3d
00000020: bb21 d43d ae1a c3bd 72ba 8f3d 83ef 803c
00000030: 2f3e 1038 ee89 273e f7ef 57be 76b0 363e
00000040: 8b69 2d3f 7410 9b3d 96a8 13bf cf40 013d
00000050: 1d30 3bbb f274 8ebd c668 04bd 5513 d73d
00000060: 6b8c d53c 94f6 bf3d 3479 523e 40eb 3a3d
00000070: 6036 053e 91a0 05bd 39bf 9fbe 1b76 43be
00000080: 9b92 e8be cee1 91be 1fc2 d6bc a9aa 86be
00000090: 464c 9c3d 17e9 9b3e dcbc 2f3e 5369 1dbe
000000a0: d42a ecbd 3ecb 25be 6f54 d4be 5698 803e
000000b0: 1869 5c3d f2d5 ca3e cfaf 2ebd 05ca cd3d
000000c0: ad3a c93d ceba e43e 4dad b4be 5cbd 433f
000000d0: 05b2 56be d6e0 8fbe 37cb c53d f89d 06be
000000e0: 9808 30be df65 de3e 2922 a8bc b2ce 4cbe
000000f0: 2857 fd3c 541e 403e 9d89 5d3e a17e 663d
00000100: de61 ad3e 7bef 9e3d 199d bc3d 5e93 953d
00000110: 122d 5ebe 4c0c fa3e b188 5ebe d22d fe3e
00000120: 38d4 d3bc 1b03 653e 1dce 083e 4181 46bd
00000130: 9c0e 56bd c6a1 30bd 4df4 12bd 0138 b8bd
00000140: fcb7 523e 79c2 cb3d 755a 1c3e 77d9 683e
00000150: 27c4 e13d c248 a83d 2f10 c8bd 581a 27be
00000160: 29b6 5f3e 78dc ef3d 244f acbc ed61 233d
00000170: 404a f73c e516 ccbd 698a c93d e959 a4be
00000180: fcee 52be 27ab e8bc 88a3 02be ca9d 89bc
00000190: c32d 413e 7737 f3bc 31c9 b33e ece4 c93c
000001a0: 61c6 3b3e a4db 843d 8bb7 d5bd db7e ff3d
000001b0: 3750 d4bd 8687 a53c e451 60bc 0029 92be
000001c0: e96a d5b9 ef7a f33e 0365 ddbd ae1b 03be
000001d0: 329c 3fbe 53f3 84be 7501 593e 96b6 a63e
000001e0: 98ea 3a3e 5332 363e 371d ea3d 41eb 013c
000001f0: 2d8e 703e 1f92 3cbe b6c0 a83b ad2c 733d
00000200: 5eb6 023e 3d1c 69bd b7cf 06bf afda 323e
00000210: f4b7 f33c c7ca 9b3d a4de 95bd 0de3 43be
00000220: 61a7 83be f88b 3dbd 44cd d03d 2ffe 643d
00000230: b0ca 8d3e 5573 2a3d 845c 7b3e 7e3d 553e
00000240: e775 663d edd0 e63b 9231 613e ac18 ef3d
00000250: 6e92 e93c 13f0 5ebd 0e53 dfbc 3466 e5bd
00000260: db1c 89bd 6d03 29be 4ad2 3ebe 0ab0 8abe
00000270: 22ef be3e 25b9 6a3d e8e2 de3d 9b90 f23d
00000280: f0c0 eb3d 9b7a 433e d793 473e 6f85 b63d
00000290: a4ef a4bd d42c 6a3e 1b09 a4bc a3c8 c3bd
000002a0: dc10 e83b 2f32 8e3d 610e 20be bbe8 ac3d
000002b0: f4f8 86bd 9c0f 09bd 04a1 2cbe 8303 133d
000002c0: c9cc 5b3e cfb0 db3d c26f 353e 57c8 743e
000002d0: fae8 5d3e af84 5c3e 0958 34bd 5165 e2bd
000002e0: 45c6 f13d 06b6 9f3c 68b9 603d 0425 a53c
000002f0: c431 e33d 4d92 8abe bdc2 a73d 62b0 c1bd
00000300: 7eb1 d43c 0f01 67be 4577 68bd 4dc1 0d3d
00000310: c5a5 42bc 2161 603e 9002 c8bd 3145 2cbc
00000320: 8387 2f3e 59c6 6abe c745 9e3e 949a 273d
00000330: 130c 893d faa7 953e 1dbd 79be 51ef 1fbe
00000340: 9b5f 663d 5fa0 c83e 1079 7ebe f4cb a4be
00000350: 4bf6 46bd b5d5 5b3e 418c 383c 9eb4 b8bb
00000360: 1c71 4dbe 574d 133e 781b bc3d 786b 4f3e
00000370: 9a7e 333f cf8c cd3e 7b55 013f 86ad 533e
00000380: 0371 203e 9ced 6bbe 90ea 503e b14a 12bd
00000390: d227 23bf 60ff c8bc 2707 733c df54 663c
000003a0: f039 693e 3687 3e3e f168 1f3e 8fd6 843e
000003b0: 880a cb3d 0ce0 6d3e 3c62 1c3b 20a3 23be
000003c0: 4bee 353e 7e96 52be 5de6 b23d 58a6 e63c
000003d0: 12d7 373e c34f 07be a223 c5bd 651a 9fbd
000003e0: dec2 3dbe 6053 4cbd 8d3e 79be 1b56 cfbe
000003f0: 5b77 de3d 226a 233e 4d09 363e 3d33 5a3e
-0.148885 -0.20688184 -0.22939508 -0.08719062 0.33571348 0.035652626 -0.09660139 0.070144475
0.10357996 -0.09526573 0.070179835 0.015739208 3.439019e-05 0.1636121 -0.21087633 0.17840752
0.6773917 0.075714976 -0.57679117 0.031555947 -0.0028562613 -0.06955899 -0.032326482 0.10501734
0.026067933 0.09373203 0.20554048 0.045634508 0.13009024 -0.03262383 -0.3120058 -0.19088022
-0.4542435 -0.28492588 -0.026215611 -0.26302078 0.076317355 0.3045127 0.17161888 -0.15372209
-0.11531606 -0.16190812 -0.41470668 0.25116223 0.053811163 0.39616352 -0.042648133 0.10048298
0.09825645 0.4467377 -0.35288468 0.76460814 -0.20966347 -0.28101224 0.09657901 -0.13146198
-0.17190778 0.43437096 -0.020524101 -0.20000723 0.030925348 0.1876157 0.21634527 0.056273106
0.3386373 0.07760521 0.092096515 0.07303499 -0.2169688 0.48837507 -0.21731831 0.49644333
-0.02585803 0.22364466 0.13359876 -0.04846311 -0.052260026 -0.04312303 -0.035877515 -0.08995057
0.20577997 0.09949202 0.15268882 0.22739206 0.11023741 0.082170025 -0.09768712 -0.16318643
0.21846832 0.11711973 -0.021033831 0.03988831 0.030186772 -0.09965304 0.09840853 -0.32099846
-0.20598978 -0.028401924 -0.12757695 -0.016798873 0.18865113 -0.029689534 0.35114434 0.024645291
0.18337394 0.064872056 -0.10435399 0.12475368 -0.10366862 0.020206224 -0.013691399 -0.28546906
-0.0004070618 0.47554728 -0.10810282 -0.12803528 -0.18711928 -0.25966892 0.21191962 0.32561177
0.18253553 0.17792635 0.114313535 0.007929624 0.23491736 -0.18415116 0.005149926 0.059368778
0.1276488 -0.056911696 -0.526607 0.17466234 0.029750802 0.07607036 -0.07317856 -0.19129582
-0.25713637 -0.046276063 0.10195401 0.05590647 0.276937 0.041613895 0.2454701 0.20824239
0.056264784 0.007043949 0.21991566 0.11674628 0.028512206 -0.05442817 -0.027261283 -0.11201134
-0.06694957 -0.16505213 -0.18634906 -0.27087432 0.3729182 0.057305474 0.10883123 0.118439876
0.11511409 0.19089739 0.1948999 0.08912169 -0.0805352 0.22868663 -0.020023873 -0.09559753
0.007082088 0.069431655 -0.15630485 0.08442827 -0.06590453 -0.033462152 -0.16858298 0.03589202
0.21464838 0.10727083 0.17718413 0.23904549 0.21670905 0.2153499 -0.04402927 -0.11054481
0.11805395 0.019495975 0.054864317 0.020159252 0.110934764 -0.27064744 0.0819144 -0.094574705
0.025963541 -0.22558998 -0.05675437 0.034608174 -0.011880343 0.21912052 -0.09766114 -0.010514543
0.17141537 -0.22927226 0.3091261 0.0409189 0.06691756 0.29229718 -0.24388547 -0.15618636
0.05624352 0.39184853 -0.24850869 -0.32186854 -0.048574727 0.21468242 0.011263908 -0.0056367656
-0.20062679 0.14384972 0.09184927 0.2025584 0.70115054 0.4014649 0.5052106 0.20671663
0.1566811 -0.2303986 0.20401978 -0.035715763 -0.63732636 -0.024535835 0.014833248 0.014058321
0.22776008 0.18606266 0.15567376 0.25944945 0.09914118 0.23229998 0.0023862263 -0.15980196
0.17766683 -0.2056522 0.087353446 0.02815549 0.17953137 -0.1321402 -0.09625937 -0.07768706
-0.18531367 -0.0498842 -0.24340267 -0.4049538 0.10862609 0.15958455 0.17776985 0.21308608

lstm.weight_hh_l0 f4 [256, 64]
00000000: 441d 0abf 6ab2 b6bd 6008 7c3e e93d 98bd
00000010: 37dd d73d e26d a2be 0665 a9be da91 463e
00000020: b6ba f3bd 796f 7abe 105a 953e 227a 02bf
00000030: 531a 563c f750 c23e 7c4a f6bd 358f a03d
00000040: 3c4b f5bd 68fb aebe 329a 043f 85df 1a3d
00000050: 19fc c3bd 3bbb 343f 7685 043e 4f96 3d3d
00000060: 569f debe 7e90 663e 8c7a 19bd 9175 cc3e
00000070: 1577 013f 90e2 91be 611d 1ebe c162 cfbd
00000080: 8f34 9bbc ea21 92bd 85a5 c9bc 76e0 21bf
00000090: 7a3e 083e 24e6 9fbd 1234 fc3c 4acd a2be
000000a0: 1148 b4be 6ed1 54bf 849f 263e 0696 193d
000000b0: 249e b43b f1b9 e13a a30b fdbd a953 793d
000000c0: e2cf e83d a7a7 a43d 1f33 093e 9641 f13e
000000d0: a1f7 85bc c60e aa3e 98d2 afbd 3313 8ebe
000000e0: 77ad fdbe a110 1d3b 19c5 453e de72 a53e
000000f0: 65cc 8abe 7adf 9bbe d984 6fbe 8a1e 16be
00000100: 1dc1 cb3e b60e f43b 3bc0 d93e 5ce8 213e
00000110: 567e a8be 537d 28be 49a0 19be badd f9bd
00000120: 09f4 0a3e 82a6 67bd 221d 8c3e 2f9b b73e
00000130: 76f0 72be 2d68 5bbe 3c84 0b3e fdc8 5fbd
00000140: 1119 773d b117 6cbd 5556 ad3e 5b0e e43d
00000150: 469a 133a 9e62 69be b887 803e ebfd 9b3e
00000160: 5a4b bcbe 9a46 77be 0eed 473e 4c56 f8bd
00000170: 4e3f 853e 7917 ae3d 2bef 4dbe 5cc1 02be
00000180: e00c 67bb 5a15 99be bc9f 27be 86ae 4cbe
00000190: 9327 15be df5c 79be 0dc1 ecbe 5743 09be
000001a0: a8bf 4abd 5098 2c3e b5ed ffbe 13a1 543e
000001b0: 16d0 d6be ae54 babe dd4a 4e3e 7725 42be
000001c0: 474c a03d 8a56 adbd bf21 2a3e ee00 32be
000001d0: d55d 193e 5926 523d e8ce 3b3e 8210 e4bd
000001e0: eab4 033f a6d4 9d3c fc42 86bd 47e8 443e
000001f0: cabd 72bd 039a 1c3c 22b1 ddbd 1a6b 4a3d
00000200: af82 4b3e 0abb c1be 62e0 f63b 4d0b 983d
00000210: 4cde b8bd 101c b8bc cc99 4fbe c386 3abe
00000220: c706 213e e2ef 3cbd 13cc 8b3d d03b 8dbe
00000230: 31f0 ccbd cb35 35be b479 a8be f0d8 93be
00000240: 06b6 c93e d033 1ebc 7f7a 763e e25d b93d
00000250: 19d8 82be 6859 4f3e dd59 783d 98fa 313e
00000260: feea a8be 88ab 653e ba99 cb3d 9372 86be
00000270: dbb9 053d 9661 8d3d 6c43 c7ba ed8c 99be
00000280: bd0f 71be 8ef9 50bd 9c7d 203f 1b6b 7cbe
00000290: 1786 7c3d 7ea2 c43a 6624 0f3d ae22 8bbd
000002a0: 35d3 823e 0ad4 0b3b 430f 58bd 12c4 7b3e
000002b0: a393 24be 12df 5c3e ce78 24be 8c3f 04be
000002c0: 2d8e 133e 6a6f cc3e eda1 6a3e f6dc 463b
000002d0: c090 30bc d61f 4a3e 7adb ee3c dc36 683e
000002e0: 35f9 573e f443 2c3d 8b4e 20be f209 76bd
000002f0: 41d9 10bd 1e2c 25bf ce32 f63c 58ec df3c
00000300: ad72 52be 314f b33d 248e 23be f29d 37bd
00000310: 3026 d53c 6079 803e 67db 303e 326d d13e
00000320: 6de3 6ebd 0728 603e bfd9 04be 2212 103f
00000330: b090 39be 93a4 fa3d 1fa2 98bd a4ff 6f3e
00000340: c1cc 73be 3e1e 873e 2db1 9fbe 393b 0a3f
00000350: 9674 ddbd e4c9 9abe 0ec4 50bc 7284 a2be
00000360: 4678 443e 46f3 96be 291c 3e3d 8afb 1dbd
00000370: c4dd a73c b692 8d3d 178a 9e3e f708 12be
00000380: a7c4 b83d 49e5 e63e c6cc 78be c0a4 083e
00000390: 8b7a 723e 5815 ac3e ffe3 32be 345e f0bb
000003a0: 9111 ccbd de6a 3abe a7d8 72be 3fa2 693e
000003b0: 8149 93bd 0de3 b73d ad79 e03e ffb3 b73d
000003c0: 40fd 88be 15c6 503e 72fd 21be fb47 2bbe
000003d0: 82ac ec3e 4e77 65be 5ff6 36be 2018 78be
000003e0: 0caa 3f3e 50f8 91be 2025 9f3e 3c28 3dbe
000003f0: eefa 0d3e 54f2 173d 1994 1b3e 4f98 97be
-0.53950906 -0.089207485 0.2461257 -0.074336834 0.1054024 -0.3172446 -0.33084887 0.19391575
-0.11900847 -0.24456586 0.29170275 -0.5096761 0.0130678 0.37952396 -0.120259255 0.078398146
-0.119772404 -0.34176183 0.51797783 0.03781082 -0.09569568 0.7059819 0.12941536 0.046285924
-0.4348094 0.22516057 -0.037470385 0.39933446 0.5057233 -0.28493166 -0.15440895 -0.10126258
-0.01894596 -0.07135375 -0.024615059 -0.63233125 0.13305083 -0.07807568 0.030786548 -0.31797248
-0.35211232 -0.83132064 0.16271788 0.03749659 0.005512016 0.0017221553 -0.12355735 0.0608708
0.113677755 0.0803979 0.13398407 0.4712035 -0.01635343 0.33214396 -0.085850894 -0.27749023
-0.49546406 0.002396621 0.19313468 0.323142 -0.27109066 -0.30443937 -0.23390521 -0.14660087
0.3979577 0.0074480427 0.42529473 0.15811294 -0.32908887 -0.16454057 -0.1500255 -0.12200494
0.13569655 -0.05655528 0.27365977 0.35860583 -0.23724541 -0.21426459 0.13624662 -0.054635037
0.06032664 -0.05763978 0.3385493 0.111355506 0.00056305935 -0.22791526 0.25103545 0.30467162
-0.3677624 -0.24148026 0.19524023 -0.12125835 0.2602486 0.08500571 -0.20110767 -0.12769073
-0.0035255477 -0.29899102 -0.16369528 -0.1998845 -0.14565878 -0.24351834 -0.46241036 -0.13404594
-0.049499184 0.16854978 -0.49986044 0.2076457 -0.41955632 -0.3639273 0.20145746 -0.18959604
0.07827049 -0.08463772 0.16614436 -0.17383167 0.149772 0.051306102 0.18340647 -0.11135961
0.5144793 0.019266438 -0.06555745 0.19229232 -0.05926303 0.009558204 -0.10824801 0.049418546
0.1987407 -0.37838012 0.0075340727 0.074240305 -0.09026775 -0.022474319 -0.20273513 -0.1821547
0.15725242 -0.046127208 0.068260334 -0.27584696 -0.100067504 -0.17696302 -0.32905352 -0.28876448
0.39396685 -0.009655908 0.24070166 0.0905111 -0.25555494 0.2024895 0.060632575 0.1738075
-0.32991785 0.22428715 0.099414304 -0.26259288 0.03264795 0.06903379 -0.0015202588 -0.2999033
-0.2354116 -0.051019244 0.62691665 -0.24650232 0.061651316 0.001500204 0.03494682 -0.06793724
0.25551763 0.0021336102 -0.05274893 0.24586514 -0.16071944 0.2156947 -0.16061708 -0.12914866
0.14409705 0.39928752 0.22913332 0.0030344105 -0.010776699 0.19738707 0.029157389 0.22677177
0.21091159 0.042056993 -0.15654962 -0.06006808 -0.03536344 -0.6452044 0.030053522 0.027334377
-0.20551558 0.08755339 -0.15972191 -0.044828363 0.026019186 0.25092602 0.17271195 0.40903622
-0.05832236 0.21890269 -0.12973689 0.5627767 -0.181216 0.12238421 -0.07452797 0.23437363
-0.23808576 0.2639026 -0.31189862 0.53996617 -0.10813253 -0.30232155 -0.012742056 -0.31741673
0.19186506 -0.29482478 0.046413574 -0.038569964 0.020491488 0.069127485 0.3096473 -0.14261232
0.090218835 0.45096806 -0.24296865 0.13344097 0.23679559 0.33610034 -0.17469786 -0.0073354486
-0.09964288 -0.18204829 -0.23715459 0.22815798 -0.07191754 0.089788534 0.4384283 0.089698784
-0.26755714 0.20388062 -0.15819338 -0.16726677 0.46225363 -0.22408792 -0.1786742 -0.24227953
0.18717211 -0.2850976 0.31083012 -0.1847238 0.13865253 0.037096336 0.15193214 -0.2960839

lstm.bias_ih_l0 f4 [256]
00000000: 5f41 ba3e 9a80 dcbe 5195 cdbd 0cd8 f4be
00000010: 53af 813d 7c02 93be 1d75 b2be cad2 d6be
00000020: 0966 abbd 8fa5 85be 8c4f b4be 0095 dfbe
00000030: cc94 05bf 01d8 11be 6952 05bf 142f 0e3e
00000040: df04 ba3c d52c 53be c703 02be 8714 eebe
00000050: ad69 38be 859e 83be 63ef 17bf da46 43be
00000060: 43f8 babd 29c9 893d 013c d7be 63d7 62be
00000070: 3f45 61bd ae7b 14bf fda3 10be 0a5c 39bf
00000080: 3b26 72be 6980 d3be 88e7 86be 8582 a9be
00000090: bb4c 33be f5e7 20be edf6 b03c 3c96 04bf
000000a0: d9ed d3be 4fef 9b3e 82e8 28bf 3fdc a8be
000000b0: b997 81be 8dac 1abf 7cbc 9cbe 5360 c3be
000000c0: 3883 74be a64e 32bf 951e 76bd 5ccb 07be
000000d0: 2960 21bd babf a43c f2a8 debd d124 54be
000000e0: 17ee 7dbe f540 a9be fa3b 51be 8f38 58be
000000f0: 29cb 2cbe b28a f0be f86b 22bf 85a2 21be
00000100: 02d8 0c3e 7965 39be befa 523e 5614 0dbd
00000110: 4eb6 9fbd de56 943d 7f7d 30be 7d14 20be
00000120: a401 18bc 1d6e 3b3d 15bd 9bbe 3063 a3be
00000130: 9bde 16be 69d8 36be b001 b9be 8587 a13c
00000140: 797d 88bc 6e9b b7bd f6f8 033d 9743 80be
00000150: e021 7a3d 48bd aebc bc7b 02bf 64e6 9cbe
00000160: a2c9 39be ed67 d0bd 2239 4abe 150c 043d
00000170: 8db4 8cbe e576 5ebe 0db3 8fbd 14ac c5be
00000180: 26f1 62be 59ec debd 1499 693d 5d7b e5be
00000190: a460 02be 0321 d43c 48f2 9ebd fe5a 81be
000001a0: 4c75 313c 80e2 0abc 27ba 6dbe 379e 9cbe
000001b0: 24c0 34be 583f 24be 7250 103d ddee 1cbe
000001c0: 0b49 3b3d af86 04bf e27d 7eba f0d9 3bbd
000001d0: 057c dbbd 2b6e 1a3d c430 f5bd 90bd 75be
000001e0: 30a4 c6bd 143c bbbe da1d a7bd 3f48 87bd
000001f0: aa77 97bd 2f7b ecbe c165 ddbd c92c 213d
00000200: 9fea 0ebe 9afe 3f3d fbac 0b3e e893 673c
00000210: 1308 c13c 26ab ac3d 0496 af3c 56a3 1fbd
00000220: be8d 183d 764b ecbd f160 5cbc 1f1f a2bc
00000230: 1ca8 16be b7d5 e33d dea7 62bc bbfc 0fbe
00000240: 1f61 4fbe 44d8 09be 9c2e a3bd 2bc6 f4bc
00000250: e2a6 d03d 72be 003e 8cf0 a4bd f003 473d
00000260: 338d 853e ada2 f1bd f051 81be 4af6 8a3d
00000270: 2d61 cbbd 0e4f c7bd 0697 8cbd 941d 713e
00000280: b77f bbbd 16e6 3cbd c902 1b3e f91f 023e
00000290: 3b02 ba3d 1d00 5d3d e85c 86bd fd13 213e
000002a0: 78bb c53d fc32 1bbe 1235 f03d da25 8cbc
000002b0: e846 ed3c 5c0a 2b3e b5e0 e8bd d543 ae3d
000002c0: d02e 763b ff83 27bd cdec 1e3d 9cf0 80be
000002d0: 0149 723c 9c40 873d ce59 1438 fd99 35be
000002e0: 4481 15be ebae a5bc 817e 8abd d0dd e2ba
000002f0: 4ed8 d13e 96c1 b43d 389a 3dbc ea7e 98bd
00000300: f41c fa3d 89a3 d3be f8b4 edbd 7d01 e2be
00000310: 90ae 943e 2f13 2fbe 31d5 91be 620f f4bd
00000320: 6481 9a3e e768 31bc 1cc5 0abe c4f2 58be
00000330: 984f cabe 6a37 8ebe 2a51 03bf 154a 473e
00000340: 2ae5 99be 5502 e03c d91b ca3d 5b1e 07be
00000350: 1cc5 f23c a199 21be 59a9 febe 999e bdbd
00000360: 5579 a03d f2b8 8ebd 66ac 52be a0fd 47be
00000370: 23b3 a4be 13e8 17bf 9e35 ed3c f37a 37bf
00000380: db1b 6cbe 3d79 9abe 1eed 70be 0814 9cbe
00000390: 5cbc 83be a491 abbe 71f6 5cbe 8f30 74be
000003a0: bd4d bcbe bb1a 08be f01a fabe 0997 78bd
000003b0: 1db5 79be b477 26bf 1054 88be 0856 88bd
000003c0: 195d 74be dbf8 cebe 5995 7c3c bd41 e0bd
000003d0: 50b0 173a 3111 efbd d7ea 813e 296e a0be
000003e0: 2c82 87be 4181 a6be 2654 09bd 6cf2 9fbd
000003f0: 76b8 82be 5e7b 73be 56f9 b5be f5f1 8abe
0.36378 -0.43066865 -0.100382455 -0.4782108 0.063322686 -0.28712833 -0.34854975 -0.41957694
-0.08369071 -0.26102874 -0.3521694 -0.43668365 -0.5218017 -0.14242555 -0.5207887 0.13885146
0.0227074 -0.20622571 -0.12696753 -0.46500036 -0.18009062 -0.25706878 -0.5934965 -0.19069996
-0.091293834 0.067278214 -0.42037967 -0.22152476 -0.05499768 -0.5800122 -0.14125057 -0.72406065
-0.23647396 -0.41308907 -0.2634852 -0.3310739 -0.17509739 -0.15713485 0.021602118 -0.5179174
-0.413924 0.30456015 -0.6597978 -0.32980534 -0.25311068 -0.6041954 -0.30612552 -0.38159427
-0.23878181 -0.6965126 -0.06008776 -0.13261169 -0.039398346 0.020110954 -0.108720675 -0.2071717
-0.24797855 -0.3305737 -0.20433035 -0.21115325 -0.16874374 -0.46980816 -0.63446 -0.15784653
0.13754275 -0.18105115 0.20603463 -0.034443222 -0.07798444 0.07243131 -0.17235373 -0.15632816
-0.009277735 0.04575931 -0.30417696 -0.31911612 -0.14733355 -0.17855991 -0.361341 0.019717941
-0.016661393 -0.08965193 0.03221985 -0.25051567 0.061067462 -0.02133049 -0.50970054 -0.30644524
-0.18143323 -0.10176072 -0.19748357 0.032238085 -0.274815 -0.21725042 -0.07016573 -0.38607848
-0.22162303 -0.108849235 0.057030752 -0.4482068 -0.12732178 0.025894647 -0.07761055 -0.25264734
0.010831188 -0.008476853 -0.23215543 -0.30589458 -0.17651421 -0.16039789 0.03523297 -0.15325494
0.045723956 -0.5176801 -0.0009708089 -0.04586214 -0.10717014 0.03770272 -0.11972192 -0.23998094
-0.09699285 -0.36569273 -0.081599906 -0.06605577 -0.07395871 -0.46187732 -0.10810424 0.03934935
-0.13956688 0.046873666 0.13640206 0.014134385 0.02356342 0.084310815 0.021433838 -0.03897413
0.03724455 -0.115378305 -0.013450847 -0.01979023 -0.14712566 0.11124747 -0.013833968 -0.14061253
-0.20251893 -0.13461405 -0.079678744 -0.02987965 0.1018808 0.12572649 -0.08053693 0.04858774
0.2608429 -0.11798606 -0.25257826 0.06785257 -0.09930644 -0.09731875 -0.06864743 0.2354644
-0.09155219 -0.046117865 0.15137781 0.12707509 0.09082457 0.053955186 -0.06560689 0.15730281
0.096548975 -0.15156168 0.11728872 -0.017107893 0.028964475 0.1670317 -0.113709845 0.08509032
0.0037564524 -0.040897366 0.03880005 -0.2518357 0.014787913 0.0660412 3.5369587e-05 -0.17734523
-0.14600092 -0.020225009 -0.0676241 -0.0017308537 0.4098534 0.08825986 -0.011572413 -0.07446082
0.122125536 -0.41335705 -0.11606783 -0.4414176 0.2903943 -0.17097162 -0.28482965 -0.119169965
0.30176842 -0.010828233 -0.13551754 -0.21186358 -0.3951385 -0.27776653 -0.5129572 0.19461854
-0.3005765 0.027344862 0.09868593 -0.13195173 0.029635005 -0.15781261 -0.49738577 -0.09258766
0.07835642 -0.06968869 -0.20573577 -0.19530344 -0.3216792 -0.5933849 0.02895623 -0.7167198
-0.23057501 -0.30170622 -0.23527953 -0.30484033 -0.25729644 -0.33509552 -0.21578385 -0.23846649
-0.3677806 -0.13291447 -0.48848677 -0.060690913 -0.24385495 -0.650264 -0.26626635 -0.06657034
-0.23863639 -0.40424237 0.015416467 -0.109500386 0.00057864655 -0.11673201 0.2537448 -0.31334046
-0.264665 -0.32520488 -0.033527516 -0.0780991 -0.25531358 -0.2377753 -0.3554179 -0.27137724

lstm.bias_hh_l0 f4 [256]
00000000: 5d4b b53e c5f5 a6be f862 35be 437a ffbe
00000010: 3cf8 2e3e 74b6 20be f61a 59be 490c d4be
00000020: 4e70 fb3c 9f3f bebe ace6 4cbe 1d93 03bf
00000030: f432 cdbe c666 f9bd 2745 01bf f995 d13c
00000040: fcab 2cbe b367 32be 5328 6cbe 0089 ccbe
00000050: d142 67bd 6e6b 98be b8e4 48bf ccc2 8fbe
00000060: 4bf4 84bd 8ffd 583d 61ab c7be 9974 32be
00000070: 9c61 9abc c30f f8be e25d f0bb a6a1 3bbf
00000080: 93f0 a5be a109 efbe 6c2e 45be 3a0f 42be
00000090: 34e3 8abe 5c17 a0be 9f90 3cbd 11d6 b3be
000000a0: 3e94 babe 0524 e83e bdd8 38bf 806a babe
000000b0: b12f b0bc ae36 fabe a761 95be 27df 96be
000000c0: a994 f9bd b2ab 21bf 471b 9abd 5b9a 9abe
000000d0: 0693 3cbe 9147 15be 81f6 65be c2aa 00be
000000e0: e645 e5be fe38 babe 23dd d6be 5f5b a0be
000000f0: 441b 4cbe f3cd bfbe 7ce9 20bf 7718 aebe
00000100: 537d 003e a212 52be 12a4 e93d 3f39 18be
00000110: a4c0 9e3d 8d87 953d f030 77be d7da ea3b
00000120: badd 0cbc 06c3 f13d b8f6 1cbe 599d 61be
00000130: 59b9 01be 757d 5fbe 850c f9be 58da ff3d
00000140: 1005 50be 7d8e 63bd e7c3 b8bc 9424 29be
00000150: 7d5e d3bd 8e2c a2bd 8b03 00bf db39 ecbe
00000160: 1c16 92bd 6a18 3dbe b20b e8bc fd56 e1bc
00000170: 6579 15be 0020 81be 0d82 013e e374 f2be
00000180: 7daa 0b3b 3cb0 8bbe 87dc b73d 361a c9be
00000190: 2189 d7bd ce16 e83b 93e9 1bbe 5113 09be
000001a0: 1373 6a3d dccc c8bd eab2 8dbd 59cc 75be
000001b0: 0c87 4cbe c4e3 5dbe 3694 b83d 003b 32be
000001c0: 3d22 233b 446a 1ebf e3e3 cabd 2696 52be
000001d0: 6531 bcbd 0ca4 283d 8a8d 1fbe c419 5ebe
000001e0: 7ae8 a6be beb3 51be d3c0 03bd e523 e1bb
000001f0: ff32 4dbd a9bb abbe 089f 20be 213f 0bbe
00000200: 93e4 a7bd e3a2 9bbd 45db df3c df12 043d
00000210: 9ae4 823d 5169 d03d fed3 183d 73aa b6b9
00000220: 56f0 bebd 7b15 f4bc 6b74 91bc cf1e 853d
00000230: 6e0b 1abe dcdd 7cbc f36b e53d a02a dd3c
00000240: 4202 4cbc 71ce 92bd daa2 02be 7f1f 5d3c
00000250: 3b55 b63c b5bf 253e b4ae 40be 11d4 ca3d
00000260: b951 833e ae11 34be ad3f 29be 1e8b 813d
00000270: 46bc afbd f863 c93d c298 d63d 1586 b83e
00000280: 814d 28be e9a5 b33d 7fa3 6a3c 0dcb a73d
00000290: 93fc 933d 2659 083e 3f9f 8fbd 04d9 fc3d
000002a0: 6d37 963d 9d60 13be 3883 413e a2c7 67bd
000002b0: e5da 2fbd b330 003e 9895 78bd 170f b03d
000002c0: a476 5d3c 9248 a7bd 8182 ed3c cc7c 70bd
000002d0: 53ea 2fbe 5ef2 2d3d 4c31 2fbc 808d 89bd
000002e0: a7f6 e4bd 5844 a53d 2db3 3b3c fb28 393e
000002f0: d747 583e e362 a93c c970 c6bd 6e58 c53d
00000300: 8b38 053e 540c e1be 6806 a7bd 6f88 d7be
00000310: f277 943e 37e2 b9bd 574d 0dbe 14f2 c9bd
00000320: d0aa 253e e46f 0bbe b27e a0bd dad9 5ebe
00000330: aa2b 10bf 1125 84be 7279 29bf a55c 993d
00000340: c182 d1be 0b8f c8bd 08c4 ea3d 33d3 9dbe
00000350: 1a9f 25bd 379a 76be 3e94 32bf 1b2e 3bbe
00000360: e4a0 793c 6f8d fcbd 4225 66be c775 1a3d
00000370: 9ef1 a1be 3372 e5be c010 213e 9ff8 1dbf
00000380: 1b75 b8be 0f1f b8be 6079 17be c23a b7be
00000390: 8e83 5abe ed5a b8be 3833 bfbe 1d66 1fbe
000003a0: f303 68be 83dd 84bb 84a5 c0be 3d39 15be
000003b0: 4ae8 33be dc6e 39bf 10b6 7cbe 873e dbbd
000003c0: c390 34be 1dfd c8be c98b d639 de92 f13c
000003d0: 0eef 843c 0e60 16bd 543d 153e 8f63 c0be
000003e0: 9c51 96be 098c b2be 805a 58be 2c26 47be
000003f0: 69d8 d6bc a77e 94be 9285 87be 73bf 60be
0.3540906 -0.32609382 -0.17713535 -0.49897966 0.17086881 -0.156946 -0.21201691 -0.41415623
0.0306932 -0.37157914 -0.2000987 -0.5139635 -0.40077937 -0.121778056 -0.50496143 0.025584208
-0.16862482 -0.1742237 -0.23062257 -0.39948273 -0.056460205 -0.29769462 -0.78474 -0.28078306
-0.06491908 0.052976187 -0.3899794 -0.17427291 -0.018845372 -0.48449525 -0.0073354105 -0.7329353
-0.32410106 -0.46687034 -0.1925599 -0.18951121 -0.27126467 -0.31267822 -0.04603636 -0.35124257
-0.36441225 0.4533998 -0.72205716 -0.36409378 -0.021507116 -0.48869842 -0.29176065 -0.29467127
-0.12186558 -0.6315261 -0.07524734 -0.3019589 -0.1841546 -0.14578082 -0.22457315 -0.12565139
-0.4477989 -0.36371607 -0.4196559 -0.3131971 -0.19932276 -0.37461814 -0.6285627 -0.3400304
0.12547807 -0.2051492 0.11408247 -0.14865588 0.07751587 0.07301245 -0.24139762 0.007167201
-0.008597786 0.11804776 -0.1532849 -0.2203268 -0.12668361 -0.21825202 -0.48642364 0.12492818
-0.20314431 -0.05555581 -0.022554351 -0.1651786 -0.103207566 -0.079186544 -0.50005406 -0.4613789
-0.07133123 -0.18466344 -0.02832589 -0.0275073 -0.1459709 -0.25219727 0.12647267 -0.47354802
0.0021311336 -0.27282894 0.08977609 -0.3927781 -0.10524202 0.0070827967 -0.1522582 -0.13386275
0.05723865 -0.09804699 -0.06918891 -0.24003734 -0.19973391 -0.21668917 0.09012644 -0.17405319
0.0024892234 -0.618809 -0.09906747 -0.2056509 -0.09189109 0.041172072 -0.15581337 -0.21689516
-0.3259924 -0.20478722 -0.032166313 -0.006870734 -0.05009746 -0.3354161 -0.15685666 -0.135983
-0.08197894 -0.075994276 0.027326236 0.03224456 0.063912585 0.101763375 0.037311547 -0.0003484074
-0.09323184 -0.029795399 -0.017755708 0.06500017 -0.15043423 -0.015433755 0.1120223 0.026997864
-0.01245171 -0.07168282 -0.12757435 0.013496279 0.022257438 0.16186412 -0.18816644 0.0990373
0.25648287 -0.1758487 -0.16528197 0.063253626 -0.08580832 0.09833521 0.10478355 0.36039796
-0.16435815 0.08771879 0.014321207 0.08193026 0.07225909 0.13315257 -0.07012796 0.1234608
0.073347904 -0.14392324 0.18897712 -0.05658687 -0.042933363 0.12518577 -0.06068954 0.08596628
0.013517056 -0.081681386 0.028992893 -0.058712766 -0.17179231 0.042467467 -0.010692906 -0.06716442
-0.11179858 0.08069676 0.011456293 0.18082039 0.21121155 0.020677036 -0.09689481 0.09636007
0.1300985 -0.43954718 -0.08155519 -0.42096278 0.2899776 -0.0907635 -0.13799034 -0.09860626
0.16178441 -0.13616902 -0.07836665 -0.21762791 -0.56316626 -0.2580953 -0.66200936 0.07488374
-0.4092007 -0.09792908 0.11463171 -0.30825195 -0.040434934 -0.24082266 -0.6975745 -0.18279307
0.015236113 -0.12331664 -0.2247515 0.037709977 -0.31629652 -0.4481369 0.15729046 -0.6170749
-0.36026844 -0.35961196 -0.14792395 -0.35787016 -0.21339247 -0.3600687 -0.37343764 -0.15566297
-0.22657757 -0.0040547266 -0.37626278 -0.14572616 -0.1756908 -0.72434783 -0.24678826 -0.107052855
-0.17633347 -0.3925561 0.0004092141 0.029488977 0.016227271 -0.0367127 0.14574176 -0.37575957
-0.29359138 -0.34872463 -0.21128273 -0.19448155 -0.02622624 -0.29002878 -0.26469094 -0.21948032

lstm.weight_ih_l1 f4 [256, 64]
00000000: d0a0 443f c1f1 c4be b72e 35be 3670 393d
00000010: 5951 d03e e797 47be 5fa9 74be 93e4 c7be
00000020: 2a53 253d 5594 9d3d 6980 edbd 4b09 9abe
00000030: 6700 99be 2968 fd3e 2aeb b2be eb31 af3e
00000040: bfe0 b2be 623e 3dbe e033 2bbf b3d3 383e
00000050: 7854 073d 4d43 2f3f 271c db3d d4e9 5f3e
00000060: 4fb3 033e 2811 33be 46c1 21bf 6b35 eabe
00000070: bffc 083e 069e a53d e5fb 223e b568 89bd
00000080: 7fe3 babe 3d5f 5c3e d339 1e3f 99d3 fdbe
00000090: 9f81 843d ea5d a13e dc3b ff3d 2b63 a5be
000000a0: b308 a53e d4af 09bf 2934 1c3f 71d5 fc3e
000000b0: 4ad2 093e 81a3 de3e 97ec 5b3d e2c5 0b3c
000000c0: 66a5 ee3d a1a1 09bd 779c aa3e 55d4 13bf
000000d0: c2ea 05bf 7604 fbbd d97b 42be da39 67be
000000e0: 7c32 993d 27a5 6abc 01e8 cbbe 6695 3e3d
000000f0: 81ee ad3d 464e efbe ab60 eb3e 5e00 00bf
00000100: 8516 ca3e 98f9 65be b68e fabc 22a1 033e
00000110: ce42 f53d b045 2dbe c15f 4cbc 193e ca3c
00000120: cac5 473e f4c6 f33d 9c6a d33d f45d 70be
00000130: 4687 103e 1201 ce3d 2d0d 69be 55a1 353d
00000140: 430c 38be fe9f 42be 798d 63be 7608 243e
00000150: 6e0f 6fbc d8c1 dd3d e1bf b53e 2d49 503d
00000160: f308 d6bd 2ff5 4bbe 2c0e 923d 54dc 8dbd
00000170: c542 873d d369 dc3c 1bc6 e03d 2fa2 a4be
00000180: 2ffc 8bbe 2354 3d3e c319 e93d 4fc4 10be
00000190: 46b8 a3bd 399b 373e c584 96bc af21 033d
000001a0: c932 023e ad25 e6be 2002 183e c0a8 533e
000001b0: fbf6 123d 91e1 8e3e 5dba 4d3d 1e12 66bd
000001c0: a5ff b13d 8b84 df3d 35c8 213e 97f5 5bbe
000001d0: 3aa3 203d e4a5 a3bc acd5 29be ea25 3e3e
000001e0: cb4b b0bd d4f4 2bbe 2f4a fabd 5aad 1e3e
000001f0: f66d d4bd 4e51 8c3c e245 e13d dc05 98be
00000200: bd0c 1dbe 3cb5 cb3d f7f3 05bd f562 c8bd
00000210: 0127 4c3d 987f 95bc 7471 c33d f9eb 2e3d
00000220: 6bc0 47be 900c 103e 2e75 40bd 85ca 263e
00000230: d844 10be cb4a 4fbd f833 b73d 6eee 513d
00000240: 0081 67be a7b6 963d b619 02be d910 af3d
00000250: 9a5d 5c3e 14cd c23c 189b b7bd fa66 23be
00000260: 73d7 fabd a30b 96bc bfc2 c43c 7611 c83d
00000270: d85e 35be 5474 09be 9394 88bc 16a7 c83d
00000280: 0acb e63a b903 b73c 6fa4 a3bd 8fe3 42be
00000290: 64dd 6c3b 7436 013d 0ce1 d03c c240 acbd
000002a0: e5b3 eabd 8327 debd 88bb b7bc 96fc b63d
000002b0: 6dd0 88bc 0e0d 593e 62ad bb3d 0451 c13d
000002c0: 4b09 c3bd e903 f63c 8fcd 33be 8d74 be3d
000002d0: 11d6 953e 583d b8bd 860a 84be 677a b23d
000002e0: 3cc1 ce3d 9de4 a1bd 89d2 1c3e 4132 42be
000002f0: 37ec 70bd 912f 80be e424 aabd 6653 cdbd
00000300: 1391 c53d 7763 d5bd c558 58be a876 7ebe
00000310: d417 a73d 9f2f 873d 7848 403e f9e0 ab3d
00000320: 6a71 0d3e f4d4 873d f993 0d3c 52af bfbc
00000330: 1588 503d 42c7 d1bd 77ae a4bc 8276 78bd
00000340: c2f3 9cbd 9223 293e ccfe 61bd 1dbe 6a3e
00000350: 59bb 20be fe2f 4abd 3f5a a63e 4ebb 823d
00000360: 8c49 2c3d 8d97 883d 1d3b d63c 556e 593e
00000370: 43aa 9dbd c510 8f3d 074e b73b 70ed 2ebe
00000380: f613 853d e9e8 953d a164 10be 9fcf 62be
00000390: 54c8 8e3c 0fea 97bd 87f1 333b aff1 42be
000003a0: b8bc b5bd e5e6 42bd 3e6e 23bd 08f8 e03d
000003b0: 9436 3cbe 7bb0 1f3d 72ed e03c 080c 40be
000003c0: aec1 01be b188 ef3d 3b8a 83bb f0c4 453c
000003d0: 4f25 cd3d 91ab 1f3c 8b0b e7bd e45e a2bd
000003e0: 50d8 9e3c c822 f4bd 6a48 223e f68b 933d
000003f0: 11ea 2cbe e628 28be a2be d2bb 5c82 583d
0.7680788 -0.38465694 -0.17693602 0.04527303 0.40687063 -0.1949154 -0.23892735 -0.39041576
0.040362515 0.07694308 -0.11596758 -0.30085215 -0.2988312 0.4949353 -0.3494504 0.34217772
-0.34937093 -0.18480828 -0.6687603 0.18049507 0.03303954 0.6846207 0.10698729 0.21866542
0.1286137 -0.17487013 -0.63185537 -0.4574388 0.13377665 0.08086781 0.15916403 -0.067094244
-0.3650169 0.21520706 0.6180698 -0.495755 0.06470036 0.31516963 0.12462589 -0.32302222
0.322332 -0.5378392 0.6101709 0.49381593 0.13459125 0.4348412 0.053692427 0.008531066
0.11652641 -0.033601407 0.33322498 -0.5774587 -0.52311337 -0.1225671 -0.18992557 -0.22580662
0.07480332 -0.014321602 -0.39825442 0.046529196 0.08492757 -0.46739405 0.4597219 -0.5000056
0.39470306 -0.22458494 -0.030585628 0.12854436 0.119756326 -0.16921115 -0.012474001 0.024687814
0.19509044 0.11903182 0.103230685 -0.2347334 0.14114103 0.10058798 -0.22758932 0.04434331
-0.17973427 -0.19006345 -0.22221936 0.16018853 -0.014591081 0.108279884 0.35497954 0.050851036
-0.10450926 -0.19917749 0.07131609 -0.0692679 0.06604532 0.02690593 0.109752856 -0.32154986
-0.27340838 0.18489127 0.11381867 -0.14137386 -0.07994132 0.17930306 -0.018373856 0.032014545
0.12714685 -0.4495062 0.1484456 0.20669842 0.03588007 0.2790647 0.050226558 -0.05616962
0.086913384 0.109139524 0.15799029 -0.21480404 0.039218165 -0.019976564 -0.16585416 0.1856915
-0.08608206 -0.16792613 -0.12221181 0.15495816 -0.10372536 0.017128613 0.10999657 -0.2969197
-0.1533689 0.09946677 -0.032703366 -0.097844996 0.049841885 -0.018249318 0.09543124 0.04270551
-0.19506995 0.14067292 -0.04698675 0.16288193 -0.14088762 -0.050608438 0.08945459 0.051252775
-0.22607803 0.07359057 -0.1270512 0.08548135 0.21520081 0.02377943 -0.08965129 -0.15957251
-0.12248125 -0.018316096 0.024018643 0.097689554 -0.17711961 -0.13423282 -0.016672408 0.09797494
0.0017608118 0.022340642 -0.079903476 -0.19032119 0.0036142701 0.03154607 0.025497936 -0.08410789
-0.114600934 -0.1084738 -0.022428289 0.08934896 -0.016700948 0.21196386 0.091639295 0.09439281
-0.09523257 0.030031161 -0.17558883 0.09299574 0.29264882 -0.089960754 -0.2578928 0.08714753
0.1009545 -0.07904933 0.15314688 -0.18964483 -0.058819022 -0.2503629 -0.083078176 -0.100256726
0.09646811 -0.10419362 -0.21127613 -0.24849951 0.08158842 0.0660088 0.18777645 0.083925195
0.13812795 0.066324145 0.008641236 -0.023399029 0.050911028 -0.102430835 -0.020102723 -0.060659893
-0.076636806 0.16517475 -0.055174634 0.22924085 -0.15696467 -0.049362175 0.32490727 0.06383382
0.042062327 0.06669531 0.026151234 0.21233495 -0.076984905 0.069856204 0.0055940184 -0.17082763
0.06497948 0.07319815 -0.14100887 -0.22149514 0.017429508 -0.0741769 0.0027457194 -0.19037507
-0.08873886 -0.04758348 -0.039900057 0.10984808 -0.18380195 0.038986664 0.027456973 -0.1875459
-0.12671539 0.11695994 -0.004014281 0.012070879 0.10016882 0.009745494 -0.112814985 -0.07928255
0.019390255 -0.119206965 0.15847936 0.0720443 -0.16886164 -0.16421852 -0.0064314166 0.052858695

lstm.weight_hh_l1 f4 [256, 64]
00000000: de93 bcbe 580d 42be aec8 1d3f c431 94be
00000010: 990e 83be b8e2 99bc e5ed acbe 319d c4bd
00000020: 549e 113e 4ac8 e3be 9c51 a03e 8a59 bdbd
00000030: 4ca4 4e3e 8a96 0dbe 90e8 d3bc 9d09 723e
00000040: dc7b 5a3c 8f40 893c 2ca3 bcbe fb3f 803e
00000050: 27d6 623e 3282 36bd d55e 493e 8ee5 03be
00000060: 614d 523e ea7a febd b915 3e3e 4f83 12bc
00000070: 72f1 0dbd 68ee 243e cb34 433f 59a4 98be
00000080: 5451 ad3e 793e 1a3f dcd6 cc3d 3e0a a83d
00000090: fecf ea3d 1fae 91be 08f5 33be 0877 00bd
000000a0: c0b2 cc3d 716b 57be d80b 993d 7193 15be
000000b0: 53d7 843d 2f54 8ebb eec1 c9be fafd 99be
000000c0: 14a8 bdbe 975c 18bf da01 98bc 7893 a1bd
000000d0: c6e3 f83d 03b7 c13c ccb0 8c3e 5aa9 423d
000000e0: a66f 3d3e 53be a8bd 0172 d4be d305 973d
000000f0: 5d8d 9a3d 3eb2 133f d09a 9ebe 8dad 30bd
00000100: 468a 84be 4ad5 273d b2fd 623e a856 15be
00000110: 1556 0ebd b1ce 99bd 7d5b 25be 2555 e43c
00000120: e086 fdbd 96ee bdbe 6d6b 553d ec1f ad3d
00000130: ef2c 783e 02eb 5abd 6929 69be a343 753e
00000140: 91cf d63c 7d44 e1bc a9f2 bbbe 084d 963e
00000150: e870 753e 1b33 0c3e bd36 12bd 1d82 84bd
00000160: f557 753e 1832 403e acf1 433e 1379 dabb
00000170: bc01 64bd c13e 203e 3fda b03e 6fb3 c2bc
00000180: c84c 2d3e 16f0 783e 0b0f 99bd c51c 55be
00000190: 3226 163e 7b87 73bd f65f 2dbe 52c4 50ba
000001a0: e36e 0a3d b37c 00bd 4a50 143e fb6a 22be
000001b0: 7b49 ce3e 066b 043c 1f33 18be 9d70 54be
000001c0: b28f c93d c54b 90be bafe 173e 954e 8bbc
000001d0: 885e e33c b46b 743d 6b6c 2c3e 5b7d fc3b
000001e0: 308e 83bd a2b6 c0bd 35e6 0bbd dd79 c0bc
000001f0: 3492 153e 54c9 9b3e c579 dbbd 2b2b 6bbd
00000200: ef23 81bd 10eb 34bd dbd8 1c3e fbd1 15be
00000210: 42a5 8dbd bfd2 58bd 6ab4 963d b2e3 ce3d
00000220: 31c7 0bbd d91a a93e 56c3 c53d 7224 693c
00000230: 9c3f 97bd 2a93 093e 5150 8ebd 6a09 2e3e
00000240: decc 1c3e 098f 2c3d c284 0dbd 5b1d d53d
00000250: dbc0 d33d f209 18bd 114a 813c a478 0b3c
00000260: 39aa ad3d eabe 823c 111b 3a3e 1045 3fbe
00000270: 7fdc 14be 3ec3 b93c ad3e 94bd 7081 4f3e
00000280: baa8 93bc 0e3f 383e eb02 33bd 2416 043e
00000290: f28b febd f0e7 663c fa85 e1bd 5411 ca3c
000002a0: d892 20be 0486 5c3a 55ad e53d 0c62 9fbd
000002b0: d951 4f3d 6287 2f3e d92c 0ebe 8e70 e6bd
000002c0: 9d55 c13d 0a1c 5d3b 178b be3d 590f 9bbb
000002d0: c24e 393c 584a 0b3e 3fb9 bcbd 807c 42bd
000002e0: a607 6f3e 21df 2cbe 569b 25be 400c 323e
000002f0: fc9f 273e c960 d5bc 0da9 21be d858 94be
00000300: 89ea d7bd 3166 35bd 6100 78bc ebad aa3b
00000310: c461 223e 1ccd 5d3c 2314 3c3d b2a8 b3bc
00000320: 4a9e 1e3e 87e2 02be 06c6 c3bd beb4 593d
00000330: dd66 f13d f2b3 b8bd bfe4 57bb c8e9 af3d
00000340: da19 2b3d 2216 28bd 86ed 07bd 9cf6 48be
00000350: 8813 b23d 1607 8bbc 1f18 c3bd 3bbd 46be
00000360: f59f 36be 99dd c3bd 5a24 85bd 9275 d2bd
00000370: f1ad b03d af83 1dbe 6d5c 8abd c3a6 c03c
00000380: f4d7 aa3d d1e2 82bd 15e8 203d 999b 3fbe
00000390: 4fad 10bc f103 6dbc c9ec 493e a402 52bd
000003a0: e8f1 003c 8fd6 16bd c791 47bd c1ed aa3d
000003b0: c0ff c43b 1e5e 0dbe b4d1 c1bc 7fc0 72bd
000003c0: 4f9d 0d3e 888a 8bbd 3a6d acbc fec0 e2bc
000003d0: 0cd5 2bbe 2d7d 743e d0ff 01be 23be 13bd
000003e0: 1483 e4bd f48c 70bc cc27 adba 0630 3c3c
000003f0: 21a7 5b3d edaf 3e3d 2544 2a3e 46c6 ba3c
-0.36831564 -0.18950403 0.6163434 -0.28944218 -0.25597075 -0.018784866 -0.3377525 -0.096002944
0.14220554 -0.44488746 0.31312263 -0.09245594 0.20179862 -0.13826957 -0.02586773 0.2363648
0.013335194 0.016754417 -0.3684324 0.25048813 0.22152005 -0.044557758 0.19665082 -0.12880537
0.2053733 -0.12425788 0.18562974 -0.008942439 -0.03465409 0.1610657 0.7625243 -0.29812887
0.3385111 0.60251576 0.10001919 0.082050785 0.114654526 -0.28453156 -0.17573941 -0.031363517
0.09995031 -0.2103708 0.07472962 -0.14607026 0.06486382 -0.0043435316 -0.3940577 -0.3007658
-0.37042296 -0.5951628 -0.01855557 -0.078894556 0.12152819 0.023646837 0.27478635 0.047524787
0.18499622 -0.082394265 -0.41493228 0.07374158 0.07546494 0.5769385 -0.30977488 -0.04313426
-0.25886744 0.040974893 0.2216709 -0.14583838 -0.034750063 -0.075101264 -0.16148181 0.027872631
-0.12379241 -0.3709609 0.052104402 0.08453354 0.24235891 -0.053446777 -0.22769703 0.23951583
0.026222022 -0.027498478 -0.36708573 0.29355645 0.23968852 0.1369137 -0.035696734 -0.0647013
0.23959334 0.18769109 0.19135159 -0.006667265 -0.055665717 0.15648939 0.3454151 -0.023767201
0.16923821 0.24310336 -0.07473572 -0.20811756 0.14663008 -0.059455376 -0.16931137 -0.00079638243
0.033797156 -0.031368922 0.14483753 -0.15861122 0.40290436 0.008082157 -0.14863251 -0.20746084
0.09841861 -0.28182808 0.14843264 -0.017005244 0.027755037 0.059673026 0.16838233 0.007705373
-0.064236045 -0.094098344 -0.03415509 -0.023495609 0.14606553 0.3042704 -0.10716585 -0.057414215
-0.06305682 -0.044169486 0.15317099 -0.14630882 -0.06916286 -0.052935358 0.0735863 0.10102023
-0.03412551 0.33028296 0.09656398 0.014229881 -0.073851794 0.13435045 -0.06948913 0.16995779
0.15312526 0.042128596 -0.034550436 0.1040599 0.10339519 -0.03711886 0.015782388 0.00851265
0.08479733 0.015960176 0.18174388 -0.18678689 -0.14537238 0.022676107 -0.07238517 0.2026422
-0.018024791 0.17992803 -0.043703955 0.12899071 -0.12429036 0.014093384 -0.11011882 0.024666466
-0.15681016 0.0008412304 0.11214701 -0.07782373 0.050615165 0.17141488 -0.13884296 -0.11251937
0.094401576 0.0033738636 0.09303873 -0.004732054 0.011310281 0.13602579 -0.092150204 -0.047482014
0.23342761 -0.16881992 -0.16172537 0.17387486 0.16369623 -0.026047127 -0.15787144 -0.28974032
-0.10542781 -0.04428691 -0.015136809 0.005208721 0.15857607 0.013537671 0.04591764 -0.021931026
0.1549007 -0.12781726 -0.09559254 0.053150885 0.11787198 -0.09018697 -0.003294274 0.08589512
0.0417727 -0.041036732 -0.033185504 -0.19625324 0.086951315 -0.016971152 -0.09526085 -0.19408123
-0.17834456 -0.09563751 -0.06501074 -0.10276331 0.08626927 -0.15382265 -0.0675591 0.023517018
0.08341971 -0.06390918 0.03928383 -0.187117 -0.0088303825 -0.014466272 0.19719233 -0.05127205
0.007870175 -0.036825713 -0.04872301 0.08346129 0.006011933 -0.13805434 -0.023659565 -0.05926561
0.1382954 -0.06813532 -0.021048177 -0.027679916 -0.1678049 0.23875876 -0.12695241 -0.03607
-0.11157814 -0.014682043 -0.0013210713 0.011486059 0.053626183 0.046554495 0.16627558 0.022799622

lstm.bias_ih_l1 f4 [256]
00000000: 1a67 2cbf 683d 25bf 12b8 d1bc 6cd2 83be
00000010: eadc 40be bb94 13be a547 93be 1625 84bf
00000020: b277 4abf 43f6 55bd 0496 cebc e212 7ebf
00000030: f818 adbe 5ca9 3dbf c10d 55bf ebfc 9ebe
00000040: d28e 9bbf 522a 45bc 7cb2 e3be ec50 99be
00000050: e660 20be 8ab6 6abf 5f14 4dbf 4b68 01bf
00000060: 65a6 d8be 0486 18bf b619 b0bc 2af3 403b
00000070: 75ad 3bbe 84a9 79be e52b 2d3d ed62 6dbf
00000080: a924 05bc c806 47bd 1d8d dfbc a975 fcbe
00000090: 2a5d 8fbe 3d96 f2be 5853 e5be 06b1 4bbf
000000a0: 1710 cdbf 2b4b 1cbe 7b5e e1be 7e9f 72bf
000000b0: e7b1 b6be 1e1a 68be 2ead 0ebe 7a6c d1bd
000000c0: 23ce 2abf 2262 a7be a0cb 97bf d935 cbbe
000000d0: d089 f7be 2b5f bbbe a6af 20bf 8979 bfbf
000000e0: c94b 1dbd 8eef 92be 3377 0d3c bf5c 99bf
000000f0: 38e4 a6be 73d4 0ebd 1eb6 92be 4e62 523d
00000100: 9cad 1dbf c0f8 b8be 1900 3b3e e2cc 463d
00000110: d6ae 39be 2c8b da3d 372f d73c 39d2 debe
00000120: 8ac6 42be a471 9b3d b5bd e43c a041 d6be
00000130: 4db8 30bd a475 f5be 72ef c2be 9800 16bb
00000140: 13a8 03bf 19ea 08bc 5a41 c93d 24b0 cabd
00000150: 5139 25bd 03a5 1ebf 76f3 1bbf 6552 08be
00000160: b636 06be 90df febd 0a97 a43d d77d 163e
00000170: 39f2 75bd 8003 9bbd 1967 333e cd74 16bf
00000180: afa7 ab3c 6f10 bb3d 86e0 bc3d 1a08 ecbd
00000190: fad2 1dbe bac8 80bd 2c40 f6bd 2294 8ebe
000001a0: f16d 41bf 2053 7c3d be85 48be a3c3 89be
000001b0: d74d 9fbe 5d19 c03c 11fe ccbd 2106 80bd
000001c0: 767b 04bf f451 a13d 53be 73be 7d7a c4bc
000001d0: 3887 743d 96e3 eabd 59c7 17bd f095 51bf
000001e0: 3869 843e 94b8 28be 97b2 143d 058e 1dbf
000001f0: 1208 59be 8232 a8bd aa64 adbd 811a 3bbd
00000200: 4d74 b4bd 2ed7 b53c 1f67 a73d b8ed 86bc
00000210: 7c32 d6bd 0b95 093d fa45 b83d 2e5c c0bc
00000220: 4b7b 543d ce8e 9f3c 3dc6 b33d d232 ae3c
00000230: 832b 49bd 59bb 41bc cffa c53d 76c0 033b
00000240: cfa1 b33c 3634 5c3d 8db5 923d fb44 8bbb
00000250: 3a82 81bd 750f ea3d 6727 603d b4f8 db3b
00000260: eb29 e23c e12c 523b d945 fb3b c28f 9b3d
00000270: 87ab 8a3d 52c4 bfbd 5610 96bd e3d8 c7bd
00000280: e6fa b8bc 566a 763d a99a 563c bc10 ab3c
00000290: 8896 ce39 2a6d cabb 0464 663d abf0 1ebd
000002a0: 6a23 943c e2c3 bbbc d8bd bfbd f696 ac3d
000002b0: cdf7 d03c ce0d 4abd b4d5 e33c 47e8 babc
000002c0: 2cc4 9f3d 4d1e c1bd 2c78 4abc 446e 07bb
000002d0: 5172 53bd e422 d9bc 8258 ab3d 1e4c 8cbd
000002e0: eb91 933c 7507 08be bb30 d8bd 240d 513d
000002f0: a05f 3b3d 60bf babc ea6f d13d f33c 8f3d
00000300: e808 33bf f725 2ebf de1d 50bd 6263 8fbe
00000310: e691 3dbd 0ca7 a7bc 0f81 53be 04e9 5fbf
00000320: 1685 41bf 35f3 6f3d dc7f 8bbd 6333 70bf
00000330: 8add 70be bb25 52bf 35e5 3fbf aaa0 0abe
00000340: b5eb a7bf 1a49 1a3e 8b92 bdbe 2664 84be
00000350: 2015 3d3d 766c 84bf 3e94 55bf 9d60 cbbe
00000360: 0e1c bdbe 642e 1dbf 80fb b23d 770c b0bb
00000370: e1fb ffbd c36e 60be 0943 b9bd e0ec 48bf
00000380: 9e2b 853c ca2a c4bd c5f8 f73d bc4e a4be
00000390: a75b 9fbe 5be8 2cbf 1727 a8be 79df 83bf
000003a0: 4611 c5bf b9d0 91be c211 04bf 3855 73bf
000003b0: 23ab 82be de25 72bc 75b5 76be 8586 16be
000003c0: e331 22bf 540f 53be 65bc 9bbf 5b90 8abe
000003d0: d624 e6be 215c cdbe 5403 1cbf 1911 bdbf
000003e0: 2603 b53d dec1 f7bd 6237 b5bd fad9 a3bf
000003f0: 95a8 9abe 7110 98bd 5f5c 57be a22b 89bd
-0.6734482 -0.64546824 -0.025600467 -0.25746477 -0.18834272 -0.14412205 -0.28765598 -1.0323818
-0.7908889 -0.052236807 -0.025218017 -0.9924756 -0.33808112 -0.74086547 -0.8322411 -0.31052336
-1.215296 -0.012034016 -0.4447211 -0.2994455 -0.15661964 -0.9168478 -0.8010921 -0.50549763
-0.4231445 -0.5957949 -0.021496635 0.0029441812 -0.18327887 -0.24381071 0.04227819 -0.92729074
-0.008126416 -0.04859045 -0.027288968 -0.49308518 -0.28000766 -0.47380248 -0.4479015 -0.7956699
-1.6020535 -0.1526305 -0.44017395 -0.94774616 -0.35682604 -0.22666213 -0.1393325 -0.102257684
-0.6672079 -0.32692057 -1.1859016 -0.3968952 -0.4834733 -0.36596045 -0.6276802 -1.4958965
-0.038402352 -0.2869839 0.008634376 -1.1981429 -0.32595992 -0.034870576 -0.2865457 0.051363282
-0.6159303 -0.3612728 0.18261756 0.048535235 -0.18133101 0.10671076 0.026267631 -0.43519762
-0.19021049 0.075900346 0.02792249 -0.41846943 -0.043144513 -0.47941315 -0.38073307 -0.0022888537
-0.51428336 -0.0083565945 0.09826918 -0.098968774 -0.040337864 -0.6197054 -0.60918367 -0.13312681
-0.13106808 -0.12444985 0.08036621 0.14696442 -0.060045455 -0.07569027 0.17519797 -0.58771974
0.020953981 0.09133994 0.09222512 -0.11524983 -0.15412512 -0.062882856 -0.120239586 -0.2784739
-0.7555838 0.06160271 -0.19582269 -0.2690707 -0.31114075 0.023449594 -0.10009397 -0.06251169
-0.51750886 0.078769594 -0.23803072 -0.023984188 0.059699267 -0.1146919 -0.037055347 -0.8186941
0.25861526 -0.16476661 0.03630313 -0.6154483 -0.21194485 -0.082127586 -0.08466466 -0.045679573
-0.08811245 0.022197332 0.08173966 -0.016470775 -0.10458848 0.033589404 0.08997722 -0.023481455
0.051875394 0.019477274 0.08778045 0.021264467 -0.04911376 -0.011824452 0.096669786 0.002010373
0.021927742 0.05376073 0.07163534 -0.0042501665 -0.06323667 0.114287294 0.054725077 0.0067129973
0.027607879 0.0032070207 0.0076682386 0.07595779 0.067709975 -0.09363617 -0.073273346 -0.09758165
-0.022580575 0.060160004 0.013098397 0.020882003 0.00039403536 -0.006177564 0.056247726 -0.038803738
0.018083293 -0.022920553 -0.09362382 0.08427231 0.025508786 -0.04932957 0.027811863 -0.022815837
0.07801089 -0.094296075 -0.012357753 -0.0020665089 -0.051622692 -0.026505895 0.08366491 -0.06850456
0.018013915 -0.13284095 -0.105561696 0.051037923 0.045745492 -0.022796333 0.10226424 0.06994047
-0.69935465 -0.6802668 -0.050809734 -0.2800551 -0.046281718 -0.020465396 -0.206547 -0.8746493
-0.755937 0.05858155 -0.068114966 -0.9382841 -0.2352201 -0.8208882 -0.7495912 -0.13537851
-1.3118807 0.15066949 -0.37025866 -0.25857657 0.046162724 -1.03456 -0.83429325 -0.39722148
-0.36935467 -0.6139891 0.08739376 -0.0053725797 -0.12499214 -0.21917252 -0.09045989 -0.7848644
0.01625615 -0.09578474 0.12107996 -0.3209132 -0.31124613 -0.67542046 -0.32842323 -1.0302573
-1.5395896 -0.28479555 -0.51589596 -0.9505191 -0.25521192 -0.014779536 -0.24092658 -0.14699753
-0.6335737 -0.20611316 -1.2166868 -0.2706326 -0.4494998 -0.4010935 -0.6094258 -1.4770843
0.08838491 -0.12097524 -0.08848454 -1.2800896 -0.30206743 -0.07425011 -0.2103133 -0.066977754

lstm.bias_hh_l1 f4 [256]
00000000: 8eb9 1fbf c286 08bf 5f1d 8e3c 935a 1ebe
00000010: eceb a1bd 5807 6bbc 4770 81bd 3136 8dbf
00000020: 9c40 49bf 40cb f8bd 8d04 17be e4d4 70bf
00000030: d698 d2be dede 5abf 0b00 52bf 5dd1 6abe
00000040: f624 aabf fe61 08be f979 f4be f877 d8bd
00000050: 39bf 303b 8dda 87bf c611 51bf 6dac a3be
00000060: 0806 07bf be72 febe 56af 123e b840 663d
00000070: 988e 0abe 595e 81be 8703 0e3d c072 5fbf
00000080: cb67 88ba b60b a6bd 5f8d 7c3d 371a 1bbf
00000090: 0a51 c9be c079 29bf 46a6 91be 2ac6 49bf
000000a0: 4dcc c9bf 05db b1be 2f4d 02bf 7f1b 45bf
000000b0: 4166 f3be 13b1 96be ef7f 96be 7898 d9bd
000000c0: 62d9 5cbf 590b b2be 40d8 8ebf f49a afbe
000000d0: d4de 05bf 2a42 a0be 86e3 12bf bcb9 ccbf
000000e0: bd4c 583d 47cd 39bd 7e7a e63d 9389 94bf
000000f0: 018d b4be 057e 05be f86e 73be 195c f0bd
00000100: edfe dcbe aece 64be 0a37 ca3d f6e5 8abd
00000110: bbdf cdbd 07df 323d f502 533c 6824 e9be
00000120: 0b85 6ebe 023c d53d 5291 753d 1c6c 6cbe
00000130: 0a28 50be cf9e a8be 8e3b acbe 5936 a53c
00000140: d202 16bf aacd 123c 1ab7 e53d 731b 0cbe
00000150: a1c3 0cbc d15b 08bf 27bd 0fbf bac6 853c
00000160: 53bd 02be 194d 31be b123 223b 57c7 1e3e
00000170: eb18 97bc ec44 b4bd 1c4a 543e 6e9f 3bbf
00000180: dc5a 9f3d 4caf 89bc 44fd 2f3e 3056 ae3d
00000190: 7f97 2fbe 8770 82be 0ee7 913d 5cd3 ecbe
000001a0: cec1 1bbf 310d 24bd 7fdf 47be 46da a6be
000001b0: db00 f6be 5417 bcbd 4b95 b9bd 02cf 06be
000001c0: 49cb d9be f05b a2bd 9a56 c3be adb9 4ebd
000001d0: bce9 43bd 7a92 b4bd 10a9 50bb b7d4 22bf
000001e0: b20c 283e 59e3 fbbd 87d8 f8b9 9ee3 29bf
000001f0: 977c 84bd 6cda 02be 8967 9d3d b478 ee3d
00000200: 0226 3d3d cb96 24bd f4fc 27bd c803 2a3d
00000210: 36d7 b63d c1c7 33bd 6d11 80bd a987 fc3c
00000220: f835 2dbc 27a5 343c 5110 dfbd 2ca7 e93c
00000230: 8071 793d 362e d33b 7a82 62bd 0ba1 a8bd
00000240: f44e e13c 4936 40be 7b42 83bc 8bca a6bc
00000250: 2ecc 0d3d 341f 9abd e830 573d ae04 41bd
00000260: 52fd 89bd ec14 8dbb eb55 50bd 62c4 17bd
00000270: 452c 46bd c84b b53d c7d2 433c 19fe 92bd
00000280: ccac 9bbd 9e65 23bd ab66 a5bc 45bc 46bd
00000290: 9ece 543c 8dd3 2dbd a76c 9dbd 0703 cc3a
000002a0: 0a7e 1dbd 72c9 cdbb b566 9e3d de90 3abd
000002b0: 4dd9 15bd 12b5 703d a35a ad3c 89cf fbbc
000002c0: 45ab bdbd 58c1 493d 01a3 e03c 2eb6 9bbc
000002d0: 028b dd3c f0cc b33d df8e c4bd ea38 953d
000002e0: b2fc 85bd 27a6 bd3d 3a89 023c c0b7 a3bc
000002f0: 0a39 9cbd d607 ec3d 7c2b c1bd 03d0 36bd
00000300: 8707 32bf df86 3dbf 635a f2bc e450 afbe
00000310: e460 d6bd 996d 1bbe ef9d 9fbd 275a 6dbf
00000320: 3fcf 54bf 5aeb 743d bdf9 3fbd 25fb 5fbf
00000330: b130 adbe 1690 3bbf 7940 6ebf 027b dfbd
00000340: bb1e b2bf 5273 0d3e c74e c4be 63cf 2fbe
00000350: 6c24 b53d 80d1 92bf 80cb 32bf 24ce 00bf
00000360: 08d4 a7be 4092 febe dbed 4a3e 4b14 debc
00000370: 86c7 8fbe c479 91be d760 e2bd dc96 48bf
00000380: 443e c03d 1381 bf3d 0ef8 073e 64ef d9be
00000390: c38b 1bbe 9536 35bf bf61 93be b50a 71bf
000003a0: 9b0b b5bf 6e5f 60be 2596 10bf 7e70 74bf
000003b0: 1354 c3be e3ef cebd f5ed 30be 4fe0 92be
000003c0: 8b3c 37bf 1884 86be 4f25 95bf dbd2 1cbe
000003d0: 394b d0be 0485 bdbe 2411 21bf a286 c6bf
000003e0: 6338 1d3e 3de4 32be 2836 e1bd ef94 b0bf
000003f0: 065d b2be 3a05 53be 765e 63be f90f fe3b
-0.6239251 -0.53330624 0.01734799 -0.15464239 -0.07906327 -0.014345013 -0.06320243 -1.1032163
-0.7861421 -0.12148142 -0.1474783 -0.94074845 -0.4113223 -0.8549632 -0.82031316 -0.22931428
-1.329253 -0.13318631 -0.47749308 -0.10569757 0.0026969446 -1.0613571 -0.81667745 -0.31967488
-0.5274358 -0.49696916 0.14324698 0.056214064 -0.13530958 -0.25267294 0.034671333 -0.8728447
-0.0010406909 -0.081077024 0.06165826 -0.60586876 -0.3931964 -0.662014 -0.2844717 -0.78818
-1.5765473 -0.3473741 -0.5089902 -0.7699508 -0.4753895 -0.29431972 -0.2939448 -0.10624784
-0.862692 -0.34774283 -1.1159744 -0.34297907 -0.52293134 -0.3130048 -0.57378423 -1.5994182
0.05280756 -0.045361783 0.11253832 -1.1604484 -0.35263827 -0.13036354 -0.237728 -0.11736316
-0.43163243 -0.22344467 0.09873779 -0.06782143 -0.10052439 0.043669727 0.012879123 -0.45535588
-0.2329294 0.10411836 0.05995304 -0.23088115 -0.20327774 -0.3293366 -0.33639187 0.020167517
-0.58598053 0.008960167 0.112165645 -0.13682346 -0.008591563 -0.532651 -0.56148 0.016330112
-0.12767534 -0.17314567 0.0024740512 0.1550573 -0.018444499 -0.08802208 0.20731395 -0.73290145
0.07781002 -0.01680722 0.17186457 0.08512533 -0.17147635 -0.25476477 0.07124148 -0.46255004
-0.608426 -0.040051643 -0.1951885 -0.32588404 -0.48047528 -0.09184137 -0.090616785 -0.13164905
-0.42537907 -0.07927692 -0.3815201 -0.050470043 -0.04783033 -0.08817001 -0.003183905 -0.6360583
0.16411093 -0.122992225 -0.00047463572 -0.6636294 -0.06469076 -0.12778634 0.076857634 0.11644116
0.046178825 -0.04018287 -0.04101272 0.041507512 0.08927767 -0.043891672 -0.06253324 0.030826407
-0.010571949 0.0110257035 -0.10891784 0.028522097 0.060899258 0.0064447178 -0.055300213 -0.082338415
0.027503468 -0.18770708 -0.016022911 -0.020360252 0.03461855 -0.07525483 0.052536875 -0.047123604
-0.0673777 -0.0043054726 -0.050863188 -0.03705252 -0.048382062 0.08852345 0.011952109 -0.071773715
-0.07601318 -0.03989183 -0.020190557 -0.04851939 0.0129887145 -0.04243808 -0.076867394 0.0015564867
-0.03845028 -0.0062801177 0.077344336 -0.045548312 -0.036584187 0.058766432 0.021161383 -0.030738609
-0.09261183 0.049256653 0.027421476 -0.019007768 0.027043823 0.08779323 -0.09597563 0.07286246
-0.065423384 0.09260207 0.007967288 -0.01998508 -0.07628067 0.11524932 -0.09432122 -0.04463197
-0.69542736 -0.7403392 -0.029584115 -0.34241402 -0.10467699 -0.15178527 -0.07793795 -0.92715687
-0.8312873 0.05979476 -0.04686903 -0.8749259 -0.3382621 -0.7326673 -0.9306713 -0.10912134
-1.3915628 0.13813522 -0.38341352 -0.17168956 0.088448375 -1.1470184 -0.69841766 -0.50314546
-0.32778955 -0.49720955 0.19817297 -0.027109286 -0.28081912 -0.28413212 -0.11053627 -0.78355193
0.09386876 0.09350791 0.13278219 -0.42565453 -0.15190034 -0.7078641 -0.28785512 -0.9415696
-1.4144167 -0.21911404 -0.564791 -0.9548415 -0.3815008 -0.101043485 -0.17278273 -0.2868676
-0.71576756 -0.26272655 -1.1652011 -0.1531481 -0.4068239 -0.37015545 -0.6291678 -1.5509837
0.15353541 -0.17469878 -0.109966576 -1.3795451 -0.34836596 -0.20607463 -0.22204003 0.007753369
