backend/Model_Pytorch/RNN_Model/checkpoints/latest_checkpoint.pth (torch, 672421 bytes, 27 tensors)

lstm.weight_ih_l0 f4 [256, 19]
0	0xbe888373	-0.26662788
1	0xbe034ec4	-0.12823015
2	0xbdafc734	-0.08582917
3	0xbdab6ae4	-0.08369997
4	0xbb6f72bc	-0.0036536893
5	0xbdc7ef8e	-0.09762488
6	0x3e11a825	0.14224298
7	0xbd9c6fe6	-0.076385304
8	0x3e029b3e	0.12754533
9	0x3d08706b	0.033310335
10	0x3dfd6d89	0.12374408
11	0x3e310b44	0.17289454
12	0x3e182937	0.14859472
13	0x3de1e5b3	0.1103014
14	0x3d7f3689	0.06230787
15	0xbe80da90	-0.2516675
16	0xbe4100c7	-0.18847953
17	0xbc5c5596	-0.01344814
18	0x3d5e6ae1	0.054301146
19	0x3d8fbed5	0.0701882
20	0xbd776a26	-0.060403965
21	0xbc454483	-0.01204026
22	0xbe85ea29	-0.26155213
23	0xbe38b701	-0.1803856
24	0x3e080f3a	0.13287058
25	0xbe2ba9fe	-0.16764066
26	0x3e22f267	0.15912782
27	0xbdea31f9	-0.11435313
28	0xbe080369	-0.13282551
29	0x3e06b872	0.13156298
30	0xbd5a6974	-0.053323224
31	0xbd29622a	-0.041353382
32	0x3cefdc6f	0.029279916
33	0xbb2f6789	-0.0026764593
34	0xbdb59a36	-0.08867304
35	0xbeb2a7d0	-0.34893656
36	0x3dec5015	0.11538712
37	0x3e00c551	0.1257527
38	0x3db3ce0e	0.08779536
39	0x3e02f0d4	0.12787181
40	0x3e660fec	0.22467011
41	0x3e88d11f	0.26722047
42	0x3e936ee8	0.28795552
43	0xbbd7aa2d	-0.006581566
44	0x3e520cb2	0.20512655
45	0xbcacfca7	-0.021116568
46	0x3e0685c6	0.13136968
47	0x3e25bbf9	0.16184987
48	0xbe837fc9	-0.2568343
49	0x3eace641	0.3376942
50	0x3e092ab0	0.1339519
51	0x3f3131b0	0.6921644
52	0x3ee99f9e	0.4562959
53	0xbc1148dd	-0.00886747
54	0x3e92ea74	0.286945
55	0xbd796944	-0.060891405
56	0xbda1727b	-0.078831635
57	0x3df8d7f2	0.12150563
58	0xbd9b8f8a	-0.07595737
59	0x3d01a39c	0.03165017
60	0xbdcfc229	-0.10144455
61	0xbeadc980	-0.33942795
62	0x3e8a08e5	0.2695991
63	0x3e16828f	0.14698242
64	0x3e399db8	0.18126571
65	0x3de21923	0.11039951
66	0xbd1ea41c	-0.038730726
67	0xbd56ee06	-0.05247309
68	0x3f41e117	0.75734085
69	0xbe619175	-0.22028144
70	0x3f867802	1.0505373
71	0xbe560c2d	-0.20903082
72	0xbf1c071d	-0.60948354
73	0xbd226206	-0.039644264
74	0x3ea3e2a9	0.32008865
75	0x3d1ee8b2	0.038796134
76	0xbd671247	-0.056413915
77	0xbe069a4c	-0.13144797
78	0xbe4a789e	-0.19772574
79	0xbda4624d	-0.08026562
80	0x3ee718bf	0.45136067
81	0x3d282135	0.041047294
82	0x3e6e128a	0.2324926
83	0xbe0a789d	-0.13522573
84	0x3cb685ae	0.02228054
85	0x3e79346c	0.24336404
86	0x3e2f415a	0.17114773
87	0x3eb6e194	0.35718977
88	0x3eb97b4d	0.36226884
89	0x3ec4cb38	0.38436294
90	0x3dd2b6f4	0.10288802
91	0x3e0d7141	0.13812734
92	0x3e9e82ed	0.30959263
93	0xbe77dd77	-0.24205576
94	0xbd6ace79	-0.057325814
95	0xbe45601a	-0.19274941
96	0xbe060669	-0.13088383
97	0xbc879b12	-0.016553435
98	0x3d61f100	0.055161476
99	0x3dc5efd9	0.09664888
100	0x3d604a71	0.054758493
101	0x3cfeec77	0.031118615
102	0x3e16d745	0.14730556
103	0x3e037aef	0.12839864
104	0x3e30261f	0.17202042
105	0xbc18c5f8	-0.009324543
106	0xbdf77d60	-0.1208446
107	0x3da08bff	0.07839202
108	0xbdbdd58b	-0.09269246
109	0xbdac7eb0	-0.08422601
110	0x3ee089f0	0.43855238
111	0x3e74376b	0.23849265
112	0x3f044e5d	0.5168207
113	0x3ea74dac	0.32676446
114	0x3e429217	0.19001041
115	0xbcb4e82e	-0.022083368
116	0x3dab8de9	0.083766766
117	0xbe4de631	-0.20107342
118	0xbefcbc7f	-0.4936256
119	0x3d044400	0.032291412
120	0x3d9297c4	0.07157853
121	0x3e8dc16b	0.2768663
122	0x3e1d3404	0.15351874
123	0xbc833db4	-0.016020633
124	0x3c68d5f1	0.014211164
125	0xbdd4e57b	-0.103953324
126	0x3ef1a8c2	0.47199064
127	0x3da07b98	0.07836074
128	0x3e886cd8	0.2664554
129	0xbe38134c	-0.17976111
130	0x3ef28ce2	0.4737311
131	0x3e169a00	0.14707184
132	0xbe6d2232	-0.23157576
133	0xbcc8a150	-0.024490982
134	0xbcd6696d	-0.026173318
135	0x3bc25eb4	0.0059316996
136	0x3cc42a91	0.023946078
137	0x3e2db269	0.1696259
138	0x3e1f3973	0.15549259
139	0x3e97b9ca	0.29633933
140	0x3e8f5868	0.27997136
141	0x3dbd5a58	0.09245747
142	0x3e90390e	0.2816853
143	0x3de405ee	0.111339435
144	0xbdb1cfae	-0.0868219
145	0xbd494f5d	-0.049147952
146	0xbda5de64	-0.08099058
147	0xbb15d12f	-0.002286028
148	0x3d1f33f5	0.03886791
149	0x3da589eb	0.080829464
150	0xbd290cc4	-0.04127194
151	0xbd5642b5	-0.05230971
152	0xbd8fb196	-0.07016294
153	0xbd14d4d9	-0.0363358
154	0xbe40f8b5	-0.18844874
155	0xbe81a12b	-0.25318274
156	0x3d45896e	0.048226766
157	0x3de1411d	0.109987475
158	0xbcd65747	-0.026164664
159	0xbdee0fdb	-0.11624118
160	0xbd782034	-0.060577586
161	0xbd67db69	-0.05660573
162	0xbc6cc63a	-0.014451558
163	0x3cf35811	0.02970508
164	0x3c8f0dff	0.017462729
165	0xbda215fd	-0.0791435
166	0xbe2346b2	-0.15944937
167	0xbe176b5c	-0.14787048
168	0x3dbca92d	0.09211955
169	0xbdb99a3d	-0.09062622
170	0xbd957ca3	-0.07299163
171	0x3da85c1c	0.082206935
172	0x3e2dee2e	0.1698539
173	0x3de83b1d	0.113394
174	0x3c1eeeb9	0.009700471
175	0x3dd33693	0.103131436
176	0x3dc8755f	0.09788012
177	0x3e16c7b6	0.14724621
178	0xbcdfbd72	-0.027312014
179	0x3e50bb87	0.20384036
180	0x3eaf14e2	0.3419562
181	0x3ce8f7bc	0.028438441
182	0x3e2bf093	0.1679099
183	0x3e72362a	0.23653474
184	0x3d98cd86	0.074610755
185	0xbe1b581c	-0.1517033
186	0x3de809e3	0.11330011
187	0x3e63a483	0.22230725
188	0x3e62056a	0.22072378
189	0x3e868847	0.26275846
190	0x3ea350d5	0.31897607
191	0xbe52edc0	-0.20598507
192	0xbba221e4	-0.0049478877
193	0x3c812ac2	0.015767459
194	0x3eefbf95	0.46825853
195	0xbde28014	-0.11059585
196	0x3d25f5ad	0.040517498
197	0xbdcc1fe9	-0.09967024
198	0x3d97e45b	0.07416602
199	0xbcb96323	-0.02263028
200	0x3e6db4b0	0.23213458
201	0x3f3ed488	0.74543047
202	0xbe1bbb56	-0.15208182
203	0x3eed8fa1	0.46398643
204	0xbe972e09	-0.2952731
205	0x3cbad3fc	0.02280616
206	0x3ece98ca	0.40350944
207	0x3e4219bb	0.18955128
208	0x3c8843aa	0.016633827
209	0x3e2515b7	0.16121565
210	0xbd15d5fe	-0.036581032
211	0xbe2d36d0	-0.1691544
212	0xbcfef672	-0.031123374
213	0xbe0c03d8	-0.13673341
214	0x3df81438	0.121132314
215	0x3e0136e6	0.12618598
216	0x3e5e4ec2	0.21709731
217	0xbca63c0f	-0.02029231
218	0x3dfe7c98	0.12426108
219	0xbcc73f69	-0.024322229
220	0xbd586f71	-0.052840654
221	0xbdb35297	-0.08755987
222	0x3cccee2f	0.025015919
223	0x3c8a1ceb	0.016859492
224	0xbde9302f	-0.113861434
225	0x3c645403	0.013936046
226	0x3b96fc07	0.0046076807
227	0x3e102ce5	0.14079626
228	0xbf019ec6	-0.50632894
229	0xbd652319	-0.055941675
230	0xbd8ab2ee	-0.067724094
231	0xbe616ae3	-0.2201343
232	0xbe4e5613	-0.20150022
233	0x3de543a6	0.111945435
234	0xbd9e6680	-0.07734394
235	0x3e4e266a	0.20131841
236	0xbe37099e	-0.17874762
237	0xbd874484	-0.06604865
238	0x3d965339	0.07340092
239	0xbd3e4b5a	-0.04645858
240	0x3ea0132e	0.31264633
241	0xbd834606	-0.0640984
242	0x3e08433d	0.133069
243	0x3ea2ac1f	0.31771943
244	0xbeea232d	-0.45729962
245	0xbde15a23	-0.1100352
246	0x3e77c869	0.24197544
247	0xbecaa018	-0.39575267
248	0xbd208564	-0.03918971
249	0xbb087e81	-0.0020827355
250	0xbd56bb36	-0.052424632
251	0x3d15654f	0.03647357
252	0x3e41bb82	0.18919185
253	0x3d1cbc28	0.038265377
254	0x3e455e44	0.1927424
255	0x3d434042	0.047668703

lstm.weight_hh_l0 f4 [256, 64]
0	0xbe6e060c	-0.23244494
1	0x3e911515	0.28336397
2	0x3e54c1a7	0.20776998
3	0x3d6864cd	0.056736756
4	0x3d0f82df	0.035036918
5	0x3e5603da	0.20899907
6	0xbe30a041	-0.17248632
7	0x3ac532df	0.0015045068
8	0xbe5d33a5	-0.21601732
9	0x3e58c7f1	0.21170022
10	0xbd0d60cc	-0.03451614
11	0xbe180cb2	-0.14848593
12	0xbdd1bff4	-0.1024169
13	0xbe949b8f	-0.29024932
14	0x3bea3b57	0.007148187
15	0x3c8f775a	0.017512966
16	0x3de64e6b	0.11245426
17	0x3c5ec97c	0.013597842
18	0xbd0da6b5	-0.034582812
19	0x3d1d7c9f	0.038448926
20	0x3d9f6fe7	0.077850156
21	0xbe2cba95	-0.1686805
22	0xbd34f94a	-0.044183053
23	0xbd8db45e	-0.06919168
24	0xbde55d58	-0.111994445
25	0x3e326629	0.17421784
26	0xbddc90d7	-0.107698135
27	0xbe0c8381	-0.1372204
28	0x3d4a537c	0.049396023
29	0xbe174857	-0.14773689
30	0x3dd47c3a	0.10375257
31	0x3e50bf93	0.2038558
32	0x3d364801	0.044502262
33	0xbd188b68	-0.037242323
34	0xbd9afd0c	-0.07567796
35	0x3eabd67f	0.33562085
36	0xbe11de15	-0.14244874
37	0x3e017d33	0.12645416
38	0x3d277b2e	0.040888958
39	0xbe8665a5	-0.26249424
40	0xbe3f56c2	-0.18685439
41	0xbc7f80b4	-0.01559465
42	0x3cd26b41	0.025685908
43	0x3c54d268	0.012989618
44	0x3df36eca	0.11886366
45	0xbd39c7ac	-0.045356438
46	0x3e0d606f	0.13806318
47	0x3db27e8a	0.08715542
48	0x3dd2bbee	0.10289751
49	0x3e257028	0.16156065
50	0x3d1ee326	0.038790844
51	0x3d1fb1c8	0.038987905
52	0xbd89ec46	-0.06734519
53	0xbe58a5f9	-0.21157064
54	0xbdc12157	-0.09430187
55	0xbb24f40a	-0.0025169873
56	0xbd143492	-0.036182947
57	0x3e1d4f1a	0.15362206
58	0xbd5968c5	-0.05307843
59	0xbde69f4e	-0.11260854
60	0xbe636853	-0.22207765
61	0x3de02f69	0.10946543
62	0xbd3b2529	-0.045689736
63	0x3ceb3a50	0.028714329
64	0xbe244a1c	-0.16043895
65	0x3e0c1af0	0.13682151
66	0xbe293866	-0.1652542
67	0x3e198c08	0.14994824
68	0xbc5f2201	-0.013618947
69	0xbe92b7bf	-0.28655812
70	0xbd91cf8d	-0.07119665
71	0x3cee436c	0.029084884
72	0xbc5e144c	-0.013554644
73	0xbd713e4c	-0.0588973
74	0xbe5c8981	-0.21536829
75	0xbe565810	-0.2093203
76	0xbe25ff7d	-0.16210742
77	0x3db1c89f	0.086808436
78	0xbe1f9473	-0.15583973
79	0xbd742cae	-0.059612922
80	0x3cbd3f26	0.0231014
81	0x3e7765e7	0.24159966
82	0x3e667345	0.2250491
83	0xbd40d5c8	-0.047078878
84	0x3e2031fa	0.15644065
85	0xbe03aa80	-0.1285801
86	0x3e0e4a2a	0.13895479
87	0x3e96b382	0.2943383
88	0xbe384b41	-0.17997457
89	0xbc28904c	-0.010288309
90	0xbe03ae0c	-0.12859362
91	0xbe453aa5	-0.19260652
92	0x3d1f707f	0.038925644
93	0x3d69264a	0.05692128
94	0x3df8fea9	0.121579476
95	0x3caef393	0.02135638
96	0x3daf9548	0.08573395
97	0x3e2bf460	0.1679244
98	0x3d827fb1	0.063720115
99	0x3d277892	0.04088647
100	0x3d967ba6	0.07347803
101	0x3e51f174	0.20502263
102	0xbdf767bc	-0.12080333
103	0xbc075db8	-0.00826209
104	0xbddf83c2	-0.10913803
105	0xbdce0351	-0.10059226
106	0xbcd1fcdf	-0.025633274
107	0xbdbe8370	-0.093024135
108	0x3e284fa9	0.16436638
109	0xbd18b103	-0.037278187
110	0x3e6c15a8	0.23055136
111	0x3de61ba4	0.11235741
112	0x3db13b01	0.08653832
113	0x3de0a595	0.10969082
114	0xbe2e0169	-0.16992725
115	0x3dbbcbf2	0.09169759
116	0x3b077caa	0.002067367
117	0xbe8781a4	-0.26466095
118	0xbe50cb08	-0.2038995
119	0x3e4e5ffa	0.201538
120	0x3eebf344	0.46084034
121	0x3dfd60bb	0.123719655
122	0xbdb59d9e	-0.08867954
123	0x3cc13559	0.023585008
124	0xbdb94748	-0.09046799
125	0x3e17110f	0.14752601
126	0xbe0555fe	-0.13021085
127	0x3d510fda	0.051040508
128	0xbdaa8086	-0.08325295
129	0x3da0230f	0.07819187
130	0xbdb108b0	-0.08644235
131	0x3d2abee9	0.041685972
132	0xbe337ce0	-0.17528105
133	0xbd235d92	-0.039884157
134	0x3d71d2c1	0.05903888
135	0xbe3192e8	-0.17341197
136	0xbd9b57a3	-0.07585075
137	0xbe12f86d	-0.1435258
138	0xbe69c39c	-0.22828525
139	0xbc1069da	-0.0088142995
140	0x3d6fadb0	0.05851525
141	0x3e799403	0.24372868
142	0xbd7c6f8a	-0.06162981
143	0xbde57991	-0.112048276
144	0xbe77fa17	-0.24216495
145	0x3dd56db7	0.10421317
146	0xbe46f79e	-0.19430396
147	0x3e7cc753	0.24685411
148	0xbe5227ab	-0.20522945
149	0x3ead5e9d	0.33861247
150	0xbed6607c	-0.41870487
151	0x3dd40286	0.10352044
152	0x3e968538	0.29398513
153	0x3eeee32e	0.466577
154	0xbe2c94f8	-0.16853702
155	0xbd8c92b3	-0.06863918
156	0x3d6f8df9	0.058485005
157	0x3dc448bb	0.09584185
158	0xbe15ec95	-0.1464103
159	0xbea68faa	-0.32531482
160	0xbde8223e	-0.11334656
161	0xbeacd952	-0.33759552
162	0x3eae67ef	0.3406367
163	0xbd7b074e	-0.061286263
164	0x3e6232ec	0.22089738
165	0x3de14251	0.10998977
166	0x3e88b2ec	0.26699007
167	0xbc01d039	-0.007923179
168	0xbd8e6901	-0.06953622
169	0xbe805738	-0.25066543
170	0x3e447b1f	0.19187592
171	0x3cc85687	0.024455322
172	0xbe7b2995	-0.24527581
173	0x3d3d4425	0.046207566
174	0xbeb8f8d3	-0.36127338
175	0xbe14c3f1	-0.1452787
176	0x3eec2d11	0.46128133
177	0xbe196f14	-0.14983779
178	0x3ddab38c	0.10678777
179	0x3ec0b281	0.37636188
180	0x3e98232c	0.29714334
181	0xbe6c8a5e	-0.23099658
182	0x3e3b1da5	0.18273027
183	0xbe9491fa	-0.2901762
184	0x3d92a2a0	0.071599245
185	0xbe43f9b8	-0.19138229
186	0x3f1851fe	0.5950011
187	0x3e056b4e	0.13029215
188	0xbc488df5	-0.012240876
189	0x3d990139	0.07470936
190	0xbc195815	-0.009359379
191	0xbd0d0e7d	-0.034437645
192	0xbe2183b8	-0.15772903
193	0xbce0b27a	-0.027428854
194	0xbac8e68a	-0.0015327495
195	0x3d771918	0.060326666
196	0x3e605204	0.21906286
197	0xbec8c1fb	-0.39210495
198	0xbd906a13	-0.07051482
199	0x3ea65608	0.32487512
200	0xbe5dcac0	-0.21659374
201	0x3eb082ae	0.344747
202	0x3f0dc7ec	0.5538318
203	0xbe3f0630	-0.18654704
204	0x3e58d979	0.21176709
205	0xbdc33f74	-0.09533587
206	0xbecbbd5a	-0.397929
207	0x3d5ff361	0.054675464
208	0x3e895449	0.26822117
209	0xbf80a92d	-1.0051628
210	0xbf011182	-0.5041734
211	0xbd8db2ee	-0.06918894
212	0xbddf43b9	-0.10901589
213	0xbdd1d312	-0.102453366
214	0x3d6d72ab	0.057970684
215	0xbe416650	-0.18886685
216	0xbe992454	-0.2991053
217	0x3d247c0b	0.04015736
218	0xbe579ff4	-0.21057111
219	0xbe3a11da	-0.18170872
220	0x3cb6955c	0.022288017
221	0xbebbba6b	-0.36665663
222	0x3d9181d2	0.071048394
223	0x3db24315	0.08704201
224	0x3cfa9626	0.030589174
225	0x3da7a039	0.08184857
226	0xbdf2a58f	-0.11847984
227	0xbbeb4098	-0.007179331
228	0xba532992	-0.00080552057
229	0x3f105bf8	0.56390333
230	0x3e81e360	0.25368786
231	0xbe4d7a4e	-0.20066187
232	0xbda59cd5	-0.08086554
233	0x3d31138f	0.043231543
234	0x3db79249	0.089634486
235	0xbcbffa4f	-0.023434786
236	0xbdb629e2	-0.08894707
237	0x3e5fd8f6	0.21860108
238	0x3dcf9b72	0.10137071
239	0x3dcfde4f	0.10149824
240	0xbcb440ce	-0.022003558
241	0x3e473047	0.1945201
242	0xbd1db4b2	-0.038502403
243	0xbd3da5fa	-0.046300866
244	0xbe79c024	-0.24389702
245	0xbe867802	-0.26263434
246	0xbeff299a	-0.49836427
247	0x3e793532	0.24336699
248	0x3e386a8e	0.18009397
249	0x3dd31cdc	0.10308239
250	0x3e2a962e	0.16658852
251	0xbed7c250	-0.42140436
252	0x3db57167	0.088595204
253	0xbd93a0fa	-0.07208438
254	0xbe8a2309	-0.26979855
255	0xbe9ad860	-0.30243206

lstm.bias_ih_l0 f4 [256]
0	0xbe81b539	-0.25333574
1	0xbe689845	-0.22714336
2	0xbe724718	-0.23659933
3	0xbdec96d8	-0.11552209
4	0xbdcae815	-0.099075474
5	0xbef56a90	-0.47932863
6	0xbf0705c1	-0.52743155
7	0x3e25f8c0	0.16208172
8	0xbe4ca450	-0.19984555
9	0xbdcf079f	-0.101088755
10	0xbe82bc42	-0.25534254
11	0xbe370915	-0.17874558
12	0xbe52522d	-0.2053916
13	0xbef2a80e	-0.4739384
14	0xbcc3dd88	-0.023909345
15	0xbe8e0cdd	-0.2774419
16	0xbe83a29e	-0.25710005
17	0xbe0a5b2d	-0.13511343
18	0xbe29b0a5	-0.16571291
19	0xbe349385	-0.17634399
20	0x3d1a6d4c	0.03770189
21	0xbe493407	-0.19648753
22	0xbee0e1d3	-0.4392229
23	0xbf0cb0e7	-0.5495743
24	0x3e4d210c	0.20032138
25	0xbeb5cc77	-0.35507557
26	0xbe7d913b	-0.24762432
27	0xbe60356d	-0.2189538
28	0xbd860fb7	-0.06545966
29	0x3e2dc56f	0.16969846
30	0xbe14c129	-0.1452681
31	0xbe8091b9	-0.25111178
32	0xbe6d5631	-0.2317741
33	0xbeb6faf3	-0.35738334
34	0xbe7161b0	-0.23572421
35	0xbeb55897	-0.3541915
36	0xbeea16aa	-0.45720416
37	0xbe0713a8	-0.13191092
38	0xbecf5a27	-0.40498468
39	0xbe5d8b32	-0.2163513
40	0xbe0cda91	-0.13755251
41	0xbe55d49c	-0.20881885
42	0xbd3ea620	-0.046545148
43	0xbe775f77	-0.2415751
44	0xbe60e962	-0.21964028
45	0xbf34d760	-0.70641136
46	0xbea869e5	-0.3289329
47	0xbf1531aa	-0.58278906
48	0xbf0641c2	-0.5244409
49	0xbe2c3709	-0.16817869
50	0xbea82c03	-0.32846078
51	0xbefe1791	-0.49627355
52	0xbeb1a5a4	-0.34696686
53	0xbeaf418d	-0.342297
54	0x3ed41121	0.41419318
55	0x3d9d7801	0.076889046
56	0xbf49f25d	-0.7888544
57	0xbece551d	-0.4029931
58	0xbea1c47b	-0.31595215
59	0xbeb561c1	-0.35426143
60	0xbefc86f1	-0.49321702
61	0xbe554411	-0.20826747
62	0xbf821cda	-1.0165055
63	0x3e1ecc8a	0.15507713
64	0xbdb2ceea	-0.08730872
65	0xbdb10a3b	-0.086445294
66	0xbea5b5c7	-0.32365248
67	0xbdf50ed5	-0.119657196
68	0x3d25a156	0.040437065
69	0xbdd3d662	-0.10343625
70	0xbe143d65	-0.14476545
71	0xbd249209	-0.040178332
72	0x3d323aa6	0.043512963
73	0xbd24ac23	-0.040203225
74	0xbd887912	-0.06663717
75	0x3a741ee2	0.0009312463
76	0xbc5e306e	-0.013561351
77	0xbead724c	-0.33876264
78	0xbe376218	-0.17908514
79	0xbe16db9f	-0.14732216
80	0xbe279dcc	-0.16368788
81	0x3d8f2aac	0.06990561
82	0xbe8a4a29	-0.27009705
83	0xbe041a51	-0.12900664
84	0xbe230f04	-0.15923697
85	0xbdc926d9	-0.09821863
86	0xbd24119a	-0.04005585
87	0xbeafe9d8	-0.34358096
88	0xbc5f3e25	-0.013625656
89	0xbe2bee74	-0.16790181
90	0x3d9dd3ed	0.07706437
91	0x3de5625e	0.11200403
92	0x3e6d37bb	0.2316579
93	0xbe96ef6e	-0.29479545
94	0xbdbb26c8	-0.09138256
95	0xbe154f14	-0.14580947
96	0xbea97ed8	-0.33104587
97	0xbe1e875d	-0.15481324
98	0xbe33d77f	-0.17562674
99	0x3e0f79e1	0.14011337
100	0x3bdccac3	0.0067380383
101	0xbe19e6b8	-0.15029418
102	0x3e6eccc3	0.23320298
103	0xbe0e7541	-0.13911916
104	0xbe4e9481	-0.20173837
105	0xbe45a6b9	-0.19301881
106	0x3da46af3	0.080282114
107	0xbda4c0fb	-0.080446206
108	0xbddff864	-0.109360486
109	0xbeb9142c	-0.36148202
110	0xbc31f4d1	-0.010861591
111	0xbe4b6c6d	-0.1986558
112	0x3f220309	0.6328588
113	0x3e666371	0.22498871
114	0xbe55d349	-0.2088138
115	0xbf0519f3	-0.5199272
116	0xbdf83527	-0.12119513
117	0x3e0b704f	0.13617061
118	0xbc5bdfa7	-0.013420022
119	0x3dceccda	0.10097666
120	0xbf342f08	-0.70384264
121	0xbe5e939a	-0.21735993
122	0xbe830d08	-0.2559588
123	0xbeb06639	-0.3445299
124	0xbe4b240a	-0.19837967
125	0xbe15ae40	-0.14617252
126	0xbef332fe	-0.4749984
127	0x3d9673f8	0.07346338
128	0xbe878c93	-0.26474437
129	0xbddbf107	-0.10739332
130	0x3e4c7ae6	0.19968757
131	0xbe006ad0	-0.12540746
132	0xbba5f854	-0.0050650034
133	0xbe6f66ae	-0.23379013
134	0x3b603c74	0.003421572
135	0x3bc583ed	0.0060276897
136	0xbd5f7302	-0.05455304
137	0xbd11ec63	-0.035625827
138	0xbdf8e5a1	-0.12153173
139	0x3deb897d	0.11500833
140	0x3df92fe7	0.1216734
141	0x3dae44d7	0.08509224
142	0x3d05933c	0.032611117
143	0x3e111bde	0.14170787
144	0xbe538aa5	-0.20658357
145	0xbdb692d8	-0.08914727
146	0xbe0baea9	-0.13640846
147	0x3e04985d	0.12948747
148	0xbabca231	-0.0014391599
149	0xbd9ae226	-0.07562666
150	0x3e20f198	0.1571716
151	0xbdb1350a	-0.086526945
152	0x3d199364	0.03749408
153	0x3df9c3fc	0.12195584
154	0xbc4cc8da	-0.012499059
155	0x3e563673	0.20919208
156	0x3e212968	0.15738451
157	0x3dcb46b0	0.09925592
158	0xbc42e042	-0.011894288
159	0xbd6e2348	-0.058139116
160	0x3d847e2e	0.06469379
161	0xbbe49cdf	-0.0069767083
162	0x3e9a84aa	0.3017934
163	0x3e626f9b	0.22112887
164	0x3e3dd294	0.1853736
165	0xbca009a5	-0.019535849
166	0x3d9cc6fb	0.0765514
167	0x3d3667d2	0.044532605
168	0xbd8eb903	-0.06968882
169	0x3d06ecb4	0.03294058
170	0xbd437d07	-0.047726657
171	0x3e3e97d8	0.18612611
172	0xbe53f555	-0.20699055
173	0x3eadd08e	0.33948177
174	0x3e01a9ed	0.12662478
175	0xbc8fe1a0	-0.017563641
176	0xbdb2dc9c	-0.08733484
177	0x3bf98301	0.007614494
178	0xbe9ba7c2	-0.30401427
179	0x3dd36724	0.10322407
180	0xbcff7509	-0.031183736
181	0xbde29070	-0.110627055
182	0x3e0c7ff8	0.13720691
183	0xbd4113c1	-0.04713798
184	0x3d2aacce	0.041668706
185	0x3d7a9d4e	0.061185174
186	0x3d7b1551	0.061299626
187	0x3e7659af	0.24057649
188	0xbe863d55	-0.26218668
189	0x3d0817e7	0.03322592
190	0xbd2a742a	-0.04161469
191	0x3daa58d5	0.083177246
192	0xbe96210d	-0.2932209
193	0xbe51690e	-0.20450231
194	0xbe1bc6bb	-0.15212528
195	0xbe0bcb7a	-0.13651839
196	0x3caa3fac	0.020782314
197	0xbe3c5d7e	-0.1839504
198	0xbedc941a	-0.43081743
199	0x3ec639bb	0.3871592
200	0xbe499f3b	-0.19689648
201	0xbde2d86c	-0.110764354
202	0xbe970e9c	-0.29503334
203	0xbdd7657c	-0.105174035
204	0xbe20b04c	-0.15692252
205	0xbec26f69	-0.37975624
206	0xbbc07b6c	-0.005874088
207	0xbe140100	-0.14453506
208	0xbe33833e	-0.17530534
209	0xbe4174c2	-0.18892196
210	0xbd9e4aae	-0.07729088
211	0x3d378340	0.044802904
212	0x3e5cd90c	0.21567172
213	0xbea7053b	-0.32621178
214	0xbe4ddedc	-0.20104545
215	0xbecf290b	-0.40461
216	0xbd08cb06	-0.033396743
217	0xbee81805	-0.45330825
218	0x3db46dc1	0.088099964
219	0xbe4bc5ad	-0.19899626
220	0x3e9aab9b	0.3020905
221	0x3e0efed8	0.13964403
222	0x3cf24d5d	0.029577905
223	0xbe76cc76	-0.24101433
224	0xbe9d16d8	-0.3068149
225	0xbe083cc2	-0.13304427
226	0xbeab5fd7	-0.33471557
227	0xbe81d46a	-0.25357372
228	0xbe0df612	-0.138634
229	0xbd523e5f	-0.051329013
230	0xbe4c9363	-0.19978099
231	0xbd3cd8cc	-0.04610519
232	0xbeb2dc09	-0.34933499
233	0xbda195ae	-0.07889877
234	0xbe8dd761	-0.27703384
235	0xbeacd35d	-0.33755007
236	0xbe8eeab3	-0.27913436
237	0xbec999d6	-0.3937518
238	0xbdabc400	-0.083869934
239	0xbf1be422	-0.6089498
240	0x3e6742c5	0.22584064
241	0xbe170482	-0.14747813
242	0xbf3a2a65	-0.7272094
243	0xbec2dd7d	-0.38059607
244	0xbec9e2ed	-0.39430943
245	0xbe9209e1	-0.28523162
246	0x3c856d0c	0.01628735
247	0x3e0f3b87	0.13987552
248	0xbf5c43e6	-0.86041105
249	0xbeb97ad7	-0.36226532
250	0xbe5ee3c6	-0.21766576
251	0xbe6f468c	-0.23366755
252	0xbe88422e	-0.2661299
253	0xbe31fea8	-0.173823
254	0xbf4b278c	-0.7935722
255	0x3e9298f3	0.28632316

lstm.bias_hh_l0 f4 [256]
0	0xbe9842f6	-0.29738587
1	0xbe953098	-0.29138637
2	0xbe68f02d	-0.2274787
3	0xbe9cbdf1	-0.30613664
4	0xbe088257	-0.1333097
5	0xbef8bbb3	-0.48580703
6	0xbed1c21e	-0.40968412
7	0x3e05e3eb	0.13075225
8	0xbe40b7a1	-0.18820049
9	0xbe2a03d1	-0.16603018
10	0xbea810b1	-0.32825235
11	0xbe4a96ce	-0.1978409
12	0xbe1ed96c	-0.15512627
13	0xbea99f7d	-0.33129492
14	0xbd13e61c	-0.03610812
15	0xbe44fd88	-0.1923734
16	0xbe817c10	-0.25289965
17	0xbe53ace3	-0.2067142
18	0xbc266cf7	-0.010157815
19	0xbce0a7ae	-0.027423706
20	0x3d7ae723	0.061255585
21	0xbe948ecd	-0.29015198
22	0xbe82391b	-0.25434193
23	0xbed56a17	-0.41682503
24	0xbcf33a57	-0.029690905
25	0xbeaa5259	-0.3326595
26	0xbe5c8b1d	-0.21537443
27	0xbe4fa6c1	-0.20278455
28	0xbbf085ba	-0.00734016
29	0x3e0495c1	0.12947752
30	0xbe2f4739	-0.17117013
31	0xbe1b7bad	-0.15183897
32	0xbd164e22	-0.036695607
33	0xbec0095f	-0.3750715
34	0xbe8f07fb	-0.27935776
35	0xbe6e4715	-0.23269303
36	0xbef83e2d	-0.48484936
37	0xbdca6fab	-0.0988458
38	0xbeb59ceb	-0.3547128
39	0xbe7fe920	-0.24991274
40	0xbe550ffa	-0.20806876
41	0xbe3754df	-0.1790347
42	0xbdce16ee	-0.10062967
43	0xbe24c8ff	-0.16092299
44	0xbeaac06b	-0.33349928
45	0xbf27bfef	-0.6552724
46	0xbeb4fd76	-0.35349625
47	0xbf1ded0b	-0.61689824
48	0xbf2bceb3	-0.6711227
49	0xbe4c25d0	-0.199363
50	0xbe8a761e	-0.2704324
51	0xbf16df88	-0.5893483
52	0xbe54ce2d	-0.20781775
53	0xbefdb98e	-0.4955563
54	0x3ef2ae67	0.47398683
55	0xbdc7d503	-0.09757426
56	0xbf589a1c	-0.8461015
57	0xbebb8a34	-0.36628878
58	0xbea2e772	-0.31817204
59	0xbea148fa	-0.3150099
60	0xbed8db82	-0.4235497
61	0xbeb85ed5	-0.3600985
62	0xbf4fae4c	-0.8112533
63	0x3e7a9209	0.2446977
64	0x3d8a5efd	0.06756399
65	0xbdc564ef	-0.09638392
66	0xbe9dd344	-0.30825245
67	0x3dbd39d6	0.09239547
68	0x3dc408d5	0.09571997
69	0xbd8c51e5	-0.06851558
70	0xbe39210e	-0.18079016
71	0xbd8b6565	-0.06806449
72	0xbde8b593	-0.113627575
73	0x3ab4fb4a	0.00138078
74	0xbcc68843	-0.024234897
75	0x3ddde6b7	0.10835021
76	0xbdce9215	-0.10086457
77	0xbe6e29e6	-0.2325817
78	0xbe30dade	-0.17270991
79	0x3d4dc2d2	0.050234623
80	0xbd9e3af7	-0.077260904
81	0xbd87d982	-0.06633283
82	0xbe5b7e8e	-0.21434996
83	0xbe06171c	-0.13094753
84	0xbe199084	-0.14996535
85	0xbe42e138	-0.19031227
86	0x3dd3ccd4	0.10341802
87	0xbe24b5a4	-0.16084915
88	0x3e11d83d	0.14242645
89	0xbdcc2e31	-0.09969748
90	0x3e3b6d87	0.183035
91	0x3dda82fc	0.106695145
92	0x3dd41c57	0.10356968
93	0xbe9565b5	-0.2917916
94	0xbdc0d450	-0.094154954
95	0xbe0800a3	-0.13281493
96	0xbe7afd5d	-0.24510713
97	0x3c6ad426	0.014332807
98	0xbe5393bb	-0.20661823
99	0x3e26ab1a	0.16276208
100	0xbd2c7612	-0.042104788
101	0xbea43f41	-0.3207951
102	0x3e69b8fb	0.2282447
103	0x3ccddcdb	0.025129726
104	0xbe6ef499	-0.23335494
105	0xbe314759	-0.17312373
106	0xbd475d78	-0.048673123
107	0x3d437e57	0.04772791
108	0xbd26ca3c	-0.04072021
109	0xbe75199a	-0.23935547
110	0xbe36f5f8	-0.17867267
111	0xbe7b0299	-0.2451271
112	0x3f0d7d14	0.5526898
113	0x3d225e8c	0.03964095
114	0xbe90d134	-0.2828461
115	0xbe95a9fb	-0.29231247
116	0xbe08ced0	-0.13360143
117	0x3dcfadab	0.101405464
118	0xbd489520	-0.04897034
119	0xbd3840c9	-0.04498366
120	0xbf2a599c	-0.66542983
121	0xbd6a193a	-0.057152964
122	0xbe20e385	-0.15711792
123	0xbe354d78	-0.17705333
124	0xbe873735	-0.26409307
125	0xbbaacf66	-0.005212712
126	0xbed30842	-0.41217238
127	0xbd9a118f	-0.0752288
128	0xbe4c1d98	-0.19933164
129	0xbe0b0ebe	-0.13579842
130	0x3d69ebc0	0.057109594
131	0xbde984d0	-0.11402285
132	0x3d5f3d92	0.054502077
133	0xbe551816	-0.2080997
134	0xbd8a9ae2	-0.06767823
135	0x3d84ca42	0.0648389
136	0x3d975002	0.07388307
137	0xbe8c6933	-0.2742401
138	0x3d92c4d8	0.07166451
139	0x3dccdf71	0.100035556
140	0x3e0c9661	0.1372924
141	0x3bf7eacb	0.0075658313
142	0x3e0914a6	0.13386783
143	0x3df902c8	0.121587336
144	0xbe176790	-0.147856
145	0xbe067789	-0.13131537
146	0xbe06bf5d	-0.13158937
147	0xbd375ef6	-0.044768296
148	0x3c520efb	0.012820954
149	0x3e1617ad	0.14657469
150	0x3c5e9c75	0.013587107
151	0xbddfc91f	-0.10927033
152	0xbd9faa43	-0.07796147
153	0x3d725360	0.059161544
154	0xbe389d15	-0.18028672
155	0x3de00cc7	0.10939937
156	0x3d9b0551	0.075693734
157	0x3dce6b80	0.10079098
158	0xbc84cca7	-0.016210867
159	0xbd29ebc8	-0.041484624
160	0x3d64da91	0.055872504
161	0xbd31cf3a	-0.043410517
162	0x3dd0cf2b	0.10195764
163	0x3df3aa44	0.1189771
164	0xbca2bfe8	-0.019866899
165	0xbd9b6614	-0.07587829
166	0x3cffd112	0.031227622
167	0x3e367581	0.17818262
168	0xbd3d92b3	-0.04628248
169	0xbd0a6f67	-0.033797648
170	0x3b9f983c	0.0048704427
171	0x3e6506a8	0.2236582
172	0xbddf5c23	-0.109062456
173	0x3e10e9b9	0.14151658
174	0xbda2e091	-0.07952989
175	0x3ccbb751	0.024867686
176	0xbe790319	-0.24317588
177	0xbd206aea	-0.03916446
178	0xbe1172bd	-0.14203925
179	0x3e845fbd	0.25854293
180	0x3d9525c9	0.072825976
181	0x3dde4cd2	0.10854496
182	0x3d534f60	0.05158937
183	0xbc7e44cb	-0.015519331
184	0xbdbf825c	-0.09351036
185	0xbda8c3a7	-0.08240443
186	0xbbe13a4e	-0.0068734055
187	0x3d4d914b	0.05018739
188	0xbe95f729	-0.2929013
189	0x3ca1b4c2	0.019739512
190	0x3d9107e3	0.070815824
191	0xbdd5d0a9	-0.104401894
192	0xbe82f219	-0.2557533
193	0xbed5fd26	-0.417947
194	0xbe4e0c6b	-0.20121925
195	0xbe108bdb	-0.1411585
196	0x3de461ce	0.11151467
197	0xbe63aeb0	-0.22234607
198	0xbed6b020	-0.41931248
199	0x3e92cbc7	0.28671095
200	0xbe4d994a	-0.20078006
201	0xbc399d7b	-0.01132905
202	0xbe6c2db5	-0.23064311
203	0xbdf078a3	-0.1174176
204	0xbe209d61	-0.15685035
205	0xbe8388b9	-0.2569025
206	0xbd5acea1	-0.053419713
207	0xbe7e9e53	-0.24865083
208	0xbe0abcf5	-0.13548644
209	0xbe33d449	-0.17561449
210	0xbd4e55c2	-0.050374754
211	0x3da1ed1e	0.07906555
212	0x3e5a9c53	0.21348695
213	0xbe978e19	-0.296006
214	0xbe48bf54	-0.19604236
215	0xbea9f8b4	-0.33197558
216	0x3e3183ec	0.1733548
217	0xbecc5bb7	-0.39913723
218	0xbd9335c1	-0.07187987
219	0xbe3d93d7	-0.18513428
220	0x3e8b6e9d	0.2723283
221	0x3e8c455d	0.2739667
222	0x3d21d377	0.03950831
223	0xbe849f2c	-0.25902689
224	0xbe379f53	-0.17931871
225	0xbe93974d	-0.2882637
226	0xbea9bac5	-0.33150306
227	0xbe9ec8ef	-0.31012675
228	0xbe95649d	-0.29178324
229	0xbdbfe08e	-0.09369002
230	0xbe53af3e	-0.20672318
231	0xbe11ddd4	-0.14244777
232	0xbeb6f6b7	-0.35735103
233	0xbe132063	-0.14367823
234	0xbe19209f	-0.1495385
235	0xbee1b1ac	-0.44080865
236	0xbe749f1a	-0.23888817
237	0xbf063642	-0.5242654
238	0xbdc161cf	-0.09442484
239	0xbf1df732	-0.61705315
240	0x3e9ff231	0.31239465
241	0xbe321117	-0.17389332
242	0xbf18d416	-0.5969862
243	0xbeb5d9f2	-0.35517842
244	0xbef6f576	-0.48234147
245	0xbe12e0de	-0.14343593
246	0xbd06b1a0	-0.03288424
247	0x3d91c24a	0.07117136
248	0xbf5da743	-0.86583346
249	0xbeef9eab	-0.46800742
250	0xbe42d287	-0.19025622
251	0xbe4e2f3c	-0.20135206
252	0xbecc6af4	-0.3992535
253	0xb98f55d6	-0.00027339038
254	0xbf49a9b8	-0.78774595
255	0x3ed3ef1b	0.4139336

lstm.weight_ih_l1 f4 [256, 64]
0	0xbdee8591	-0.116465695
1	0xbd3ee17e	-0.046601765
2	0xbdaecea5	-0.08535508
3	0x3f2324fe	0.6372832
4	0xbd28a4f5	-0.04117294
5	0x3e184cfe	0.1487312
6	0x3dcc12e6	0.09964542
7	0xbdfe6ca1	-0.12423063
8	0x3dbb6509	0.0915013
9	0xbc67c82f	-0.014146849
10	0x3e27f73c	0.16402906
11	0x3e81d151	0.25355008
12	0xbd45b4dc	-0.048268184
13	0x3e86d887	0.26337072
14	0xbe76244d	-0.24037285
15	0xbe9badb9	-0.30405977
16	0xbc9c0fbd	-0.019050473
17	0x3ecaeeed	0.3963541
18	0x3e2f1102	0.17096332
19	0xbe8d9cd3	-0.2765871
20	0xbe23c4e2	-0.15993074
21	0xbd2f8f8a	-0.0428615
22	0xbed64868	-0.41852117
23	0x3ddd50f9	0.1080646
24	0x3ebf49c2	0.3736096
25	0x3e491907	0.19638453
26	0x3caa7441	0.020807387
27	0xbea006a6	-0.31255072
28	0xbe6ae144	-0.22937495
29	0xbe9b6893	-0.3035322
30	0xbbaf0aa5	-0.005341845
31	0xbeaa518b	-0.33265337
32	0x3e576d42	0.21037772
33	0xbd3c5e0a	-0.04598812
34	0x3c087cca	0.008330533
35	0x3e0adb30	0.13560176
36	0x3ddc903d	0.10769699
37	0x3eecaaa2	0.46223933
38	0xbe1041a9	-0.14087547
39	0xbcd5a5a9	-0.02607997
40	0x3d944498	0.07239646
41	0x3b3e0c91	0.002899919
42	0xbf002e65	-0.5007079
43	0xbed783f8	-0.42092872
44	0xbd05cac1	-0.032664064
45	0xbe51c6a7	-0.20485936
46	0x3da5a9a4	0.08088997
47	0xbd751fe1	-0.059844855
48	0xbe5386f8	-0.20656955
49	0x3e637767	0.22213517
50	0x3f2a1f26	0.6645378
51	0xbee76c8a	-0.45199996
52	0x3e3beb90	0.18351579
53	0xbf231604	-0.6370547
54	0x3ec36455	0.38162485
55	0x3c5c1d91	0.013434784
56	0x3dbaf26c	0.091282696
57	0x3e468e33	0.19390182
58	0x3e707c94	0.23485023
59	0xbf3c9d92	-0.73677933
60	0xbe5b49ee	-0.2141492
61	0xbe5af9c7	-0.21384345
62	0x3ded8945	0.11598448
63	0xbcaf3944	-0.021389611
64	0xbd8b756a	-0.06809504
65	0x3e241fc5	0.16027744
66	0xbe27cbbe	-0.16386315
67	0x3f09c670	0.53818417
68	0xbd671b28	-0.056422383
69	0x3e338773	0.17532139
70	0xbd2f06ba	-0.042731024
71	0xbe4887c3	-0.19583039
72	0x3df782d2	0.12085499
73	0xbe197ce3	-0.14989047
74	0xbe4c5495	-0.1995414
75	0x3e09edcc	0.13469619
76	0xbe06d6dc	-0.131679
77	0x3d5235cb	0.051320832
78	0xbdf18a21	-0.11793924
79	0xbea6af19	-0.32555464
80	0xbe384e0d	-0.17998524
81	0x3d55dd2b	0.052212875
82	0xbe967bef	-0.2939143
83	0x3e4282a6	0.18995151
84	0xbedda3a7	-0.4328892
85	0x3e9737e4	0.2953483
86	0xbd901a46	-0.07036261
87	0x3db1df97	0.086852245
88	0x3e1cf57b	0.15328018
89	0x3e98c896	0.29840535
90	0xbdda06c1	-0.106458195
91	0xbe9a7f07	-0.3017504
92	0xbdcf2a48	-0.101154864
93	0x3d6366ce	0.055517964
94	0x3e3e323d	0.18573852
95	0xbeacda46	-0.3376028
96	0xbe75ae5b	-0.23992293
97	0x39ef4c4b	0.00045642475
98	0x3e19acc7	0.15007316
99	0x3da4f22f	0.08054005
100	0x3e85367b	0.26018128
101	0xbd392d91	-0.04520947
102	0x3dc54888	0.09632975
103	0x3ddcda88	0.10783869
104	0x3a4bfa68	0.0007781149
105	0xbec9aa63	-0.39387807
106	0x3e8bab76	0.27279252
107	0xbedd483e	-0.4321918
108	0x3e6d7cee	0.23192188
109	0xbdc1cc06	-0.094627425
110	0x3df69450	0.12040007
111	0x3d2797ce	0.040916257
112	0x3cd29cdf	0.025709568
113	0x3dd644fd	0.10462377
114	0x3d8e6ef8	0.06954759
115	0xbd9ea32c	-0.07745966
116	0x3e83ee71	0.25767854
117	0x3e496ad0	0.19669652
118	0x3e93660c	0.28788793
119	0x3d16997d	0.03676747
120	0xbde4c3c5	-0.111701526
121	0xbecd2ac6	-0.40071696
122	0x3eba1ea4	0.36351502
123	0xbf132c29	-0.5748926
124	0x3df729fc	0.12068555
125	0xbeaa3a87	-0.33247778
126	0x3de78394	0.113043934
127	0x3e878e2e	0.26475662
128	0x3e212f4a	0.15740696
129	0xbeb141b1	-0.3462043
130	0xbe8bf3bd	-0.27334395
131	0xbb6c6fdb	-0.0036077413
132	0x3df81c1c	0.121147364
133	0x3dbed984	0.093188316
134	0x3dc22eec	0.09481606
135	0x3d93239f	0.071845286
136	0x3c350eed	0.011050922
137	0xbd71959a	-0.05898056
138	0x3e7fd6f0	0.24984336
139	0xbe3a3cef	-0.18187307
140	0xbe5b2ce5	-0.21403845
141	0x3c06b525	0.008221899
142	0xbeaa2b6c	-0.33236253
143	0xbddfce75	-0.109280504
144	0x3e48c07b	0.19604675
145	0x3d966e32	0.07345237
146	0xbd4c68d8	-0.049904674
147	0x3d31984a	0.043358125
148	0xbe3185a5	-0.17336138
149	0xbdca118a	-0.098666266
150	0xbe94b905	-0.2904741
151	0x3e289fb2	0.16467169
152	0xbe647a55	-0.22312291
153	0xbed85c18	-0.42257762
154	0x3d2409b0	0.0400483
155	0xbe1cb76f	-0.1530435
156	0xbe1c09a7	-0.15238057
157	0xbd4ac314	-0.049502447
158	0xbd872839	-0.06599469
159	0x3cafe6c5	0.021472344
160	0x3e9a4101	0.3012772
161	0xbe073923	-0.1320539
162	0x3bc53052	0.006017723
163	0xbd27ce22	-0.040968068
164	0xbcdadc03	-0.026716238
165	0x3d80271e	0.06257461
166	0xbc562a34	-0.013071585
167	0x3d1c6390	0.038180888
168	0x3e497812	0.1967471
169	0x3e23fbaf	0.16013978
170	0x3e3e3648	0.18575394
171	0x3e0ed9a6	0.13950214
172	0x3e1fd770	0.15609527
173	0xbdf32be3	-0.11873605
174	0xbe57d568	-0.21077502
175	0xbd86a4b6	-0.06574385
176	0x3da0ed6e	0.07857786
177	0xbd8ca83e	-0.06868027
178	0x3e9ece53	0.31016788
179	0xbd9c9076	-0.07644741
180	0x3cf2ce38	0.029639348
181	0x3e1fb58e	0.15596601
182	0x3cbbd851	0.022930296
183	0x3d0e440f	0.034732874
184	0xbd63f70a	-0.055655517
185	0x3cf17843	0.02947629
186	0xbe20c345	-0.1569949
187	0x3e5cfb43	0.21580224
188	0x3e155d22	0.14586309
189	0xbd163d83	-0.036679756
190	0x3d097cfa	0.033566453
191	0xbe7743fe	-0.2414703
192	0xbc8eb69b	-0.017421057
193	0xbe85b437	-0.26114056
194	0xbe86c8b3	-0.26324996
195	0xbd8388a5	-0.06422547
196	0x3e306ecf	0.1722977
197	0x3dea0912	0.11427511
198	0x3b8654e5	0.0040994757
199	0x3eb77cf4	0.3583752
200	0x3e315330	0.1731689
201	0x3cfa9648	0.030589238
202	0x3f2898ef	0.6585836
203	0xbd44472b	-0.047919434
204	0xbe0b5726	-0.13607463
205	0xbe3f2a5f	-0.18668507
206	0xbe8ec77d	-0.27886572
207	0xbe20bcf0	-0.15697074
208	0x3dbf4af9	0.09340472
209	0xbde7ea70	-0.11324012
210	0xbd2e83a3	-0.042606007
211	0xbe2ede64	-0.17077023
212	0xbcbfbf82	-0.023406748
213	0xbe9c3e60	-0.30516338
214	0xbe14405b	-0.14477675
215	0x3e5549b9	0.20828904
216	0xbded39a0	-0.11583257
217	0xbec45acc	-0.38350523
218	0x3e1bf63c	0.1523065
219	0x3e119389	0.14216436
220	0xbc968c29	-0.01837738
221	0xbe6960dc	-0.22790855
222	0xbd8ebe05	-0.06969837
223	0x3df61974	0.120165735
224	0x3ea348e7	0.31891558
225	0xbdf07686	-0.117413566
226	0xbb3e1d53	-0.0029009178
227	0xbc68a21f	-0.014198809
228	0x3d0cc697	0.034369078
229	0x3e881131	0.26575616
230	0x3db6e7aa	0.08930905
231	0xbe022973	-0.12711124
232	0x3eda451c	0.4263085
233	0x3e021fa9	0.1270739
234	0x3d7cc3db	0.06171022
235	0x3e32b242	0.17450812
236	0x3d791421	0.060810212
237	0xbe092a40	-0.13395023
238	0x3bb5389d	0.0055304305
239	0xbd8d3350	-0.06894553
240	0xbcc41d4c	-0.023939751
241	0xbec8b8b6	-0.39203423
242	0xbe23875b	-0.15969603
243	0xbc4c09c2	-0.012453498
244	0xbe0ce14f	-0.13757823
245	0xbdc1513b	-0.094393216
246	0xbe39f7da	-0.18160954
247	0xbca3323e	-0.019921418
248	0x3daed392	0.085364476
249	0x3ded45fb	0.11585613
250	0xbe11fce5	-0.14256628
251	0x3e252e3a	0.16130915
252	0x3d81dde4	0.063411504
253	0x3d81005d	0.062988974
254	0xbe3531a3	-0.17694716
255	0xbe4df694	-0.20113593

lstm.weight_hh_l1 f4 [256, 64]
0	0xbd467b1a	-0.048457243
1	0x3e7bea95	0.24601205
2	0xbdc2f5af	-0.09519517
3	0x3f00542e	0.5012845
4	0xbe51f8f4	-0.20505124
5	0x3ec8b69a	0.39201814
6	0xbc43452c	-0.011918347
7	0xbe3a72fe	-0.18207929
8	0xbebbc656	-0.36674756
9	0x3d4952b1	0.049151126
10	0x3e9ef165	0.31043544
11	0x3e0e6bec	0.13908356
12	0x3c8a0714	0.016849078
13	0xbe61c3c8	-0.22047341
14	0x3cbeee5f	0.023307024
15	0xbd4afa99	-0.049555395
16	0x3e2ccb9a	0.16874543
17	0x3e77cded	0.24199648
18	0xbd52c71d	-0.05145942
19	0xbcdf392d	-0.027248943
20	0x3df07b15	0.11742226
21	0xbcf09a8b	-0.029370567
22	0x3ca5527b	0.020180931
23	0xbdbc6c01	-0.092002876
24	0xbe6ff95e	-0.2343497
25	0xbe5fea8d	-0.21866818
26	0xbe0fdd8c	-0.14049357
27	0xbdd565a2	-0.104197755
28	0x3e0f3edd	0.13988824
29	0xbea042c3	-0.31300935
30	0xbe9ac53b	-0.302286
31	0x3e62b59f	0.22139595
32	0xbe2146a5	-0.15749605
33	0xbcf3071d	-0.029666478
34	0x3e4a064f	0.19728969
35	0xbea782a7	-0.32716867
36	0xbe66ac33	-0.22526626
37	0x3ea1c498	0.31595302
38	0x3d232704	0.03983213
39	0xbe95c541	-0.29252055
40	0x3e053dd6	0.1301187
41	0xbe202bc8	-0.15641701
42	0x3cdd84d5	0.027040878
43	0x3e118638	0.14211357
44	0x3e1bb54e	0.15205881
45	0xbd83c75e	-0.06434511
46	0x3d1d9617	0.038473215
47	0x3d3f6e4f	0.046736058
48	0xbdb0a2e3	-0.08624818
49	0x3e1392db	0.1441149
50	0xbe2942f3	-0.16529445
51	0xbcbf6833	-0.023365116
52	0xbe1d76e0	-0.15377378
53	0x3e38b73f	0.18038653
54	0x3e2f6459	0.17128123
55	0xbe4df4bd	-0.20112891
56	0x3d929f3a	0.07159276
57	0x3e02844b	0.12745778
58	0xbde816c3	-0.113324665
59	0x3a5e58cd	0.000848186
60	0x3e714a7f	0.23563574
61	0xbe925117	-0.28577492
62	0x3d3e9b2e	0.04653471
63	0x3c902e35	0.017600158
64	0xbe60bac9	-0.21946253
65	0x3e843f92	0.2582975
66	0xbe3fd2c3	-0.18732743
67	0xbddf2239	-0.10895199
68	0x3ba89fe1	0.005146012
69	0x3e19c178	0.15015209
70	0x3d98cc49	0.07460839
71	0xbe0cf35e	-0.13764712
72	0xbecb6c09	-0.39730862
73	0x3cd31e6c	0.025771342
74	0x3dd451e2	0.103671804
75	0x3e98fa4d	0.29878464
76	0x3b1ac464	0.0023615593
77	0x3d98bab3	0.07457485
78	0x3e8caca3	0.2747546
79	0x3e0841e2	0.13306382
80	0x3e9e37e3	0.30902013
81	0xbd0105e2	-0.03149975
82	0x3c964223	0.018342083
83	0xbddac5d6	-0.106822655
84	0x3dd45a53	0.103687905
85	0xbda8df8f	-0.082457654
86	0x3e266be2	0.16252092
87	0x3de04572	0.10950746
88	0x3d4eeed3	0.05052073
89	0xbe402034	-0.18762285
90	0x3d46a3db	0.04849611
91	0x3e474b28	0.19462264
92	0xbe1e7de8	-0.15477717
93	0x3c2ad0ec	0.010425787
94	0xbe1c5ff6	-0.15270981
95	0x3e42026e	0.1894624
96	0xbcd448fc	-0.025913708
97	0x3da0942d	0.07840762
98	0xbca77967	-0.020443631
99	0xbdfb5908	-0.12272841
100	0x3dc7068b	0.09718045
101	0x3ded1270	0.11575782
102	0x3e1a2231	0.15052105
103	0x3e02a923	0.12759833
104	0xbddbc8ba	-0.10731645
105	0x3d04e8a5	0.03244843
106	0x3c3f36c3	0.011670771
107	0x3d83deac	0.06438956
108	0xbe382e1d	-0.17986341
109	0xbdff55fe	-0.124675736
110	0x3d72f9eb	0.05932037
111	0x3be03b99	0.006843042
112	0xbd5e8cb1	-0.054333393
113	0xbc48a6d7	-0.012246809
114	0xbdc982a1	-0.098393686
115	0x3d5e7d01	0.05431843
116	0x3d319a07	0.043359783
117	0x3d5b058a	0.05347208
118	0xbdcf96f9	-0.101362176
119	0xbe1b43ef	-0.15162633
120	0x3d24792f	0.040154632
121	0x3e5ce2bf	0.21570872
122	0xbd6aa556	-0.057286583
123	0xbca71550	-0.020395905
124	0x3ddf957d	0.109171845
125	0xbe95cd17	-0.29258034
126	0x3e7dcef4	0.24785978
127	0xbe17dee0	-0.14831114
128	0x3e41b1a7	0.18915425
129	0xbe0ae8a5	-0.1356531
130	0xbccc8d30	-0.024969667
131	0xbe706c54	-0.23478824
132	0x3e76eabe	0.24112985
133	0x3d0d3665	0.034475703
134	0x3d0c8def	0.034315046
135	0x3d23f093	0.04002435
136	0xbd02bcbf	-0.031918284
137	0xbd52fbb4	-0.051509574
138	0xbdb87343	-0.090063594
139	0x3e2b1a99	0.16709365
140	0x3dc07189	0.09396655
141	0x3dfb758a	0.12278278
142	0xbecebb49	-0.40377262
143	0x3dd6e37f	0.1049261
144	0xbe104468	-0.14088595
145	0xbd62d88d	-0.0553823
146	0x3d5cdb96	0.05392035
147	0x3e6193cb	0.22029035
148	0x3d4cfc26	0.050045155
149	0xbd7dca7b	-0.06196068
150	0x3ca25529	0.019815998
151	0x3e51ddd9	0.20494784
152	0xbe9e7d3c	-0.3095492
153	0x3e2d3739	0.16915597
154	0x3e55a2bb	0.20862858
155	0x3dc9d2b7	0.09854644
156	0xbd9695a1	-0.07352758
157	0x3e21af76	0.1578959
158	0x3e165f40	0.14684772
159	0xbdd6cf26	-0.10488729
160	0xbe36e681	-0.17861368
161	0xbe928192	-0.2861448
162	0xbe1c9843	-0.15292458
163	0x3ad6b250	0.0016380046
164	0x3d8971fa	0.067111924
165	0xbe074f9b	-0.13213961
166	0xbceaae1b	-0.028647473
167	0x3e76e42f	0.24110483
168	0xbe1d00bb	-0.1533231
169	0x3e8b512e	0.27210373
170	0xbe6d99f7	-0.23203264
171	0x3d0ecf11	0.034865443
172	0xbcfb11aa	-0.030648071
173	0xbbade7a7	-0.005307156
174	0x3d4d498e	0.050118975
175	0x3c6e8f2c	0.014560502
176	0x3e689a4a	0.22715107
177	0xbd634a34	-0.055490687
178	0x3db61929	0.08891518
179	0x3e37f6b6	0.17965207
180	0x3d821cc4	0.06353143
181	0xbe1263f8	-0.14295948
182	0xbdb7f9b3	-0.08983173
183	0x3c59c114	0.013290662
184	0x3ddbe8fd	0.10737798
185	0xbd45f7ad	-0.048331905
186	0x3de6f867	0.11277848
187	0xbd8e95df	-0.069621794
188	0xbe2476cf	-0.16060947
189	0x3e20d8fc	0.15707773
190	0xbcdf2776	-0.027240496
191	0xbc560646	-0.013063019
192	0xbd8c6388	-0.068549216
193	0x3dbadeec	0.0912455
194	0x3e296b40	0.16544819
195	0xbe922cea	-0.28549892
196	0xbd48c90a	-0.04901985
197	0x3d8f550a	0.06998642
198	0xbdcac87b	-0.0990152
199	0x3c693c1f	0.014235525
200	0x3e758851	0.23977782
201	0x3e1596e9	0.14608349
202	0xbe875619	-0.26432875
203	0xbb772f5a	-0.0037717433
204	0x3c7ad1b6	0.015308788
205	0xbcd452a0	-0.025918305
206	0xbed18bc1	-0.40926936
207	0xbcbe5763	-0.023235029
208	0x3cdcdfdd	0.026962215
209	0x3a6f0e38	0.0009119245
210	0x3e60aae5	0.21940191
211	0x3e5593ce	0.20857164
212	0x3e380180	0.17969322
213	0xbe67f054	-0.22650272
214	0x3d215a68	0.03939286
215	0x3e2e67af	0.1703174
216	0xbe2e58df	-0.17026089
217	0x3e31faa1	0.17380764
218	0x3df66e0b	0.12032708
219	0x3daa80e4	0.08325365
220	0xbe05f15d	-0.13080354
221	0x3e849917	0.25898048
222	0xbd9c135e	-0.076208815
223	0xbe58792e	-0.21139976
224	0xbeb5cbf3	-0.35507163
225	0xbec4812c	-0.383798
226	0xbb63fb33	-0.0034787178
227	0x3e61b47e	0.22041509
228	0x3cdc3e8b	0.026885292
229	0x3df0af0b	0.11752137
230	0x3dcd1c5c	0.10015175
231	0x3e659dd0	0.22423482
232	0xbbc88ac9	-0.00612006
233	0xbd08d4e7	-0.033406164
234	0xbe2c2443	-0.16810708
235	0xbccadc2e	-0.024763193
236	0x3ddbe4f5	0.107370295
237	0x3df94db3	0.12173023
238	0xbcf47809	-0.029842393
239	0xbe6d8a88	-0.23197377
240	0xbe280cbd	-0.1641111
241	0xbe31d458	-0.17366159
242	0x3eb4cb93	0.35311565
243	0x3ee332b1	0.44374612
244	0xbc4e0d7a	-0.012576455
245	0x3dba838f	0.09107124
246	0xbe037573	-0.12837772
247	0x3edb7cc9	0.4286864
248	0x3e15637e	0.14588735
249	0xbe6022b9	-0.21888246
250	0xbdf950b2	-0.121735945
251	0x3da52003	0.080627464
252	0xbd2bdc0f	-0.04195791
253	0x3eb0186f	0.3439364
254	0x3e1709a9	0.14749779
255	0xbd766726	-0.060156964

lstm.bias_ih_l1 f4 [256]
0	0xbf3a2b2f	-0.7272214
1	0xbf1435b7	-0.5789446
2	0xbe77d285	-0.242014
3	0x3d543418	0.051807493
4	0xbf54771d	-0.8299425
5	0xbf1c3f8f	-0.6103448
6	0xbd1f86c1	-0.03894687
7	0xbee2402a	-0.44189578
8	0xbeb35b79	-0.35030726
9	0xbc5d561a	-0.013509298
10	0xbd91904f	-0.07107603
11	0xbeaadcff	-0.33371732
12	0xbd413cd5	-0.047177155
13	0xbf485e9a	-0.7826935
14	0xbf363e2d	-0.7118862
15	0x3c1f40de	0.009720055
16	0xbf3a17ce	-0.72692573
17	0x3ea27130	0.3172698
18	0xbed4847d	-0.4150733
19	0xbebd49a9	-0.3697026
20	0xbf0947f3	-0.5362541
21	0x3ca61347	0.020272864
22	0xbed176ee	-0.4091105
23	0xbe72d063	-0.23712306
24	0xbf52e511	-0.8238078
25	0xbef71170	-0.4825549
26	0xbe46bd5b	-0.19408171
27	0xbf7d106f	-0.988532
28	0xbd19804b	-0.037475865
29	0xbeeecbf7	-0.46639988
30	0xbf25eab8	-0.6481128
31	0xbe09aa37	-0.13443838
32	0xbf90deb0	-1.1317959
33	0xbf732414	-0.94976926
34	0xbfa8a56d	-1.3175484
35	0xbe7dee1d	-0.24797864
36	0xbf5c9ffa	-0.86181605
37	0xbf32394a	-0.69618666
38	0xbc96a597	-0.018389506
39	0xbe033031	-0.12811352
40	0xbe66b62c	-0.2253043
41	0xbf978940	-1.183876
42	0xbea68d2c	-0.3252958
43	0xbfb5d9f0	-1.4207134
44	0xbf1ab20e	-0.6042794
45	0xbe8f93b3	-0.28042373
46	0x3d815e28	0.06316787
47	0xbf01fbc1	-0.5077477
48	0xbf068550	-0.5254717
49	0xbeedc9f8	-0.46443152
50	0xbeddefc4	-0.4334699
51	0x3d9d3f35	0.076780714
52	0xbde9afdf	-0.11410498
53	0x3d23645b	0.03989063
54	0xbe8fef6e	-0.28112358
55	0xbc03f890	-0.008054867
56	0xbf303b46	-0.68840444
57	0xbe829294	-0.25502455
58	0xbf14ae21	-0.580782
59	0xbf630400	-0.8867798
60	0xbcf90971	-0.03040001
61	0xbdec9929	-0.115526505
62	0xbef7495e	-0.48298162
63	0xbf6fb114	-0.93629575
64	0xbf5ed5c7	-0.8704495
65	0xbeaf5766	-0.34246367
66	0x3e23353f	0.1593828
67	0xbbc7d686	-0.0060985712
68	0xbf05fc33	-0.5233795
69	0xbece1473	-0.40249977
70	0x3e0b09d1	0.13577963
71	0xbea5180c	-0.3224491
72	0xbed8b8d0	-0.423285
73	0x3e0a161d	0.13484998
74	0xbd0f6b79	-0.035014603
75	0xbe3e6517	-0.1859325
76	0x3ea4bfce	0.32177585
77	0xbec4e298	-0.38454127
78	0xbf2986c3	-0.66221255
79	0x3dc65a6b	0.096852146
80	0xbf02751b	-0.5095994
81	0xbd1aef3f	-0.03782582
82	0x3d4718e6	0.04860773
83	0xbe494c87	-0.19658099
84	0xbdf78b06	-0.120870635
85	0xbd1dc352	-0.03851635
86	0xbced29a8	-0.028950527
87	0x3e54ef4d	0.20794411
88	0xbf12645d	-0.5718439
89	0xbe15986e	-0.14608929
90	0xbe3af264	-0.18256527
91	0xbf498a0c	-0.7872627
92	0xbe4f8f53	-0.20269518
93	0xbd22e467	-0.039768603
94	0xbeaf66e3	-0.34258184
95	0xbd1f942a	-0.03895966
96	0xbf7b8d18	-0.98262167
97	0xbf2dbc30	-0.67865276
98	0xbf65357e	-0.8953475
99	0xbe031446	-0.12800702
100	0xbebeafd5	-0.37243524
101	0xbe964666	-0.29350585
102	0x3de1ebf9	0.11031336
103	0x3cfd1b00	0.030896664
104	0xbc5b338f	-0.013378992
105	0xbf8f64ec	-1.1202674
106	0xbdaa3a56	-0.08311908
107	0xbf80c91b	-1.0061373
108	0xbf05029b	-0.519571
109	0x3e177c7d	0.14793582
110	0xba2f4fc2	-0.0006687605
111	0x3d6ad759	0.057334278
112	0xbe980dc5	-0.29698005
113	0xbe905ceb	-0.2819589
114	0xbe391f93	-0.18078451
115	0x3e49fac7	0.1972457
116	0x3d3d1f6a	0.046172537
117	0xbce2ce43	-0.027686244
118	0x3d4c48e2	0.049874194
119	0xbcd65677	-0.026164277
120	0xbf1c6e49	-0.6110578
121	0xbc8aac55	-0.016927877
122	0xbe82fd1d	-0.25583735
123	0xbf140eca	-0.57835066
124	0xbe47a581	-0.19496728
125	0x3c8adbfb	0.016950598
126	0xbe6ec68e	-0.2331793
127	0xbf6fd6ff	-0.93687433
128	0xbd874c7d	-0.06606386
129	0xbd400bf2	-0.046886392
130	0x3d7e5f26	0.06210246
131	0x3d9ffc16	0.078117535
132	0x3dcd1614	0.10013977
133	0x3c1b529f	0.009480148
134	0x3df5d1da	0.12002917
135	0x3d165877	0.03670546
136	0x3bc3e0d4	0.0059777293
137	0x3d1ece43	0.038770925
138	0xbcbaa335	-0.022782901
139	0x3da14527	0.07874518
140	0x3dcefe7a	0.10107131
141	0xbda99306	-0.082799956
142	0xbd04c122	-0.03241075
143	0xbbbd5211	-0.0057776053
144	0xbd3e7990	-0.04650265
145	0xbd18f13b	-0.03733943
146	0xbd826af7	-0.06368058
147	0xbd109482	-0.035297878
148	0x3cbb042d	0.02282914
149	0x3d553ba4	0.05205883
150	0x3d2d4c75	0.042309243
151	0x3c12c08d	0.0089570405
152	0x3deb7704	0.1149731
153	0x3cfca327	0.030839516
154	0xbd5db793	-0.05413015
155	0x3dc3b275	0.09555522
156	0xbd04be6b	-0.03240816
157	0xbdb4287b	-0.087967835
158	0xbd467c1f	-0.048458215
159	0x3ce61434	0.028085805
160	0x3a841bc2	0.0010079073
161	0x3b2b2267	0.0026113035
162	0xbcba3168	-0.022728637
163	0xbca291a4	-0.019844837
164	0x3b0f2e10	0.0021847524
165	0xbd275c45	-0.04085948
166	0x3d0e325e	0.034716003
167	0x3d0c6142	0.03427244
168	0x3db989ff	0.09059524
169	0x3d812fbd	0.063079335
170	0xbd02b425	-0.03191008
171	0xbce4876a	-0.027896602
172	0x3d0913fc	0.033466324
173	0x3b9730f0	0.004613988
174	0xbd810dc4	-0.06301454
175	0x3dedb4b6	0.116067335
176	0xbcf71d62	-0.030165378
177	0xbd988208	-0.074466765
178	0x3d00e3ce	0.03146725
179	0xbe0e791e	-0.1391339
180	0xbd8b4693	-0.0680057
181	0xbc939d81	-0.01801944
182	0x3bc8b7cf	0.0061254273
183	0x3d3033e0	0.04301822
184	0xbc3847e3	-0.011247608
185	0xbd5ced73	-0.053937387
186	0x3d73d559	0.059529636
187	0x3d2b8ed1	0.041884247
188	0xbd6f9d8e	-0.058499865
189	0xbdb2af51	-0.08724845
190	0xbddfc59a	-0.109263614
191	0x3d6a210a	0.057160415
192	0xbf29f900	-0.6639557
193	0xbf36a315	-0.71342593
194	0xbd874154	-0.06604257
195	0x3e101380	0.14069939
196	0xbf84f9d5	-1.0388743
197	0xbf38c018	-0.7216811
198	0xbd2abff6	-0.041686974
199	0xbf14bdab	-0.5810191
200	0xbea94536	-0.33060616
201	0xbdd53099	-0.1040966
202	0xbe5e1690	-0.21688294
203	0xbf04233c	-0.51616263
204	0x3d244df0	0.04011339
205	0xbf43c25b	-0.7646844
206	0xbf397291	-0.7244044
207	0xbe076808	-0.13223279
208	0xbf213ac9	-0.62980324
209	0x3ea1aec2	0.31578642
210	0xbece9c7d	-0.40353766
211	0xbeae7be4	-0.34078896
212	0xbf0369f3	-0.5133354
213	0x3c4fe4c8	0.012688823
214	0xbef521b6	-0.47877282
215	0xbe01ec19	-0.1268772
216	0xbf60629c	-0.87650466
217	0xbed5829d	-0.41701213
218	0xbe7c4929	-0.24637283
219	0xbf83588b	-1.0261396
220	0xbeabc961	-0.33552077
221	0xbe8d8930	-0.27643728
222	0xbf564441	-0.836979
223	0xbe692edf	-0.22771786
224	0xbf833c36	-1.025275
225	0xbf878a50	-1.0589085
226	0xbf9b276f	-1.2121409
227	0xbdb06f2b	-0.086149536
228	0xbf544a24	-0.8292563
229	0xbf166400	-0.5874634
230	0x3d15e34a	0.036593713
231	0x3bf4d3bb	0.0074715293
232	0x3c5bdfaa	0.013420025
233	0xbf911538	-1.13346
234	0xbeb3a10c	-0.35083807
235	0xbfbb2b47	-1.4622582
236	0xbf419405	-0.75616485
237	0xbd73a36d	-0.059482027
238	0x3e0a8131	0.13525845
239	0xbe9734cc	-0.29532468
240	0xbf15c429	-0.5850244
241	0xbf095f97	-0.53661484
242	0xbec307c7	-0.3809187
243	0x3dee81da	0.11645861
244	0x3db94e47	0.09048133
245	0x3e43386b	0.1906449
246	0xbdbf9aad	-0.09355674
247	0xbe38ecff	-0.18059157
248	0xbf45a4ec	-0.77204776
249	0xbeb76e55	-0.35826364
250	0xbee5203e	-0.4475116
251	0xbf52d9e5	-0.8236373
252	0xbe625ecc	-0.22106475
253	0xbe6a9fcc	-0.2291252
254	0xbef31ef0	-0.4748454
255	0xbf7b7938	-0.9823184
