backend/Model_Pytorch/RNN_Model/output/checkpoints/best_checkpoint.pth (torch, 672347 bytes, 27 tensors)

lstm.weight_ih_l0 f4 [256, 19]
-0.036511827 -0.015380382 0.047754947 -0.17650491 -0.09260874 -0.050403483 -0.11102042 0.064850524
-0.0059168222 -0.0682329 0.09273912 -0.00035455282 0.1089595 0.060812425 -0.083036475 0.06730341
-0.106351316 0.079124615 0.044953715 -0.15891446 0.09315164 -0.10260362 -0.14791816 -0.09648543
0.05111335 -0.04383758 0.074963056 -0.111808784 0.07004358 -0.107843205 -0.024437817 -0.01822417
-0.005543812 -0.005990077 -0.21937929 0.019082606 -0.09342178 -0.10373291 0.101490796 -0.04774967
-0.0044176118 -0.011197791 -0.048292138 0.17330663 0.13154687 0.1682821 0.06827102 0.1649495
0.004089765 0.0007025402 -0.065125994 -0.09208468 -0.123766884 0.16201903 0.113775946 -0.034865513
0.1361083 -0.09326991 -0.034676675 -0.16156179 -0.17281376 -0.16827847 0.10423501 -0.11882917
0.14694887 -0.008653465 -0.15072498 0.054417305 -0.032748368 0.08148666 0.026148997 0.050714806
0.023632739 0.052352346 0.11080328 0.028699381 0.038654476 0.0090221865 0.077285215 -0.107329845
-0.03640652 -0.030275643 0.06320786 0.082081065 -0.0734916 -0.110742405 0.097443245 -0.1766099
0.01673948 0.008811397 -0.15751965 -0.055487562 0.03456359 0.047989234 0.11199879 0.04994629
-0.1129459 -0.08445428 -0.10789173 -0.0140919 -0.0923989 0.11424349 -0.0996769 -0.099187404
-0.09723919 0.041918688 0.014195465 0.10678968 -0.06375681 0.10797001 0.5374485 -0.66589355
-0.005017688 -0.36743137 -0.05241089 0.08240689 0.07011719 0.112817176 0.026100513 0.14028235
-0.08064511 0.12316545 -0.03064107 -0.046587396 0.0021141786 0.10201685 -0.10480784 0.13783354
-0.20437852 0.23377551 -0.03780461 0.108795784 -0.10489647 0.053986605 -0.08087995 0.039323248
0.050642665 0.04032607 -0.018400071 -0.07640477 0.090870686 0.07804895 -0.09066425 0.12553588
-0.049978964 0.03471205 0.112328514 -0.063444875 -0.051297557 0.101221845 -0.022431614 -0.021648679
-0.120117776 -0.06364547 -0.0144347325 -0.09954684 0.06282021 -0.086352944 0.06454465 -0.052673094
0.10514569 0.09045755 0.17292017 0.0026220584 -0.009175076 0.02807808 -0.021340962 -0.0045286287
-0.0021771856 0.16992998 0.030738872 0.08530294 -0.043167554 0.0848818 0.03208064 -0.03845125
0.088391855 0.08530179 0.07187591 -0.015589597 0.012380064 -0.04707197 0.14107078 -0.10050488
0.066230424 0.010255396 -0.037987303 -0.0021194816 -0.110754035 0.04524632 -0.03783471 -0.041055616
0.014563721 -0.06371746 -0.07859115 0.0021656181 -0.029201522 0.097269155 0.09772786 -0.0027407466
0.011167053 -0.11637587 0.14125094 0.081720464 0.18934458 0.23420176 0.07446415 0.029263124
0.14142622 0.040533718 -0.17434327 -0.019161234 -0.18871617 0.12469417 0.027734555 -0.11572848
-0.032634597 0.103982165 0.09880396 0.02306697 -0.090771206 -0.059825584 -0.038624965 0.07426088
0.034541257 0.070328385 -0.0012976845 -0.09804445 0.14110975 -0.12402253 -0.049610633 0.044144444
-0.06319424 0.018978044 -0.02486738 0.0930965 0.04145778 -0.12213384 0.019595549 -0.11344381
-0.09892128 -0.11114968 -0.058800176 -0.07691657 0.01641459 -0.017499495 -0.016833248 -0.06891901
-0.14270952 -0.045534723 -0.06290364 0.05163441 -0.04856988 0.14173502 -0.11483482 0.1821344
00000000: 6d8d 15bd fffd 7bbc b19a 433d b4bd 34be
00000010: a7a9 bdbd e273 4ebd ad5e e3bd 5ad0 843d
00000020: e7e1 c1bb b1bd 8bbd 02ee bd3d 46e3 b9b9
00000030: 2926 df3d 7316 793d 070f aabd 5fd6 893d
00000040: b8ce d9bd 160c a23d 6321 383d 79ba 22be
00000050: 49c6 be3d d921 d2bd dc77 17be 279a c5bd
00000060: 3b5c 513d 098f 33bd 3b86 993d 01fc e4bd
00000070: 0273 8f3d e6dc dcbd d131 c8bc db4a 95bc
00000080: dea8 b5bb 6848 c4bb f7a4 60be 2053 9c3c
00000090: eb53 bfbd eb71 d4bd 68da cf3d 2895 43bd
000000a0: 9dc1 90bb f176 37bc facd 45bd 4b77 313e
000000b0: 39b4 063e 2552 2c3e add1 8b3d 86e8 283e
000000c0: 6f03 863b ad2a 383a c760 85bd e596 bcbd
000000d0: 7e79 fdbd 51e8 253e 5d03 e93d 24cf 0ebd
000000e0: f95f 0b3e 4b04 bfbd 2109 0ebd 7470 25be
000000f0: 17f6 30be 3151 2cbe 2a79 d53d b55c f3bd
00000100: c479 163e 43c7 0dbc a657 1abe aee4 5e3d
00000110: 2723 06bd 7ae2 a63d 6c36 d63c 54ba 4f3d
00000120: 7299 c13c 6a6f 563d d4ec e23d f71a eb3c
00000130: 2854 1e3d cbd1 133c b647 9e3d c0cf dbbd
00000140: 011f 15bd a004 f8bc 1f73 813d 1e1a a83d
00000150: c482 96bd eacc e2bd 5390 c73d 3ad9 34be
00000160: 3c21 893c ad5d 103c d54c 21be ed46 63bd
00000170: 8d92 0d3d 5c90 443d 9f5f e53d 7b94 4c3d
00000180: 2e50 e7bd 5ef6 acbd 57f6 dcbd b6e1 66bc
00000190: a23b bdbd 7ef8 e93d 6723 ccbd c422 cbbd
000001a0: 5725 c7bd eeb2 2b3d 1894 683c 8cb4 da3d
000001b0: ee92 82bd 611f dd3d 3a96 093f 0078 2abf
000001c0: 6b6b a4bb f71f bcbe cdac 56bd f2c4 a83d
000001d0: 9a99 8f3d b10c e73d bed0 d53c 2da6 0f3e
000001e0: 4329 a5bd 2b3e fc3d fb02 fbbc 6dd2 3ebd
000001f0: 088e 0a3b 36ee d03d 7ea5 d6bd 3c24 0d3e
00000200: 9a48 51be d962 6f3e 02d9 1abd 53d0 de3d
00000210: f6d3 d6bd 0f21 5d3d 63a4 a5bd 6a11 213d
00000220: af6e 4f3d f32c 253d bfbb 96bc 1b7a 9cbd
00000230: 691a ba3d 21d8 9f3d 2eae b9bd 7a8c 003e
00000240: beb6 4cbd 392e 0e3d 7e0c e63d 63ef 81bd
00000250: 631d 52bd 664d cf3d 81c2 b7bc 9258 b1bc
00000260: 4f00 f6bd 8e58 82bd a87f 6cbc 37df cbbd
00000270: e2a7 803d d0d9 b0bd fc2f 843d bebf 57bd
00000280: a056 d73d cf41 b93d fc11 313e d7d6 2b3b
00000290: 0f53 16bc 0004 e63c 3ed3 aebc e464 94bb
000002a0: 1daf 0ebb 2002 2e3e 16d0 fb3c 4fb3 ae3d
000002b0: 76d0 30bd 82d6 ad3d fd66 033d 0f7f 1dbd
000002c0: ca06 b53d b4b2 ae3d ad33 933d 826b 7fbc
000002d0: c1d5 4a3c 8ace 40bd dc74 103e 81d5 cdbd
000002e0: d1a3 873d 4006 283c 9398 1bbd 00e7 0abb
000002f0: 03d3 e2bd 3554 393d 92f8 1abd ef29 28bd
00000300: ac9c 6e3c 4d7e 82bd 66f4 a0bd 0bed 0d3b
00000310: 0838 efbc 0d35 c73d 8b25 c83d 199e 33bb
00000320: 04f6 363c 7956 eebd 16a4 103e 0f5d a73d
00000330: 8ce3 413e 96d2 6f3e a980 983d 38b9 ef3c
00000340: 09d2 103e af06 263d 0b87 32be 05f8 9cbc
00000350: d03e 41be a85f ff3d 9433 e33c 0e03 edbd
00000360: dbab 05bd 9af4 d43d bb59 ca3d f1f6 bc3c
00000370: 41e6 b9bd ac0b 75bd 3635 1ebd 1716 983d
00000380: 227b 0d3d 5408 903d 1117 aaba 87cb c8bd
00000390: 137f 103e 86ff fdbd 8534 4bbd ced0 343d
000003a0: fb6b 81bd d877 9b3c adb6 cbbc 61a9 be3d
000003b0: a2cf 293d 4f21 fabd d886 a03c 3a55 e8bd
000003c0: 3d97 cabd 72a2 e3bd 74d8 70bd 6f86 9dbd
000003d0: e477 863c 1a5b 8fbc e1e5 89bc 6925 8dbd
000003e0: 7222 12be 9e82 3abd a0d3 80bd 9a7e 533d
000003f0: 36f1 46bd fc22 113e 852e ebbd 7181 3a3e

lstm.weight_hh_l0 f4 [256, 64]
0.08157059 -0.0874529 -0.043885216 0.02966061 0.0035947168 0.058007427 0.058180895 -0.052306917
-0.043625295 0.019955087 -0.012095755 0.1018821 0.0015086244 0.03147661 0.008475966 0.13005292
0.004276659 -0.082706854 0.089479946 0.109853044 0.077780895 -0.07362907 0.060979955 0.0011895525
0.0022028387 0.0020786063 -0.0020696193 -0.09842075 0.11104562 -0.067227155 -0.13265906 -0.027713437
-0.09281526 -0.044171326 -0.028089387 0.17320853 0.003463272 0.11493425 0.055878248 0.13492532
-0.059120543 0.08141029 -0.041540917 0.0015329983 0.14346412 -0.11542911 -0.10239733 0.08328101
0.12431733 -0.03760779 0.05564183 0.14641775 0.06900282 0.14092976 0.018571777 0.094549716
0.050910287 -0.05481121 0.089918174 0.016442548 0.1395654 0.044365425 -0.12553751 0.08422075
-0.09765823 -0.08063334 -0.2201568 -0.060988475 0.09213646 0.028424254 -0.010235419 0.026740247
0.006410036 -0.06624632 0.1590349 -0.009354335 -0.11696355 -0.08626811 0.010385702 0.13418303
-0.08790528 -0.14082244 -0.044411823 0.040140115 -0.04798348 -0.21633056 0.03397225 0.022249082
0.056125954 0.029281475 -0.12735133 -0.115515426 -0.1570856 -0.11359696 -0.050805934 -0.1388366
-0.025138004 0.21002151 -0.032032806 0.0798799 -0.06083974 -0.0136102345 0.073739484 0.1147871
0.06403467 0.006221007 -0.14413469 -0.15211676 -0.09424293 -0.07797815 -0.069585174 -0.010441173
0.0068628974 -0.011927227 -0.13433917 -0.2101655 -0.013632211 0.048471924 0.071201205 -0.09677918
0.15398665 0.16758151 -0.06516279 -0.07370126 0.040133294 0.038775615 0.027814532 -0.039042354
-0.048296697 0.17826618 0.14771032 -0.08176028 -0.039932486 0.125934 0.05351034 0.15227059
0.19018397 0.08937972 0.10417952 -0.081611484 -0.022250652 0.13352194 -0.054902803 0.044693034
-0.06756681 0.12993798 0.18567242 0.024311189 0.087852314 0.09066981 -0.04011384 0.08597331
0.13518518 -0.024495179 0.12676151 -0.037547242 -0.032262553 0.047421135 0.04208513 -0.09665747
0.12097257 -0.15266305 0.018315658 0.10649192 0.07180454 0.045323543 -0.035349786 -0.13735856
0.088116154 -0.086778305 0.0528657 0.09440997 0.11664774 0.0024063054 0.10701949 -0.060188457
-0.04192039 0.038287148 -0.06455291 -0.06800466 0.12930015 -0.038156383 0.13530777 -0.11377647
-0.1392844 -0.011736632 -0.074342474 0.054392472 0.065915264 -0.095732085 0.06498442 0.16834158
0.013892074 0.061103374 -0.15334836 0.07726929 -0.09232341 0.033768747 0.17312641 -0.09543542
-0.03813635 -0.004130455 -0.06525558 0.0053556 -0.1247852 -0.17206243 0.10712129 0.10865232
-0.08611994 -0.031193076 -0.12773393 0.059914418 -0.14402671 -0.013185715 0.024354586 0.16683917
-0.16787004 -0.028213343 0.05584416 0.08661436 0.017758911 -0.18727338 -0.01707044 0.083672784
-0.071600705 0.2667658 0.0901401 0.08470803 0.023867225 -0.10013173 -0.037699435 0.05744115
-0.15577562 -0.041248508 0.028641738 -0.25376967 -0.22754247 -0.16089 -0.07217269 0.023822531
0.07651686 -0.1313102 -0.08306943 -0.22027676 -0.07058042 0.0674304 -0.0031169297 -0.17078178
0.14388883 0.057422794 0.006526249 -0.12078137 0.13655949 -0.04717464 0.12170348 -0.11838555
00000000: 7b0e a73d 821a b3bd fcc0 33bd cffa f23c
00000010: 5795 6b3b 3299 6d3d 174f 6e3d c73f 56bd
00000020: 70b0 32bd da78 a33c 462d 46bc 90a7 d03d
00000030: 09bd c53a 9eed 003d c7de 0a3c 982c 053e
00000040: 3723 8c3b 3662 a9bd 4341 b73d a2fa e03d
00000050: 974b 9f3d d6ca 96bd 1ec6 793d c2ea 9b3a
00000060: 805d 103b 3a39 083b 73a2 07bb d190 c9bd
00000070: e36b e33d 64ae 89bd c7d7 07be 4a07 e3bc
00000080: ed15 bebd feec 34bd b71b e6bc 945d 313e
00000090: 10f8 623b a662 eb3d 97e0 643d dd29 0a3e
000000a0: 6228 72bd 70ba a63d cf26 2abd e3ee c83a
000000b0: 42e8 123e 1966 ecbd b1b5 d1bd 3c8f aa3d
000000c0: 169a fe3d a00a 1abd b0e8 633d 89ee 153e
000000d0: 5a51 8d3d e44f 103e d723 983c 48a3 c13d
000000e0: 4e87 503d b881 60bd 0527 b83d 86b2 863c
000000f0: 3bea 0e3e 85b8 353d e88c 00be ee7b ac3d
00000100: 0a01 c8bd 1823 a5bd c970 61be 0dcf 79bd
00000110: 0ab2 bc3d fbd9 e83c 75b2 27bc 5d0e db3c
00000120: 470b d23b 27ac 87bd 0bda 223e ed42 19bc
00000130: 968a efbd 56ad b0bd cb28 2a3c 4767 093e
00000140: af07 b4bd c233 10be 2ce9 35bd f669 243d
00000150: 538a 44bd c285 5dbe 7c26 0b3d b543 b63c
00000160: 54e4 653d b4df ef3c 6368 02be 5a93 ecbd
00000170: 0cdb 20be 86a5 e8bd e219 50bd 2f2b 0ebe
00000180: 37ee cdbc e10f 573e d534 03bd 1398 a33d
00000190: 1733 79bd 76fd 5ebc ba04 973d 8015 eb3d
000001a0: 9c24 833d 97d9 cb3b 0b98 13be 7fc4 1bbe
000001b0: 7002 c1bd 02b3 9fbd ac82 8ebd 7411 2bbc
000001c0: 28e2 e03b 6a6a 43bc 3590 09be a035 57be
000001d0: a359 5fbc 7f8a 463d f0d1 913d 2a34 c6bd
000001e0: adae 1d3e 7d9a 2b3e 1274 85bd b0f0 96bd
000001f0: cf62 243d 2ed3 1e3d 4ddb e33c e0ea 1fbd
00000200: c2d2 45bd 698b 363e 6041 173e ef71 a7bd
00000210: 3f90 23bd d8f4 003e a92d 5b3d d2ec 1b3e
00000220: 96bf 423e b70c b73d 125c d53d ec23 a7bd
00000230: 0047 b6bc fab9 083e c3e1 60bd 0b10 373d
00000240: 7860 8abd 760e 053e e920 3e3e 4228 c73c
00000250: eaeb b33d 18b1 b93d 694e 24bd c612 b03d
00000260: fc6d 0a3e 1daa c8bc c5cd 013e 23cb 19bd
00000270: bd25 04bd aa3c 423d 7561 2c3d 5af4 c5bd
00000280: 77c0 f73d b453 1cbe b80a 963c 7018 da3d
00000290: 420e 933d 2ea5 393d f0ca 10bd b9a7 0cbe
000002a0: 3e76 b43d d3b8 b1bd b489 583d 045a c13d
000002b0: 03e5 ee3d 1bb3 1d3b 092d db3d 2c88 76bd
000002c0: b7b4 2bbd fcd2 1c3d 5134 84bd 0746 8bbd
000002d0: 4267 043e de49 1cbd 1f8e 0a3e a303 e9bd
000002e0: 92a0 0ebe 014b 40bc de40 98bd a4ca 5e3d
000002f0: 95fe 863d 2f0f c4bd 8d16 853d bc61 2c3e
00000300: 959b 633c 8847 7a3d 5a07 1dbe 5d3f 9e3d
00000310: 0e14 bdbd 1951 0a3d 0d48 313e a573 c3bd
00000320: dd34 1cbd c558 87bb b8a4 85bd 077e af3b
00000330: 628f ffbd 2231 30be 6862 db3d 1c85 de3d
00000340: a75f b0bd 9f88 ffbc afcc 02be d268 753d
00000350: bd7b 13be e608 58bc 4583 c73c e3d7 2a3e
00000360: 20e6 2bbe ab1f e7bc d9bc 643d df62 b13d
00000370: 237b 913c 98c4 3fbe 4fd7 8bbc a35c ab3d
00000380: 64a3 92bd 8795 883e 5f9b b83d 677b ad3d
00000390: 3385 c33c dd11 cdbd b96a 1abd 6947 6b3d
000003a0: a583 1fbe 32f4 28bd 14a2 ea3c 19ee 81be
000003b0: e500 69be 59c0 24be 46cf 93bd 7827 c33c
000003c0: dfb4 9c3d 2e76 06be 4e20 aabd 3b90 61be
000003d0: 788c 90bd f318 8a3d 6745 4cbb 6be1 2ebe
000003e0: 9857 133e 2a34 6b3d 25da d53b 395c f7bd
000003f0: 40d6 0b3e 323a 41bd ad3f f93d 2074 f2bd

lstm.bias_ih_l0 f4 [256]
-0.12404173 0.054154053 -0.13995254 -0.12132167 -0.15163408 0.06993331 -0.115016215 -0.028198283
-0.043228295 0.032874767 0.5147138 -0.040892847 0.028458439 -0.084907435 -0.0019259261 0.053390503
0.011774365 -0.104393326 -0.037574112 0.007945026 -0.10392791 -0.19997638 -0.06711876 -0.03980093
-0.0884466 0.035848994 0.038690172 -0.10663404 0.032205217 0.11376873 0.17225069 0.011470534
-0.09424022 -0.0657019 -0.12600836 0.07588275 0.023149947 0.005751647 0.053580664 -0.063058555
-0.033212785 -0.065778345 0.052725617 -0.03847362 -0.20435773 -0.13481845 -0.047871787 -0.012843064
0.10796812 -0.094934 0.016667712 0.215403 -0.052188676 0.037493527 -0.106913544 0.056557473
0.013670764 0.1114869 0.081880055 0.009641713 0.021334931 -0.1547049 0.0020450559 0.07261192
0.06373852 -0.08013025 -0.1641419 -0.1437078 0.05220598 0.11855324 -0.066558614 -0.101293236
-0.016680453 0.05030368 -0.002730923 -0.0522913 0.05886553 -0.10769876 -0.13300505 -0.1013004
0.0812523 0.0049207667 -0.102219954 -0.068702914 0.082822084 0.15407655 0.028471285 -0.026735373
-0.001776064 -0.19807328 -0.1545562 -0.16929428 -0.06265412 -0.022166457 -0.062198058 -0.09934341
-0.02215748 0.0004975824 0.051477164 0.14855897 -0.07967027 0.019638771 -0.03780709 -0.10878708
-0.08599844 -0.05733394 -0.11079719 -0.14709476 -0.006527674 -0.096996374 -0.04606573 -0.12030237
-0.017622668 0.031860918 -0.07862471 -0.18334772 -0.025349718 0.031342108 0.064007305 0.050201632
-0.010315432 -0.10124655 0.011486419 0.041013706 0.16765632 -0.1079092 0.052822724 0.14683437
-0.0343368 0.009785611 0.1033369 0.04456736 -0.0051661013 -0.061727446 -0.030267803 0.10600099
-0.12589552 -0.030896004 -0.010580525 0.064413436 0.112446256 -0.14292109 -0.12593716 0.010829498
0.062157955 0.027298715 0.061946675 -0.101296894 -0.06066549 -0.028530316 -0.06622637 -0.038990874
-0.068196 -0.0059305006 0.031683758 0.1260873 -0.028204467 0.090213895 -0.034026247 -0.077598915
0.052795663 0.0046822517 0.043171607 0.08334543 -0.07574352 0.049072202 0.0060075843 -0.004880135
0.112954065 0.018046413 -0.037632108 -0.04784638 0.069073975 0.022249347 0.10265253 0.0015767337
0.03890836 0.093139306 0.09767625 -0.034618206 -0.14055227 0.07979291 -0.058205634 0.0071293577
0.024469227 0.09272259 0.06056002 0.04914036 0.13474159 0.07008766 0.09803279 -0.11295021
0.034826968 0.083862215 0.086508185 0.032072045 -0.04736174 0.054829665 0.0941552 -0.14752594
-0.09717777 -0.10291773 0.3569732 -0.09204362 -0.09346222 0.01022829 -0.059510287 0.11825474
0.10481626 0.095069885 0.03006869 -0.015806077 -0.17141339 -0.019058935 -0.07454477 -0.17312281
-0.0045215716 0.050413888 0.05548425 -0.054437116 0.2772309 0.114573516 0.11647582 -0.11439241
0.09277887 -0.0066534886 -0.078083426 0.006094368 -0.10803013 0.016237374 0.0051222914 -0.097670905
-0.08664262 -0.04965778 0.007987829 -0.04378703 -0.09119391 -0.051105935 0.019239418 0.037284996
0.033988394 -0.17255248 -0.107547775 0.058773138 -0.00341472 0.019625595 -0.021129051 -0.09647221
0.13357398 0.021286294 0.16037281 0.011970924 0.0027439983 -0.0048544635 -0.093687326 -0.07485527
00000000: 9709 febd a4d0 5d3d b84f 0fbe 7f77 f8bd
00000010: f745 1bbe 3239 8f3d 9f8d ebbd 1600 e7bc
00000020: 2710 31bd b1a7 063d 49c4 033f 427f 27bd
00000030: ac21 e93c f3e3 adbd 5b6f fcba 00b0 5a3d
00000040: 44e9 403c 2bcc d5bd 50e7 19bd db2b 023c
00000050: 28d8 d4bd 9cc6 4cbe 8f75 89bd 4d06 23bd
00000060: 7e23 b5bd 65d6 123d 9679 1e3d f362 dabd
00000070: 9ee9 033d 94ff e83d 7c62 303e e8ee 3b3c
00000080: 0401 c1bd b88e 86bd 5608 01be 6a68 9b3d
00000090: f5a4 bd3c 5078 bc3b 6677 5b3d d824 81bd
000000a0: 210a 08bd ccb6 86bd d1f6 573d 8496 1dbd
000000b0: 2743 51be d90d 0abe 3515 44bd b76b 52bc
000000c0: 641e dd3d c26c c2bd ba8a 883c 9b92 5c3e
000000d0: cbc3 55bd d092 193d 7df5 dabd cfa8 673d
000000e0: 57fb 5f3c 3e53 e43d bbb0 a73d 47f8 1d3c
000000f0: 98c6 ae3c f66a 1ebe 5806 063b 8fb5 943d
00000100: 5789 823d 541b a4bd d014 28be 2328 13be
00000110: f0d5 553d 0bcc f23d e24f 88bd d472 cfbd
00000120: 72a5 88bc 3b0b 4e3d 49f9 32bb 672f 56bd
00000130: fb1c 713d 2b91 dcbd 7a32 08be 9676 cfbd
00000140: 9b67 a63d 623e a13b b258 d1bd 1db4 8cbd
00000150: a09e a93d 3ec6 1d3e 9d3c e93c 2404 dbbc
00000160: d2ca e8ba b9d3 4abe fb43 1ebe 7b5b 2dbe
00000170: ce50 80bd 6e96 b5bc 64c3 7ebd 8f74 cbbd
00000180: 9a83 b5bc 3170 023a b8d9 523d d81f 183e
00000190: 2b2a a3bd 7de1 a03c 9bdb 1abd c3cb debd
000001a0: f31f b0bd fed6 6abd a3e9 e2bd 02a0 16be
000001b0: 19e6 d5bb 09a6 c6bd 6baf 3cbd 1761 f6bd
000001c0: 6a5d 90bc 9880 023d fe05 a1bd 81bf 3bbe
000001d0: 36aa cfbc 9560 003d 4316 833d 3aa0 4d3d
000001e0: 0f02 29bc 5a5a cfbd 8831 3c3c fdfd 273d
000001f0: 19ae 2b3e 80ff dcbd a45c 583d c05b 163e
00000200: bfa4 0cbd d453 203c 4ca2 d33d 448c 363d
00000210: 6648 a9bb ebd5 7cbd 2ff4 f7bc 0c17 d93d
00000220: c1ea 00be 9e19 fdbc f059 2dbc 31eb 833d
00000230: 394a e63d e859 12be acf5 00be 356e 313c
00000240: 5799 7e3d 8ea1 df3c ccbb 7d3d bf74 cfbd
00000250: 607c 78bd 69b8 e9bc b1a1 87bd e5b4 1fbd
00000260: 58aa 8bbd a554 c2bb d4c6 013d 071d 013e
00000270: 0e0d e7bc 10c2 b83d 1b5f 0bbd 2eec 9ebd
00000280: 4440 583d 936d 993b b6d4 303d 02b1 aa3d
00000290: 6b1f 9bbd efff 483d 45db c43b 8ae9 9fbb
000002a0: 7654 e73d 12d6 933c 2024 1abd 91fa 43bd
000002b0: a876 8d3d 4344 b63c 7d3b d23d 67aa ce3a
000002c0: 5f5e 1f3d d2bf be3d 7c0a c83d d2cb 0dbd
000002d0: efec 0fbe 776a a33d 0869 6ebd 639d e93b
000002e0: b073 c83c 57e5 bd3d c90d 783d 6747 493d
000002f0: b3f9 093e 1e8a 8f3d 6ac5 c83d 7152 e7bd
00000300: b9a6 0e3d f4bf ab3d 342b b13d fa5d 033d
00000310: 62fe 41bd 1295 603d 71d4 c03d 0a11 17be
00000320: 2405 c7bd 88c6 d2bd 31c5 b63e 5e81 bcbd
00000330: 1f69 bfbd 8f94 273c 0fc1 73bd 8b2f f23d
00000340: e8a9 d63d 00b4 c23d 9d52 f63c bf7b 81bc
00000350: fe86 2fbe 7c21 9cbc eeaa 98bd 1b47 31be
00000360: b129 94bb cb7e 4e3d 7443 633d 74f9 5ebd
00000370: 35f1 8d3e 85a5 ea3d e08a ee3d 9146 eabd
00000380: d902 be3d 8205 dabb 34ea 9fbd 44b3 c73b
00000390: e73e ddbd 3e04 853c e5d8 a73b af07 c8bd
000003a0: b071 b1bd f565 4bbd 62df 023c 075a 33bd
000003b0: dfc3 babd 7554 51bd fc9b 9d3c 27b8 183d
000003c0: 6a37 0b3d 99b1 30be 0242 dcbd 1abc 703d
000003d0: 7fc9 5fbb dbc5 a03c d516 adbc 3993 c5bd
000003e0: 9ec7 083e 9860 ae3c c538 243e b221 443c
000003f0: a7d4 333b 3112 9fbb 24df bfbd b84d 99bd

lstm.bias_hh_l0 f4 [256]
0.07326999 -0.04649899 0.063929595 -0.043741517 0.006006323 -0.05325355 -0.067562066 -0.07652153
-0.08023411 0.032553427 0.40530446 -0.06695089 -0.02328575 -0.15919402 0.06240483 0.13814314
-0.008888088 -0.04562996 0.011104747 -0.14460137 -0.12841366 -0.009276954 0.13930611 -0.036319066
-0.08960457 -0.15322714 0.010747608 0.112014 0.11430909 0.015473174 0.087172605 0.07622852
-0.0063564787 -0.1317957 -0.13418163 -0.021324579 0.0022915804 -0.08732118 0.03260961 -0.060054727
-0.06871442 0.044100665 -0.018189024 0.08241798 -0.031549834 -0.051308338 -0.024447793 -0.00035475544
0.018164769 -0.01930618 0.021073483 0.24054211 -0.044172592 -0.012456735 -0.019625617 -0.11600007
0.003767155 -0.03783206 -0.06909077 -0.09233808 -0.120608896 -0.1416398 0.07092501 -0.015077947
0.036640942 -0.030719755 -0.20242742 -0.15623467 0.028762326 -0.12838776 0.10922044 -0.040816706
-0.090496436 -0.0774155 -0.010901516 -0.16676854 0.02873939 -0.15541121 0.062670544 0.0064016567
0.026141163 0.12484933 -0.16825148 0.03447067 -0.03459461 0.11668635 -0.17350687 -0.018820463
0.013081868 -0.022136856 0.01308497 -0.18971631 0.042746425 -0.15147206 -0.09395266 -0.08098032
-0.069935575 -0.015350646 -0.10677546 0.030596254 -0.021824062 -0.08290855 -0.086409055 -0.011464329
-0.13427314 -0.048144437 -0.17121977 -0.017809547 0.021156356 -0.026424 -0.034341108 -0.10605609
-0.10770998 0.09320194 0.044022664 -0.17484626 0.09415818 0.119370796 -0.12355111 -0.15689853
-0.17742756 -0.105771795 -0.0723626 -0.036419928 0.07647928 -0.014389959 0.06994257 0.17054948
0.06864009 0.04743205 -0.019628566 -0.10915029 0.05868818 0.059361376 -0.0056558247 0.048395067
0.030653318 -0.025036987 -0.0068068774 -0.072681524 0.035447426 -0.061787765 0.049560077 0.0076769437
-0.011288131 0.068127126 0.0012368603 -0.06435641 -0.057244275 0.04695423 -0.04555285 0.0050414004
-0.08138779 0.10732787 0.04652962 0.11267169 -0.039051257 -0.077311695 0.054836266 0.024259469
-0.045506135 -0.026092565 0.013975367 0.0042966777 -0.022138298 -0.054143462 0.08605576 0.032996673
0.05546711 0.078447394 0.06513162 0.13349018 0.12274587 -0.13145009 0.1300703 -0.022694046
-0.14840598 0.025980052 0.048255336 -0.07617073 0.060906325 -0.040217087 -0.04435828 -0.100234725
0.026641442 -0.07308505 -0.031923503 0.03858647 0.041993 -0.124532424 -0.12189013 0.04644141
-0.08703214 -0.062370352 -0.047075123 -0.026489524 -0.0076620234 0.14404696 0.017943462 -0.11533334
0.11085815 0.08203137 0.36477408 0.033100247 -0.21274348 0.07798573 0.081853315 -0.048280198
-0.00017906615 -0.032680023 -0.07128721 -0.09645763 -0.17150548 -0.024410553 -0.048058093 0.049502213
0.020892398 -0.1587806 -0.09512935 -0.04463575 0.2949467 -0.063311554 -0.059903346 0.0739165
-0.12847458 -0.10797405 -0.012898176 0.09985738 0.024482675 -0.099040814 0.047587506 0.08749517
-0.012176171 -0.006065093 -0.023186872 -0.07329054 -0.13940257 -0.05772127 -0.10081474 -0.09813877
-0.03716058 0.058886137 -0.080801405 0.10456784 -0.11695199 -0.024744809 -0.07065178 0.09048567
0.15186124 -0.0503618 0.018676551 0.030496225 -0.18147586 0.038412813 -0.014713675 0.117659904
00000000: 940e 963d ba75 3ebd 85ed 823d 4e2a 33bd
00000010: b0d0 c43b 6520 5abd fb5d 8abd 52b7 9cbd
00000020: c851 a4bd be56 053d 1184 cf3e 8c1d 89bd
00000030: c2c1 bebc c203 23be 359c 7f3d 6575 0d3e
00000040: 589f 11bc 7be6 3abd aff0 353c 6212 14be
00000050: df7e 03be 5efe 17bc 43a6 0e3e 4dc3 14bd
00000060: 9a82 b7bd 93e7 1cbe bc16 303c 9967 e53d
00000070: e21a ea3d 3283 7d3c 8d87 b23d b31d 9c3d
00000080: 024a d0bb 74f5 06be e966 09be e2b0 aebc
00000090: 572e 163b 72d5 b2bd a891 053d f2fb 75bd
000000a0: 25ba 8cbd e6a2 343d 2601 95bc c2ca a83d
000000b0: 663a 01bd b128 52bd bd46 c8bc 78fe b9b9
000000c0: 48ce 943c fe27 9ebc 4ca2 ac3c ac50 763e
000000d0: 52ee 34bd 5517 4cbc e7c5 a0bc 7291 edbd
000000e0: 60e2 763b caf5 1abd 767f 8dbd bf1b bdbd
000000f0: cc01 f7bd 060a 11be 2241 913d 7e09 77bc
00000100: d014 163d ffa7 fbbc 2249 4fbe fbfb 1fbe
00000110: f89e eb3c 1578 03be f7ae df3d 6b2f 27bd
00000120: 3256 b9bd 058c 9ebd 469c 32bc 5fc5 2abe
00000130: df6e eb3c 1e24 1fbe 6a59 803d fdc4 d13b
00000140: fe25 d63c 01b1 ff3d 1e4a 2cbe 1e31 0d3d
00000150: 14b3 0dbd 41f9 ee3d c9ab 31be 5f2d 9abc
00000160: 5555 563c 5a58 b5bc 5862 563c fe44 42be
00000170: e016 2f3d 7e1b 1bbe 416a c0bd 03d9 a5bd
00000180: 623a 8fbd 4781 7bbc 18ad dabd ffa4 fa3c
00000190: 60c8 b2bc f5cb a9bd 3bf7 b0bd e2d4 3bbc
000001a0: e67e 09be 1a33 45bd 3c54 2fbe 54e5 91bc
000001b0: 1850 ad3c 2577 d8bc 43a9 0cbd ef33 d9bd
000001c0: 0d97 dcbd a9e0 be3d 1c51 343d e60a 33be
000001d0: 01d6 c03d ad78 f43d 5d08 fdbd 02aa 20be
000001e0: 92af 35be e29e d8bd d832 94bd 102d 15bd
000001f0: 2ba1 9c3d ddc3 6bbc 0d3e 8f3d 86a4 2e3e
00000200: 2d93 8c3d 1c48 423d 16cc a0bc 308a dfbd
00000210: 0463 703d ea24 733d 7f54 b9bb e839 463d
00000220: ab1c fb3c 5e1a cdbc 3a0c dfbb 0dda 94bd
00000230: 5231 113d 2b15 7dbd 82ff 4a3d df8e fb3b
00000240: daf1 38bc 3c86 8b3d 251e a23a 4bcd 83bd
00000250: f978 6abd 1453 403d a095 3abd 5532 a53b
00000260: a4ae a6bd b7ce db3d d895 3e3d 6ac0 e63d
00000270: 36f4 1fbd 9855 9ebd fe9b 603d cbbb c63c
00000280: a464 3abd 13c0 d5bc f0f8 643c 25cb 8c3b
00000290: 605b b5bc 89c5 5dbd 013e b03d 8527 073d
000002a0: 7b31 633d 07a9 a03d ba63 853d a6b1 083e
000002b0: 3062 fb3d da9a 06be 2631 053e dde8 b9bc
000002c0: bdf7 17be 1ed4 d43c 63a7 453d 66ff 9bbd
000002d0: e978 793d acba 24bd 07b1 35bd dd47 cdbd
000002e0: 273f da3c 9dad 95bd 38c2 02bd d90c 1e3d
000002f0: da00 2c3d db0a ffbd 88a1 f9bd 5939 3e3d
00000300: e83d b2bd 0e78 7fbd d8d1 40bd 8f00 d9bc
00000310: b611 fbbb 0c81 133e 2bfe 923c e333 ecbd
00000320: 9909 e33d 1000 a83d abc3 ba3e 2094 073d
00000330: 6dd9 59be fbb6 9f3d b6a2 a73d 75c1 45bd
00000340: b4c3 3bb9 7ddb 05bd 07ff 91bd 948b c5bd
00000350: 229f 2fbe a4f8 c7bc 90d8 44bd d5c2 4a3d
00000360: 8926 ab3c 6297 22be 2dd3 c2bd fad3 36bd
00000370: 4103 973e 7da9 81bd 365d 75bd 8961 973d
00000380: d78e 03be 8021 ddbd df52 53bc 0782 cc3d
00000390: e48f c83c e9d5 cabd 1eeb 423d ab30 b33d
000003a0: 907e 47bc b0bd c6bb 65f2 bdbc 5a19 96bd
000003b0: 8cbf 0ebe 236d 6cbd f577 cebd fbfc c8bd
000003c0: b135 18bd 9732 713d 357b a5bd aa27 d63d
000003d0: 8684 efbd a0b5 cabc e1b1 90bd 8d50 b93d
000003e0: 8381 1b3e 2d48 4ebd 91ff 983c 38d3 f93c
000003f0: cfd4 39be c156 1d3d a011 71bc adf7 f03d

lstm.weight_ih_l1 f4 [256, 64]
-0.050064184 -0.04986869 0.024138745 0.05219289 0.052555703 0.12625712 0.07809111 -0.0055433125
-0.051016048 0.121070586 -0.19876271 0.054455962 -0.0052614864 0.07820749 0.081244744 -0.104626514
-0.021042453 -0.041164447 0.028444793 -0.081535004 0.116605945 0.024354871 0.016772848 0.0045669875
0.07280033 -0.029948333 0.10984603 -0.009726126 0.17774412 0.05201723 0.03622135 0.01655665
0.05647392 -0.049894094 -0.0694259 0.07421666 -0.042585846 0.05400941 -0.034026206 -0.06961752
-0.030450007 0.13791542 -0.08095453 0.043160506 -0.09162021 0.15126482 -0.00091433607 -0.12521854
0.0727812 0.11185846 0.0074303485 0.06449367 0.16554502 0.07103637 -0.036294777 -0.027672725
-0.061668143 0.0560538 0.0048449384 0.13264342 0.10202496 0.085301235 0.1591592 0.07270729
0.02195696 0.044527527 -0.116983525 -0.04561066 0.04450805 -0.08780603 -0.09890761 0.18462591
0.15320863 -0.13764964 0.08146208 0.08029505 -0.027257835 -0.074018866 -0.023163179 -0.028140565
-0.034413308 0.00042895388 0.13459493 0.011071599 -0.01886796 -0.020730585 -0.16809648 -0.0026388564
-0.029805833 0.02906679 -0.042880807 -0.10128982 0.023784356 0.11406623 0.14655234 -0.10311064
0.030342553 -0.13004063 0.11823335 0.11259784 -0.14408837 0.10264025 0.27835184 0.008874139
-0.17746285 0.06973926 -0.074334845 -0.13299407 -0.18718567 0.06820825 0.0102594355 -0.037197012
0.035978258 0.046374194 -0.02074411 -0.033302955 0.11336682 0.00022778288 0.0036131681 0.014022009
0.10512777 -0.12046843 0.09471356 -0.0076541267 0.09686933 0.04553179 -0.050736394 0.006938681
0.09969234 -0.055436805 0.038073085 0.029051624 -0.036058083 -0.09945235 -0.015827771 -0.018899634
0.14605635 -5.1805106e-05 0.06727619 -0.081637226 0.15315683 0.10857068 -0.10543334 -0.07135722
0.005631228 -0.13968894 -0.12284271 -0.06997083 0.024980413 -0.12723295 -0.011095536 -0.11460126
0.0054366435 -0.17972103 0.12490286 -0.12824197 -0.11863554 0.048971046 -0.06357679 -0.1839671
-0.051952522 0.029636228 0.1453025 -0.0823843 0.043077692 -0.09145496 0.10735563 -0.012316513
-0.17446947 -0.06289887 0.03151754 -0.0056305192 -0.0944815 -0.04123309 0.087186515 -0.07154598
-0.03354295 0.04235871 0.079149485 0.0151706375 0.016664341 0.07559752 -0.12149525 0.09766236
-0.050583445 -0.071435794 -0.0015576906 0.0153029505 0.051929656 -0.019779546 -0.03296518 0.1317689
-0.05912294 -0.06896165 -0.03972865 -0.050434947 0.080221534 0.05370481 0.04819828 0.11908867
0.029254358 0.021847112 0.1103387 0.10462521 0.07081937 -0.03482789 0.014182639 -0.102611355
-0.010038684 0.10102463 0.04671885 -0.04781938 -0.18120417 -0.0062262537 0.08752583 -0.081585914
0.016977547 0.06761052 0.046761733 -0.03725589 0.09664184 0.1223782 0.023490993 -0.16550659
-0.018900925 -0.01896408 0.035773404 0.0028884658 -0.092716135 -0.10011005 0.11090435 0.019320227
-0.041810974 0.091924414 0.019269094 0.14921117 -0.10962848 0.07084182 -0.08782719 -0.13441776
0.117599554 0.08636335 -0.077053174 0.008221808 0.1842331 0.012422362 0.069678925 -0.024539001
-0.010498482 -0.030118467 -0.06327656 0.108678624 0.042398654 -0.06537737 0.14712116 -0.07470981
00000000: 1a10 4dbd 1d43 4cbd 9ebe c53c 36c8 553d
00000010: a644 573d 8c49 013e 3bee 9f3d ada4 b5bb
00000020: 34f6 50bd dbf3 f73d 7488 4bbe 370d 5f3d
00000030: 8c68 acbb 402b a03d a563 a63d 6d46 d6bd
00000040: 3961 acbc 0d9c 28bd 0e05 e93c d3fb a6bd
00000050: 19cf ee3d de83 c73c 3667 893c aba6 953b
00000060: 5718 953d 3556 f5bc f5f6 e03d 545a 1fbc
00000070: 8e02 363e 0510 553d d75c 143d d0a1 873c
00000080: 3251 673d c05d 4cbd 2b2f 8ebd e7fe 973d
00000090: 7f6e 2ebd f938 5d3d 105f 0bbd a193 8ebd
000000a0: 4b72 f9bc b339 0d3e 7dcb a5bd 12c9 303d
000000b0: 60a3 bbbd 2ae5 1a3e 0eb0 6fba 4a39 00be
000000c0: 4f0e 953d 0c16 e53d 487a f33b 4215 843d
000000d0: a284 293e 847b 913d d5a9 14bd e9b1 e2bc
000000e0: bc97 7cbd ab98 653d 4ac2 9e3b add3 073e
000000f0: 76f2 d03d 6ab2 ae3d a1fa 223e 8fe7 943d
00000100: 15df b33c 7f62 363d 0f95 efbd 3ed2 3abd
00000110: 134e 363d a6d3 b3bd 1390 cabd 930e 3d3e
00000120: b9e2 1c3e 07f4 0cbe 97d5 a63d bb71 a43d
00000130: d34b dfbc 3497 97bd b5c0 bdbc 0b87 e6bc
00000140: f8f4 0cbd 37e5 e039 41d3 093e a765 353c
00000150: fb90 9abc 30d3 a9bc 7c21 2cbe aaf0 2cbb
00000160: 5d2b f4bc 7a1d ee3c c9a3 2fbd 0a71 cfbd
00000170: 69d7 c23c 8e9b e93d d111 163e ac2b d3bd
00000180: f290 f83c 5f29 05be 5424 f23d b299 e63d
00000190: e78b 13be 0d35 d23d 2284 8e3e d664 113c
000001a0: d2b8 35be 75d3 8e3d de3c 98bd 992f 08be
000001b0: 9aad 3fbe c4b0 8b3d 3117 283c e55b 18bd
000001c0: f05d 133d def2 3d3d 8def a9bc ae68 08bd
000001d0: dd2c e83d 00d9 6e39 e7ca 6c3b 92bc 653c
000001e0: 3a4d d73d 27b8 f6bd 2ff9 c13d 78cf fabb
000001f0: 6d63 c63d 8b7f 3a3d f7d0 4fbd e05d e33b
00000200: 7f2b cc3d b411 63bd 86f2 1b3d acfd ed3c
00000210: a4b1 13bd acad cbbd 3ea9 81bc 68d3 9abc
00000220: cc8f 153e 4f49 59b8 19c8 893d 6b31 a7bd
00000230: 25d5 1c3e 4e5a de3d 6fed d7bd bc23 92bd
00000240: 2a86 b83b 9e0a 0fbe f594 fbbd de4c 8fbd
00000250: b9a3 cc3c 5b49 02be 0dca 35bc 11b4 eabd
00000260: df25 b23b ca08 38be 12cd ff3d dd51 03be
00000270: 31f7 f2bd dd95 483d 8c34 82bd df61 3cbe
00000280: 2bcc 54bd adc7 f23c 2eca 143e 1ab9 a8bd
00000290: 3c72 303d bd4c bbbd 45dd db3d 33cb 49bc
000002a0: 20a8 32be 1fd1 80bd 8918 013d 3880 b8bb
000002b0: 847f c1bd 07e4 28bd d88e b23d b386 92bd
000002c0: 5564 09bd 5480 2d3d 2019 a23d 448e 783c
000002d0: a883 883c dfd2 9a3d 80d2 f8bd 3403 c83d
000002e0: 9630 4fbd ee4c 92bd 6c2b ccba 3ab9 7a3c
000002f0: 31b4 543d b708 a2bc 7f06 07bd 6dee 063e
00000300: e52a 72bd c43b 8dbd 82ba 22bd e094 4ebd
00000310: 304b a43d 93f9 5b3d 8f6b 453d c3e4 f33d
00000320: d6a6 ef3c b7f8 b23c 42f9 e13d be45 d63d
00000330: bf09 913d b1a7 0ebd 4d5e 683c e725 d2bd
00000340: 4b79 24bc 00e6 ce3d 445c 3f3d 41de 43bd
00000350: 968d 39be 9a05 ccbb be40 b33d 8416 a7bd
00000360: 7f14 8b3c 6277 8a3d 3b89 3f3d a299 18bd
00000370: 28ec c53d 6ca1 fa3d 2f70 c03c 8f7a 29be
00000380: 1dd6 9abc 8f5a 9bbc 2287 123d 6a4c 3d3b
00000390: f5e1 bdbd 7f06 cdbd d221 e33d 7445 9e3c
000003a0: fc41 2bbd de42 bc3d 38da 9d3c d0ca 183e
000003b0: e684 e0bd 8415 913d bede b3bd cfa4 09be
000003c0: 09d8 f03d 45df b03d 0ece 9dbd c3b4 063c
000003d0: 9aa7 3c3e 2a87 4b3c d3b3 8e3d 0406 c9bc
000003e0: d301 2cbc 01bb f6bc 2497 81bd e692 de3d
000003f0: 36aa 2d3d 92e4 85bd eea6 163e 7501 99bd

lstm.weight_hh_l1 f4 [256, 64]
-0.059910744 0.010142579 -0.05905395 0.10535617 -0.10149449 -0.09817125 -0.05802695 -0.025161592
0.012609429 0.09628769 0.016177772 -0.06354566 -0.09380026 0.13191122 0.011848753 0.07621216
-0.017190108 -0.082255274 0.119423814 0.1670066 -0.04330737 -0.069920875 -0.030686067 -0.05524193
-0.061601978 -0.10862749 0.053476535 -0.06735127 0.05660517 -0.13250734 0.06360736 -0.086623974
0.024284502 -0.0782706 0.07339059 0.08493486 0.16024846 -0.00963723 -0.0345803 -0.06764495
-0.03455907 -0.10539442 -0.06752942 -0.12302006 -0.08533059 0.018845709 -0.0022544123 0.12865937
-0.055036437 -0.10721408 0.06749398 -0.00943544 0.09115969 0.12332031 -0.060428794 -0.049766354
0.027158612 0.07397672 0.10684836 -0.0864539 0.09783039 -0.084350914 -0.07503818 0.0071353763
0.05556657 0.10855645 0.013963845 0.07966511 -0.023393318 0.10238706 0.06259447 -0.02199157
0.029282412 -0.0010805734 0.00246277 0.09824996 -0.016021961 -0.0025968817 0.0015728484 -0.015953137
-0.07647036 0.14036846 0.023869583 0.061647996 0.020459417 -0.011654538 -0.14609101 0.07419041
0.05672221 0.061930023 -0.024241682 0.011797727 -0.022414388 0.008333923 -0.024308877 -0.055264384
0.070984155 0.018061804 -0.06198904 -0.06753736 -0.0071253544 -0.08491938 0.044056464 0.09495866
-0.057104893 0.061400693 -0.0023260857 -0.10846436 0.010821841 0.063108474 0.05109487 0.08673208
-0.014804262 0.056704093 -0.0023210796 0.053920325 0.025673458 0.0523562 0.03130797 -0.019082455
0.00062596553 -0.10062422 -0.09898101 0.114891075 0.05383622 -0.107081585 -0.13631275 0.1003773
-0.05276005 -0.037316043 -0.051258262 -0.10714334 -0.02838223 -0.018307861 -0.010401156 0.02385086
0.0039901766 -0.07547813 -0.02964276 0.08587585 0.057441846 0.048463535 -0.063663475 0.009584763
-0.09777849 -0.07463977 0.058024827 -0.11917632 -0.050983127 0.14306006 -0.17184925 -0.10937538
0.13479035 0.1470998 -0.08699873 -0.0992691 -0.118328646 0.095615864 0.033018436 0.00097362854
0.15593755 0.10453352 -0.08334633 0.07222695 -0.008166473 0.019496901 0.13539186 0.05062622
-0.16130202 -0.069865406 0.1402049 -0.032945346 0.015804468 0.09917513 0.12581326 -0.0857561
-0.08429026 0.115659565 -0.074910514 -0.011840816 -0.010073844 -0.06166585 0.01168021 0.06363806
-0.11909572 0.07719419 -0.047044683 0.016271701 0.05855335 0.12712939 -0.09297873 -0.048951846
-0.0012995276 0.14698297 -0.0857268 -0.014634506 -0.05194567 0.10258026 0.008602186 -0.01399009
0.10538151 0.08243103 -0.041279394 -0.102818005 0.109334834 0.1456383 -0.10464947 0.048716877
0.08898866 0.07632613 0.03677037 0.08959637 0.10722232 -0.025222912 0.066230506 0.056679152
0.048722524 0.104174495 0.08009149 0.027393745 -0.08268531 0.13161217 -0.012283798 0.012167907
0.04703441 -0.0832318 -0.079356976 -0.039939158 -0.0582932 -0.12292733 -0.14774905 0.017289743
-0.009204005 -0.083120555 -0.050599214 0.092765294 0.13104059 0.033579525 0.08678577 -0.06863088
0.08246447 -0.022871187 -0.018204529 -0.047390305 -0.026156476 0.08598208 0.007106753 -0.027245618
0.018634968 0.013048649 0.12750697 0.025231892 0.1133854 -0.047199182 0.081371225 -0.14363876
00000000: f864 75bd 0f2d 263c 8ee2 71bd fac4 d73d
00000010: 58dc cfbd 020e c9bd abad 6dbd af1f cebc
00000020: c797 4e3c 7b32 c53d 3f87 843c 3a24 82bd
00000030: 5a1a c0bd bc13 073e 4621 423c 1f15 9c3d
00000040: 45d2 8cbc 7475 a8bd 7994 f43d c703 2b3e
00000050: 1263 31bd ad32 8fbd 5961 fbbc 5d45 62bd
00000060: 5b52 7cbd 1778 debd 360a 5b3d 76ef 89bd
00000070: d3da 673d 01b0 07be 9344 823d e967 b1bd
00000080: 4bf0 c63c 564c a0bd ce4d 963d 54f2 ad3d
00000090: 2c18 243e 79e5 1dbc 13a4 0dbd 6f89 8abd
000000a0: d08d 0dbd 08d9 d7bd dd4c 8abd f1f1 fbbd
000000b0: cec1 aebd 5162 9a3c c3be 13bb 48bf 033e
000000c0: e36d 61bd 0e93 dbbd 493a 8a3d 1b97 1abc
000000d0: eeb1 ba3d 5c8f fc3d 2f84 77bd ced7 4bbd
000000e0: bd7b de3c 1b81 973d 50d3 da3d be0e b1bd
000000f0: 4d5b c83d 2cc0 acbd 9ead 99bd e0cf e93b
00000100: c699 633d d852 de3d 9cc8 643c 7627 a33d
00000110: 58a3 bfbc 4fb0 d13d 8831 803d aa27 b4bc
00000120: abe1 ef3c 07a2 8dba 6d66 213b 4637 c93d
00000130: 7d40 83bc 7230 2abb 0928 ce3a 27b0 82bc
00000140: 7e9c 9cbd c0bc 0f3e 258a c33c 9c82 7c3d
00000150: 829a a73c adf2 3ebc e298 15be 24f1 973d
00000160: 8c55 683d 56aa 7d3d 7e96 c6bc 414b 413c
00000170: 619e b7bc 028b 083c 6923 c7bc e85c 62bd
00000180: 2460 913d 59f6 933c 38e8 7dbd 0751 8abd
00000190: ce7b e9bb 36ea adbd 8d74 343d b079 c23d
000001a0: d2e6 69bd 4b7f 7b3d 3e71 18bb 9022 debd
000001b0: 174e 313c 043f 813d db48 513d 97a0 b13d
000001c0: 938d 72bc 8d42 683d 411d 18bb 8fdb 5c3d
000001d0: 2551 d23c 7473 563d c93c 003d cf52 9cbc
000001e0: d617 243a 1214 cebd 8eb6 cabd 034c eb3d
000001f0: 5e83 5c3d 974d dbbd 9295 0bbe 9d92 cd3d
00000200: ec1a 58bd b5d8 18bd 2ff4 51bd f86d dbbd
00000210: da81 e8bc 5efa 95bc 9c69 2abc e162 c33c
00000220: 07c0 823b 4794 9abd 60d5 f2bc addf af3d
00000230: 2448 6b3d b381 463d ff61 82bd 6909 1d3c
00000240: 1740 c8bd bcdc 98bd 71ab 6d3d b712 f4bd
00000250: afd3 50bd 567e 123e 40f9 2fbe 3300 e0bd
00000260: 7b06 0a3e 54a1 163e 642c b2bd 994d cbbd
00000270: 4a56 f2bd 40d2 c33d 573e 073d 1b3b 7f3a
00000280: 18ae 1f3e ac15 d63d 7bb1 aabd b9eb 933d
00000290: accc 05bc f7b7 9f3c 2aa4 0a3e 705d 4f3d
000002a0: 5b2c 25be 9815 8fbd e091 0f3e b3f1 06bd
000002b0: 5f78 813c 551c cb3d 31d5 003e e5a0 afbd
000002c0: 5fa0 acbd ecde ec3d af6a 99bd fbff 41bc
000002d0: c40c 25bc 5595 7cbd 5a5e 3f3c ac54 823d
000002e0: 75e8 f3bd fd17 9e3d edb1 40bd 3b4c 853c
000002f0: a3d5 6f3d 352e 023e a26b bebd bb81 48bd
00000300: e954 aaba b482 163e 8891 afbd 91c5 6fbc
00000310: fcc4 54bd 9915 d23d 2ff0 0c3c b136 65bc
00000320: 43d2 d73d 9ad1 a83d 9514 29bd 3f92 d2bd
00000330: f1ea df3d 3522 153e 7652 d6bd 598b 473d
00000340: b03f b63d e050 9c3d 879c 163d 4d7e b73d
00000350: 6097 db3d 48a0 cebc dca3 873d 6628 683d
00000360: 4591 473d 7059 d53d 0207 a43d d968 e03c
00000370: ea56 a9bd 57c5 063e fc41 49bc e75b 473c
00000380: 27a7 403d 6f75 aabd e985 a2bd 3e97 23bd
00000390: dac4 6ebd 53c1 fbbd 874b 17be 38a3 8d3c
000003a0: 65cc 16bc 1c3b aabd 1f41 4fbd bbfb bd3d
000003b0: 812f 063e af8a 093d bdbc b13d 598e 8cbd
000003c0: 22e3 a83d 5b5c bbbc aa21 95bc 561c 42bd
000003d0: 1b46 d6bc 5f17 b03d c4df e83b 3432 dfbc
000003e0: 5ca8 983c 00ca 553c 3091 023e 1db3 ce3c
000003f0: 9b36 e83d ee53 41bd f5a5 a63d 0a16 13be

lstm.bias_ih_l1 f4 [256]
-0.040686496 0.090755574 0.077221885 -0.0993841 0.20940612 -0.14936328 0.035379004 0.049649574
-0.12939923 0.045830417 0.069864415 -0.09130869 -0.08310773 0.18128228 0.09586655 -0.099837966
0.01996196 0.075851604 0.011755512 -0.061361242 -0.010742957 -0.07840906 0.057839997 -0.036563136
0.08505279 0.15594825 -0.03135946 -0.114225425 0.030050376 -0.011151042 0.054326855 -0.0910464
-0.14678086 0.044728912 -0.09985045 0.042530153 -0.04856992 -0.16609515 0.14927644 -0.014990377
-0.025856024 -0.22544532 0.055713374 0.055039927 0.022470806 0.06084307 -0.09138854 0.2105553
0.0052141417 0.098220065 0.0025815996 0.05618879 0.15119143 0.110968426 -0.10786486 -0.09827314
0.029528199 0.055709172 0.07246116 0.14700556 0.15822242 0.07460899 0.077916466 0.15987535
-0.08316272 -0.05718231 -0.045412008 0.027087456 -0.09385339 -0.1180872 -0.008304008 0.011707621
-0.14687756 -0.022501467 -0.07611099 -0.063610524 -0.023396252 0.08313453 -0.09915279 0.016349617
-0.054550838 0.16042699 -0.10073088 -0.052757856 0.0063158334 -0.09439846 0.016455328 0.08667938
-0.026411619 -0.081720345 -0.068229355 -0.015302205 -0.013806738 -0.12722948 -0.069196425 -0.004911551
-0.01210442 -0.01865011 -0.12434291 -0.10333126 -0.048631527 -0.10827677 0.0350338 0.019915989
-0.03644966 -0.18504803 -0.09327089 0.10976886 -0.08031782 -0.14042377 0.022405675 -0.0686741
-0.21793607 -0.10866407 -0.13125262 -0.06352977 0.0004867623 0.10368359 -0.17182118 -0.01035203
-0.09325528 -0.049215786 -0.048997752 0.027345976 -0.08372284 -0.08294184 0.030446865 -0.24276301
-0.038950346 0.018302446 0.09320429 -0.098106176 0.10063597 -0.009423757 -0.026953971 0.025721988
-0.016916549 0.016879618 0.06255388 -0.072809115 0.10293272 -0.013295752 -0.059200004 0.07778615
-0.026933404 0.052401293 -0.05536928 0.063382804 0.099102154 0.011060147 -0.08131249 -0.034916196
0.0005012359 0.008269332 -0.10785842 0.10302499 0.06481767 0.0065096724 -0.06363918 0.017635614
-0.06600107 0.07350352 -0.021141635 0.06795162 0.09087007 0.09231509 -0.059034303 0.07743535
-0.032293536 0.056026258 0.08679205 -0.017885853 -0.06498751 -0.06676092 0.043975875 -0.05574635
0.0057962732 -0.043669418 -0.056533325 -0.03842167 0.082859255 -0.08569032 -0.08236297 -0.027467296
0.01812878 -0.07396187 0.022177776 0.042362 0.06278063 -0.054660283 0.03176795 0.048198465
0.021137867 0.078902766 -0.060609926 -0.03442211 0.17213695 -0.11761213 -0.06463336 -0.0051710294
0.07268527 -0.04460369 -0.01948297 -0.1195901 0.103000075 0.086424686 0.019869337 0.011913374
-0.037068393 0.021420369 -0.016454583 0.056199368 0.017665002 -0.06263929 0.034676448 -0.13144848
-0.075206794 0.094005734 -0.09614797 -0.07213033 0.061509963 -0.19572891 0.10046068 0.033361007
-0.12644997 -0.076608315 0.10627288 -0.0958673 0.09717628 -0.08945333 0.13745275 0.077963956
0.13025105 -0.26870328 -0.13787684 0.05825628 0.11947268 0.004657019 0.10345105 0.18082164
-0.19431381 -0.081224546 0.14284424 0.013819073 0.114799276 0.057839032 -0.07477829 0.0029452976
0.19987714 0.053438712 -0.024307394 0.0015402593 0.122560844 0.049910963 0.18339805 0.3113194
00000000: e2a6 26bd 0fde b93d 8226 9e3d e489 cbbd
00000010: 8f6e 563e b0f2 18be 93e9 103d 5a5d 4b3d
00000020: 3b81 04be adb8 3b3d 1315 8f3d 0d00 bbbd
00000030: 6334 aabd 10a2 393e af55 c43d d977 ccbd
00000040: 4487 a33c 1658 9b3d 319a 403c ed55 7bbd
00000050: 3a03 30bc ee94 a0bd a2e9 6c3d 3ac3 15bd
00000060: 2830 ae3d e6b0 1f3e c772 00bd 05ef e9bd
00000070: 352c f63c dcb2 36bc d685 5e3d 8976 babd
00000080: b94d 16be aa35 373d 657e ccbd 1934 2e3d
00000090: 41f1 46bd d914 2abe ecdb 183e 339a 75bc
000000a0: 03d0 d3bc 23db 66be b533 643d 8c71 613d
000000b0: b214 b83c 9536 793d ea29 bbbd cf9b 573e
000000c0: 64db aa3b 9a27 c93d 0e30 293b 3726 663d
000000d0: edd1 1a3e 6a43 e33d 40e8 dcbd 6e43 c9bd
000000e0: 1fe5 f13c 4d2f 643d 8466 943d a088 163e
000000f0: 0f05 223e 99cc 983d ab92 9f3d 5db6 233e
00000100: 3751 aabd ff37 6abd f101 3abd 83e6 dd3c
00000110: 3536 c0bd b4d7 f1bd 890d 08bc 52d1 3f3c
00000120: 1267 16be ff54 b8bc 14e0 9bbd 3c46 82bd
00000130: 7fa9 bfbc 7042 aa3d 9e10 cbbd a2ef 853c
00000140: b370 5fbd f946 243e fe4b cebd 9f18 58bd
00000150: 0df5 ce3b fb53 c1bd 53cd 863c f584 b13d
00000160: 2e5d d8bc ff5c a7bd d5bb 8bbd 1ab6 7abc
00000170: a835 62bc 7248 02be dbb6 8dbd 13f1 a0bb
00000180: 9e51 46bc 1ec8 98bc 7fa7 febd 579f d3bd
00000190: da31 47bd 36c0 ddbd 9a7f 0f3d db26 a33c
000001a0: 3d4c 15bd 3b7d 3dbe cf04 bfbd 7fce e03d
000001b0: ab7d a4bd 40cb 0fbe 1b8c b73c 02a5 8cbd
000001c0: a22a 5fbe 458b debd 1667 06be e51b 82bd
000001d0: 2134 ff39 1058 d43d e4f1 2fbe 909b 29bc
000001e0: a0fc bebd 7e96 49bd deb1 48bd ab04 e03c
000001f0: e176 abbd 69dd a9bd b46b f93c de96 78be
00000200: 668a 1fbd 03ef 953c e4e1 be3d e4eb c8bd
00000210: 3b1a ce3d 1a66 1abc 93ce dcbc ebb6 d23c
00000220: 9394 8abc 2047 8a3c 401c 803d f21c 95bd
00000230: 64ce d23d 6dd6 59bc b47b 72bd 584e 9f3d
00000240: 71a3 dcbc bda2 563d e6ca 62bd d8ce 813d
00000250: 12f6 ca3d 9e35 353c 2a87 a6bd 4904 0fbd
00000260: 5f65 033a 187c 073c e0e4 dcbd c4fe d23d
00000270: 20bf 843d 174f d53b 4255 82bd 9078 903c
00000280: 922b 87bd 0389 963d 3931 adbc 382a 8b3d
00000290: 161a ba3d b20f bd3d f4cd 71bd 6d96 9e3d
000002a0: 3a46 04bd ca7b 653d 08c0 b13d 5a85 92bc
000002b0: 2c18 85bd f3b9 88bd 0c20 343d 4956 64bd
000002c0: aaee bd3b b4de 32bd 7d8f 67bd 0b60 1dbd
000002d0: 1db2 a93d 687e afbd ebad a8bd 1803 e1bc
000002e0: cf82 943c 5279 97bd 2bae b53c c783 2d3d
000002f0: 2293 803d 76e3 5fbd 1c1f 023d c16b 453d
00000300: 5229 ad3c c697 a13d 1d42 78bd 33fe 0cbd
00000310: ab44 303e a1de f0bd 7f5e 84bd bd71 a9bb
00000320: 04dc 943d 5cb2 36bd c09a 9fbc a8eb f4bd
00000330: b4f1 d23d 6dff b03d 05c5 a23c 5030 433c
00000340: 07d5 17bd c579 af3c c3cb 86bc 4f31 663d
00000350: 32b6 903c 0749 80bd e408 0e3d 6e9a 06be
00000360: 0506 9abd 1486 c03d 3ae9 c4bd 11b9 93bd
00000370: dff1 7b3d 296d 48be 54be cd3d 8da5 083d
00000380: 1a7c 01be d2e4 9cbd 99a5 d93d 1356 c4bd
00000390: 5c04 c73d 4f33 b7bd 6ac0 0c3e 91ab 9f3d
000003a0: 8860 053e 7a93 89be 962f 0dbe 239e 6e3d
000003b0: 18ae f43d e899 983b 25de d33d 4f29 393e
000003c0: 33fa 46be 0e59 a6bd c345 123e 6569 623c
000003d0: e21b eb3d 9fe8 6c3d 5c25 99bd e505 413b
000003e0: 98ac 4c3e 8de2 5a3d 4d20 c7bc 87e2 c93a
000003f0: 2e01 fb3d 706f 4c3d b3cc 3b3e 4265 9f3e
