backend/Model_Pytorch/RNN_Model/output/checkpoints/best_checkpoint.pth (torch, 672347 bytes, 27 tensors)

lstm.weight_ih_l0 f4 [256, 19]
000000 cc fe 11 be 1f 1b 6a 3c f1 3e 70 3d d2 7e 05 be
       -0.14257354 0.014288693 0.058653776 -0.1303666
000010 e3 b5 a3 bc e9 90 85 3e 4f 68 36 bd 0a ce 64 3e
       -0.019984191 0.2608712 -0.04453307 0.22344223
000020 7e 57 8f bd 1a 4d f3 3d 5f d2 e9 3b e4 58 56 3b
       -0.0699911 0.1187994 0.007135674 0.0032706792
000030 5a 13 37 3d 8d 05 43 3d 53 c8 cc 3d 47 94 57 be
       0.04469619 0.047612716 0.09999146 -0.21052657
000040 df be 90 bd 17 55 23 be e6 e3 52 3e f2 d0 b8 be
       -0.07067656 -0.15950428 0.20594749 -0.36096913
000050 15 4e fc bb 47 37 88 3d 1e ca ef bd 65 ae e3 3c
       -0.007699738 0.06651168 -0.11708473 0.027793119
000060 d9 6b 1b 3e bf 3a d0 bb 2e 7c 46 3e 89 2b 7f 3d
       0.1517786 -0.0063546593 0.19383308 0.062297378
000070 38 02 b8 bc 7d c0 ac 3d e4 83 77 3c 51 e4 32 be
       -0.022461995 0.08435152 0.015107129 -0.17469908
000080 c3 f8 49 3e 5f 21 f4 be b3 26 b0 3e f8 e8 fe 3d
       0.19723801 -0.4768171 0.34404525 0.12446779
000090 b8 7e 7b 3e 34 c2 3b 3e 83 43 cc bd 9d 51 ea 3c
       0.24560058 0.18335801 -0.09973814 0.02860337
0000a0 ac b6 12 bd 36 88 48 3d 2a c1 af bd 8c 03 46 3e
       -0.03581874 0.048958026 -0.08581765 0.1933729
0000b0 f0 92 ba 3d 06 43 98 3d 66 75 73 3e 24 11 6c 3d
       0.09110057 0.07434659 0.23775253 0.057633534
0000c0 06 cd 1a 3e 1a 8e dd 3d 4c 30 35 bd d3 c5 83 3e
       0.15117273 0.10818119 -0.044235513 0.25736865
0000d0 01 af 51 3d d1 49 bf be 40 db b9 bd 4d 39 51 bd
       0.051192287 -0.37361005 -0.09075022 -0.051080037
0000e0 75 b7 38 be ce ad b8 3c 6c 8b 52 3e 84 b1 09 3e
       -0.18038733 0.022543814 0.20560998 0.13446623
0000f0 d8 30 b7 3d ff 55 bd bd bb 0e 49 3e c5 98 0a 3e
       0.08944863 -0.09244918 0.19634525 0.1353484
000100 01 b8 41 3e ee d1 0b 3e 5d 43 0c 3e e3 38 51 bd
       0.18917848 0.136543 0.13697572 -0.051079642
000110 65 af 43 3b 52 58 80 3d 28 52 bb 3d 3c c3 9b bd
       0.0029859182 0.06266846 0.091465294 -0.076055974
000120 84 f9 b6 3c 27 de c7 3d b2 ab 51 3e 9f b7 41 bd
       0.022335775 0.09759169 0.20475653 -0.047294255
000130 1b 6f 01 3f 56 0e 78 3d 59 68 ed 3d 13 17 8f bc
       0.5056016 0.060560547 0.11592168 -0.017467057
000140 a8 40 9b 3d 60 8e a5 3d 1d 36 0d 3e 45 bd 15 3e
       0.075806916 0.080837965 0.13790174 0.14622982
000150 91 f5 4e 3e aa 9e 6a 3e 6e cf 87 3d 5f f8 30 3d
       0.20210864 0.22912088 0.06631361 0.043205615
000160 b6 d3 88 3d 6b 7e 1d 3e cd 56 c2 3d 71 e8 dc 3d
       0.06681006 0.15380256 0.09489212 0.10786522
000170 21 d1 9b 3d a6 e4 45 be e7 89 70 bd bf 27 23 be
       0.076082475 -0.19325504 -0.058725264 -0.1593313
000180 ab 23 2a bd a5 fb 41 be bc cd a8 bd f3 2a 23 3e
       -0.041537922 -0.18943651 -0.08242366 0.15934353
000190 3e 79 4b 3e 4a c1 a1 bd 48 20 78 3e 8b 2c 24 3e
       0.19870469 -0.07898195 0.24231064 0.16032617
0001a0 e7 ad 84 bc 06 3c 1f 3d d8 14 09 be d0 c4 ec 3d
       -0.016196204 0.038875602 -0.13386858 0.115609765
0001b0 ed d7 67 be 62 e1 03 3d d7 d4 88 bd 74 2d 95 3e
       -0.22640963 0.032197364 -0.06681221 0.2913624
0001c0 b9 ee 65 3d 85 e2 56 be 91 bd 7a be 8f 19 33 3d
       0.056135867 -0.20984848 -0.24486376 0.043725546
0001d0 58 22 92 bd f1 2e 2e 3d 95 6c 73 3d 83 b5 39 3e
       -0.07135457 0.042525236 0.059429724 0.18135647
0001e0 0a 9a 41 3d 12 d3 90 3e 0d 20 be 3d cd 31 2f 3e
       0.047266044 0.28286034 0.09283457 0.17108841
0001f0 3f c1 30 3d 89 47 c1 3d 53 c8 33 3e da 26 19 3c
       0.043153044 0.094374724 0.17556886 0.009347642
000200 f3 ed 25 be 21 eb 39 bc cb fa 26 be 10 15 ba be
       -0.16204052 -0.011347563 -0.16306607 -0.36344194
000210 5a c8 cd 3e 8c 60 85 3b 68 2a b4 bd 33 c2 31 be
       0.4019192 0.004070347 -0.08797151 -0.17359237
000220 dc de 6c be 92 a8 10 3e ad 79 9e 3d 7c 9c 78 3d
       -0.23131889 0.14126804 0.077380516 0.06069611
000230 3a 67 a2 3d e8 97 48 3d 93 d3 2a 3e ef c9 3f 3e
       0.07929845 0.048972994 0.16682272 0.18729375
000240 e5 11 9d 3b 8a bd 25 bb e3 f2 e6 3d 51 1a cf bd
       0.004793393 -0.0025289976 0.11276796 -0.10112441
000250 3a 35 d5 3d a5 66 f8 3c c1 60 b7 3c a5 d5 9c 3e
       0.10410543 0.030322382 0.022385003 0.30631748
000260 5e 1d 90 bd bb 2b e1 bd ec b6 12 be 00 a5 42 be
       -0.07036851 -0.10994669 -0.14327592 -0.19008255
000270 61 c6 93 be 0a d9 40 3e d3 d8 3e 3e 0f 37 b4 3e
       -0.2886229 0.18832794 0.186374 0.35198256
000280 a7 a9 87 3e 58 3a 50 3e ce 8b 3b 3e 3f 4e 25 3e
       0.26496622 0.20334756 0.1831505 0.1614313
000290 ca 86 c4 3e fe 16 ae 3d c8 4b ad 3e 60 f2 1c be
       0.38384086 0.08500479 0.3384688 -0.15326834
0002a0 d7 1c 3f be 4e 27 04 bc ad 4f d0 bc 31 dd 74 3e
       -0.18663345 -0.008066012 -0.025428617 0.23912503
0002b0 2e a4 9c bc 54 99 1f be ca 88 82 be 69 b7 9f be
       -0.019121256 -0.15585834 -0.25494987 -0.31194618
0002c0 f9 85 1b 3e a8 3d 55 bc ac e4 a9 3e d8 c5 87 bc
       0.15187825 -0.013015188 0.33182275 -0.016573831
0002d0 b4 fa 2f be 5f f2 d6 3d 68 75 7d be de bd ae bc
       -0.1718548 0.10495447 -0.24751818 -0.02133077
0002e0 7d 76 f6 bd 97 a4 e7 3d 0d 4b f0 bd ca 81 0b bf
       -0.120343186 0.1131069 -0.11733065 -0.5449492
0002f0 58 a6 67 3d c0 c1 9d bd 83 35 ac be f0 3a 6d bd
       0.056555122 -0.077029705 -0.33634576 -0.057917535
000300 56 63 ac 3d c9 1b 09 3d f3 24 fb 3d 0b 03 6f 3e
       0.08417384 0.033473764 0.12262907 0.23341005
000310 80 d1 b2 3d 02 99 5d 3e 9d 72 45 3d 6f 5f 9b ba
       0.08731365 0.21640399 0.048205007 -0.0011854003
000320 58 93 93 bd 63 f6 96 3c 31 22 b7 3d 7d 9f 37 3e
       -0.07205838 0.018428033 0.08942068 0.17931934
000330 53 56 4a bc 19 4e 94 bc af 63 80 be 02 f0 a9 3e
       -0.012349683 -0.018103646 -0.25076053 0.33190924
000340 4d fe 47 3d e1 6d c0 be 64 79 95 bc 8a 71 cf bd
       0.048826504 -0.3758383 -0.01824636 -0.10129078
000350 8b 93 86 bc 9c a3 64 3e af b1 22 bd 12 52 a9 3b
       -0.016427776 0.22328037 -0.039720234 0.0051672542
000360 19 dc 01 3e fd d5 ff bd 73 95 ec bb 17 dd f7 3d
       0.12681617 -0.12491987 -0.007219964 0.121027164
000370 1c 34 9e be 71 87 2b 3c 64 b4 a3 bd dc fa 2f be
       -0.3089913 0.0104693035 -0.07993391 -0.17185539
000380 ea 48 81 be 48 d9 a0 bd 00 ac e0 3d b5 bd d8 3d
       -0.25250942 -0.07853943 0.109703064 0.10583059
000390 0c d9 45 be ee aa 00 be da 75 4b bc 12 6e 87 bd
       -0.19321078 -0.12565205 -0.012418235 -0.06612791
0003a0 dd c2 f3 3c 2d 81 38 3e 01 68 81 3e 9d 2e 3e 3e
       0.029756004 0.18018027 0.2527466 0.18572469
0003b0 e2 87 07 3e 33 7f 5b 3e b2 b5 ec 3d 2a 26 3f bd
       0.13235429 0.21435241 0.11558093 -0.046667255
0003c0 7f be cb 3d 39 10 0c bd dd 7f 24 3d 87 52 5d be
       0.099484436 -0.03419516 0.040161002 -0.21613513
0003d0 3d 75 a5 3c 59 90 21 3e 87 a4 31 3e cb c0 d1 bd
       0.020197505 0.1577772 0.17347918 -0.102418505
0003e0 fa 90 ff bd dd e1 bd bd 5f f3 99 be 8e d4 21 be
       -0.12478824 -0.092715956 -0.3006849 -0.1580374
0003f0 a2 97 5d 3d 65 23 bd bd f4 88 a3 3e bd 51 45 3c
       0.054099686 -0.092352666 0.31940424 0.012043414

lstm.weight_hh_l0 f4 [256, 64]
000000 dc 8c 28 3c 08 47 1c 3e e0 67 84 bc 17 2c 05 bd
       0.01028749 0.15261471 -0.016162813 -0.03251275
000010 ba 06 10 3e 66 61 8b 3e 82 9d 5c 3d 87 29 00 be
       0.14065066 0.27222747 0.05386115 -0.12515841
000020 3f 31 16 be fc f9 ac bd 54 06 fe 3c 31 75 1b bd
       -0.14667223 -0.08446118 0.031008877 -0.03795356
000030 36 05 25 3e 56 19 d9 bc 3f f6 b1 3c ff d1 9c 3d
       0.16115269 -0.026501339 0.021723865 0.07657241
000040 0a 5b 79 bd 63 d7 21 3e 34 55 83 3d 3e 68 85 bd
       -0.060877837 0.1580482 0.064127356 -0.06514023
000050 2c db 91 be 92 88 29 3e aa 01 bf bd ba e7 b7 bc
       -0.28487527 0.16556004 -0.09326489 -0.022449363
000060 aa 4f 40 bc 1d 4d 7c 3d 31 d0 80 bb 89 f2 7b 3c
       -0.011737743 0.06159698 -0.0039310683 0.015377649
000070 b1 f7 9b 3e cc db 2d bd df 7b 26 3e 79 0d b7 3d
       0.3046241 -0.042445943 0.1625819 0.089381166
000080 85 77 06 be 7d 34 39 3e a4 6c a2 3d 59 60 78 3e
       -0.1313153 0.18086429 0.07930878 0.24255504
000090 27 b7 bb 3d af 9a 35 be 61 f5 ca 3d 9b ec 84 be
       0.09165793 -0.17734788 0.099100836 -0.25961766
0000a0 38 38 c7 3d 6d bd 07 be 0a 85 34 3d 0a 6f 01 3e
       0.0972752 -0.13255854 0.04407219 0.12640014
0000b0 5f ed c9 bc 48 a7 12 3d f4 b6 e1 bd 46 b9 0f 3c
       -0.02464932 0.035804063 -0.11021224 0.0087722
0000c0 ea 1e 20 be 6f 57 8e 3c 37 37 b4 3b 4d 7e c5 3d
       -0.15636793 0.017375676 0.005499746 0.096432306
0000d0 39 d5 3d 3b eb 3b 18 bb c8 b2 95 3d 6b 33 0c be
       0.0028966202 -0.0023229073 0.073094904 -0.1369149
0000e0 44 61 6f 3e d6 5e 48 3e c1 4b 07 be d6 c7 27 3e
       0.23376948 0.19567427 -0.13212492 0.16384825
0000f0 b0 f2 0a be e9 36 98 bc 79 8d c0 bc 6b 83 48 bb
       -0.1356914 -0.01858087 -0.02350496 -0.003059591
000100 8a 60 0b be e7 a9 4f 3d da ed 3e 3b 9f 29 8d bd
       -0.13611045 0.05069914 0.002913347 -0.06892704
000110 c3 14 a6 be f8 85 30 be 2c ae 15 be 0f 60 1c 3e
       -0.32437715 -0.17238605 -0.14617223 0.15271018
000120 87 9d 90 3e e6 1b 9f 3c 0b a8 dc bc 2b b2 88 3e
       0.28245184 0.019422483 -0.026935598 0.2669843
000130 ea 4f 8b bd 9f ea a2 be 91 92 04 3e 51 e2 5a 3e
       -0.06802352 -0.31819627 0.12946536 0.21375395
000140 5f 8e 16 3f 1c ac 8a be 75 5c 99 be 44 6d 4e be
       0.5881099 -0.27084434 -0.29953352 -0.20158869
000150 bf bb 06 3e 17 a2 9b be 4b 18 9d 3e 64 0a 56 be
       0.13157557 -0.30397102 0.30682597 -0.20902401
000160 16 71 60 3d 83 4d 9c bd 20 90 5c be 51 e7 87 be
       0.054795347 -0.07631972 -0.21539354 -0.26543668
000170 8a a2 57 be 18 05 31 bd 58 67 9e 3d 3f cd 40 be
       -0.21058097 -0.04321775 0.07734555 -0.18828295
000180 eb 63 c7 3d 94 5b 29 be d6 df 55 bd d3 63 e2 bd
       0.09735855 -0.1653884 -0.05221542 -0.11054196
000190 82 4c dd bd 94 c3 44 3c 41 87 c7 3c 35 fd 8e be
       -0.10805608 0.01200952 0.024356486 -0.27927557
0001a0 fa 7a 06 3e cd f2 95 be f0 35 ba bd 75 98 6d be
       0.1313285 -0.29286805 -0.09092319 -0.23202689
0001b0 0d 31 b0 3e dd 04 02 3e de 02 49 be d9 47 2d be
       0.34412423 0.12697168 -0.1963 -0.16921939
0001c0 85 ab 0e be c8 3c 5b be 9c bd f7 bc 01 8c 69 3d
       -0.13932617 -0.21409905 -0.03024178 0.057018284
0001d0 99 b8 03 be 77 3d 0e be 68 61 03 bd da 2a 31 3e
       -0.12863387 -0.13890634 -0.032075316 0.17301503
0001e0 6b 49 2d 3b 75 0a 03 bf 02 68 66 bd a9 96 a3 3d
       0.0026441466 -0.5118783 -0.056251533 0.079877205
0001f0 3b f7 bc 3c 24 db 0f 3d 88 dc b3 bd f9 de 90 3d
       0.023067107 0.0351211 -0.087822974 0.07073779
000200 a8 01 e6 be ea b2 9f 3e 68 da 3e 3e 8c 14 7b 3e
       -0.4492314 0.31191188 0.18638003 0.24519557
000210 c8 7d 8d bd e9 ee 76 3d 1c ff 0e 3f ea c4 90 be
       -0.069087565 0.060286436 0.55858016 -0.28275234
000220 8d 9e 1a be f3 22 33 be 65 3b 26 be e7 0a b5 be
       -0.15099545 -0.17493801 -0.16233595 -0.3535988
000230 3c fb 58 bd 8f 5a fa bd 64 e1 05 be 3e 84 5b 3e
       -0.05297397 -0.12224304 -0.13074261 0.21437165
000240 ce 7d 5e 3e 5a 0d 22 3e c0 bf e4 3d 99 ea 80 bc
       0.21727678 0.15825406 0.11169386 -0.015736865
000250 22 63 01 3e 7e 17 27 3e d0 3b 66 bd 52 54 d4 bc
       0.12635472 0.16317555 -0.056209385 -0.025919113
000260 33 a8 30 3e c9 67 40 3e 7d b4 9a bc 7f 65 b2 3e
       0.17251663 0.18789591 -0.018884892 0.3484306
000270 f9 9c ed bc a4 15 b4 be 8e ee 9d 3d 22 38 6e 3e
       -0.029005514 -0.3517276 0.07711516 0.232636
000280 34 aa b6 3d 78 03 a4 3d 4b ce 91 be b1 32 16 3c
       0.089191824 0.08008474 -0.28477702 0.009167359
000290 cb 80 af 3d f1 f8 d8 3e 63 ac 15 3f 02 54 92 be
       0.08569487 0.42377427 0.58466166 -0.28579718
0002a0 b6 01 52 3e b8 dd 86 be 3a 16 92 3e 04 be 8a 3d
       0.20508465 -0.26341033 0.28532583 0.06774524
0002b0 30 52 2f bd 41 88 09 be f5 26 65 be 8f ec bf 3e
       -0.04280299 -0.13430883 -0.22378142 0.37485167
0002c0 c3 31 b7 bd 27 0b 34 be 86 dd e2 3c 82 82 46 be
       -0.08945038 -0.1758238 0.027693521 -0.19385722
0002d0 13 cc 9c 3d c4 50 47 be ad c5 bf 3e 7d ac e6 bd
       0.076561116 -0.19464403 0.37455502 -0.11263368
0002e0 8e db 93 3e 46 7f 17 3e 69 82 43 be cd 0d 6e 3d
       0.28878444 0.14794645 -0.19092716 0.05811863
0002f0 e2 d6 5e be 77 ef 3c 3e 0f 94 40 3f 95 89 8b bd
       -0.21761659 0.18450724 0.7522592 -0.06813351
000300 a0 23 69 be 42 a7 a0 3e ea 0e 8f bd 9d 94 e2 bd
       -0.22767496 0.31377608 -0.069852665 -0.11063502
000310 09 2a 39 be 90 d3 99 bd 86 ec f6 3d 90 10 86 bc
       -0.18082441 -0.075110555 0.12056832 -0.01636532
000320 22 3f 30 3c ed b9 aa 3d f6 51 c2 bd d5 39 36 3e
       0.01075724 0.08336244 -0.09488289 0.17795499
000330 2f b3 b8 bd 86 31 94 3d 60 e6 09 bd af 73 c4 3c
       -0.090185516 0.07236008 -0.03366697 0.023980943
000340 9c aa b4 bc 7e b8 af bc b5 b4 c5 bb e7 8e c7 be
       -0.02205401 -0.021450277 -0.006033505 -0.38976213
000350 9d e4 fb bd 26 fd dc 3d ee 3b 32 3d 8f 1e e1 3d
       -0.12299464 0.10790472 0.043514185 0.10992157
000360 7c e6 3b 3d 3d 7d 46 be c2 74 19 be df ec ed 3c
       0.045874104 -0.19383712 -0.14985946 0.029043613
000370 a8 71 92 bd 0f f6 1a 3e 23 5d 44 be 47 66 81 3e
       -0.071505845 0.15132926 -0.19176154 0.25273344
000380 f7 f0 b6 3b 1a e1 c5 bd 01 95 a2 be cb 99 2c bd
       0.0055829245 -0.09662075 -0.31754306 -0.042138856
000390 10 d6 20 be d6 c3 fe bc 2e 9b 1a bc d6 01 a3 3e
       -0.15706658 -0.031099241 -0.009436412 0.31837338
0003a0 f2 ab 99 3e e6 9e e5 bd 09 6c 02 3e be 25 a6 bd
       0.30013996 -0.11211948 0.12736525 -0.081126675
0003b0 bd ca 0f 3e 28 23 33 3e eb e9 f3 bd 49 7b 84 be
       0.14042182 0.1749388 -0.11909851 -0.2587531
0003c0 18 c0 09 3d 58 50 3e 3d de c1 dd 3d 03 98 55 3d
       0.03363046 0.04646334 0.10827993 0.052146923
0003d0 a8 1c 28 3d 67 23 2c bd e9 da 8b 3c 45 8a 2c 3e
       0.041042954 -0.04202595 0.017072158 0.1684962
0003e0 6b 05 b3 be a8 1a b6 be e8 95 22 be 95 9a 0f 38
       -0.3496507 -0.35567212 -0.15877497 3.4237823e-05
0003f0 f0 35 29 3e 1e 32 41 38 96 37 25 bd b2 09 59 3e
       0.16524482 4.606146e-05 -0.040336214 0.21195105

lstm.bias_ih_l0 f4 [256]
000000 ea ad 0e be 77 ac c1 be 31 05 70 be 88 7b e5 bd
       -0.1393353 -0.37826893 -0.2343948 -0.11205202
000010 1f 4d 5c be 94 69 ce be 4f df b9 be c3 41 07 3e
       -0.21513794 -0.40314925 -0.36303183 0.1320868
000020 71 f5 3f be 63 d1 14 3d f2 57 0a be 26 f9 2c bf
       -0.18745972 0.0363325 -0.13510111 -0.6756767
000030 79 de 47 3e bf 16 a3 be ce a7 a6 be 6e bd d9 be
       0.1951846 -0.3185329 -0.325499 -0.42527336
000040 ea b7 a1 be 13 3a 21 be 12 dd 09 be 96 6a 3f bd
       -0.31585628 -0.1574481 -0.13463238 -0.046732508
000050 f2 54 3f 3d 0a 16 df be 2c 78 b7 bd 54 25 f6 be
       0.04671187 -0.43571502 -0.08958468 -0.48075354
000060 36 1d cd be 03 e1 ad be ef bd fb bc 69 a0 a5 bc
       -0.4006135 -0.33960733 -0.030730216 -0.020218091
000070 5b 20 f6 be 8d 42 51 be 5c 00 c4 be 4b ea b9 be
       -0.4807156 -0.20435543 -0.38281524 -0.36311564
000080 40 4d 9d 3c 88 4b 3d be 24 86 11 be a1 84 bc be
       0.019201875 -0.18485844 -0.14211327 -0.36819938
000090 b7 e1 c1 be 90 2a 1a bf 75 7a b2 be 4d de 70 be
       -0.3786752 -0.60221195 -0.34859052 -0.23522301
0000a0 d2 73 d5 3c 48 52 02 bf 93 f1 3c 3c 89 b8 84 be
       0.026056204 -0.509068 0.011532205 -0.2592204
0000b0 31 47 9a be 73 62 02 be 12 fe a3 bd 7e 93 fa bd
       -0.3013244 -0.12732868 -0.080074444 -0.12235163
0000c0 f7 77 4e be 69 4b 49 be 6e 32 40 be aa 9f 33 b8
       -0.2016295 -0.19657673 -0.18769237 -4.2825624e-05
0000d0 3c 79 21 3a 61 42 bb 39 a4 37 88 bd 79 27 1d bf
       0.0006159728 0.00035716876 -0.066512376 -0.61388355
0000e0 f2 07 10 bf d9 54 b8 be 37 f6 b7 be cc 64 51 3d
       -0.56262124 -0.36002234 -0.35930035 0.051121518
0000f0 a2 87 66 be 9c a7 c6 be 64 43 9c be e8 3f ee bd
       -0.22512677 -0.3879975 -0.30520165 -0.11633283
000100 96 59 71 be 12 d4 2f 3d f7 f1 49 3e 1b 6c 62 3b
       -0.2356933 0.042926855 0.19721209 0.00345493
000110 93 22 d1 bd d1 fa 92 bd a2 fc 0a be 82 59 e7 bd
       -0.10211673 -0.07176746 -0.13572934 -0.11296369
000120 9e 27 ab bd c2 d7 45 3d dd ee 0b 3c 9c 7e af be
       -0.08357166 0.048301466 0.008540836 -0.34276283
000130 bd f8 c3 3d 6d fb 86 3d be 80 65 be 97 99 c1 be
       0.095689274 0.065909244 -0.22412392 -0.37812492
000140 91 7d 24 be 82 fc a6 bc f4 0f db bd 7a 66 5c 3d
       -0.16063525 -0.020384077 -0.10696402 0.053808667
000150 b0 44 06 be 6b 2c 8c bd cd 99 ed bd 6e d6 81 be
       -0.1311214 -0.068444096 -0.11601601 -0.2535891
000160 0e 07 4f be 59 3e 22 3e a2 21 20 ba 81 75 c1 bd
       -0.20217535 0.15844096 -0.00061085273 -0.0944624
000170 2c b5 03 bf e8 a3 7a 3d 5b 06 31 be 05 b3 ad be
       -0.5144832 0.06119147 -0.1728758 -0.33925644
000180 cf 25 93 bc 2b fb bb bd 44 67 24 be 3a 61 e8 bd
       -0.017962364 -0.09178766 -0.16055018 -0.113466695
000190 bb 18 29 3e 1b 02 b2 be a7 ce 3e be e9 9b 9b bd
       0.1651334 -0.3476723 -0.18633519 -0.07598097
0001a0 b7 38 e2 bd 77 0c 14 be d7 26 a7 3c 05 03 a9 bd
       -0.11045974 -0.1445788 0.020404262 -0.08252529
0001b0 c3 24 21 be 95 b1 6e bb 3d 28 62 be 2f 31 64 bd
       -0.1573668 -0.0036421765 -0.22085662 -0.055710968
0001c0 5b 5f 68 be 63 fe 18 3c d1 17 89 be 5a 50 88 3c
       -0.22692625 0.009337994 -0.26775983 0.016639877
0001d0 d8 a8 46 be b3 a2 92 3c 51 c7 b2 bd b2 ff 9b be
       -0.19400346 0.017899847 -0.08729423 -0.30468518
0001e0 23 77 78 be ef bb 9f 3e 90 22 6b bd 0b c9 55 be
       -0.24264197 0.3119807 -0.05740601 -0.20877473
0001f0 cc 38 8b be b2 6c 2a be 1a 77 87 be 76 80 9a 3d
       -0.2719177 -0.16643026 -0.26458055 0.07544033
000200 b5 1f bd 3d a7 d8 24 be 3b cd a5 bb 79 b7 02 3e
       0.09234563 -0.16098271 -0.005059866 0.12765302
000210 2f e6 3c 3d a5 36 fd 3d 73 43 57 be 4a 9e fe 3d
       0.046117958 0.12363938 -0.21021824 0.12432535
000220 1e 3f 16 3c 12 96 35 3e dd dc 89 bc 9f 3b 63 bd
       0.009170322 0.17733029 -0.016828949 -0.05547678
000230 b1 b5 aa 3c 06 f5 02 be 07 ce a0 bc d5 da bb bd
       0.02083859 -0.12788782 -0.019629491 -0.09172598
000240 1b 81 f0 bd 7d 7b 7c bd 67 08 ff bc aa 8e 11 be
       -0.11743375 -0.061641205 -0.031131936 -0.14214578
000250 e5 0f d7 3c d9 d4 29 be e4 58 45 bd 07 ca 15 3e
       0.026252696 -0.16585101 -0.048180476 0.14627849
000260 42 a0 44 be cf bd 69 bc 76 1b 4b 3d 45 d9 f1 3c
       -0.19201759 -0.014266445 0.049586736 0.029522547
000270 8b e1 09 3e 55 cb 04 3e ed 72 69 3c 04 6a 73 bd
       0.13464944 0.1296819 0.014248592 -0.059427276
000280 9b 14 11 3e 4a fc 6f bd 85 42 bf 3c d4 36 d1 3c
       0.14168017 -0.05859021 0.023347149 0.02553884
000290 76 e4 b1 3d 83 30 95 bd 5e 38 25 be 45 12 16 3e
       0.086861536 -0.072846435 -0.16134784 0.14655407
0002a0 b9 a9 73 bd 24 60 1d 3e ec 57 e9 ba af 65 1f 3e
       -0.059488032 0.15368706 -0.0017802692 0.15566133
0002b0 93 06 c8 3d 14 cc ff bd ae 44 02 3d de 8e ca 3d
       0.09766879 -0.12490097 0.03180378 0.09890531
0002c0 89 b9 81 3d e9 b8 71 bc 34 0f c1 3d c9 4a c4 bb
       0.06334216 -0.014753559 0.09426728 -0.0059903604
0002d0 56 a5 50 be 0e d8 df 3d 4e 21 9f 3d 05 a3 27 3e
       -0.2037557 0.10929881 0.07770024 0.16370781
0002e0 dd 68 83 bc 9f 3b 18 3e c7 0a f4 3d 4f 73 c3 3c
       -0.016041214 0.14866494 0.11916118 0.023858694
0002f0 2a 69 ba 3d 79 64 2e bd 66 51 a0 be fc 3e a2 bd
       0.0910209 -0.042576287 -0.31312102 -0.079221696
000300 45 8b 4a bd 60 c0 13 be b1 de 5e 3d d8 6d 17 be
       -0.049449224 -0.14428854 0.054411594 -0.14787996
000310 b7 60 44 be f8 f4 e9 be fa 55 c1 be d0 fc be 3d
       -0.19177519 -0.4569471 -0.37760907 0.09325564
000320 9f ce 3d be 55 0b 02 bd 0a c7 13 be cd 53 33 bf
       -0.18535851 -0.03174909 -0.14431396 -0.70049745
000330 bb 6c 5c 3d 22 d1 c2 bd b2 0c 6b be 75 27 f0 be
       0.05381463 -0.09512545 -0.22954062 -0.46905103
000340 bc 62 12 be e6 bb cc be 8a 7a 02 be 15 26 7a 3d
       -0.14295477 -0.39987105 -0.12742057 0.061071474
000350 c2 35 cf be 4d 0a ed be 29 8c a8 bd 1a 78 31 bf
       -0.404707 -0.4629692 -0.082298584 -0.69323885
000360 01 84 81 be aa d2 81 be d6 b8 bb 3d ee a7 8d 3d
       -0.25296023 -0.25356036 0.09166114 0.06916796
000370 2f 00 11 bf b9 86 a6 3c 67 01 94 be 8c 59 7e be
       -0.56640905 0.020327913 -0.2890732 -0.24838847
000380 d8 50 9f bd 8f b1 43 be c1 24 58 be e6 8e bd be
       -0.077790916 -0.19110702 -0.2110777 -0.37023085
000390 33 5e fb bb 9e ce d4 be 98 a8 5f be a3 47 27 be
       -0.0076711415 -0.41563886 -0.21841657 -0.16335921
0003a0 c1 86 3d 3d 2c df 01 bf 5a 68 f7 bd fc 61 41 be
       0.04627109 -0.5073116 -0.1208045 -0.18885034
0003b0 35 0b cd bd ea 20 6a be a6 d0 08 be 7e b9 87 bd
       -0.10011903 -0.22864118 -0.13360843 -0.06627177
0003c0 cd 19 88 be dc 7f 97 bd eb 0b ae bc 45 4d 1f 3e
       -0.26582184 -0.07397434 -0.021245917 0.1555682
0003d0 62 7b 42 3d 73 9e c0 3d e4 2b e5 3c ad ac 0b bf
       0.04748095 0.09405222 0.02797503 -0.5456036
0003e0 83 b5 1b bf ec 13 93 3d e6 09 b3 be b8 98 da bd
       -0.6082384 0.07181534 -0.3496849 -0.1067366
0003f0 08 63 57 be 84 91 c4 be 9a 29 08 bd 67 1b 67 3d
       -0.21033871 -0.3839227 -0.0332428 0.056422617

lstm.bias_hh_l0 f4 [256]
000000 5b c1 97 be 22 31 90 be c6 9d 82 be c3 a3 f1 3d
       -0.29639706 -0.28162485 -0.25510997 0.11798813
000010 36 e1 c4 be cb 9b ff be fc c0 44 be 79 03 18 3e
       -0.38453072 -0.49923548 -0.19214243 0.14845075
000020 4e 16 2f be 30 38 b5 bb 22 df 82 be 56 19 4a bf
       -0.17098352 -0.0055303797 -0.25560862 -0.7894491
000030 d5 61 b0 3d c8 56 79 be a7 70 bc be 4e 5a 0e bf
       0.0861241 -0.2434951 -0.36804697 -0.55606544
000040 e2 82 aa be 49 cc 10 bd b6 7d 52 be 63 02 bf bd
       -0.3330298 -0.03535107 -0.20555767 -0.09326627
000050 63 5b 04 3b 89 54 b3 be 47 91 be bd bf ef 2d bf
       0.0020196072 -0.35025433 -0.09305053 -0.6794395
000060 7d 12 d7 be f3 b5 2c be 27 69 a9 bd b5 c5 3a be
       -0.42006293 -0.16866283 -0.08272009 -0.18239482
000070 de 17 d3 be 98 f1 87 be 63 b6 94 be 68 d4 c7 be
       -0.41229147 -0.2655151 -0.290454 -0.3902924
000080 20 59 f7 bd 54 cd 3d bd 7e 81 8d be b1 c8 b4 be
       -0.12077546 -0.046338394 -0.27637857 -0.35309365
000090 a9 c6 9c be 87 7d 11 bf 9c d6 78 be 51 a8 03 be
       -0.30620316 -0.56832165 -0.24300617 -0.12857176
0000a0 6a 34 b3 3c 76 5f 01 bf f6 31 3c bb d0 56 ac be
       0.021875579 -0.50536287 -0.0028716302 -0.33659983
0000b0 08 61 be be 5d 56 31 be bf 54 a6 bd 9e 4f 8e be
       -0.37183404 -0.17318101 -0.08121633 -0.27795118
0000c0 00 ae eb bd db 41 8d be fe d8 9d be 7e 1e ab bd
       -0.11507797 -0.27589306 -0.30829614 -0.08355425
0000d0 3a 10 0a 3e bb db fa bc aa 5f cc bc c1 06 eb be
       0.13482752 -0.030622354 -0.02494796 -0.4590359
0000e0 c8 f0 08 bf 83 f9 02 bf 92 90 93 be 3e 2d 46 bd
       -0.53492403 -0.51161975 -0.28821236 -0.04838299
0000f0 20 e3 0d be f0 fb bf be 07 c5 8d be e0 c5 61 be
       -0.13856173 -0.374969 -0.27689382 -0.2204814
000100 e4 1a 75 be 13 e4 06 bd c3 44 2f 3e 8e 13 d6 bd
       -0.23936039 -0.032932352 0.17116074 -0.104529485
000110 ac 69 16 be 3a b7 05 bd 15 ff 8b bc 0c 59 14 be
       -0.14688748 -0.03264544 -0.017089406 -0.14487094
000120 65 52 72 bd fb a0 4c 3d 25 25 3c bd 42 e0 b6 be
       -0.05916061 0.04995821 -0.04593386 -0.3571797
000130 fe 1b 78 bd 0b 6c 15 bd 97 60 58 be 7e a3 b7 be
       -0.06057357 -0.03647999 -0.21130596 -0.35866922
000140 40 4b c1 bd 26 ab 0f bd ab a6 3e bd bd 9e 46 3d
       -0.09438181 -0.03507533 -0.046545666 0.04849123
000150 98 78 75 be a0 f6 2a bd f5 5a af bc 24 40 92 be
       -0.23971784 -0.041739106 -0.021405676 -0.2856456
000160 98 8e a9 be f1 eb 87 3e e5 45 bb 3d 34 84 17 be
       -0.33116603 0.26547197 0.09144191 -0.14796525
000170 90 c0 e9 be 8e 9b f9 bc 47 9f a1 be 62 8d a1 be
       -0.45654726 -0.030469682 -0.3156683 -0.3155318
000180 5c 93 58 3a c0 2f 99 3c 8e 49 bf bd 17 0a d3 3c
       0.00082617044 0.018699527 -0.09340201 0.025761647
000190 a3 fa ae 3d d2 7f b1 be 5c 92 89 be 89 52 a5 3c
       0.08543899 -0.34667832 -0.26869476 0.020180957
0001a0 95 f6 c8 bd 5f 85 34 be 4e 95 c1 bd d0 1c 50 be
       -0.09812657 -0.17629002 -0.09452306 -0.20323491
0001b0 22 ca 3e be b7 a2 0b 3e e6 ea 1d be b5 31 35 3d
       -0.18631795 0.1363629 -0.15421638 0.044236857
0001c0 e7 55 fd bd 39 7e e1 bc 81 93 38 be 80 cc a4 3c
       -0.123699 -0.027526008 -0.18025018 0.020117044
0001d0 63 1e 01 be cc a3 01 be d9 7e 0c be 15 37 20 be
       -0.12609248 -0.1266014 -0.13720264 -0.15646012
0001e0 16 35 95 be c4 37 de 3e 9e 42 2a be 10 29 34 bd
       -0.29142064 0.4340192 -0.16626975 -0.043984473
0001f0 56 23 59 be e2 f9 7f bd e1 3d ff bc 1a a7 4b bd
       -0.21204886 -0.062494166 -0.031157436 -0.049719907
000200 5b 60 41 3d c0 8d f6 3c 36 ae a6 3d 27 f0 7c 3d
       0.047211032 0.030096889 0.08138697 0.061752465
000210 28 74 92 3d a3 a9 80 3d 88 ef 67 bd 31 90 a1 3d
       0.07151061 0.06282356 -0.05662492 0.078888305
000220 97 47 9f 3b 78 d3 4a 3d b6 a5 b9 bc cd 2d 13 bd
       0.004860829 0.04951808 -0.022662025 -0.03593235
000230 12 a7 15 bd 2f 84 94 bd 65 68 2a 3d 10 70 26 be
       -0.036536284 -0.072517745 0.041603465 -0.16253686
000240 54 0c 76 3c 2b d8 b9 3d e5 88 fd bd 0e e9 56 be
       0.015017588 0.09074434 -0.12379626 -0.20987341
000250 97 b9 a7 bb 05 ee 3c bc 92 e7 01 be 4f fa d2 3b
       -0.0051185596 -0.011531358 -0.12685993 0.0064385305
000260 83 52 1c be bc d5 b3 bc de 8f cb bd 05 23 71 bc
       -0.1526585 -0.021952502 -0.0993955 -0.014717822
000270 a5 23 95 3c 8b 90 11 3e 7c b9 1a 3d d3 5f 6f 3c
       0.018205473 0.14215295 0.037774548 0.014610249
000280 bd aa 9f bd 7a 41 90 3c 21 32 ec 3d f6 70 0c 3e
       -0.077962376 0.017609347 0.11532999 0.13714966
000290 b2 89 94 bd d9 d6 de bd cc 07 5d be ac 1f 09 3e
       -0.07252826 -0.10880823 -0.21585006 0.13390988
0002a0 b0 6c 91 3d 4d 7a dc 3d f6 6d 11 bd b5 7a 9a 3d
       0.071008086 0.107655145 -0.035505258 0.07542936
0002b0 a0 4d f6 bb 05 94 3d bc df d9 d0 bd c5 04 37 3d
       -0.007516578 -0.011570935 -0.101978056 0.044682283
0002c0 c0 7d 18 be e8 7a 20 3d 92 de 9a 3b 6b 8b 1b 3d
       -0.1489172 0.039179713 0.0047262395 0.037974756
0002d0 32 c7 12 be a1 54 1a 3e a1 32 a9 3d 70 d9 aa 3d
       -0.143338 0.15071346 0.0826161 0.08342254
0002e0 96 c4 c9 bd d7 1e ff 3c 2d c0 62 3d b4 76 0b 3d
       -0.09851949 0.031142635 0.055359054 0.03404875
0002f0 cb 32 12 3e 19 39 ed 3c cc 8e ed bd 18 27 01 3a
       0.14277188 0.02895789 -0.11599502 0.0004926785
000300 55 0e 26 bd a5 24 8f be 90 3e 20 3d 31 ef 66 3d
       -0.04054101 -0.27957645 0.039122164 0.056380454
000310 38 9c 66 bd 9e 2e c1 be 01 7d cc be 58 55 80 3e
       -0.056301326 -0.3773088 -0.3993912 0.25065112
000320 d0 da cb bd b8 4f 0c 3b ba 2e a6 be 62 57 1c bf
       -0.099538445 0.002140982 -0.32457525 -0.61070836
000330 53 3d 17 3e 4d b6 ff bd 33 02 00 be 5c 3e 16 bf
       0.14769487 -0.12485943 -0.12500839 -0.586889
000340 21 db 50 be 90 86 80 be d3 58 0e bd 26 58 05 3d
       -0.20396091 -0.25102663 -0.034752678 0.032554768
000350 69 75 71 be a4 8f a8 be 79 eb 34 bd f6 26 07 bf
       -0.23579945 -0.3292209 -0.044169877 -0.52793825
000360 7f dc 77 be b0 c4 12 be d2 2e ac 3d 94 75 85 3d
       -0.24205206 -0.14332843 0.08407368 0.06516567
000370 7a 81 16 bf c1 ea 07 be 95 af 86 be 10 2c 7a be
       -0.58791316 -0.13273145 -0.26305833 -0.24430871
000380 42 35 43 bc c2 86 36 be 0e 46 33 be 74 97 49 be
       -0.011914553 -0.17824844 -0.17507192 -0.19686681
000390 c1 e5 d0 bd dc 3b 12 bf 0c d3 2e be 8b 28 05 be
       -0.10200072 -0.5712259 -0.17072695 -0.13003747
0003a0 6e 65 19 3d e8 d8 02 bf 86 39 07 ba 2e 0d b8 bd
       0.037450247 -0.5111222 -0.0005158413 -0.08986889
0003b0 59 73 99 bd 8b ae 19 be 0f 16 18 be 65 b7 00 be
       -0.07492704 -0.15007989 -0.14852165 -0.1256996
0003c0 00 51 5f be a0 23 59 be 80 27 37 be ef 55 36 3e
       -0.21808243 -0.21204996 -0.17886162 0.17806219
0003d0 6f 29 a5 bd 1a 9f 12 be b8 66 ef bd b7 07 f2 be
       -0.080645435 -0.14318505 -0.11689514 -0.4727151
0003e0 97 5c fc be 5b 47 75 3d fa 0b 67 be 7a fc 18 be
       -0.4928939 0.059882503 -0.22563162 -0.14940062
0003f0 37 72 b1 be fb 71 a6 be 20 3a 54 be df 82 ee bd
       -0.34657452 -0.32508835 -0.20725298 -0.116460554

lstm.weight_ih_l1 f4 [256, 64]
000000 1a a7 4b bd a6 7c 04 be 13 ac 0c 3d 33 25 28 be
       -0.049719907 -0.12938175 0.03434379 -0.1642044
000010 52 79 49 be 60 c1 b5 3c 28 37 4d 3e 81 68 d1 bc
       -0.19675186 0.022186935 0.20040572 -0.025562527
000020 f9 c4 2b bd f9 7f 00 3e 04 14 b0 bd 43 57 35 3e
       -0.041935895 0.12548818 -0.08597568 0.17709069
000030 55 c1 1e 3d 5b 89 cf bd 68 69 ae 3b ca ae ab bc
       0.038758595 -0.1013362 0.005322624 -0.02095737
000040 11 70 82 3e c4 7c b4 bd 7e 0f 3d be b6 2b 2d 3e
       0.25476125 -0.0881286 -0.18462941 0.16911206
000050 43 6c b1 3d 61 6b 2f be 0a 1b 87 3e 65 eb 00 3e
       0.086632274 -0.17130806 0.26387817 0.12589796
000060 01 b9 34 3c 27 09 2a 3c e8 2f 1a be ab 4d d8 3d
       0.0110304365 0.010378159 -0.15057337 0.10561689
000070 b7 c3 e0 bd 71 ac 1d 3d 0d 35 51 be 44 ab c6 3d
       -0.1097483 0.03849453 -0.20430394 0.09700635
000080 3a c1 dc bc 8e 9b c9 bc 49 fb d9 bc 13 f0 ef bd
       -0.026947606 -0.024610307 -0.02660908 -0.117157124
000090 7a df a0 bd d3 7d 85 3d ca b6 2d 3e 87 ce 05 bd
       -0.07855125 0.0651814 0.1696426 -0.032667663
0000a0 ee 61 33 3c 94 ff b1 bd 22 a8 a0 3c 41 84 73 bd
       0.010948641 -0.08691326 0.019611422 -0.0594523
0000b0 91 4e b7 3d e5 f3 2e bc 22 c0 cf bd 86 7f d2 bd
       0.08950532 -0.010678266 -0.10144068 -0.102782294
0000c0 4c 8e d3 3d 3d 0c 8f bd 64 83 fb bc e2 b3 4c bd
       0.10329875 -0.06984756 -0.0307023 -0.049976237
0000d0 cd 86 43 be fd 87 cb bd c0 1a 00 3e 32 77 aa bd
       -0.19094391 -0.09938047 0.12510204 -0.08323516
0000e0 61 2f 1f be b9 45 14 3d 9c ad 73 bd 4c c8 b7 3d
       -0.15545417 0.036199305 -0.05949174 0.089737505
0000f0 92 1a 84 bd ff c2 f4 bd 6d 02 35 bd bc 84 01 3e
       -0.064503804 -0.11951255 -0.044191767 0.1264829
000100 dc a0 2d be 71 66 bc bc 5e c3 08 3f 9e 83 67 bd
       -0.16955894 -0.022998067 0.53423107 -0.056522004
000110 7e 00 1d be 05 b5 90 be fd 84 a4 3e f5 04 d9 3d
       -0.15332219 -0.28263107 0.32132712 0.105966486
000120 a7 c5 71 3d c7 13 28 3e d2 f0 02 be e9 c1 e9 be
       0.059026387 0.16413794 -0.12787178 -0.45655754
000130 07 e9 9a bd cb 1e 54 be d4 81 48 3e 0b 7f 0c be
       -0.07563978 -0.20714872 0.19580775 -0.13720338
000140 92 3a 28 3f 6d 14 81 3b 13 5d e1 3d ee 9c 04 3e
       0.6571437 0.0039392025 0.110040806 0.12950489
000150 50 0b 2b 3f c7 0e 93 be 44 01 00 3f 2d 1c 5b be
       0.66814137 -0.28722212 0.5000193 -0.21397467
000160 da 41 ab bd 72 48 5c 3e 77 e0 09 3e 3e 02 73 be
       -0.083621696 0.2151201 0.13464533 -0.23731324
000170 13 05 06 be 88 ba 67 bd ea c0 8e 3e 71 4b 3a be
       -0.13087873 -0.056574374 0.27881557 -0.18192841
000180 a7 b0 c8 3e 6c 3e 05 3e c7 50 21 3e a4 6b 2d be
       0.39197275 0.13012093 0.1575347 -0.16935593
000190 1d 7c 46 bd 7c e0 d0 3e 33 74 eb 3d 30 27 8c be
       -0.048458207 0.40796268 0.114967726 -0.27373648
0001a0 f2 0e 9f bc f0 4e f1 be b2 0b 5c 3c f9 55 2e bf
       -0.019416306 -0.47130537 0.013430523 -0.68099934
0001b0 09 52 d6 bd 4b 6b f0 bc c2 3d 9e be dd 95 2d 3e
       -0.10464866 -0.029348036 -0.30906492 0.169517
0001c0 f0 09 40 bc 1f 14 f1 bd 59 9a 41 bd 99 02 42 3e
       -0.011721119 -0.11771416 -0.047266338 0.18946303
0001d0 3d 89 46 be 28 74 88 be 7b d5 a3 3d f3 7c a1 3d
       -0.1938829 -0.2665112 0.079997025 0.0788516
0001e0 72 c3 f8 3d 5e dc 69 be f3 3c 6f be a6 27 59 3d
       0.12146653 -0.2283797 -0.23363094 0.053016327
0001f0 a0 56 c1 be 24 c2 99 3d a4 1c 35 be 1f 83 75 be
       -0.37761402 0.075077325 -0.17686707 -0.239758
000200 97 a3 94 bd 24 7e 58 be 28 03 04 be b2 a7 e3 bd
       -0.07257765 -0.21141869 -0.12891829 -0.1111597
000210 a6 65 ae bd b3 58 a8 3c 25 26 10 3d 40 58 a4 3d
       -0.08515482 0.020550108 0.035192627 0.08024645
000220 63 5e f2 bd 8f 5c 88 bd 5c 63 8a bd b0 ec 37 3e
       -0.11834409 -0.06658279 -0.067572325 0.17961383
000230 e7 88 9a bd 2d 30 ad bc 74 7e 61 be b0 09 d1 3c
       -0.07545643 -0.021141136 -0.22020894 0.025517315
000240 bf ae 75 3d d6 7b 1e bd 93 e2 88 bc 9b a8 d0 3d
       0.059981104 -0.038692318 -0.016709602 0.10188409
000250 b0 8a 2a be 92 f2 1c 3e a6 55 b8 bc de ba de 3c
       -0.16654468 0.15326908 -0.022501778 0.027188715
000260 ac 54 45 3e 78 2a 1e bd 47 49 f3 bd da ef 80 bd
       0.19270581 -0.03861472 -0.11879211 -0.06295748
000270 d7 19 1f 3d ca ed dc bd 93 ce f7 bd 5d df 23 3e
       0.038843002 -0.10787542 -0.12099948 0.16003175
000280 06 e9 cf bd 5e 46 c8 bd 42 f0 ee bd e2 3a 27 be
       -0.101518676 -0.097790465 -0.11666919 -0.16331056
000290 45 ed 49 bb 82 ff 95 3d 8a c7 04 3e f8 0d 04 bd
       -0.003081159 0.07324125 0.12966743 -0.032239884
0002a0 4b e9 1c 3e 33 9b 98 3c 54 75 cc bc 3b b4 04 3d
       0.15323369 0.018628692 -0.02495829 0.032398444
0002b0 3b 16 a2 bd 45 36 1c 3e d5 77 17 3e 35 48 20 3c
       -0.079143964 0.15255077 0.14791806 0.0097828405
0002c0 83 64 71 3b 0c 79 f4 bd 62 74 be 3d c6 cd 3d 3a
       0.0036833591 -0.1193715 0.09299542 0.00072404405
0002d0 1a 0a ad bd c2 5f 04 bd 03 a1 08 bd f6 0e 21 be
       -0.08449192 -0.032317884 -0.033356678 -0.15728363
0002e0 a1 25 b0 bb a4 f4 c0 3d 32 42 a2 3d 01 a4 35 bd
       -0.0053755795 0.094216615 0.07922782 -0.04434586
0002f0 38 88 c6 3c 11 6b 80 bd 6e 44 35 3e 1b 40 1b 3e
       0.024234876 -0.06270421 0.17701885 0.15161173
000300 e0 5a f2 3d b0 6e 18 3e 8b 05 56 3d 11 71 08 3e
       0.11833739 0.14885974 0.05225138 0.13324381
000310 af a0 5f 3e ba 0d 8f bd 63 54 92 3d 5d de 40 bc
       0.2183864 -0.0698504 0.07145002 -0.011771766
000320 80 59 80 3d 7e 1c 0f 3e b3 44 9b bd 90 02 86 3e
       0.06267071 0.13975713 -0.07581463 0.2617383
000330 cc f7 b9 3c 2a 42 86 3d bb 24 40 be 86 11 16 3d
       0.022701167 0.065555885 -0.18764012 0.036637805
000340 77 5f f1 bd 2a 6e fb bd 08 a1 86 bd 34 f0 a7 be
       -0.117857866 -0.122768715 -0.06573683 -0.32800448
000350 8d df 12 3e 3b 98 b6 3e 8c d5 72 be 92 cd ea 3e
       0.1434309 0.35663018 -0.23714274 0.45859963
000360 b7 0b 0f 3e cc fc 8b 3d 70 5e 36 3e 26 9d 08 bc
       0.13969313 0.068353266 0.17809463 -0.008338248
000370 54 b1 f9 bd 05 74 0f be ad a3 ca be 8c 46 62 bc
       -0.12192026 -0.14009102 -0.39578 -0.013810765
000380 75 bf 0b be f8 de f7 bd f3 30 3a 3e d4 ab a2 bd
       -0.13647254 -0.12103075 0.18182735 -0.0794293
000390 2e c5 6e bd aa f8 63 3e 99 62 f4 3d 7e be cd 3c
       -0.058293514 0.22262827 0.119328685 0.025115248
0003a0 b9 c8 a5 be 21 b4 f8 bd 72 2d 20 3e 97 21 45 3e
       -0.32379702 -0.12143732 0.15642336 0.19251095
0003b0 35 8a 45 3d 2d 19 88 3e 8e 48 2d 3e df 5f 5f bd
       0.048227508 0.26581708 0.16922209 -0.05453479
0003c0 9a dd 96 3e ab f1 eb 3d ed 95 cd 3d 50 95 93 be
       0.29465944 0.11520704 0.10038362 -0.28824854
0003d0 94 9e 9c 3d f0 26 18 be 71 5c 99 bd 78 3f 0e bd
       0.07647434 -0.14858603 -0.07488335 -0.034728497
0003e0 48 aa 04 3e 10 c6 0a 3e 8e cd 0c 3d 06 66 66 be
       0.12955582 0.13552117 0.03437572 -0.22499856
0003f0 24 d8 fa bc 0c 79 b4 bd 9f d9 a6 3d 66 7c 54 3e
       -0.030620642 -0.0881215 0.08146977 0.20750579

lstm.weight_hh_l1 f4 [256, 64]
000000 be 2e 2c 3d 72 e5 a7 3d 9c 90 2a bd 0e 42 3c 3d
       0.042036764 0.0819806 -0.041641816 0.045961432
000010 e7 2f 00 be 7a 00 c9 bd 6e 22 67 3d ef 63 45 3d
       -0.12518273 -0.09814544 0.05642932 0.048191007
000020 82 6e a9 3d 1b af 16 bd c2 4d 81 bb 63 5f aa be
       0.08273031 -0.036788087 -0.003946037 -0.332759
000030 39 2e ed 3d 7f c5 ec 3d 3c a5 aa 3d 3e 43 95 bc
       0.11581082 0.11561107 0.08332297 -0.01822054
000040 3c 70 90 bc 6c 79 93 3d e0 b6 8c bd 4f 97 7f 3c
       -0.017631643 0.07200894 -0.06870818 0.01560004
000050 a0 38 05 bd f6 e4 65 be 46 3a 21 bb 15 8d a1 bd
       -0.032524705 -0.22450623 -0.0024601384 -0.078882374
000060 74 0d 90 bd aa 4f f6 bd 1d 2a 95 3d e2 d5 44 3e
       -0.07033816 -0.120269135 0.07283423 0.19222215
000070 d1 18 99 bd 11 45 20 bd ad dd 95 bd ef af 10 3d
       -0.074754365 -0.039128367 -0.07317672 0.035324033
000080 a0 8b 9b bc 29 b0 4c 3e 78 85 b7 3c 9b e9 d5 3c
       -0.018987477 0.19989075 0.02240251 0.026112368
000090 1c 13 9e bd 4f ac 01 3e 95 30 80 be c0 73 a4 bd
       -0.077184886 0.12663387 -0.25037065 -0.0802989
0000a0 51 57 03 3c 83 ed 0f 3e 79 1a 02 3d 46 b0 81 3d
       0.008016423 0.14055447 0.031763528 0.063324496
0000b0 95 28 0d 3e f6 c8 0e be 54 1e 8e 3c f8 65 5a 3d
       0.13785012 -0.13943848 0.017348446 0.0533199
0000c0 39 c1 d2 bd cc 75 47 be c1 ae cb bd f6 92 0a 3d
       -0.102907605 -0.1947853 -0.09945441 0.03383156
0000d0 f2 92 ae 3d fc c7 c6 3c 3f 07 b5 bd 0d b1 94 bd
       0.08524121 0.024265282 -0.08839273 -0.07260332
0000e0 cd 83 8d 3e a6 58 93 3d 6d c5 47 3e 7b bc 91 3d
       0.2763962 0.07194643 0.19508906 0.07116028
0000f0 41 95 25 be 5b c6 f5 bd 42 bb 12 bd 20 e8 ce bd
       -0.16170217 -0.12000724 -0.035823114 -0.10102868
000100 63 01 87 3e 0a c0 c2 bb 64 c9 9c be 9d 50 1e be
       0.26368245 -0.005943303 -0.306224 -0.15460439
000110 c2 ec 94 3d 26 94 be 3d 82 86 9c 3e e8 a2 58 be
       0.072717205 0.09305601 0.3057137 -0.21155894
000120 dd f0 21 3d 9e ea c9 3d 62 4c 83 3e 2b d7 05 be
       0.039536346 0.09859203 0.25644213 -0.13070361
000130 b3 db 40 3d 64 4e e8 bd 86 05 74 3d 88 a2 4d 3e
       0.04708452 -0.11343077 0.05957558 0.20081532
000140 18 78 20 be 98 8f c9 bc 34 cf 9e 3c 24 8a 16 3d
       -0.15670812 -0.024604604 0.019385912 0.036752835
000150 82 8d 95 bc f9 f4 5f be ab d7 72 bc 3f 56 8a bd
       -0.018255953 -0.21870793 -0.014821927 -0.067547314
000160 e0 bd d3 3b 5f 4a 60 be 3d 9a ed 3b 6b b9 89 3d
       0.006461844 -0.2190337 0.0072510527 0.06724819
000170 3e bf 83 3d de 22 b4 3d 5e 9b 57 3e 59 0f 6f be
       0.06432961 0.08795713 0.21055362 -0.23345698
000180 88 41 c2 bd 70 d0 15 3e ac d2 ea bc 6c 20 10 3e
       -0.09485155 0.14630294 -0.02866491 0.14074868
000190 ea 97 18 be ad 44 22 3e ed 28 f6 bd 84 ce eb bd
       -0.149017 0.1584651 -0.12019525 -0.11513999
0001a0 3d 56 6f 3d da 2c 7e 3e 47 74 a5 3e 43 7c 4d bd
       0.058431853 0.24821797 0.32315275 -0.050167333
0001b0 5a f0 e9 3c 5f 8f 9c be c0 13 85 3c ba 10 cc 3d
       0.028556991 -0.30578133 0.01624477 0.09964128
0001c0 99 24 4c 3d 47 37 88 be 85 4b 3e 3d 12 23 61 3e
       0.04983959 -0.26604673 0.04645874 0.21986035
0001d0 0c 31 c7 3d 2e ef aa 3d c9 bd 32 3e 1e 72 dc 3e
       0.09726152 0.08346401 0.1745521 0.43055815
0001e0 61 f1 fa 3d bc a2 ae 3e 2f 79 e4 3d ab 61 62 3a
       0.122530706 0.3410853 0.111559264 0.00086357695
0001f0 5f 08 98 bd 5f 65 76 3e 60 f4 15 be 2e 28 52 be
       -0.07423472 0.24062108 -0.14644003 -0.2052314
000200 97 af 55 bd b5 1c 84 3e 4d c4 fb bd 1b b4 15 3e
       -0.05216941 0.25803152 -0.12293301 0.14619486
000210 b4 57 a3 3d a0 8a 83 bd 4a 1e e6 bd 15 66 99 3c
       0.079757124 -0.06422925 -0.11236246 0.018725434
000220 7e f3 22 3d 21 48 8d bd 62 50 c4 3d f0 ce dc bd
       0.039782993 -0.06898523 0.09585644 -0.10781658
000230 6a 2d dc 3b 79 9c ba bd 8f 7e 10 3d 95 13 e7 3d
       0.006719281 -0.09111876 0.035276946 0.11283032
000240 aa 6d 0f 3d 04 0b 29 3d 3e a2 50 3e 5f dc a7 3c
       0.035016693 0.04127027 0.2037439 0.020490823
000250 6b 6e 15 bc 91 7b e0 bd 01 77 13 3e 9d e5 e6 3b
       -0.009120564 -0.109610684 0.14400865 0.007046415
000260 5e 64 21 be 98 32 5e 3d 26 aa 5e 3d af fb 11 be
       -0.15760943 0.05424747 0.054361485 -0.14256166
000270 f9 70 16 3e 27 ce ba bd 74 55 86 3a 3d 01 8b 3d
       0.14691533 -0.09121352 0.0010248856 0.067873456
000280 53 ba c1 bd ed 17 68 3d 68 a9 77 bd 3b 97 2e be
       -0.09459367 0.056663442 -0.060464293 -0.17049877
000290 49 c0 57 3d cc 27 a1 3d c6 7c 23 be 61 5f 28 be
       0.05267361 0.07868919 -0.15965566 -0.16442634
0002a0 f0 93 05 be 83 e3 ca 3d 49 d7 d8 3c 19 0b df ba
       -0.13044715 0.09906676 0.026469843 -0.0017016857
0002b0 dd 61 fc 3d a7 75 08 3d 1c 76 a8 3d b4 ae 57 be
       0.123233534 0.033315327 0.082256526 -0.21062738
0002c0 2c 4d 83 3c 18 a8 de bd 22 f6 46 3b 66 cd de 3d
       0.01602801 -0.10871905 0.003035911 0.108790204
0002d0 78 fd 80 3d 5d 2a 44 3d 84 bc 8d bc 82 cf 2a bd
       0.06298345 0.047891963 -0.017301805 -0.0417018
0002e0 39 a0 ff 3d 26 1d 1b 3d 1b 36 82 3e a3 8a a9 3d
       0.12481732 0.037869595 0.25431904 0.08278396
0002f0 cf 7a 6e be e0 71 85 bd a9 27 b6 bd 6c 1d a7 3e
       -0.23289035 -0.065158606 -0.08894283 0.32639635
000300 da 15 4f ba 01 29 44 3e 7b 2d 11 3e e4 b1 e1 bd
       -0.00078996795 0.19156267 0.14177506 -0.11020258
000310 fd 3a 18 be 8f 2b 89 bd cc e2 c0 bc 78 28 2b 3e
       -0.14866252 -0.06697761 -0.023545645 0.16714656
000320 48 16 3c be a6 6a e1 bd 64 d1 05 bd e6 68 29 3d
       -0.18367875 -0.1100667 -0.032670394 0.041359805
000330 0c 87 2a be 0d 17 e5 bd f6 8d 8c bd 64 d4 85 bd
       -0.16653079 -0.11186037 -0.068630144 -0.06534651
000340 17 80 77 bc 69 62 ef 3d 0b 62 cd bd c9 26 d6 bc
       -0.015106223 0.11688692 -0.10028466 -0.026141541
000350 28 f6 04 3d 9f 14 87 3e c1 30 03 3e 7e 9a 27 bd
       0.032461315 0.2638292 0.12811567 -0.04091882
000360 b4 c1 a8 3d 01 e1 75 3e c5 45 46 be 6c f4 64 bc
       0.08240071 0.24011613 -0.19362552 -0.01397429
000370 d8 f4 0d be 55 6a 0e be 37 76 ad bb 62 bc 05 bd
       -0.13862932 -0.1390775 -0.0052936333 -0.03265036
000380 99 e5 ff 3d 45 38 bf bc 15 a3 2f be 7a c4 c3 bd
       0.12494964 -0.023342261 -0.17152055 -0.09558959
000390 ab 3d f4 3d 7a ae 2c bc a2 f1 a5 bc e2 58 69 bd
       0.11925825 -0.010539645 -0.020256821 -0.05696953
0003a0 03 b2 40 3e c0 84 39 bd bd 9a a1 bd 25 e0 3a bd
       0.18817906 -0.045292616 -0.07890842 -0.045623917
0003b0 4a 6d 1e be d7 5f 23 3e 3d e4 46 be 79 fd 28 be
       -0.15471378 0.15954529 -0.19423003 -0.16502942
0003c0 7a 5f 88 3e 45 07 c5 3d e6 29 c9 3d 60 e1 98 bd
       0.26635343 0.09620527 0.098224446 -0.07464862
0003d0 51 bf d4 bc 86 80 08 be 3b 6a c0 3d d7 df 9c 3d
       -0.025970133 -0.13330278 0.09395262 0.076598816
0003e0 f6 32 0f 3e 00 00 ab bd 7a bc ed bd ea da 57 be
       0.13984284 -0.083496094 -0.11608215 -0.21079603
0003f0 57 da a9 3c c5 48 de bd 81 bd 1a be 61 3e 61 3d
       0.020733995 -0.108537234 -0.15111353 0.05499113

lstm.bias_ih_l1 f4 [256]
000000 ef 00 0a bf 75 05 05 bf 7d 52 47 3c 3b 3f b3 bd
       -0.53907675 -0.5196145 0.012165663 -0.08752295
000010 15 c2 c1 3d 3e ec 26 be 72 1d 49 bf 5b 95 95 be
       0.09460846 -0.16301057 -0.78560555 -0.29215512
000020 68 db b2 bd de 12 1a bf e7 30 71 bd 6f 89 0b bf
       -0.08733255 -0.6018504 -0.058884528 -0.5450658
000030 4c d3 2e be d6 91 bc bd a1 9f c8 be 58 7d 07 be
       -0.17072791 -0.092075035 -0.39184287 -0.13231409
000040 d6 e8 f9 be aa 6a 12 3e 51 54 51 3e 63 be 00 bf
       -0.48810452 0.14298502 0.2044232 -0.5029051
000050 7b 1f 43 bf b4 f1 63 bf 54 31 4d bf 66 b8 bf be
       -0.7621991 -0.89040685 -0.80153394 -0.37445372
000060 f7 a4 4e 3e 88 90 df 3c 1f 1f 13 bf 48 e0 99 bd
       0.20180117 0.027290598 -0.5746936 -0.075134814
000070 9d 3e 2c bf 11 78 e1 be ff 44 66 be f9 31 30 bf
       -0.6728304 -0.44036916 -0.22487257 -0.6882625
000080 22 1a 7d be 63 7a b9 3d 8a c6 95 bf c8 4d 99 bf
       -0.24717 0.090565465 -1.1701214 -1.1976862
000090 c6 00 07 bf 8d d8 35 bf cf fd 3d bf b2 10 43 bf
       -0.52735555 -0.71033555 -0.74215406 -0.7619735
0000a0 72 5e a3 be 1a d4 80 be e0 60 a9 bd 1b 17 e8 be
       -0.31907994 -0.2516182 -0.082704306 -0.45330128
0000b0 fd 88 46 bf 9b 84 aa bc 4b 0c 64 3d bc f0 27 bf
       -0.7755278 -0.020815184 0.055675786 -0.65601707
0000c0 3b af aa be 94 26 36 bf 8b 53 ac be 99 ee 4f 3d
       -0.33336815 -0.71152616 -0.33657488 0.050764654
0000d0 75 ae 76 be 49 a8 aa 39 20 8a 31 bf 24 5e 83 be
       -0.24089988 0.0003255031 -0.6935139 -0.2565776
0000e0 2a 4c 32 bf 4c 35 cc be 33 4f ca be e3 90 dd be
       -0.6964747 -0.39884412 -0.3951355 -0.43274602
0000f0 f3 8b 2f bf 0d 0d 69 be d8 c4 07 bf 32 19 e9 be
       -0.6857292 -0.22758885 -0.53034735 -0.45527035
000100 6c 51 10 be a3 b9 4a bf 98 0c 85 3d a8 49 82 bd
       -0.1409356 -0.7918951 0.06496543 -0.06361705
000110 6e 73 2c 3e 3a fb 95 3b 3a cd c7 be aa 66 0d bd
       0.16840908 0.0045770677 -0.39023763 -0.034521736
000120 14 d2 07 bd a5 aa 04 bf 02 73 bf 3d 00 88 18 bf
       -0.03315933 -0.5182288 0.09348108 -0.5958252
000130 da 84 61 bd e3 14 58 bd 4d e0 11 bf 0f c0 fd 3d
       -0.055058338 -0.052754294 -0.5698288 0.12390148
000140 5e 5b 8b be c6 41 93 3c ec 69 89 bd 53 20 36 be
       -0.27218145 0.0179757 -0.06709656 -0.17785768
000150 6a d0 fd be f2 96 0c bf a4 aa bf be 96 74 82 bd
       -0.4957307 -0.54917824 -0.37434876 -0.06369893
000160 cb e3 99 bc 60 a5 d4 3d 64 48 89 bd c5 0e 0e 3e
       -0.018785378 0.10383105 -0.067032605 0.13872822
000170 7a ce d7 be 5d 56 c5 be 04 7f 9e 3d dd 1d fa be
       -0.42149717 -0.38542452 0.0773907 -0.4885091
000180 33 70 3f bc 5a 34 98 bd ff a5 4e bf 70 79 2f bf
       -0.011684465 -0.0743186 -0.8072204 -0.68544674
000190 ce 75 f1 be 08 f2 29 bf 1a 8d 25 bf 43 c3 94 be
       -0.4716019 -0.66384935 -0.6466843 -0.29055223
0001a0 e0 62 ac bd 20 db 9c be fb 9a 9f bc 67 a5 47 be
       -0.084172964 -0.3063593 -0.01948308 -0.1949669
0001b0 8b 60 2d bf a2 07 71 bc 74 a1 51 bd 28 0f 00 bf
       -0.6772544 -0.014711292 -0.051179364 -0.50023127
0001c0 7e 75 87 be 14 77 0f bf a1 00 38 3d e1 7e d3 3c
       -0.26456827 -0.56041074 0.044922475 0.025817337
0001d0 a0 cd 97 be c5 92 de bd 2e 38 16 bf b5 98 2e be
       -0.29649067 -0.10867838 -0.58679473 -0.1705044
0001e0 23 0f 51 bf fb 36 01 bf a7 c6 13 bf a7 4b 01 be
       -0.8166372 -0.5047452 -0.57724994 -0.12626515
0001f0 25 fa 00 bf b8 2d 21 3d 77 f6 6b be b9 65 d8 be
       -0.5038169 0.03935024 -0.23043238 -0.42265108
000200 f9 b0 3e bd 37 20 83 bc 1f 58 a7 bd cd 48 f3 bd
       -0.046555493 -0.016006572 -0.08171105 -0.1187912
000210 9d c2 b1 3d 96 79 a5 3b a4 c4 8c bc 5a d3 d8 bc
       0.08679698 0.0050498946 -0.01718361 -0.026467968
000220 ad 03 1c bd 34 b4 e8 bc 01 44 f0 3c 7a 01 e3 3d
       -0.038089443 -0.02840624 0.029329302 0.11084266
000230 dc 22 0e bd 42 2e f6 bc 32 f9 3c 3d b2 50 6a bd
       -0.034701213 -0.030051354 0.04613609 -0.057205863
000240 c2 7f 84 bb e3 44 93 bd 63 2c 18 bc 4f e5 5c 3c
       -0.00404355 -0.071908735 -0.009287926 0.013482406
000250 70 4a 1f 3d 1d 10 18 3c 18 76 8b bd a9 0e 2b 3d
       0.03888935 0.009281185 -0.06809634 0.041762028
000260 c8 d3 79 bc c1 f2 a1 bd a4 93 68 bd 6a 69 5e bc
       -0.0152482465 -0.0790763 -0.056781426 -0.013574937
000270 f2 09 90 3b bf 5f 8a 3d a8 4c 89 3d 4e 60 c4 bd
       0.004395717 0.06756543 0.06704074 -0.09588681
000280 39 bb 53 bc fd b7 b1 bd ed 11 7e bd 38 39 e3 bb
       -0.012923055 -0.08677671 -0.062028814 -0.0069343112
000290 fa 92 9a 3d 7d ba a1 3c ca c0 2b 3d ee 95 5f bd
       0.07547565 0.019742245 0.041931905 -0.054586343
0002a0 39 b0 03 be 43 62 b6 bd 7b dc c1 bb 0e e9 52 3d
       -0.12860192 -0.08905461 -0.005916176 0.05149179
0002b0 76 df 98 bd 65 0a bc bc 28 da e5 3d 45 7b 83 bc
       -0.07464497 -0.022954175 0.11223251 -0.01604999
0002c0 61 1e 62 3d 55 df 01 bd 18 27 8a 3d 0a 01 12 3d
       0.055204753 -0.031707127 0.06745738 0.035645522
0002d0 93 5b fa bd 8d c9 0b bd 6b c2 06 bd 20 a3 12 3c
       -0.12224498 -0.03412776 -0.032900255 0.008950025
0002e0 0d 68 37 bd 9e 71 85 bd f1 10 10 3d a6 f0 bd 3d
       -0.044776965 -0.065158114 0.035172407 0.09274416
0002f0 f5 8a 9c 3d 26 98 a8 3d 84 f0 9c 3d fe e2 2a 3c
       0.076436915 0.08232145 0.07663062 0.010430096
000300 a6 ff 17 bf 8f 84 0e bf b0 69 9d 3c f1 60 f6 3d
       -0.59374464 -0.5567102 0.019215435 0.12030209
000310 0b 45 31 3e 0a 28 bc bd d6 50 0c bf d9 99 62 be
       0.17311494 -0.09187324 -0.54810846 -0.22129
000320 99 fc e7 bd 84 c0 35 bf 86 0a 0c be 95 b4 ef be
       -0.11327476 -0.7099688 -0.1367589 -0.4681746
000330 e8 6c 27 be 62 17 12 be 49 11 10 bf 01 97 9b 3d
       -0.16350138 -0.14266732 -0.56276375 0.07597161
000340 d0 c4 fb be 73 7a 3b 3e 5f 16 c0 3d 6d 8e 13 bf
       -0.49173594 0.1830843 0.09379267 -0.576392
000350 5e 2d 29 bf fd 5b 71 bf 93 33 1f bf c3 33 42 be
       -0.6608485 -0.9428099 -0.6218807 -0.18965058
000360 e8 17 e9 3d 71 e0 d1 3c dc 78 da be 8e f7 64 bd
       0.11381513 0.025619717 -0.42670333 -0.05590015
000370 73 1e 3c bf 08 b9 1e bf 0a 93 f4 bd 14 07 44 bf
       -0.7348396 -0.62001085 -0.11942108 -0.765733
000380 ca 09 1b 3d c7 9f 2c 3e 77 a4 a3 bf 1a 4e 9e bf
       0.037851132 0.16857825 -1.2784566 -1.2367585
000390 32 31 3c bf 08 a7 52 bf 0d f2 21 bf 2b cc 2f bf
       -0.73512566 -0.8228612 -0.63259965 -0.6867091
0003a0 de 61 3f be 87 c2 dd be 18 b6 90 bc 52 c1 d9 be
       -0.18689677 -0.43312475 -0.017664954 -0.42530304
0003b0 49 6f 7b bf 1e f6 a0 3d 4a 51 4b bd 2c d0 0f bf
       -0.9821668 0.07859443 -0.04963807 -0.5617702
0003c0 60 98 86 be 82 c0 18 bf 14 df 59 be 10 00 1b bd
       -0.26288128 -0.59668744 -0.21276504 -0.037841856
0003d0 49 53 75 be b8 88 ed bd c3 9d 26 bf bd 16 76 be
       -0.23957552 -0.11598343 -0.65084475 -0.24032111
0003e0 05 54 38 bf d5 80 09 bf db 76 05 bf af e4 f6 be
       -0.72003204 -0.5371221 -0.52134484 -0.48221347
0003f0 f3 60 1e bf 33 ec c0 bd 4b 7d 9e be e5 de fc be
       -0.6186668 -0.094200514 -0.30954966 -0.49388805
