backend/Model_Pytorch/RNN_Model/output/checkpoints/latest_checkpoint.pth (torch, 672421 bytes, 27 tensors)

lstm.weight_ih_l0 f4 [256, 19]
0	0xbe330180	-0.17481041
1	0xbac789f8	-0.0015223613
2	0x3d3733a7	0.044726994
3	0xbe2ea1a3	-0.17053847
4	0xbd5fb0b9	-0.054611895
5	0x3e8975e7	0.26847765
6	0xbd8c452a	-0.068491295
7	0x3e859a51	0.26094297
8	0xbdc073e9	-0.09397108
9	0x3dc1e5ff	0.094676964
10	0x3ca1518e	0.019692209
11	0xbb9ffcf9	-0.0048824516
12	0x3d889b2e	0.06670223
13	0x3d5e3e99	0.054258917
14	0x3e10fd37	0.14159094
15	0xbe505f7f	-0.20348929
16	0xbd584476	-0.052799664
17	0xbe18157b	-0.14851944
18	0x3e66dc01	0.22544862
19	0xbec55f62	-0.38549334
20	0x3a9259d6	0.0011165689
21	0x3d9d1d86	0.07671647
22	0xbdec7b1c	-0.11546919
23	0x3c467110	0.012111917
24	0x3e302002	0.1719971
25	0x3b787067	0.0037908794
26	0x3e5edb6b	0.21763389
27	0x3d958e5c	0.073025435
28	0xbc417fe3	-0.011810276
29	0x3d95c253	0.07312455
30	0x3c67d404	0.01414967
31	0xbe1f9be4	-0.15586811
32	0x3e4cc0dc	0.19995445
33	0xbf00f5b6	-0.50374925
34	0x3eb4668b	0.35234484
35	0x3dff6eb6	0.12472288
36	0x3e8bae12	0.27281243
37	0x3e440a9b	0.1914467
38	0xbdf66fa4	-0.120330125
39	0x3ca697c5	0.020336041
40	0xbd27f480	-0.041004658
41	0x3d0e88e7	0.03479853
42	0xbdcba155	-0.09942881
43	0x3e5017c4	0.20321566
44	0x3dcb3fcd	0.099242784
45	0x3dad889d	0.084733225
46	0x3e7c410a	0.24634185
47	0x3d8799ad	0.06621108
48	0x3e1cab81	0.15299799
49	0x3e18b789	0.14913763
50	0xbd547e13	-0.051878046
51	0x3ea2e127	0.31812403
52	0x3d2f9460	0.04286611
53	0xbee5547b	-0.44791016
54	0xbdde5fd6	-0.10858123
55	0xbd917e57	-0.071041755
56	0xbe4a8fe3	-0.19781451
57	0xbc8c5a07	-0.017132772
58	0x3e6ba6f4	0.23012906
59	0x3e289b5e	0.16465518
60	0x3ddb7b93	0.10716929
61	0xbdd5aa79	-0.10432906
62	0x3e6c400e	0.2307131
63	0x3e13bd29	0.14427628
64	0x3e70c33b	0.23511975
65	0x3e16cb3b	0.14725964
66	0x3e177909	0.14792265
67	0xbdb27266	-0.08713226
68	0xbc81a254	-0.015824474
69	0x3d0ddcce	0.034634404
70	0x3d99c3f3	0.075080775
71	0xbdeab68e	-0.11460601
72	0x3cc9ea9d	0.024648005
73	0x3dc73d0b	0.0972844
74	0x3e8e94a9	0.27847794
75	0xbd1f2093	-0.038849425
76	0x3f139ced	0.57661325
77	0x3d07ddf4	0.033170655
78	0x3dafd6ff	0.08585929
79	0xbd418884	-0.047249332
80	0x3dd07301	0.10178185
81	0x3d92db1d	0.07170699
82	0x3df98fe3	0.12185647
83	0x3e15efc7	0.14642249
84	0x3e3d4d91	0.1848662
85	0x3e593315	0.21210892
86	0x3dd56e4c	0.10421428
87	0x3d933dbc	0.07189509
88	0x3d8df7fd	0.06932066
89	0x3e24a3b4	0.16078073
90	0x3dc74bf8	0.09731287
91	0x3e0bf044	0.13665873
92	0x3d9bf34e	0.07614766
93	0xbe29664a	-0.16542926
94	0xbd7e543b	-0.062092047
95	0xbe0d6555	-0.13808186
96	0xbd9b8951	-0.075945504
97	0xbe666717	-0.22500263
98	0xbddb9778	-0.1072225
99	0x3e4b4a11	0.19852473
100	0x3e33f194	0.17572623
101	0xbdc0cce0	-0.09414077
102	0x3e5ed422	0.2176061
103	0x3e14482a	0.14480653
104	0xbd02e8ae	-0.031960182
105	0x3d9ba8d5	0.076005615
106	0xbe230013	-0.15917997
107	0x3d82cf27	0.063871674
108	0xbe79cf43	-0.2439547
109	0xbd23fcee	-0.040036134
110	0xbd3adea4	-0.045622483
111	0x3ea18e04	0.31553662
112	0x3d928731	0.07154692
113	0xbe621413	-0.2207797
114	0xbe942388	-0.28933358
115	0x3d16f515	0.036854822
116	0xbd9c605b	-0.07635566
117	0x3d1ced5b	0.038312297
118	0x3d9a39ff	0.07530593
119	0x3e4039c7	0.1877204
120	0x3d3efec1	0.04662967
121	0x3e962c8c	0.29330862
122	0x3dbe953d	0.09305809
123	0x3e2f79d5	0.17136319
124	0x3d390c8e	0.04517799
125	0x3d6b6eec	0.05747883
126	0x3e354d2c	0.1770522
127	0xbd3104cd	-0.04321747
128	0xbe390fdf	-0.1807246
129	0xbd64cdaf	-0.055860218
130	0xbe26890b	-0.16263215
131	0xbec7f7a0	-0.3905611
132	0x3ee02ff0	0.43786573
133	0xbaf0e1b8	-0.0018377816
134	0xbdd9164f	-0.10599958
135	0xbe43d514	-0.19124252
136	0xbe8001cb	-0.25001368
137	0x3e1d0909	0.15335478
138	0x3d897613	0.06711974
139	0x3d5c89e8	0.053842455
140	0x3d889192	0.0666839
141	0x3d2cc3ce	0.04217892
142	0x3e23a4fe	0.15980908
143	0x3e515c16	0.20445284
144	0x3d154293	0.036440443
145	0x3d8c3e34	0.06847802
146	0x3e27a2f3	0.16370754
147	0xbd633e51	-0.05547935
148	0x3df32253	0.11871781
149	0x3d1e8b04	0.038706794
150	0x3d154034	0.036438182
151	0x3eb7f15b	0.35926327
152	0xbd8136a3	-0.06309249
153	0xbde6cb9c	-0.11269304
154	0xbe15d6f8	-0.14632785
155	0xbe52226a	-0.2052094
156	0xbea8a634	-0.32939303
157	0x3e5789c3	0.21048646
158	0x3e399308	0.18122494
159	0x3ed27819	0.41107252
160	0x3e85202a	0.26001102
161	0x3e4b1c12	0.19834927
162	0x3e429324	0.19001442
163	0x3e46439a	0.19361725
164	0x3edd57af	0.4323096
165	0x3dc5025d	0.096195914
166	0x3ec5bbee	0.3861994
167	0xbe239755	-0.15975697
168	0xbe7516bb	-0.23934452
169	0x3ca3724c	0.019951962
170	0xbc76ffaf	-0.015075608
171	0x3e6ac17e	0.22925374
172	0xbce81657	-0.028330965
173	0xbe2854b4	-0.16438562
174	0xbe8f31e7	-0.2796776
175	0xbeb5e239	-0.35524157
176	0x3e12384b	0.14279287
177	0xbcf941db	-0.03042691
178	0x3ead2f55	0.33825174
179	0xbd0b6aa5	-0.03403725
180	0xbe41b7f5	-0.1891783
181	0x3de6bf41	0.112669475
182	0xbe78cc0d	-0.24296589
183	0xbb18ceb9	-0.0023316576
184	0xbddce3b8	-0.107856214
185	0x3def7359	0.11691923
186	0xbe04ba1f	-0.12961625
187	0xbf17f4a1	-0.5935765
188	0x3d9d7bd9	0.07689638
189	0xbda3461c	-0.07972357
190	0xbee89694	-0.45427382
191	0xbd71f06e	-0.059067182
192	0x3db64ee1	0.08901764
193	0x3cff7b98	0.031186864
194	0x3e0493a7	0.1294695
195	0x3e8064c1	0.2507687
196	0x3dc506d8	0.09620446
197	0x3e700482	0.2343922
198	0x3d7166ee	0.058936052
199	0x3c1cc73a	0.009568984
200	0xbdb1deec	-0.08685097
201	0x3cfeff04	0.03112746
202	0x3def7060	0.11691356
203	0x3e4affab	0.19824092
204	0x3c3374df	0.010953157
205	0xbc673079	-0.014110678
206	0xbe95e972	-0.29279667
207	0x3ed45007	0.41467306
208	0xbc8d6670	-0.01726076
209	0xbed6bccd	-0.4194092
210	0xbc0ee459	-0.0087214345
211	0xbdb50607	-0.0883904
212	0xbcbd0faa	-0.023078758
213	0x3e4fecd2	0.20305184
214	0xbc28c9b6	-0.010301998
215	0xbc04150c	-0.008061659
216	0x3e2d95e6	0.16951713
217	0xbe0c5c81	-0.13707162
218	0xbc9d5393	-0.01920489
219	0x3dd88ea5	0.10574082
220	0xbea7418b	-0.32667193
221	0xba302c0f	-0.00067204324
222	0xbdc9eb3e	-0.09859322
223	0xbe31abed	-0.1735074
224	0xbe841699	-0.2579849
225	0xbdcb86dc	-0.09937832
226	0x3e269922	0.16269353
227	0x3dd5940a	0.10428627
228	0xbe33864a	-0.17531696
229	0xbe117530	-0.1420486
230	0xbcf198bb	-0.029491773
231	0xbda60517	-0.081064396
232	0x3cbc927f	0.023019074
233	0x3e3b732f	0.18305658
234	0x3e85d7d0	0.26141214
235	0x3e39e60e	0.18154165
236	0x3e106a13	0.14102964
237	0x3e64486a	0.22293249
238	0x3e0b26d7	0.13589035
239	0xbd92a639	-0.07160611
240	0x3da3e3a0	0.080024004
241	0xbd784504	-0.060612693
242	0x3c8643b9	0.016389715
243	0xbe47f1c3	-0.19525819
244	0xbb2e1fbd	-0.002656921
245	0x3e39cd55	0.18144734
246	0x3e3e076b	0.18557517
247	0xbe1340d1	-0.14380194
248	0xbe07db52	-0.13267258
249	0xbdc9c157	-0.0985133
250	0xbea350a5	-0.31897464
251	0xbe1835b7	-0.1486424
252	0x3d99b5ff	0.07505416
253	0xbdbd52af	-0.09244286
254	0x3eb40c22	0.35165507
255	0x3c545b51	0.012961225

lstm.weight_hh_l0 f4 [256, 64]
0	0x3c59a7bc	0.01328462
1	0x3e1a7d27	0.15086804
2	0xbcec2167	-0.028824521
3	0xbd24d52f	-0.04024237
4	0x3e2ec030	0.17065501
5	0x3ea675ff	0.325119
6	0x3dca5156	0.09878795
7	0xbe0a0af5	-0.13480742
8	0xbe2d44b1	-0.16920735
9	0xbd88f73e	-0.06687783
10	0x3d61853a	0.055058695
11	0xbda668ff	-0.08125495
12	0x3e0fed9d	0.14055486
13	0xbd4e0bd2	-0.05030424
14	0x3c920d96	0.017828744
15	0x3e0eca5d	0.13944383
16	0xbd95d694	-0.07316318
17	0x3e27f44c	0.16401786
18	0x3d95cc39	0.07314343
19	0xbd84729c	-0.064671725
20	0xbec1f2ad	-0.3788046
21	0x3e245ecb	0.16051786
22	0xbd8daa24	-0.069172174
23	0xbd99d578	-0.07511419
24	0xbbd9d031	-0.006647133
25	0x3d435267	0.047686007
26	0xbc86b3c8	-0.016443148
27	0xbd069568	-0.03285733
28	0x3ed98a12	0.42488152
29	0xbd013f3c	-0.031554446
30	0x3e572d8d	0.2101347
31	0x3da2d079	0.07949919
32	0xbe09516a	-0.13409963
33	0x3e49483d	0.19656463
34	0x3dc1c566	0.09461479
35	0x3e80f4a6	0.25186652
36	0x3dac9356	0.084265396
37	0xbe290c4c	-0.16508597
38	0x3e00bf97	0.12573086
39	0xbe85d70e	-0.26140636
40	0x3e073df7	0.13207231
41	0xbdf3a147	-0.118959956
42	0x3c69b345	0.014263933
43	0x3e07acc3	0.13249497
44	0xbcc08f75	-0.023505906
45	0x3d095a3a	0.033533312
46	0xbdd63181	-0.10458661
47	0x3c0fa36c	0.00876699
48	0xbe5b8160	-0.21436071
49	0x3d0079c5	0.03136613
50	0xbc40ac13	-0.011759776
51	0x3db7027b	0.0893602
52	0xbc816031	-0.015792938
53	0xbc2ce01c	-0.010551479
54	0x3d1979dc	0.03746973
55	0xbe05e849	-0.13076891
56	0x3e624706	0.22097406
57	0x3e3f4474	0.18678457
58	0xbe3764cf	-0.17909549
59	0x3e2c8cff	0.1685066
60	0xbe0c1bdb	-0.13682501
61	0xbcfe18a2	-0.031017605
62	0xbd3b52b7	-0.04573318
63	0x3d085d23	0.033291947
64	0xbe24e63b	-0.16103451
65	0x3d897658	0.067120254
66	0x3c3e7aa1	0.011625917
67	0xbd7ccf60	-0.061721206
68	0xbebc8351	-0.36818936
69	0xbe413ff3	-0.18872051
70	0xbe213fd8	-0.1574701
71	0x3e0bd066	0.13653716
72	0x3ea7f8c0	0.3280697
73	0x3d18eff0	0.037338197
74	0xbcedec95	-0.029043475
75	0x3e795179	0.24347486
76	0xbd59b131	-0.0531475
77	0xbed8e071	-0.42358735
78	0x3e3c08fd	0.18362804
79	0x3e5efc74	0.2177599
80	0x3f27730c	0.6540992
81	0xbeaa7af4	-0.3329693
82	0xbeabd85f	-0.33563516
83	0xbe4d670a	-0.20058838
84	0x3e365667	0.17806397
85	0xbea3fe8e	-0.32030147
86	0x3eae2d35	0.34018865
87	0xbe94214b	-0.2893165
88	0x3d363ceb	0.04449169
89	0xbdceb673	-0.10093393
90	0xbe863449	-0.26211765
91	0xbe921133	-0.28528747
92	0xbe820ea9	-0.2540181
93	0xbbeff24a	-0.0073225843
94	0x3d78cd72	0.060742803
95	0xbe5df3de	-0.21675059
96	0x3de784e5	0.113046445
97	0xbe50b196	-0.20380244
98	0xbdaf1ae8	-0.08550054
99	0xbe336498	-0.17518842
100	0xbde14534	-0.109995276
101	0x3d39df77	0.04537913
102	0x3c3c5aec	0.011496287
103	0xbe9039a0	-0.28168964
104	0x3dfa270d	0.122144796
105	0xbec5075e	-0.38482183
106	0xbdb1761a	-0.08665104
107	0xbe8a54c1	-0.27017787
108	0x3ec1536e	0.37758964
109	0x3de769c9	0.11299474
110	0xbe680683	-0.22658734
111	0xbe09107a	-0.13385192
112	0xbe2ce43c	-0.1688394
113	0xbe81ee8f	-0.25377318
114	0xbd8f27d9	-0.06990022
115	0x3cdb8a51	0.026799353
116	0xbe16dc8b	-0.14732568
117	0xbe0518ff	-0.12997817
118	0xbd936481	-0.07196904
119	0x3e41e776	0.18935952
120	0x3d13197e	0.035912983
121	0xbf136d09	-0.5758825
122	0xbda7170b	-0.08158692
123	0x3d5ac77c	0.0534129
124	0xbd2945f5	-0.04132648
125	0x3d7d9050	0.061905205
126	0xbda69451	-0.08133758
127	0x3d633fe2	0.055480845
128	0xbf070b05	-0.5275119
129	0x3ea03013	0.31286678
130	0x3e670366	0.2255989
131	0x3e919a62	0.28438097
132	0xbdababba	-0.083823636
133	0x3e1ae02b	0.15124576
134	0x3f1e3f10	0.61814976
135	0xbe9e6941	-0.30939677
136	0xbe37d928	-0.17953932
137	0xbdf74c65	-0.12075118
138	0xbe520647	-0.20510207
139	0xbebf6a9b	-0.3738602
140	0xbdc9d97b	-0.09855934
141	0xbdd64e5a	-0.10464163
142	0xbdf6ccc8	-0.12050778
143	0x3e6b1348	0.22956574
144	0x3e442268	0.1915375
145	0x3e2bf04b	0.16790883
146	0x3df03ade	0.11729978
147	0xbd07aa35	-0.033121306
148	0x3e4e97a9	0.20175041
149	0x3de6269e	0.112378344
150	0xbd6ffd25	-0.058591027
151	0xbda1178e	-0.07865821
152	0x3e9552ca	0.29164726
153	0x3e3cb0b2	0.18426779
154	0xbd4fcdfc	-0.05073355
155	0x3eb3868a	0.35063583
156	0xbdbbaaa4	-0.091634065
157	0xbecd227c	-0.40065372
158	0x3c5fcb78	0.013659351
159	0x3e6a750e	0.22896215
160	0x3d63eb52	0.05564434
161	0x3d9b73af	0.07590424
162	0xbeb98c5d	-0.362399
163	0xbd3a7e99	-0.04553089
164	0x3df1b07c	0.1180124
165	0x3ef06883	0.46954736
166	0x3f1839b6	0.5946306
167	0xbe76aa2c	-0.24088353
168	0x3e6fbb7b	0.23411362
169	0xbe844228	-0.25831723
170	0x3e9a444a	0.30130225
171	0xbd1f1f5f	-0.038848277
172	0xbc4aa5b3	-0.012368607
173	0xbe22cd0b	-0.1589853
174	0xbe8ce235	-0.27516332
175	0x3ed123a8	0.40847516
176	0xbd97c42a	-0.07410462
177	0xbe4a9600	-0.19783783
178	0x3d3b2a8f	0.045694884
179	0xbe6cdbbe	-0.231307
180	0x3d949102	0.072542205
181	0xbe4de2c8	-0.20106041
182	0x3ec6ce5e	0.3882932
183	0xbe185dd9	-0.1487955
184	0x3e985ab0	0.2975669
185	0x3e1a68e9	0.15079083
186	0xbe2f4154	-0.17114764
187	0x3c3ffdb8	0.011718206
188	0xbe4c2de0	-0.19939375
189	0x3e563fcb	0.20922773
190	0x3f3e2364	0.7427275
191	0xbd892088	-0.06695658
192	0xbe7ba56f	-0.24574827
193	0x3ec9ebb6	0.39437646
194	0xbdc8d33f	-0.09805917
195	0xbde0f667	-0.109844975
196	0xbe531de8	-0.20616877
197	0xbdf0e907	-0.117631964
198	0x3e31a3c2	0.17347625
199	0xbd40cb95	-0.04706915
200	0x3d3247a3	0.04352535
201	0x3d0662ab	0.03280894
202	0xbd8fcc35	-0.07021371
203	0x3e23ff43	0.16015343
204	0xbd9dd34a	-0.07706316
205	0x3db0edd4	0.08639112
206	0xbda30aff	-0.07961082
207	0xbc3e34f8	-0.011609308
208	0xbd276eb9	-0.040877078
209	0xbd4bcad2	-0.04975397
210	0xbd18ddd7	-0.037320938
211	0xbec644e1	-0.38724425
212	0xbe19f5c2	-0.15035155
213	0x3dd2dcc9	0.10296018
214	0x3cdb6c23	0.026784962
215	0x3e00b641	0.12569524
216	0x3d835452	0.06412567
217	0xbe28884a	-0.1645824
218	0xbe24e108	-0.16101468
219	0x3cf056ab	0.029338202
220	0xbc4ea185	-0.012611751
221	0x3e323762	0.1740394
222	0xbe697cf6	-0.22801575
223	0x3e6a7c25	0.2289892
224	0x3c6ceabb	0.014460261
225	0xbdec71f0	-0.11545169
226	0xbec50419	-0.3847969
227	0xbd438a8a	-0.047739543
228	0xbe39d1d3	-0.18146448
229	0xbc343a61	-0.011000247
230	0xbd23c9de	-0.039987437
231	0x3eb6e4f1	0.35721543
232	0x3e9473d2	0.28994614
233	0xbd927df3	-0.07152929
234	0x3e176563	0.1478477
235	0xbdeda73b	-0.11604162
236	0x3e2c5bad	0.16831847
237	0x3e4cacb5	0.19987758
238	0xbe122bf4	-0.1427458
239	0xbe9b074d	-0.30279008
240	0x3d2bb94d	0.041924763
241	0x3db23f0c	0.087034315
242	0x3e00b7fc	0.12570184
243	0x3c1657b0	0.00917618
244	0x3db19b19	0.08672161
245	0xbd3f149a	-0.046650507
246	0x3d3e4edf	0.046461936
247	0x3e5cf192	0.21576527
248	0xbecafdd0	-0.3964677
249	0xbecfbf1b	-0.4057549
250	0xbe40cf66	-0.18829116
251	0xbc44a8f2	-0.01200317
252	0x3e1a5f39	0.15075387
253	0x3cf99285	0.030465374
254	0xbcac2c84	-0.02101732
255	0x3e65bb8b	0.22434823

lstm.bias_ih_l0 f4 [256]
0	0xbe4288ba	-0.1899747
1	0xbec4652d	-0.3835844
2	0xbe85ed19	-0.26157454
3	0xbdd11751	-0.102095254
4	0xbe8d7270	-0.2762637
5	0xbee95d61	-0.45579055
6	0xbecf5e28	-0.40501523
7	0x3de74efc	0.11294362
8	0xbe577886	-0.2104207
9	0x3d12b1bb	0.03581403
10	0xbe29ad36	-0.16569981
11	0xbf35ee14	-0.71066403
12	0x3e4c176e	0.19930813
13	0xbebfc897	-0.37457725
14	0xbeae2c6a	-0.3401826
15	0xbee0f47f	-0.43936536
16	0xbeb79fba	-0.3586405
17	0xbe2995ce	-0.16561052
18	0xbe113158	-0.1417898
19	0xbdc160fb	-0.09442326
20	0x3d2029ad	0.039102245
21	0xbee57176	-0.44813126
22	0xbdbb6dc8	-0.091517985
23	0xbf0479e9	-0.5174852
24	0xbec64fe5	-0.3873283
25	0xbec666f5	-0.38750425
26	0xbd4a99d6	-0.049463116
27	0xbd3ccd7b	-0.0460944
28	0xbeff90a5	-0.49915043
29	0xbe548303	-0.20753102
30	0xbec18e7f	-0.37804028
31	0xbec1013e	-0.3769626
32	0x3c8980d0	0.016785055
33	0xbe3dcfda	-0.1853632
34	0xbe4f7136	-0.2025803
35	0xbec4a336	-0.3840577
36	0xbedef60a	-0.43547088
37	0xbf1706ef	-0.58994955
38	0xbec7bd35	-0.3901154
39	0xbe8b743c	-0.27237117
40	0x3d588bce	0.052867703
41	0xbf0845db	-0.5323159
42	0xb649c5bf	-3.0066437e-06
43	0xbe91db92	-0.2848783
44	0xbeb7a43c	-0.35867488
45	0xbe096941	-0.13419057
46	0xbde4875c	-0.1115863
47	0xbdfbd507	-0.12296491
48	0xbe712aaa	-0.23551431
49	0xbe73a30c	-0.23792666
50	0xbe5d8d15	-0.2163585
51	0x3cd4afeb	0.02596279
52	0xbce068d1	-0.02739373
53	0xbc65f0fc	-0.014034506
54	0xbd638072	-0.055542417
55	0xbf264b7e	-0.6495894
56	0xbf191848	-0.59802675
57	0xbecac25b	-0.39601406
58	0xbecf647d	-0.40506354
59	0x3d824d34	0.063623816
60	0xbe683f65	-0.22680433
61	0xbec2d58a	-0.38053542
62	0xbeada743	-0.33916673
63	0xbe1b9aad	-0.15195723
64	0xbe88206d	-0.2658724
65	0x3d0fe1cb	0.035127442
66	0x3e7e7960	0.24850988
67	0x3cacf3b0	0.021112293
68	0xbdb732e8	-0.089452565
69	0xbd38da23	-0.045129906
70	0xbe0cc3b8	-0.13746536
71	0xbe06d4c9	-0.13167109
72	0xbde60fc5	-0.112334765
73	0x3d06400d	0.032775927
74	0x3bda45d3	0.0066611557
75	0xbeb837e2	-0.35980135
76	0x3de478b6	0.11155836
77	0x3d7fbda0	0.0624367
78	0xbe65dcb1	-0.22447468
79	0xbebe3f8c	-0.37157857
80	0xbe05f03b	-0.13079922
81	0xbca5e50a	-0.020250816
82	0xbde6cb9b	-0.112693034
83	0x3cf8c9f9	0.030369746
84	0xbe3e796c	-0.18601006
85	0xbd9b15fe	-0.07572554
86	0xbdd9d756	-0.10636775
87	0xbe7e9973	-0.24863224
88	0xbe32ead0	-0.17472386
89	0x3e13209d	0.1436791
90	0xbc471dc3	-0.012153092
91	0xbdd9ba2b	-0.10631212
92	0xbf04f59f	-0.5193729
93	0x3d8cf47c	0.06882569
94	0xbe56905e	-0.20953509
95	0xbea88ee5	-0.3292152
96	0x3b197eb1	0.0023421461
97	0xbd9da3b7	-0.07697242
98	0xbe345da5	-0.17613848
99	0xbde0a985	-0.10969833
100	0x3e237fb4	0.15966684
101	0xbeb92b80	-0.36166
102	0xbe5ef5f0	-0.21773505
103	0xbdcda13c	-0.10040519
104	0xbd89994e	-0.06718694
105	0xbe00ed85	-0.12590607
106	0x3c2c52d5	0.010517796
107	0xbdd82f56	-0.105559036
108	0xbe2dd2d6	-0.16974959
109	0x3d080504	0.03320791
110	0xbe6197df	-0.2203059
111	0xbc1e4bf4	-0.009661663
112	0xbe725ab2	-0.2366741
113	0x3c5fbdc7	0.013656086
114	0xbe936389	-0.28786877
115	0x3bcdbd80	0.0062786937
116	0xbe607a22	-0.2192159
117	0x3c609fa9	0.013709941
118	0xbdd3561a	-0.10319157
119	0xbea0fdf4	-0.3144375
120	0xbe813347	-0.25234434
121	0x3ea7552d	0.3268217
122	0xbdc74591	-0.097300656
123	0xbe6f059b	-0.23341982
124	0xbe8805d7	-0.26566955
125	0xbe36271c	-0.17788357
126	0xbe910444	-0.28323567
127	0x3d607298	0.054796785
128	0x3db2b0b1	0.087251075
129	0xbe22795c	-0.15866607
130	0x3c1b3a9c	0.009474423
131	0x3df3ccd7	0.119043045
132	0x3d2807c8	0.041023046
133	0x3e09c8c5	0.13455494
134	0xbe57dd30	-0.2108047
135	0x3e0c9472	0.13728502
136	0x3bbbd09a	0.0057316544
137	0x3e425348	0.18977082
138	0xbcc26485	-0.023729572
139	0xbd541662	-0.05177916
140	0x3c819f5f	0.015823064
141	0xbe0a1564	-0.13484722
142	0xbcc573c4	-0.024103053
143	0xbdeba6ed	-0.11506448
144	0xbdcbf268	-0.09958345
145	0xbd92d85f	-0.07170176
146	0xbc260c9a	-0.01013484
147	0xbe0f5e9e	-0.14000937
148	0x3bc2e577	0.0059477645
149	0xbe48e68b	-0.19619195
150	0xbd64ebca	-0.05588893
151	0x3e174f18	0.14776266
152	0xbe6649d0	-0.22489095
153	0xbb66e8a4	-0.003523388
154	0x3d338c89	0.043835197
155	0x3c860d86	0.01636387
156	0x3e37568e	0.17904112
157	0x3e313d8e	0.17308637
158	0x3d09dbcc	0.03365688
159	0xbd51cbd4	-0.051219776
160	0x3e156767	0.14590226
161	0xbd4443b3	-0.047916126
162	0x3d034fd1	0.03205854
163	0x3d2c5318	0.042071432
164	0x3db650ce	0.08902131
165	0xbdaecccb	-0.08535155
166	0xbe360a80	-0.17777443
167	0x3e1bc223	0.15210776
168	0xbd7e02b6	-0.062014304
169	0x3e2c6dd4	0.16838771
170	0xbca83a9e	-0.020535763
171	0x3e21ec06	0.15812692
172	0x3de332f4	0.11093703
173	0xbe069961	-0.13144447
174	0x3cea8e79	0.02863239
175	0x3dbaa2dd	0.09113095
176	0x3d82bdd1	0.06383861
177	0xbbf66043	-0.0075187995
178	0x3ddfdf23	0.10931232
179	0x3b57e84a	0.0032944852
180	0xbe5f3151	-0.21796156
181	0x3de7c09b	0.113160335
182	0x3d8950ef	0.0670489
183	0x3e407fd6	0.18798766
184	0xbd4d98ad	-0.05019443
185	0x3e0d01fa	0.13770285
186	0x3df63249	0.1202131
187	0x3d36dbe2	0.04464329
188	0x3e035858	0.12826669
189	0xbb8f77f8	-0.004378315
190	0xbe9ffd68	-0.3124802
191	0xbda37c25	-0.07982663
192	0xbdbc9fd1	-0.0921017
193	0xbdfa77c3	-0.12229874
194	0x3da43672	0.08018197
195	0xbe16892b	-0.14700763
196	0xbe59ed25	-0.2128187
197	0xbefc221c	-0.49244773
198	0xbed5958a	-0.41715652
199	0x3ddf2e1a	0.10897465
200	0xbe4d675e	-0.20058963
201	0xbd4d7d17	-0.050168123
202	0xbe24c9b8	-0.16092575
203	0xbf3741aa	-0.7158457
204	0x3d8ae110	0.067812085
205	0xbddd3508	-0.108011305
206	0xbe6d72ce	-0.23188326
207	0xbefdefd4	-0.49597037
208	0xbdfcabb2	-0.12337436
209	0xbedbd9e3	-0.42939672
210	0xbdd95d3e	-0.10613488
211	0x3d21c9ab	0.039498966
212	0xbeca0ee3	-0.39464483
213	0xbef02a1d	-0.4690713
214	0xbdc940f2	-0.098268405
215	0xbf350b2c	-0.7072017
216	0xbe805ffb	-0.25073227
217	0xbe823030	-0.2542739
218	0x3dbb5ac1	0.09148169
219	0x3dbb2d33	0.091394804
220	0xbf0c7b71	-0.54875857
221	0x3cd61e4c	0.026137494
222	0xbe9a652c	-0.30155313
223	0xbe726f59	-0.23675288
224	0xbd6ab341	-0.057299856
225	0xbe5239a7	-0.20529805
226	0xbe6de650	-0.23232388
227	0xbeae24af	-0.34012362
228	0xbc1720e1	-0.009224148
229	0xbed15946	-0.40888423
230	0xbe6fcb04	-0.23417288
231	0xbe1767a5	-0.14785631
232	0x3d9f2bea	0.07772048
233	0xbf0ab11f	-0.54176515
234	0xbdde084b	-0.108414255
235	0xbe478e8b	-0.1948797
236	0xbdfaadcc	-0.122401804
237	0xbe6a04e2	-0.22853425
238	0xbe23ee36	-0.16008839
239	0xbd794461	-0.060856227
240	0xbe8ee61b	-0.27909932
241	0xbdbdd61b	-0.09269353
242	0xbc3ff25f	-0.011715501
243	0x3e3dbe41	0.18529607
244	0x3cbc33e4	0.022973962
245	0x3da5693d	0.08076713
246	0x3d218ff5	0.03944393
247	0xbf0d7688	-0.5525899
248	0xbf246f53	-0.6423237
249	0x3d9a9297	0.07547491
250	0xbec942b8	-0.39308715
251	0xbdccc4ee	-0.09998499
252	0xbe5d74f1	-0.21626641
253	0xbecb6bba	-0.39730626
254	0xbd608ee1	-0.05482376
255	0x3d869c14	0.06572738

lstm.bias_hh_l0 f4 [256]
0	0xbeb1aebb	-0.3470362
1	0xbe92e9d8	-0.28694034
2	0xbe908865	-0.2822906
3	0x3e030407	0.12794505
4	0xbee42d20	-0.44565678
5	0xbf0d47ac	-0.5518749
6	0xbe6fbe90	-0.23412538
7	0x3e046920	0.12930727
8	0xbe469963	-0.1939445
9	0xbbc63686	-0.00604898
10	0xbe92898f	-0.28620574
11	0xbf530e44	-0.8244364
12	0x3db8d398	0.09024733
13	0xbe995d40	-0.29953957
14	0xbec3f543	-0.38273057
15	0xbf11f5df	-0.57015795
16	0xbec06ab2	-0.37581402
17	0xbd323afe	-0.04351329
18	0xbe59d200	-0.21271515
19	0xbe10570a	-0.14095703
20	0xbbb72d92	-0.005590149
21	0xbeb9aff5	-0.36267057
22	0xbdc286e3	-0.09498384
23	0xbf375700	-0.71617126
24	0xbed0452c	-0.40677774
25	0xbe5dc1f2	-0.21656016
26	0xbdcfc68d	-0.101452924
27	0xbe55451b	-0.20827143
28	0xbedc8811	-0.4307256
29	0xbe8991b2	-0.2686897
30	0xbe924486	-0.28567904
31	0xbeceeb5b	-0.40413937
32	0xbdfc4c50	-0.12319243
33	0xbd3fdef4	-0.046843484
34	0xbeac7732	-0.3368469
35	0xbebce746	-0.36895198
36	0xbeb9dafc	-0.36299884
37	0xbf0e59e6	-0.55605924
38	0xbe91ae19	-0.28453138
39	0xbe29b28d	-0.16572018
40	0x3d476c2a	0.048687138
41	0xbf075304	-0.52861047
42	0xbc6c0aac	-0.014406841
43	0xbeb979d9	-0.36225775
44	0xbedbbe13	-0.42918453
45	0xbe385d28	-0.18004286
46	0xbde6de09	-0.112728186
47	0xbe8ea016	-0.2785651
48	0xbe18899e	-0.14896247
49	0xbea26d83	-0.31724176
50	0xbeac8686	-0.33696383
51	0xbd6bb81d	-0.05754863
52	0x3ddac358	0.1068179
53	0xbd386088	-0.045013934
54	0xbc650486	-0.013978129
55	0xbefd4eef	-0.49474284
56	0xbf12011e	-0.57032955
57	0xbf0c305b	-0.54761285
58	0xbeaafed8	-0.33397555
59	0xbd12f79c	-0.03588067
60	0xbe0f9ad1	-0.14023902
61	0xbebc29de	-0.36750692
62	0xbe9f28e6	-0.3108589
63	0xbe832055	-0.25610605
64	0xbe8a011f	-0.2695398
65	0xbd26d65c	-0.040731773
66	0x3e63cc21	0.22245838
67	0xbdb1e9f5	-0.08687202
68	0xbe0971d0	-0.13422322
69	0xbbc4dd05	-0.006007793
70	0xbc9a375e	-0.01882523
71	0xbe27811d	-0.16357847
72	0xbdb41157	-0.0879237
73	0x3d0d094a	0.034432687
74	0xbd43d84a	-0.04781369
75	0xbebf9988	-0.37421823
76	0xbd371bb4	-0.044704154
77	0xbd23a542	-0.039952524
78	0xbe58bc8a	-0.21165672
79	0xbeb44973	-0.35212287
80	0xbd8430ca	-0.06454618
81	0xbd0f1f71	-0.034942094
82	0xbd561e3d	-0.05227493
83	0x3ccd3a7d	0.025052303
84	0xbe96d6b1	-0.29460672
85	0xbd48c9eb	-0.04902069
86	0xbc40a24c	-0.011757445
87	0xbe8fb673	-0.28068885
88	0xbe9b807e	-0.3037147
89	0x3e805cfa	0.25070935
90	0x3da3a27d	0.079899766
91	0xbe23a689	-0.15981497
92	0xbeec41d6	-0.4614398
93	0xbcbb1161	-0.022835435
94	0xbeb46437	-0.35232708
95	0xbe9c6942	-0.30549055
96	0x3cad1a3a	0.02113067
97	0x3d0946d1	0.0335148
98	0xbddf3629	-0.10899002
99	0x3cf1e948	0.029530182
100	0x3da3c88c	0.07997236
101	0xbeb8a937	-0.360666
102	0xbe99a5e6	-0.30009383
103	0xbb8b0b83	-0.0042433157
104	0xbd60ae4f	-0.054853734
105	0xbe216666	-0.15761718
106	0xbdd5d4bc	-0.104409665
107	0xbe67b2de	-0.22626826
108	0xbe4b7835	-0.19870074
109	0x3e315eb4	0.17321283
110	0xbe1d5a88	-0.15366566
111	0x3db8e7f8	0.090286195
112	0xbe08a63c	-0.13344663
113	0xbcbe1eac	-0.023207985
114	0xbe4d2b34	-0.20036012
115	0x3c1fd734	0.009755898
116	0xbe1aefa7	-0.15130483
117	0xbe05ee20	-0.13079119
118	0xbe1cc641	-0.15310003
119	0xbe2a33c9	-0.16621317
120	0xbe9a2ce7	-0.30112383
121	0x3ee5d102	0.44886023
122	0xbe531ce1	-0.20616485
123	0xbd8c8d7c	-0.068629235
124	0xbe52bd8c	-0.20580119
125	0xbd9771d6	-0.07394759
126	0xbd4c0858	-0.049812645
127	0xbd901aa7	-0.070363335
128	0x3d2c8276	0.042116605
129	0x3d04c38f	0.03241306
130	0x3dc4725b	0.09592124
131	0x3d59ac0d	0.053142596
132	0x3d88050d	0.06641588
133	0x3d9704b7	0.07373946
134	0xbd6a56a9	-0.05721155
135	0x3dbc1ab1	0.091847785
136	0x3aba684c	0.0014221757
137	0x3d7dc88e	0.061958842
138	0xbcf22d73	-0.029562688
139	0xbd0408a9	-0.03223482
140	0xbd2a3259	-0.04155192
141	0xbda2c4d5	-0.07947699
142	0x3d181585	0.037129898
143	0xbe3e5616	-0.18587527
144	0x3d06a058	0.03286776
145	0x3da53d85	0.080683745
146	0xbdd2884e	-0.10279904
147	0xbe54b909	-0.2077371
148	0xbcd044e8	-0.025423482
149	0xbd2b82eb	-0.0418729
150	0xbe09cc5d	-0.13456865
151	0x3c01cd90	0.007922545
152	0xbe3dfc11	-0.18553187
153	0xbc37a830	-0.011209533
154	0xbdd75756	-0.10514705
155	0xbce45d32	-0.02787647
156	0x3d803293	0.06259646
157	0x3e3e02c5	0.18555744
158	0x3d6a385d	0.05718266
159	0x3cbaec5a	0.02281778
160	0xbd970582	-0.073740974
161	0x3ce7b29a	0.028283406
162	0x3dfe0963	0.12404134
163	0x3e1d5ee8	0.15368235
164	0xbd901d60	-0.07036853
165	0xbdf8731e	-0.12131332
166	0xbe6dd9ee	-0.23227665
167	0x3e0ecf8d	0.13946362
168	0x3d8c4036	0.06848185
169	0x3dfa95b7	0.12235587
170	0xbd5e407a	-0.05426071
171	0x3d9f871e	0.077894434
172	0x3bbc75dd	0.005751355
173	0xbc9464e0	-0.018114507
174	0xbdd758a8	-0.10514957
175	0x3d172c8d	0.03690772
176	0xbe17fb83	-0.14842038
177	0x3d3e1d01	0.04641438
178	0x3ca1f74f	0.019771246
179	0x3d41932d	0.0472595
180	0xbe21532d	-0.15754385
181	0x3e1e48e8	0.15457499
182	0x3d936242	0.071964756
183	0x3ddc92d2	0.10770191
184	0xbe07db49	-0.13267244
185	0x3ca5523a	0.02018081
186	0x3d670f7e	0.05641126
187	0x3d6098d8	0.054833263
188	0x3e385696	0.1800178
189	0x3d8988fd	0.067155816
190	0xbdec3ee5	-0.11535434
191	0xb8eb5e57	-0.000112232454
192	0xbdaa6162	-0.083193555
193	0xbe83e290	-0.2575879
194	0x3d84e679	0.06489272
195	0x3d6a81d6	0.057252727
196	0xbd9e673f	-0.077345364
197	0xbed35bc1	-0.4128094
198	0xbee0bc91	-0.43893865
199	0x3e886196	0.26636952
200	0xbdeb0c5d	-0.114769675
201	0xbc855985	-0.016278038
202	0xbeaeb016	-0.34118718
203	0xbf20453f	-0.6260566
204	0x3e259283	0.16169171
205	0xbe0d0d1c	-0.13774532
206	0xbe02683a	-0.12735072
207	0xbf1d228f	-0.6138086
208	0xbe3cce3f	-0.18438052
209	0xbe8fa494	-0.2805525
210	0xbc5ca3f4	-0.013466824
211	0x3c33ef2f	0.010982319
212	0xbe6727af	-0.22573732
213	0xbeabaf74	-0.33532298
214	0xbd76551a	-0.060139753
215	0xbf0aba07	-0.54190105
216	0xbe759467	-0.23982392
217	0xbe137fd8	-0.14404237
218	0x3dabd0bd	0.08389423
219	0x3db2fada	0.087392524
220	0xbf11fcbc	-0.5702627
221	0xbe01f7ce	-0.12692186
222	0xbe8d1362	-0.2755385
223	0xbe6e41fc	-0.23267359
224	0x3c0c8451	0.008576469
225	0xbe450eda	-0.19243947
226	0xbe49079d	-0.1963181
227	0xbe2ac304	-0.16675955
228	0xbdd413f0	-0.10355365
229	0xbf10811d	-0.5644701
230	0xbe3ef57a	-0.1864833
231	0xbdea90ff	-0.11453437
232	0x3d8d1b3c	0.0688996
233	0xbf0baadd	-0.5455759
234	0x3c428e9f	0.011874824
235	0xbdc46650	-0.09589827
236	0xbdc71603	-0.09720995
237	0xbe199283	-0.14997296
238	0xbe33339f	-0.1750016
239	0xbdf6578d	-0.12028418
240	0xbe6ce9b7	-0.2313603
241	0xbe6c4ec6	-0.23076925
242	0xbe2d6527	-0.16933118
243	0x3e54c6eb	0.20779006
244	0xbdd75a24	-0.1051524
245	0xbe2039ca	-0.15647045
246	0xbdd7e9b0	-0.10542619
247	0xbef59b4f	-0.47970054
248	0xbf06e810	-0.5269785
249	0x3d822263	0.06354215
250	0xbe89beb0	-0.26903296
251	0xbe12129a	-0.14264908
252	0xbeb47b09	-0.35250118
253	0xbead4c31	-0.33847192
254	0xbe6a5362	-0.2288337
255	0xbddb7474	-0.10715571

lstm.weight_ih_l1 f4 [256, 64]
0	0xbd439d87	-0.04775765
1	0xbe4aeadb	-0.19816153
2	0x3d94bc06	0.07262425
3	0xbe8057f6	-0.2506711
4	0xbe77d230	-0.24201274
5	0x3d2cf773	0.042228173
6	0x3e4e4a3e	0.20145509
7	0xbca6e558	-0.020373031
8	0xbccd6773	-0.025073742
9	0x3e4c4c8e	0.19951078
10	0xbd8ac57a	-0.06775947
11	0x3e5c8438	0.21534812
12	0x3ce29860	0.027660549
13	0xbe282c6f	-0.164232
14	0x3d13f3a5	0.03612103
15	0xbca8cd66	-0.020605754
16	0x3e9412c5	0.2892057
17	0xbda839cc	-0.08214149
18	0xbe730acd	-0.23734589
19	0x3e2e9637	0.1704949
20	0x3de57a71	0.112049945
21	0xbe8a2263	-0.2697936
22	0x3eb6c54b	0.35697398
23	0x3e09a0b0	0.13440204
24	0x3b70942a	0.0036709406
25	0x3d8bb98b	0.06822499
26	0xbe0d95b3	-0.13826637
27	0x3d765fe7	0.060150053
28	0xbdaf28b7	-0.085526876
29	0x3d16d7b2	0.036826797
30	0xbe57db98	-0.21079862
31	0x3d637636	0.055532657
32	0xbc7b527d	-0.015339491
33	0x3c19e1b4	0.009392191
34	0xbc8e581c	-0.017375998
35	0xbe0ef87d	-0.13961978
36	0xbda65c44	-0.08123067
37	0x3dade96a	0.08491786
38	0x3e82f620	0.25578403
39	0x3c075925	0.008261
40	0x3a800667	0.0009767533
41	0xbd256ae8	-0.040385157
42	0xbd057ff0	-0.032592714
43	0xbd9d4fef	-0.07681262
44	0x3ddbfdbd	0.10741756
45	0xbb6fcd85	-0.0036591005
46	0xbde5742f	-0.11203801
47	0xbdd4f4e3	-0.10398271
48	0x3d9e3e66	0.07726745
49	0xbda34656	-0.079724
50	0xbd10e398	-0.0353733
51	0xbd88362e	-0.06650959
52	0xbe89c384	-0.2690698
53	0xbe23a370	-0.15980315
54	0x3e181026	0.1484991
55	0xbdcf454d	-0.1012064
56	0xbe588b73	-0.21146946
57	0x3d9f932c	0.07791743
58	0xbdc0e30c	-0.09418306
59	0x3dff214e	0.12457524
60	0xbe045998	-0.12924802
61	0xbdf0039a	-0.11719437
62	0xbda99dfb	-0.082820855
63	0x3e0f12e9	0.13972057
64	0xbdf01a1a	-0.117237285
65	0xbd925ec7	-0.071469836
66	0x3f0d8833	0.5528595
67	0xbdc36b3c	-0.09541938
68	0xbe3912be	-0.18073556
69	0xbe8bfbb1	-0.27340463
70	0x3e7513e5	0.2393337
71	0x3dd855b5	0.10563222
72	0x3c7c435d	0.01539692
73	0x3e2cb92b	0.16867511
74	0xbe34d6d1	-0.17660071
75	0xbef1499a	-0.47126466
76	0xbd800bc5	-0.06252245
77	0xbe54c92f	-0.2077987
78	0x3e584734	0.21120912
79	0xbe4f8ecc	-0.20269316
80	0x3f31fbfb	0.69525117
81	0x3ce06fbb	0.027397027
82	0x3ddc1ddb	0.10747882
83	0x3e0ca1f2	0.13733652
84	0x3f2bd8dc	0.67127776
85	0xbec892a6	-0.39174384
86	0x3f08f359	0.5349632
87	0xbe594f19	-0.2122158
88	0xbdcff05f	-0.10153269
89	0x3e45ee61	0.19329216
90	0x3e181ee3	0.14855532
91	0xbe966056	-0.29370373
92	0xbe6d94ed	-0.23201342
93	0xbd422c7d	-0.04740571
94	0x3e6d4d81	0.23174097
95	0xbe3e59eb	-0.18588988
96	0x3ee4199d	0.4455079
97	0x3dff459f	0.12464451
98	0x3e32565c	0.17415756
99	0xbe19a847	-0.15005599
100	0xbd5ca7f1	-0.0538711
101	0x3ed45438	0.41470504
102	0x3e05cb71	0.13065888
103	0xbe89f687	-0.26945898
104	0xbce589a2	-0.02801973
105	0xbecf2671	-0.40459016
106	0xbc81a20b	-0.015824338
107	0xbf2d3ad5	-0.67667896
108	0xbe1683d7	-0.1469873
109	0x3976f75f	0.00023552541
110	0xbea26dca	-0.31724387
111	0x3e1ab3df	0.15107678
112	0xbcdf1b1b	-0.027234605
113	0xbdee4386	-0.11633973
114	0xbc77df4d	-0.015128923
115	0x3e88804a	0.26660377
116	0xbe74e144	-0.23914057
117	0xbe896918	-0.26837993
118	0x3dca75e1	0.09885765
119	0x3daa9b6c	0.083304256
120	0x3e3aaf0b	0.18230836
121	0xbe3fda16	-0.18735537
122	0xbe63231f	-0.22181366
123	0x3d8c999b	0.068652354
124	0xbec4f161	-0.38465407
125	0x3d1f31df	0.03886592
126	0xbe16bbc7	-0.14720069
127	0xbe864c10	-0.26229906
128	0xbdae8ec2	-0.08523323
129	0xbe8071e2	-0.25086886
130	0xbe222dd5	-0.15837796
131	0xbe120893	-0.14261083
132	0xbdfd61fd	-0.123722054
133	0xbc5c698b	-0.013452898
134	0x3cbc3a79	0.0229771
135	0x3dc0fe40	0.09423494
136	0xbd940186	-0.07226853
137	0xbd112d46	-0.035443567
138	0xbd8dde8e	-0.069272146
139	0x3e6038aa	0.21896616
140	0xbd96bd42	-0.07360317
141	0xbc2cf479	-0.010556334
142	0xbe632e74	-0.22185689
143	0xbb972167	-0.004612136
144	0x3dd96ffa	0.10617061
145	0xbba66d11	-0.0050789197
146	0xbd152794	-0.036414698
147	0x3de0972d	0.109663345
148	0xbe472369	-0.19447102
149	0x3ddee581	0.10883618
150	0xbbf5491b	-0.0074855215
151	0xbbfdd0c6	-0.007745835
152	0x3e78c3c8	0.24293435
153	0xbd59adde	-0.05314433
154	0xbdf6e7e1	-0.12055946
155	0xbda5c7d1	-0.080947526
156	0x3ba9b92e	0.005179546
157	0xbdb130b9	-0.08651871
158	0xbe22a295	-0.15882333
159	0x3e220860	0.15823507
160	0xbda72277	-0.081608705
161	0xbdf4ade1	-0.11947227
162	0xbe243bef	-0.16038488
163	0xbdf1876d	-0.117934085
164	0xbc80772d	-0.015681827
165	0x3d6051e0	0.054765582
166	0x3dc28544	0.09498075
167	0xbce4f7e8	-0.027950242
168	0x3e1b7d2f	0.15184473
169	0x3ca02a63	0.019551462
170	0xbcf7b1b7	-0.030236108
171	0x3d608ad3	0.054819893
172	0xbd6cea98	-0.057840914
173	0x3e20ae5c	0.15691513
174	0x3e37b94d	0.1794178
175	0xbb82ff20	-0.0039976984
176	0xbc6900ed	-0.014221412
177	0xbe0947e3	-0.13406329
178	0x3dfc8df2	0.123317614
179	0xbbc54fb4	-0.0060214642
180	0xbde52a3a	-0.11189695
181	0xbd255248	-0.040361673
182	0xbd4e0719	-0.050299738
183	0xbe33f4ea	-0.17573896
184	0xb9b37b3a	-0.00034233351
185	0x3dbf95f9	0.09354777
186	0x3dafb9b3	0.08580341
187	0xbd0a7f3b	-0.033812743
188	0x3d300d9c	0.04298173
189	0xbd9d5f7e	-0.07684229
190	0x3e31acc5	0.17351063
191	0x3e33e044	0.1756602
192	0x3de146db	0.10999843
193	0x3e1a887a	0.15091124
194	0x3dbed704	0.09318355
195	0x3e0fd7e1	0.14047195
196	0x3e622f34	0.22088319
197	0xbd79633b	-0.06088565
198	0x3d99f441	0.07517291
199	0x3b76cc6b	0.0037658464
200	0x3dbfb4ef	0.09360682
201	0x3e1d056a	0.15334097
202	0xbda41bf2	-0.08013143
203	0x3ea74ef5	0.32677427
204	0x3d1c606b	0.03817789
205	0x3da14f3e	0.078764424
206	0xbe52c878	-0.20584285
207	0x3d2fd659	0.042929027
208	0xbe00e4e0	-0.12587309
209	0xbdf66efd	-0.12032888
210	0xbd9f2b07	-0.07771879
211	0xbeb99898	-0.36249232
212	0x3e202e42	0.15642646
213	0x3eb28d10	0.34873247
214	0xbe75b602	-0.23995212
215	0x3efdcf2e	0.49572128
216	0x3e0b0351	0.13575484
217	0x3d88808a	0.06665142
218	0x3e44f463	0.19233851
219	0xbc84dd29	-0.016218739
220	0xbe1ef9d6	-0.15524992
221	0xbe0b4ca9	-0.13603462
222	0xbed6c884	-0.41949856
223	0x3be2ada4	0.006917672
224	0xbe21eb2b	-0.15812366
225	0xbe0a673c	-0.13515943
226	0x3e3ee744	0.18642908
227	0xbdc42d2b	-0.095789276
228	0xbd751b0c	-0.059840247
229	0x3e751b46	0.23936185
230	0x3dc42444	0.095772296
231	0x3cd7f73b	0.026363006
232	0xbebab040	-0.36462593
233	0xbdabc1eb	-0.08386596
234	0x3e19496f	0.14969419
235	0x3e360adc	0.1777758
236	0x3d6b3fd4	0.057433918
237	0x3e823919	0.25434187
238	0x3e3ad7fb	0.18246453
239	0xbd2e906c	-0.0426182
240	0x3e986b11	0.29769185
241	0x3def48a0	0.11683774
242	0x3de6635a	0.112494186
243	0xbea01ca7	-0.3127186
244	0x3d9d95df	0.07694601
245	0xbe36f77c	-0.17867845
246	0xbd9b8cad	-0.07595191
247	0xbcfa7e81	-0.0305779
248	0x3df17458	0.11789769
249	0x3e388f60	0.18023443
250	0x3d160209	0.036623035
251	0xbe72228a	-0.23645988
252	0xbd1885c7	-0.037236955
253	0xbd9cd924	-0.07658604
254	0x3da73dfe	0.08166121
255	0x3e59ab6f	0.21256803

lstm.weight_hh_l1 f4 [256, 64]
0	0x3d82cd22	0.06386782
1	0x3de2fc00	0.110832214
2	0xbd2a1945	-0.041528005
3	0x3d90142a	0.07035096
4	0xbe1e791f	-0.15475892
5	0xbdde47fe	-0.10853575
6	0x3d44cfa9	0.048049603
7	0x3cdfece3	0.027334636
8	0x3d7cad02	0.06168843
9	0xbd47354b	-0.04863481
10	0xbc4aaa03	-0.0123696355
11	0xbec706de	-0.38872427
12	0x3e1584cc	0.14601439
13	0x3e0cc808	0.13748181
14	0x3deb5659	0.11491079
15	0xbc56f0c8	-0.01311893
16	0xbca6b6b0	-0.020350784
17	0x3d48e438	0.04904577
18	0xbd72a98f	-0.059243735
19	0x3b82db8d	0.0039934576
20	0x3bf0fa76	0.007354076
21	0xbe690251	-0.2275479
22	0x3cf96ee2	0.03044838
23	0xbd6b50fa	-0.057450272
24	0xbd9781c4	-0.07397798
25	0xbdef6b78	-0.1169042
26	0x3db5762b	0.088604294
27	0x3e8f28ef	0.27960917
28	0xbd90df89	-0.07073886
29	0xbcf7e261	-0.030259313
30	0xbd97604f	-0.07391416
31	0x3d48bb3a	0.04900668
32	0xbcc3e118	-0.023911044
33	0x3e3d6e0b	0.1849901
34	0x3cbbbc80	0.022917032
35	0x3c381681	0.011235834
36	0xbd8efed1	-0.06982196
37	0x3e454022	0.19262746
38	0xbe9e65a5	-0.30936924
39	0xbdbedaf5	-0.093191065
40	0xbcf47241	-0.029839637
41	0x3e1867a6	0.14883289
42	0x3d3eaac1	0.046549562
43	0x3d93e769	0.07221872
44	0x3e0d07d9	0.13772525
45	0xbe2792d3	-0.16364603
46	0x3ad02cc6	0.0015882484
47	0x3d227b03	0.039668094
48	0xbdfc4514	-0.12317863
49	0xbe7e3c06	-0.24827585
50	0xbdfc0c3f	-0.12307023
51	0x3cc50f5c	0.024055175
52	0x3e0c5624	0.13704735
53	0x3d35ac9e	0.044354074
54	0xbd8bf429	-0.06833679
55	0xbde8778c	-0.11350927
56	0x3ea5729c	0.32314003
57	0x3dbcc179	0.092165895
58	0x3e88d178	0.26722312
59	0x3da5063f	0.08057832
60	0xbe309084	-0.17242628
61	0xbded8efd	-0.115995385
62	0xbce375c4	-0.027766116
63	0xbdc9ae1c	-0.09847662
64	0x3e885f67	0.26635286
65	0xbc744345	-0.014908616
66	0xbe9ac5a7	-0.30228922
67	0xbe2a2fae	-0.16619751
68	0x3d886769	0.06660349
69	0x3db58e1b	0.08864995
70	0x3e552137	0.20813452
71	0xbe516500	-0.20448685
72	0x3d25a75a	0.040442802
73	0x3d8cd4e2	0.06876542
74	0x3e7ea681	0.24868204
75	0xbdfb571a	-0.12272473
76	0x3d864b7e	0.06557368
77	0xbe047f9c	-0.12939304
78	0x3d05f74a	0.032706536
79	0x3e4432cb	0.19160001
80	0xbe3be13d	-0.1834764
81	0x3b3218a9	0.0027175343
82	0xbbcdabe2	-0.0062765935
83	0x3d3e1cd2	0.046414204
84	0x3cc25dac	0.023726307
85	0xbe5bf3f9	-0.21479787
86	0xbc116745	-0.008874719
87	0xbd6e3bf2	-0.058162637
88	0x3b00d6e7	0.0019659342
89	0xbe0c47e5	-0.136993
90	0x3cadf132	0.021233175
91	0x3df4ccbe	0.11953114
92	0x3d8d2943	0.06892636
93	0x3dcd1ba9	0.100150414
94	0x3e671da1	0.22569896
95	0xbe62dc88	-0.22154438
96	0xbdc2b7dc	-0.09507725
97	0x3df19812	0.11796583
98	0xbd014f4e	-0.03156977
99	0x3de4b584	0.11167434
100	0xbe064c60	-0.13115072
101	0x3e562d6d	0.20915766
102	0xbe259619	-0.16170539
103	0xbdf09a4e	-0.11748181
104	0x3d1986d2	0.03748209
105	0x3e5ade1d	0.21373792
106	0x3ea6635e	0.32497686
107	0xbcee11a8	-0.029061154
108	0x3c9da990	0.019245893
109	0xbe8ffca3	-0.28122434
110	0x3c5ecf7c	0.013599273
111	0x3df4164d	0.11918316
112	0x3d9c7f6c	0.07641491
113	0xbe80faaf	-0.25191256
114	0x3d260428	0.040531307
115	0x3e5e46ed	0.21706744
116	0x3dc55376	0.096350595
117	0x3da8065a	0.082043365
118	0x3e43dcd6	0.19127211
119	0x3eead60a	0.45866424
120	0x3de42b40	0.11141062
121	0x3ea9d15a	0.33167535
122	0x3dc7c096	0.0975353
123	0x3c18dd6a	0.009330133
124	0xbd52a1f7	-0.051423993
125	0x3e85d525	0.2613918
126	0xbe072eb3	-0.13201408
127	0xbe58b565	-0.21162947
128	0xbd30d40d	-0.043170977
129	0x3e9012a9	0.28139237
130	0xbded88e6	-0.11598377
131	0x3e18e2b9	0.14930238
132	0x3d917b80	0.07103634
133	0xbd9aa114	-0.075502545
134	0xbdf1f0da	-0.11813517
135	0x3c87860d	0.016543413
136	0x3ca91fb6	0.020645004
137	0xbdc89e6c	-0.097958416
138	0x3db3f686	0.08787255
139	0xbdd2a4b0	-0.10285318
140	0x3c8863ce	0.016649153
141	0xbdb0b1ef	-0.08627688
142	0x3d2b0485	0.041752357
143	0x3de8a1f6	0.113590166
144	0x3d5b0517	0.05347165
145	0x3d4a2314	0.04934986
146	0x3e5c7793	0.21529989
147	0x3c70054c	0.0146497
148	0xbc1ce990	-0.00957717
149	0xbe32170c	-0.17391604
150	0x3e3029fb	0.17203514
151	0x3ccd7d3f	0.025084136
152	0xbe1b6f7a	-0.15179244
153	0x3d645dd6	0.05575355
154	0x3d6a2c05	0.057170887
155	0xbe10e67a	-0.1415042
156	0x3e1b35ed	0.1515729
157	0xbde15951	-0.11003364
158	0xbc28556c	-0.010274272
159	0x3da6f987	0.08153062
160	0xbdc56ff2	-0.096404925
161	0x3d3b7455	0.04576524
162	0xbdd4ceba	-0.103909925
163	0xbe37883b	-0.17923062
164	0x3d32a98f	0.043618735
165	0x3da94b3d	0.08266304
166	0xbe3049a9	-0.17215599
167	0xbe282b58	-0.16422784
168	0xbe242bfd	-0.16032405
169	0x3dda627e	0.10663317
170	0x3d02eea1	0.031965856
171	0x3bcae242	0.006191523
172	0x3e15e122	0.14636663
173	0x3d360d3d	0.04444622
174	0x3d850e6f	0.064968936
175	0xbe4a8c4f	-0.19780086
176	0x3c80985d	0.015697652
177	0xbdfa3b02	-0.12218286
178	0x3be24fb2	0.006906473
179	0x3dd1a995	0.10237423
180	0x3db5eefb	0.088834725
181	0x3d13a9db	0.03605066
182	0xbce54c36	-0.027990442
183	0xbd7c1b88	-0.061549693
184	0x3decd0d1	0.11563266
185	0x3d48c4a9	0.049015675
186	0x3e8771df	0.26454064
187	0x3d954b31	0.07289732
188	0xbe88af2c	-0.26696146
189	0xbdad003f	-0.084473126
190	0xbdc27f7a	-0.094969705
191	0x3e9d0d43	0.3067418
192	0x3d402ff2	0.046920724
193	0x3e42fd2a	0.19041887
194	0x3e178e32	0.14800337
195	0xbdf23e0b	-0.1182824
196	0xbe1db225	-0.15399988
197	0xbd954197	-0.07287901
198	0x3da3b915	0.07994286
199	0x3e1941ed	0.14966555
200	0xbe401c04	-0.18760687
201	0xbddc4c19	-0.10756702
202	0xbd11475d	-0.035468448
203	0x3d607a08	0.054803878
204	0xbe271bf7	-0.16319261
205	0xbdec5791	-0.115401395
206	0xbd997924	-0.07493809
207	0xbd8e977d	-0.06962488
208	0xbd74ed55	-0.05979665
209	0x3dd727ef	0.105056636
210	0xbdad311c	-0.084566325
211	0xbd840df4	-0.06447974
212	0x3c8cfb19	0.017209576
213	0x3e910e92	0.2833143
214	0x3e0b0085	0.13574417
215	0xbd34d970	-0.044152677
216	0x3da17e1d	0.07885382
217	0x3e7590a2	0.23980954
218	0xbe41f708	-0.18941891
219	0xbbe71130	-0.0070516095
220	0xbe1f7317	-0.15571247
221	0xbe437ec6	-0.19091329
222	0xbbfbb06e	-0.007680944
223	0xbd82433e	-0.06360482
224	0x3e099e91	0.13439395
225	0xbd140cff	-0.036145207
226	0xbe5603b1	-0.20899846
227	0xbd97c867	-0.074112706
228	0x3dc9382f	0.09825169
229	0xbb8e9bee	-0.0043520844
230	0xbca0baea	-0.019620378
231	0xbdd80767	-0.10548287
232	0x3e4afc01	0.19822694
233	0xbd8b6a5a	-0.06807394
234	0xbd9c3729	-0.076277085
235	0xbd4f9d9e	-0.050687425
236	0xbe2de7f8	-0.1698302
237	0x3e27a124	0.16370064
238	0xbe4a5ded	-0.19762392
239	0xbe4c1535	-0.19929965
240	0x3e86769e	0.26262373
241	0x3dc80127	0.09765845
242	0x3db1763a	0.08665128
243	0xbda3bc8e	-0.07994948
244	0x3be43ef0	0.0069655105
245	0xbdf46ed5	-0.11935202
246	0x3dc4f81a	0.09617634
247	0x3da42bb3	0.080161475
248	0x3de793ee	0.11307512
249	0xbd893160	-0.06698871
250	0xbdf497c4	-0.119430095
251	0xbe49bab5	-0.1970013
252	0x3d6931b0	0.05693215
253	0xbdba9e30	-0.09112203
254	0xbe2ab777	-0.16671549
255	0xba4da88c	-0.0007845245

lstm.bias_ih_l1 f4 [256]
0	0xbf3150b6	-0.6926378
1	0xbf0a4a1c	-0.5401933
2	0xbc87f372	-0.016595576
3	0xbdd111cd	-0.10208473
4	0x3d9e8234	0.07739678
5	0xbe6386b3	-0.22219352
6	0xbf50562f	-0.81381506
7	0xbecb2faa	-0.39684802
8	0xbe0151bb	-0.12628834
9	0xbf2c1959	-0.6722618
10	0xbdc788ac	-0.09742865
11	0xbf075cdb	-0.5287606
12	0xbe824fc1	-0.25451472
13	0xbdd75ad9	-0.10515375
14	0xbed2726c	-0.41102922
15	0xbe1602cc	-0.14649504
16	0xbf179c2d	-0.5922268
17	0x3e065c99	0.1312126
18	0x3e54f7ac	0.20797604
19	0xbf1cb614	-0.6121533
20	0xbf426f26	-0.7595085
21	0xbf61f4b4	-0.8826401
22	0xbf6585ea	-0.8965746
23	0xbeeb6d74	-0.45981944
24	0x3e548e6c	0.20757455
25	0x3a978696	0.0011560495
26	0xbf323cc5	-0.69623977
27	0xbdc1f136	-0.094698355
28	0xbf2d422d	-0.676791
29	0xbf07634a	-0.5288588
30	0xbe990793	-0.2988859
31	0xbf3938e6	-0.72352445
32	0xbe8da1db	-0.27662548
33	0x3db05cfd	0.08611486
34	0xbf9f6ae1	-1.2454492
35	0xbfa8d347	-1.3189477
36	0xbf086bfb	-0.53289765
37	0xbf376017	-0.71630996
38	0xbf4a9241	-0.79129416
39	0xbf622761	-0.8834134
40	0xbeca4de0	-0.3951254
41	0xbeaedeb6	-0.3415429
42	0xbe01e252	-0.1268399
43	0xbf0c096c	-0.54701877
44	0xbf415c85	-0.755318
45	0xbd23cc1a	-0.03998957
46	0x3ccf3bbf	0.025297044
47	0xbf55d21c	-0.83523726
48	0xbeda3806	-0.42620867
49	0xbf3ebd00	-0.7450714
50	0xbec87ee2	-0.39159304
51	0x3caa7c73	0.020811295
52	0xbe9fd0a5	-0.3121387
53	0xbd55a08d	-0.052155066
54	0xbf4fb5b8	-0.81136656
55	0xbeaa4cb6	-0.3326165
56	0xbf308ca3	-0.68964595
57	0xbed08641	-0.40727428
58	0xbedb28d7	-0.42804596
59	0xbf084792	-0.5323421
60	0xbf34e371	-0.7065955
61	0xbe93e275	-0.2888371
62	0xbf178b1b	-0.59196633
63	0xbeeee3d0	-0.46658182
64	0xbe6e6e56	-0.23284277
65	0xbf4fc563	-0.81160563
66	0x3da948df	0.08265852
67	0xbd8d6631	-0.06904257
68	0x3e484c92	0.1956046
69	0x3ade4186	0.0016956783
70	0xbeea9ed0	-0.4582429
71	0xbd94beaf	-0.072629325
72	0xbcc33984	-0.023831137
73	0xbf1d9c30	-0.6156645
74	0x3dda6a37	0.1066479
75	0xbf1e3768	-0.61803293
76	0xbdccd300	-0.100011826
77	0xbd1876f7	-0.03722283
78	0xbf1a935f	-0.6038112
79	0x3e162ce3	0.1466556
80	0xbec47204	-0.38368237
81	0x3ccd23b2	0.025041435
82	0xbd6f004d	-0.058349896
83	0xbe8569d1	-0.26057294
84	0xbf04ef92	-0.51928055
85	0xbf0a23e2	-0.53961
86	0xbf095514	-0.53645444
87	0xbdc513c7	-0.09622913
88	0xbc0dc094	-0.008651871
89	0x3deaea47	0.11470466
90	0xbdb1c4b2	-0.08680095
91	0x3e197941	0.14987661
92	0xbece38a6	-0.40277594
93	0xbee17366	-0.44033355
94	0x3d736f54	0.059432343
95	0xbf02b835	-0.5106233
96	0xbc007094	-0.007839341
97	0xbd8e2ecc	-0.069425195
98	0xbf6c3679	-0.9227062
99	0xbf44eb92	-0.7692195
100	0xbee0d710	-0.4391408
101	0xbf221b7f	-0.63323206
102	0xbf27688f	-0.6539392
103	0xbeb3f3f1	-0.3514705
104	0xbe06700e	-0.13128683
105	0xbeb09615	-0.34489504
106	0xbcea9422	-0.028635088
107	0xbe87c5e2	-0.2651816
108	0xbf2a8ee5	-0.6662429
109	0xbc21d8b0	-0.0098783225
110	0xbd5385b4	-0.05164118
111	0xbf2475f2	-0.6424247
112	0xbea9a0db	-0.33130535
113	0xbf155e2d	-0.58346826
114	0x3d022da9	0.031781826
115	0x3d22f511	0.039784495
116	0xbec03a8f	-0.37544677
117	0xbded288b	-0.115799986
118	0xbf37626b	-0.7163455
119	0xbe6a8503	-0.22902302
120	0xbf575e81	-0.84128577
121	0xbf05fa20	-0.52334785
122	0xbf1584b2	-0.584056
123	0xbe50790e	-0.20358679
124	0xbf09b2ee	-0.5378865
125	0x3cb5b49b	0.022180846
126	0xbe884471	-0.26614717
127	0xbeebf6a0	-0.46086597
128	0xbd3fdc35	-0.046840865
129	0xbd0c023e	-0.034181826
130	0xbda8e64d	-0.082470514
131	0xbdf3783c	-0.11888167
132	0x3db1f9ab	0.086901985
133	0x3c7daf7c	0.015483733
134	0x3c30ef4f	0.010799243
135	0xbcd96415	-0.02653698
136	0xbd16871e	-0.03674995
137	0xbd0fb348	-0.035083085
138	0x3ca56063	0.020187562
139	0x3dfb8d2a	0.12282784
140	0xbd15d371	-0.0365786
141	0xbc7a62db	-0.015282358
142	0x3d365783	0.04451705
143	0xbd7dbd7c	-0.061948285
144	0x3c2c4674	0.010514844
145	0xbd884849	-0.06654412
146	0xbc5c0bce	-0.013430549
147	0x3d030f79	0.031997178
148	0xbc47288e	-0.012155665
149	0x3b07b3a3	0.0020706437
150	0xbd9f3f44	-0.07775739
151	0x3d2d2ce1	0.042279128
152	0xbc2cd011	-0.010547654
153	0xbd9557fb	-0.072921716
154	0xbd85f777	-0.06541341
155	0xba88a1c5	-0.0010424188
156	0x3c65cbe9	0.014025667
157	0x3d3f9303	0.04677106
158	0x3da9822d	0.08276782
159	0xbdd1ae9b	-0.102383815
160	0xbb8dc5f7	-0.0043265778
161	0xbdbb03a5	-0.091315545
162	0xbd5eb86b	-0.054375093
163	0xbb8ed3d8	-0.00435875
164	0x3d7c035b	0.061526638
165	0xbd2490cd	-0.040177155
166	0x3d33cb66	0.043895148
167	0xbd6109d0	-0.054941
168	0xbde6eacf	-0.11275255
169	0xbda3c8d4	-0.07997289
170	0x3ba8919e	0.005144312
171	0x3d3cbe18	0.046079725
172	0xbd61caa5	-0.055124898
173	0xbd2d6eab	-0.04234187
174	0x3dee7f93	0.116454266
175	0xbc17d5a5	-0.009267245
176	0x3d73515d	0.059403766
177	0xbca9913f	-0.020699142
178	0x3d8a907d	0.0676584
179	0x3d1810fa	0.037125565
180	0xbde7d63b	-0.11320158
181	0xbcf93a34	-0.030423261
182	0xbd5ab823	-0.053398263
183	0x3c5f195c	0.013616886
184	0xbd10613d	-0.035248984
185	0xbd999880	-0.0749979
186	0x3c8ae2a3	0.016953772
187	0x3da9f0b0	0.082978606
188	0x3d839635	0.06425134
189	0x3dba1303	0.090856574
190	0x3d85d3ef	0.06534564
191	0xbc2dc623	-0.0106063215
192	0xbf3d3f64	-0.7392485
193	0xbf17bdde	-0.5927409
194	0xbb9c5a34	-0.0047714952
195	0x3df0b52f	0.11753308
196	0x3e385b0c	0.18003482
197	0xbe03747c	-0.12837404
198	0xbf0fd24d	-0.5618027
199	0xbea7529e	-0.3268022
200	0xbe085e4b	-0.1331722
201	0xbf46ad77	-0.77608436
202	0xbe2074e4	-0.1566959
203	0xbeeb8a2d	-0.46003857
204	0xbe71c27b	-0.23609345
205	0xbe10bbfb	-0.14134209
206	0xbf15bd9b	-0.5849244
207	0x3da75fa4	0.08172539
208	0xbf185e49	-0.5951887
209	0x3e4296ef	0.19002889
210	0x3dcfbc10	0.10143292
211	0xbf2f1e2d	-0.6840542
212	0xbf29eb0d	-0.66374284
213	0xbf701659	-0.937841
214	0xbf38d66b	-0.72202176
215	0xbe82134d	-0.2540535
216	0x3dfcff11	0.123533376
217	0x3c3edf29	0.011649885
218	0xbf0e1618	-0.5550246
219	0xbd6b8a96	-0.057505213
220	0xbf3e12e3	-0.7424757
221	0xbf370619	-0.7149368
222	0xbe49846a	-0.19679418
223	0xbf4db696	-0.8035673
224	0x3c65f16a	0.014034608
225	0x3e3491ac	0.17633694
226	0xbfad2677	-1.3527364
227	0xbfadea11	-1.3587056
228	0xbf3c57c9	-0.7357145
229	0xbf555e03	-0.83346575
230	0xbf2f039e	-0.68364894
231	0xbf4f3a17	-0.80948013
232	0xbe856f04	-0.2606126
233	0xbf04fddd	-0.51949865
234	0xbd737ad2	-0.059443302
235	0xbf0740be	-0.52833164
236	0xbf788385	-0.9707568
237	0x3d8edf53	0.069761895
238	0xbd857bd1	-0.06517757
239	0xbf3de24f	-0.74173445
240	0xbeb68920	-0.35651493
241	0xbf23ef21	-0.64036757
242	0xbe84e4ce	-0.25955814
243	0xbd61a502	-0.055089004
244	0xbea16498	-0.3152206
245	0xbe1db53e	-0.1540117
246	0xbf451b88	-0.76995134
247	0xbe991ccd	-0.29904786
248	0xbf39eafb	-0.72624177
249	0xbf0fdbea	-0.5619494
250	0xbf0ffd99	-0.56246334
251	0xbf126b03	-0.57194537
252	0xbf24e814	-0.64416623
253	0xbdff54ab	-0.12467321
254	0xbebf9045	-0.37414756
255	0xbf05ad80	-0.52217865
