backend/Model_Pytorch/RNN_Model/output/checkpoints/latest_checkpoint.pth (torch, 672421 bytes, 27 tensors)

lstm.weight_ih_l0 f4 [256, 19]
0	0xbe376c1f	-0.17912339
1	0xbdb6af08	-0.08920103
2	0xbc5b8316	-0.013397953
3	0xbeb9f990	-0.36323214
4	0xbebe67ad	-0.37188473
5	0x3d4d6827	0.050148156
6	0xbe40be0e	-0.188225
7	0x3ec08764	0.37603295
8	0xbd9fa88a	-0.07795818
9	0xbe0ec1ff	-0.13941191
10	0x3e23994d	0.15976448
11	0xbd4b9a47	-0.049707677
12	0x3e0b566a	0.13607183
13	0x3e1cbf23	0.15307288
14	0xbe1ca465	-0.15297087
15	0x3e3561ed	0.17713137
16	0xbdddee97	-0.10836523
17	0x3ea965e0	0.33085537
18	0xbdc7a4ca	-0.09748228
19	0xbe16f30f	-0.14741157
20	0x3d9ed148	0.07754761
21	0xbdf28e12	-0.11843504
22	0xbe255fc2	-0.1614981
23	0xbe41b39b	-0.1891617
24	0x3deb2574	0.11481753
25	0x3d4095e2	0.04701794
26	0x3dd00fa9	0.10159237
27	0xbcb04ed3	-0.021521961
28	0x3e2588cd	0.16165467
29	0xbda6f0da	-0.081514075
30	0xbbe36ff8	-0.006940838
31	0x3da804de	0.08204053
32	0x3d670a75	0.056406457
33	0x3d64519a	0.055741884
34	0xbe8d7f25	-0.27636066
35	0xbd71e2c6	-0.05905416
36	0xbe11c273	-0.14234333
37	0xbd5c69f5	-0.053811986
38	0xbe1f8028	-0.15576231
39	0xbde2cd79	-0.11074347
40	0xbd669675	-0.05629583
41	0xbdb95b9a	-0.09050675
42	0x3dafcb3c	0.08583686
43	0x3e7e0c01	0.24809267
44	0x3e325482	0.1741505
45	0x3e7fe6cd	0.24990387
46	0x3ded9d4d	0.11602268
47	0x3e5821d5	0.21106656
48	0x3d277b14	0.04088886
49	0xbeb2a3a8	-0.34890485
50	0x3e60d7e5	0.21957357
51	0xbe9b16e6	-0.30290908
52	0xbda16ad9	-0.07881708
53	0x3ea1c589	0.3159602
54	0x3dcedda2	0.10100867
55	0x3e69efed	0.2284543
56	0x3e622893	0.2208579
57	0xbe88e64b	-0.267382
58	0xbdcc58d7	-0.09977882
59	0xbe5c168a	-0.21492973
60	0xbeaa262a	-0.33232242
61	0xbec23ca5	-0.37936893
62	0x3e684469	0.22682346
63	0xbde036a1	-0.1094792
64	0x3ecfa07f	0.40552136
65	0x3ac47897	0.0014989552
66	0xbe1077d6	-0.14108214
67	0x3dd0ba6f	0.101918094
68	0x3cf2ec1c	0.029653601
69	0x3d9e919e	0.07742618
70	0x3e5b0819	0.21389808
71	0xbae308d8	-0.0017321361
72	0x3cb787d7	0.02240364
73	0x3e07c64d	0.1325924
74	0x3d679611	0.0565396
75	0x3da7fab8	0.08202118
76	0xbd78d478	-0.0607495
77	0xbb9a7fd6	-0.0047149463
78	0x3d8af70f	0.06785404
79	0xbe39c81d	-0.18142743
80	0xbd6cf866	-0.05785408
81	0x3d593b96	0.05303534
82	0x3d5812ff	0.05275249
83	0x3e506e26	0.20354518
84	0xbda4bfae	-0.080443725
85	0xbdf22907	-0.118242316
86	0x3dd8358f	0.105570905
87	0xbeb16f52	-0.34655243
88	0xbdcd9954	-0.10039011
89	0xbd5cfced	-0.053952146
90	0xbea2d108	-0.31800103
91	0xbdb71b6d	-0.08940778
92	0x3e4784ab	0.19484203
93	0x3df68de5	0.12038783
94	0x3eaa3f8e	0.33251613
95	0x3d6c2a49	0.057657514
96	0xbdbb24f5	-0.09137908
97	0xbd819b2c	-0.06328425
98	0xbdceae8c	-0.10091886
99	0x3d5970ec	0.053086206
100	0xbdbd0fab	-0.09231504
101	0x3d40d5a1	0.047078732
102	0xbd7038b6	-0.058647834
103	0xbe2a797e	-0.16647908
104	0xbe26d725	-0.16293009
105	0x3c9809a1	0.018559279
106	0x3d656965	0.056008715
107	0x3e052f67	0.13006364
108	0xbe23323c	-0.15937132
109	0x3d9de9f5	0.077106394
110	0x3f360bfa	0.71112025
111	0xbf8fb23e	-1.122627
112	0xbe07721e	-0.13227126
113	0xbf0d899a	-0.5528809
114	0xbd53eb8b	-0.051738303
115	0x3e5b58dc	0.21420616
116	0x3e4f77a4	0.20260483
117	0x3e7f917a	0.24957839
118	0x3daf9405	0.08573154
119	0x3e91f36c	0.2850603
120	0xbc7b43fb	-0.015336032
121	0x3e976114	0.29566252
122	0x3d18f03b	0.037338477
123	0x3cb1d5d2	0.021708403
124	0xbdf42f96	-0.11923139
125	0x3dc3561a	0.09537907
126	0xbea457a1	-0.32098106
127	0x3db6ccfd	0.08925817
128	0xbf232e80	-0.6374283
129	0x3ed03b8a	0.40670425
130	0xbdd4f900	-0.103990555
131	0x3df6465a	0.12025137
132	0xbe87c9c9	-0.26521137
133	0x3dfb4250	0.122685075
134	0xbe013520	-0.12617922
135	0xbc1ea94a	-0.009683916
136	0xbd48c800	-0.04901886
137	0xbd8b9ebe	-0.06817387
138	0x3dbe6f7f	0.0929861
139	0xbd93e7d6	-0.072219536
140	0x3e9652eb	0.29360136
141	0x3da4cbe6	0.08046703
142	0xbdb44776	-0.088026926
143	0x3e4e7652	0.20162323
144	0x3c9892ce	0.01862469
145	0xbca4f553	-0.020136511
146	0x3ea9b57a	0.33146268
147	0xbe1420c8	-0.1446563
148	0x3d90e3d1	0.070747025
149	0x3e3ca57b	0.18422501
150	0xbe409e8d	-0.18810482
151	0x3e3fce13	0.18730955
152	0xbe1de601	-0.15419771
153	0xbdfa2b12	-0.12215246
154	0xbd8a758b	-0.06760701
155	0xbd620071	-0.055176202
156	0x3ec67a5a	0.38765222
157	0xbde6ec9c	-0.112755984
158	0x3e339da9	0.17540611
159	0xbe6ad2cc	-0.22931975
160	0x3e5f25c2	0.21791747
161	0x3e51169e	0.20418784
162	0x3e64de9c	0.22350544
163	0x3e880533	0.26566467
164	0x3da1fc8d	0.07909498
165	0x3eaadbb2	0.3337074
166	0xbd647772	-0.055777974
167	0xbeaa3e4d	-0.33250657
168	0x3df82035	0.12115518
169	0x3e083db7	0.13304792
170	0xbe76f35f	-0.24116276
171	0x3e46e1e7	0.19422112
172	0xbdff99b8	-0.124804914
173	0xbaefcc52	-0.0018295145
174	0xbd25af68	-0.040450484
175	0x3d71fc7b	0.059078675
176	0x3e48f11c	0.19623226
177	0x3e19c2e1	0.15015747
178	0x3e46301d	0.19354291
179	0x3d49ea00	0.049295425
180	0x3d9aaba1	0.07552267
181	0x3d8a4d91	0.06753076
182	0x3e27e148	0.16394532
183	0xbdb2db2e	-0.087332115
184	0x3d8557b3	0.06510868
185	0xbd7ab28d	-0.061205436
186	0x3d7d5a70	0.061853826
187	0x3d6a3e81	0.057188515
188	0xbe9f2598	-0.3108337
189	0x3de97baf	0.11400544
190	0x3e3e852a	0.18605486
191	0xbcbc1328	-0.022958353
192	0x3c71e692	0.014764445
193	0xbbe37490	-0.0069413856
194	0x3d9594c5	0.07303766
195	0x3daba66e	0.08381353
196	0x3d5d25d8	0.05399117
197	0x3e280976	0.16409859
198	0x3e34e5de	0.17665812
199	0x3d9a7f80	0.0754385
200	0x3d39f5be	0.045400374
201	0xbe153cab	-0.14573924
202	0x3e3565ca	0.1771461
203	0x3e31c768	0.17361224
204	0x3eafaabb	0.34309945
205	0x3ee98a0c	0.45613134
206	0x3cbbb2ff	0.0229125
207	0x3c976f39	0.018485652
208	0x3e2d744f	0.169389
209	0xbe15cd96	-0.14629206
210	0xbe948841	-0.29010203
211	0xbdfdb9b7	-0.12388938
212	0xbe8ddb0e	-0.27706188
213	0x3e3b8696	0.18313059
214	0xbc0d167b	-0.008611317
215	0x3c00150b	0.007817517
216	0xbe2fa54f	-0.17152904
217	0x3e6ce9be	0.2313604
218	0x3e668442	0.2251139
219	0x3de8fffb	0.113769494
220	0xbe689ff9	-0.22717275
221	0xbe8122a4	-0.2522174
222	0xbde5d2f3	-0.11221876
223	0x3d8482a7	0.064702325
224	0xbd57957e	-0.0526328
225	0x3c2af217	0.010433695
226	0xbbcab438	-0.0061860345
227	0xbe39d6a1	-0.1814828
228	0x3ea6c461	0.325717
229	0xbe1f6bd1	-0.15568472
230	0xbdba6cbd	-0.091027714
231	0x3de83fba	0.1134028
232	0x3db52ab6	0.08846037
233	0x3d8f46db	0.069959365
234	0x3c2b316f	0.010448798
235	0x3e0e76e6	0.13912544
236	0x3d8d993b	0.06913992
237	0xbdc1ff13	-0.0947248
238	0x3dae4bd3	0.08510556
239	0xbefde995	-0.4959227
240	0xbe4051c4	-0.18781191
241	0xbef17b1c	-0.47164237
242	0xbd8303e7	-0.06397229
243	0x3dcf9eaa	0.10137685
244	0x3d881f02	0.06646539
245	0xbdf8e394	-0.12152782
246	0x3e5c0507	0.21486293
247	0xbe8c8b31	-0.27449945
248	0xbe835511	-0.25650838
249	0xbe0cb400	-0.1374054
250	0xbe06e9de	-0.13175151
251	0x3e1ddaab	0.15415446
252	0xbe051e21	-0.12999775
253	0x3e037e8f	0.12841247
254	0xbe7b0eb5	-0.24517329
255	0x3e385a86	0.18003282

lstm.weight_hh_l0 f4 [256, 64]
0	0xbd3a9a13	-0.045557093
1	0xbe993fc3	-0.2993146
2	0x3e7259ec	0.23667115
3	0x3e350a63	0.17679743
4	0xbe7b24c5	-0.24525745
5	0x3e3d54d9	0.18489398
6	0x3df8bb11	0.12145055
7	0xbea316c7	-0.31853315
8	0x3c17e81f	0.009271651
9	0x3e5d4ca6	0.2161127
10	0xbea0364a	-0.3129142
11	0x3e209631	0.15682293
12	0xbe125482	-0.1429005
13	0x3df814c5	0.121133365
14	0x3d7c6d2d	0.061627556
15	0x3cd9c113	0.026581323
16	0x3e3ed9d9	0.1863779
17	0xbe381350	-0.17976117
18	0x3e7b1e48	0.2452327
19	0x3eb65b42	0.356165
20	0x3e3e6762	0.18594125
21	0x3c84d51a	0.016214896
22	0x3d36f428	0.04466644
23	0xbe54b1b6	-0.20770916
24	0x3d4a0dda	0.049329616
25	0x3c9e8cf1	0.019354315
26	0xbdc1ee54	-0.094692856
27	0xbf5e9a06	-0.8695377
28	0x3e22e46b	0.15907447
29	0xbe7e0b42	-0.24808982
30	0xbeca5f65	-0.39525905
31	0xbe062553	-0.13100176
32	0xbe910822	-0.28326517
33	0xbc805389	-0.015664833
34	0xbe78141b	-0.2422642
35	0x3eefbb83	0.46822748
36	0xbecac200	-0.39601135
37	0x3d8ffd19	0.070306964
38	0x3ebabeca	0.36473686
39	0x3eedbe9d	0.4643449
40	0xbf5d8df3	-0.8654472
41	0x3e48c016	0.19604525
42	0x3e80a0d5	0.25122705
43	0xbc29a340	-0.010353863
44	0xbd99f03c	-0.07516524
45	0xbdf9a1c2	-0.12189056
46	0xbe87eb89	-0.26546887
47	0x3d0795b1	0.03310174
48	0xbd4ead55	-0.05045827
49	0xbe8fd23d	-0.28090087
50	0x3d6b93d2	0.05751402
51	0x3efe5e7e	0.49681467
52	0x3e03d53b	0.1287431
53	0x3eea0998	0.45710444
54	0x3e4b99eb	0.19882934
55	0x3db52dcf	0.08846628
56	0xbe166b46	-0.14689359
57	0xbd4531e7	-0.048143294
58	0x3df94321	0.12171007
59	0xbd184108	-0.037171394
60	0xbe5a2263	-0.2130218
61	0x3e492683	0.19643597
62	0xbe9a083b	-0.30084404
63	0x3db8cb1c	0.09023115
64	0xbe4c110c	-0.19928378
65	0xbcdb36b8	-0.02675949
66	0xbee1a7f9	-0.44073465
67	0xbed2a236	-0.41139382
68	0xbe299c36	-0.16563496
69	0xbe69d1ee	-0.22833988
70	0x3d8420ad	0.06451545
71	0x3cc56fa1	0.02410108
72	0x3eb1d676	0.34733933
73	0x3d4ef162	0.05052317
74	0xbe3007d0	-0.1719048
75	0xbd0bdaaa	-0.03414408
76	0xbea7543f	-0.32681462
77	0x3e0a336e	0.13496181
78	0x3d97c908	0.074113905
79	0x3c7e33ea	0.015515307
80	0x3d1bf82b	0.03807847
81	0xbea24fab	-0.31701407
82	0xbe3f2da1	-0.1866975
83	0x3e37159e	0.1787934
84	0xbeacbfbd	-0.33740035
85	0xbe4c928b	-0.19977777
86	0x3e4825ee	0.19545719
87	0x3e375bfe	0.17906186
88	0x3d99e7de	0.07514928
89	0xbde044fa	-0.10950656
90	0xbdb1b80f	-0.086776845
91	0x3ea66ad4	0.32503378
92	0x3bdc99ff	0.006732225
93	0xbd19769b	-0.037466627
94	0xbe700d03	-0.23442464
95	0xbe1f409d	-0.15551992
96	0xbe05023d	-0.12989135
97	0x3e01e0ea	0.12683454
98	0x3e82b83f	0.25531194
99	0x3ca8ecb5	0.020620683
100	0xbebcb611	-0.36857656
101	0x3dab4ee2	0.08364655
102	0x3e3214bd	0.17390724
103	0x3e1fa070	0.15588546
104	0x3dbaf3ee	0.09128557
105	0xbe1bd95a	-0.15219632
106	0xbe948768	-0.29009557
107	0xbe8f1516	-0.27945775
108	0xbdb48300	-0.08814049
109	0x3e9f42a9	0.31105545
110	0x3d1dcc09	0.03852466
111	0xbe785c72	-0.24254015
112	0xbdd2442a	-0.102669075
113	0xbe33f83d	-0.17575164
114	0x3d1533d5	0.036426384
115	0x3d9a0952	0.07521309
116	0x3e10cea0	0.14141321
117	0x3d86870f	0.06568729
118	0x3d214f25	0.03938212
119	0xbcf82cce	-0.030294802
120	0x3e5042b4	0.20337945
121	0x3e355f64	0.1771217
122	0xbd7216dd	-0.059103835
123	0xbda47f71	-0.0803212
124	0xbe02b575	-0.12764533
125	0x3e121aea	0.1426808
126	0xbe8a0076	-0.26953477
127	0xbe644b1c	-0.22294277
128	0xbe83414d	-0.25635758
129	0x3f158c80	0.5841751
130	0x3da8ee5f	0.08248591
131	0xbf0150d9	-0.5051399
132	0x3e3bf36f	0.18354581
133	0x3e2129c7	0.15738593
134	0xbe805ce9	-0.25070885
135	0x3eea4ceb	0.4576181
136	0x3ecd5b93	0.40108928
137	0x3e335246	0.17511854
138	0x3d85a5a1	0.06525732
139	0xbde2be5b	-0.11071464
140	0x3d3aecd8	0.045636028
141	0x3e2b94ee	0.16756031
142	0xbe924d63	-0.28574666
143	0xbe2f0fe4	-0.17095906
144	0x3c462f61	0.012096257
145	0x3e1ca9ea	0.15299192
146	0x3e9cbd88	0.3061335
147	0xbe85c6d2	-0.2612825
148	0xbe255ba5	-0.16148241
149	0x3d80e6d5	0.06294028
150	0x3daaa57b	0.08332344
151	0x3e071052	0.1318982
152	0x3ece27d6	0.40264767
153	0x3c95bd8c	0.01827886
154	0x3da1a505	0.07892803
155	0xbdf7b231	-0.12094534
156	0x3b348b82	0.0027548973
157	0x3ef8cf0c	0.48595464
158	0x3d46ab11	0.048502985
159	0xbe10ce76	-0.14141259
160	0x3ddc990b	0.10771378
161	0xbe2661a1	-0.1624818
162	0xbcced551	-0.025248202
163	0x3c0fe33d	0.008782205
164	0xbdeb7ff3	-0.11499014
165	0x3eb8a9e4	0.36067116
166	0xbdc5ab49	-0.09651811
167	0xbe77e78d	-0.24209423
168	0x3d73456f	0.05939239
169	0xbe1df54e	-0.15425608
170	0xbe319b58	-0.17344415
171	0x3e617b8a	0.22019783
172	0x3d86ead8	0.06587762
173	0x3e023739	0.12716378
174	0x3efb4c91	0.49081853
175	0xbea144c3	-0.31497774
176	0x3e145090	0.14483857
177	0x3ec96ed5	0.3934237
178	0xbd46bd40	-0.048520327
179	0x3d2e6254	0.04257424
180	0x3d9389e3	0.07204034
181	0xbdc7387a	-0.09727569
182	0x3dfab8ee	0.12242304
183	0xbe12d084	-0.14337355
184	0xbea2c4ae	-0.3179068
185	0xbe3463b4	-0.17616159
186	0x3d61a963	0.05509318
187	0xbdb0cd5d	-0.0863292
188	0x3bc61b7d	0.0060457573
189	0xbde5be30	-0.11217916
190	0x3ea2b75a	0.3178051
191	0x3d8c8179	0.068606324
192	0xbe16abcf	-0.14713977
193	0x3d905dd6	0.07049148
194	0xbe47625d	-0.19471116
195	0x3d36cbee	0.044628076
196	0xbde2f365	-0.1108158
197	0x3dba06d6	0.09083335
198	0x3d8cbd27	0.068720154
199	0xbe2f5202	-0.17121127
200	0x3c38850d	0.0112621905
201	0x3d635cb0	0.055508316
202	0x3e20beb7	0.15697752
203	0xbdc64136	-0.09680407
204	0xbd0c3baf	-0.034236606
205	0xbdc5f123	-0.09665134
206	0x3e633c7d	0.22191043
207	0x3e8ea5cc	0.27860868
208	0x3d1f8734	0.0389473
209	0xbe4e5e19	-0.20153083
210	0xbe6d6a49	-0.23185076
211	0xbdd1b1c9	-0.10238988
212	0xbea8cdf5	-0.32969633
213	0xbd3a67b0	-0.04550904
214	0x3cd5be23	0.02609164
215	0x3d13fd5f	0.036130305
216	0xbcf0feb1	-0.029418321
217	0x3de8741a	0.113502696
218	0xbdb5df8b	-0.08880528
219	0xbc7d2f36	-0.0154531505
220	0x3d948648	0.072521746
221	0xbeb39aed	-0.35079136
222	0x3b848e1e	0.004045262
223	0x3cd70f50	0.026252419
224	0xbd8a637d	-0.06757257
225	0x3f19273f	0.5982551
226	0x3daa858f	0.083262555
227	0x3e3d864b	0.1850826
228	0xbe23ac78	-0.1598376
229	0xbeada4cd	-0.33914796
230	0x3c4905d4	0.012269456
231	0x3d8f86b5	0.07008115
232	0xbe3d5c3d	-0.18492217
233	0xbe0738be	-0.13205239
234	0x3e1dfb6c	0.15427941
235	0xbed8c6cc	-0.4233917
236	0xbe503d4e	-0.20335886
237	0xbe3f5251	-0.18683745
238	0xbe579141	-0.21051504
239	0x3e631250	0.22174954
240	0x3d97203c	0.07379195
241	0xbedac5a3	-0.4272891
242	0xbe91085e	-0.28326696
243	0xbe8bee1d	-0.27330104
244	0x3ccfbf53	0.025359785
245	0x3e021a30	0.12705302
246	0xbd6fe557	-0.058568325
247	0xbe11de8a	-0.14245048
248	0x3e913d22	0.28366953
249	0x3d2d6835	0.042335708
250	0xbe5d8eaf	-0.2163646
251	0xbdf7bd5a	-0.12096663
252	0x3e4ba49d	0.19887014
253	0x3d9066e8	0.07050878
254	0x3dab6d59	0.08370466
255	0x3c878d78	0.01654695

lstm.bias_ih_l0 f4 [256]
0	0xbedacfd8	-0.42736697
1	0xbe247c4a	-0.16063038
2	0xbef747f0	-0.4829707
3	0xbeab9bfc	-0.33517444
4	0xbe8d98d7	-0.2765567
5	0xbd8f61c5	-0.0700107
6	0xbe85a164	-0.26099694
7	0xbe47a6aa	-0.19497171
8	0xbe83069c	-0.2559098
9	0xbed77406	-0.42080706
10	0x3f5d266e	0.86386764
11	0xbde8edb4	-0.11373463
12	0xbd0c881c	-0.03430949
13	0xbe439ed6	-0.1910356
14	0xbe7b5874	-0.24545461
15	0xbea42259	-0.32057455
16	0x3e65756c	0.22408074
17	0xbead91dc	-0.33900344
18	0xbeba8585	-0.36429992
19	0xbe1d6757	-0.15371452
20	0xbe876567	-0.2644455
21	0xbe9bec2c	-0.30453622
22	0xbe110c5b	-0.1416487
23	0xbe839497	-0.25699303
24	0xbd5ea47e	-0.05435609
25	0xbe6247af	-0.22097658
26	0xbe92b74e	-0.28655475
27	0xbe94ce3c	-0.29063594
28	0xbe30ba0a	-0.17258468
29	0x3de58119	0.11206264
30	0x3e167084	0.14691359
31	0xbe257e60	-0.1616149
32	0xbeb3d03f	-0.35119817
33	0xbe46c224	-0.19409996
34	0xbf0ca205	-0.5493472
35	0xbe2665f1	-0.16249825
36	0xbe916875	-0.28400007
37	0xbea626fa	-0.32451612
38	0xbe3569f3	-0.17716198
39	0xbe17300a	-0.14764419
40	0xbe9f4e00	-0.31114197
41	0xbe99a711	-0.30010274
42	0xbe9cc3bc	-0.30618083
43	0xbe1c8dcc	-0.15288466
44	0xbeced525	-0.4039699
45	0xbe8a6410	-0.27029467
46	0xbe042cff	-0.1290779
47	0xbe5789e6	-0.21048698
48	0xbcc573dd	-0.0241031
49	0xbe229f47	-0.15881072
50	0xbe9c245e	-0.30496496
51	0x3d6284e6	0.055302523
52	0xbdab6e86	-0.0837069
53	0xbe99118a	-0.29896194
54	0xbead0525	-0.33792987
55	0xbe11121a	-0.14167061
56	0xbdf2c296	-0.118535206
57	0x3dd20175	0.10254184
58	0xbd9e8164	-0.07739523
59	0xbd2f1648	-0.04274586
60	0xbd72c9e3	-0.059274565
61	0xbea7261e	-0.3264627
62	0xbe37594e	-0.17905161
63	0xbd795271	-0.060869638
64	0xbdc7fad6	-0.0976464
65	0xbe0fac9b	-0.14030688
66	0xbe865b00	-0.26241302
67	0xbebe7df1	-0.3720546
68	0x3e536fe5	0.20648153
69	0xbd89a757	-0.06721371
70	0xbdda5ccb	-0.1066223
71	0xbe20b105	-0.15692528
72	0xbd0a0655	-0.033697445
73	0xbd20abac	-0.03922622
74	0x3b2dd640	0.0026525408
75	0xbe346c69	-0.1761948
76	0x3dbea5ab	0.093089424
77	0xbe934610	-0.2876439
78	0xbde2ebb3	-0.11080112
79	0xbe571cb7	-0.21007048
80	0x3db99d29	0.09063179
81	0x3db5ca24	0.08876446
82	0xbe0ae8b4	-0.13565332
83	0xbe1b214d	-0.15149422
84	0x3d43bd03	0.047787677
85	0x3e9b2a03	0.3030549
86	0xbde1a544	-0.1101785
87	0xbe0cb054	-0.13739139
88	0xbd4381fc	-0.047731385
89	0xbeda5505	-0.4264299
90	0xbe562f2b	-0.2091643
91	0xbed62c16	-0.4183051
92	0xbe5e3201	-0.21698762
93	0x3d9ea2e3	0.07745912
94	0xbe18b1a7	-0.14911519
95	0xbe48313b	-0.1955003
96	0xbd37b699	-0.044851873
97	0x3e0cabed	0.1373746
98	0xbd93c44e	-0.072151765
99	0x3e628c36	0.22123799
100	0xbdcf0c53	-0.101097725
101	0xbdb0e2f9	-0.086370416
102	0xbbd5c736	-0.006523992
103	0xbe1be19b	-0.1522278
104	0xbe0740fb	-0.13208382
105	0xbdc2fee0	-0.0952127
106	0xbe01f492	-0.12690952
107	0xbd9a578a	-0.07536228
108	0x3d6c0122	0.057618268
109	0xbc4c05e8	-0.01245258
110	0xbdb0b4a7	-0.08628207
111	0xbd880976	-0.066424295
112	0xbd997c83	-0.07494452
113	0x3e8f9263	0.28041372
114	0xbdea3978	-0.114367425
115	0xbecd59c0	-0.40107536
116	0xbcc2e217	-0.023789449
117	0x3cf55dd4	0.029951967
118	0xbdbfc565	-0.09363822
119	0xbde191b4	-0.11014119
120	0xbdb558fe	-0.088548645
121	0x3e120b1b	0.14262049
122	0x3e2c1ed3	0.16808634
123	0x3e09fee8	0.13476145
124	0x3e8a6acc	0.27034605
125	0xbd96dadc	-0.07365963
126	0x3e28aab9	0.16471376
127	0x3e79fd80	0.24413109
128	0xbc50b8a4	-0.012739334
129	0xbdf7af90	-0.12094033
130	0x3e4b76d1	0.19869544
131	0x3dae561e	0.08512519
132	0x3dd97d7b	0.106196366
133	0x3cfd1dcf	0.030898003
134	0xbe2aee9a	-0.16692582
135	0x3e1658aa	0.1468226
136	0xbe497292	-0.19672611
137	0xbc2d65c9	-0.0105833495
138	0xbc8104a6	-0.015749287
139	0x3e0955c2	0.1341162
140	0x3e1eaebd	0.15496345
141	0xbe2a0840	-0.1660471
142	0xbdcc3e63	-0.09972837
143	0xbde487e9	-0.11158735
144	0x3e0ba0b4	0.13635522
145	0xbcbdfdaa	-0.023192246
146	0xbc36fc6d	-0.011168581
147	0xbea317d4	-0.31854117
148	0x3d3855b3	0.045003604
149	0xbd3cb904	-0.046074882
150	0x3d3024db	0.043003898
151	0x3d7812ce	0.06056481
152	0x3dd417f0	0.10356128
153	0x3de810a6	0.113313004
154	0x3e226d6a	0.1586205
155	0x3e283527	0.16426526
156	0xbbec54ea	-0.007212271
157	0x3db8ec83	0.09029486
158	0xbd587ccb	-0.052853387
159	0xbd07d340	-0.033160448
160	0x3df24529	0.118295975
161	0x3cf09258	0.029366657
162	0x3cdbf0e3	0.026848262
163	0xbd77dd71	-0.060513917
164	0xbde0f352	-0.1098391
165	0x3de3881b	0.111099444
166	0x3d2a684b	0.041603368
167	0x3c125bbf	0.008933007
168	0x3e8f508b	0.27991137
169	0x3caabbce	0.020841505
170	0x3d94de66	0.07268982
171	0x3df9428e	0.121708974
172	0x3e0a9e59	0.13536967
173	0xbddd2778	-0.10798544
174	0x3e16fd52	0.14745072
175	0xbd0585be	-0.03259825
176	0xbd8fc709	-0.07020385
177	0x3abad886	0.0014255203
178	0x3e1b76d3	0.15182047
179	0xbc59ad8b	-0.013286005
180	0xbe0278be	-0.12741372
181	0x3c4d01aa	0.012512604
182	0xbd6b51e9	-0.057451162
183	0xbd002183	-0.03128196
184	0x3d9d766a	0.07688601
185	0xbb901fae	-0.0043983078
186	0x3e33ccb2	0.17558554
187	0x3e2aea41	0.16690923
188	0x3e49f55d	0.19722505
189	0xbe0133b1	-0.12617375
190	0x3c05a401	0.008156777
191	0xbe18dacb	-0.14927213
192	0xbe072da9	-0.13201012
193	0x3e512b2d	0.20426627
194	0xbe828044	-0.25488484
195	0xbd69f49e	-0.05711805
196	0xbba6b801	-0.005087853
197	0x3d73efae	0.05955475
198	0x3e039da4	0.12853104
199	0xbe71375b	-0.23556273
200	0xbe7b95bc	-0.24568838
201	0xbeb03209	-0.34413174
202	0x3f3ee00c	0.7456062
203	0xbe4d164c	-0.20028037
204	0xbdf0fa26	-0.11766462
205	0xbd4025ed	-0.04691117
206	0xbd8a2aa0	-0.06746411
207	0xbdf703a2	-0.1206124
208	0x3e14e3a4	0.14539963
209	0x3dbb18e2	0.091356054
210	0xbc62fcd1	-0.013854221
211	0xbe4a9bd6	-0.19786009
212	0xbe5fb5e7	-0.21846734
213	0x3d242f5a	0.04008422
214	0xbe0dff78	-0.13866985
215	0xbec4a557	-0.38407394
216	0xbdac017f	-0.08398723
217	0xbe11a658	-0.14223611
218	0xbe70f8dc	-0.23532432
219	0xbe5508d4	-0.20804149
220	0x3e33c0b7	0.17553984
221	0x3e681530	0.22664332
222	0x3e0edb15	0.1395076
223	0xbdcd617f	-0.100283615
224	0xbdf91294	-0.121617466
225	0x3dd1b6ca	0.10239942
226	0xbdc78211	-0.09741605
227	0x3c56828e	0.01309265
228	0xbe5ad870	-0.21371627
229	0xbe7dbaa6	-0.24778232
230	0xbdd67244	-0.10471013
231	0xbdf1c541	-0.11805201
232	0xbe73a450	-0.23793149
233	0xbe181986	-0.14853486
234	0xbe87af01	-0.26500705
235	0xbe023c0f	-0.12718223
236	0x3d177666	0.036978148
237	0xbda7e6e3	-0.08198335
238	0xbd9f7165	-0.077853
239	0x3d8e1e48	0.069393694
240	0xbd212ac6	-0.039347433
241	0xbe6e300b	-0.23260514
242	0xbe495621	-0.19661762
243	0xbdc00c7e	-0.09377383
244	0xbda57116	-0.0807821
245	0xbdfc0a47	-0.12306648
246	0xbdd8249d	-0.105538584
247	0xbea9d3b1	-0.3316932
248	0x3de8543f	0.11344194
249	0x3d334d94	0.043775156
250	0x3ddb3f92	0.107054844
251	0x3d17bc10	0.037044585
252	0xbc92cb87	-0.017919315
253	0xbd34f355	-0.044177372
254	0xbddb4a38	-0.107075155
255	0xbd5d8ad7	-0.054087486

lstm.bias_hh_l0 f4 [256]
0	0xbe6b9396	-0.23005518
1	0xbe85c6dc	-0.2612828
2	0xbe8ee508	-0.27909112
3	0xbe83e333	-0.25759277
4	0xbdf3899e	-0.11891483
5	0xbe45d584	-0.19319731
6	0xbe5aab10	-0.21354318
7	0xbe792281	-0.24329568
8	0xbe95f924	-0.29291642
9	0xbed79e26	-0.42112845
10	0x3f412435	0.7544587
11	0xbe0f25d2	-0.13979271
12	0xbdb03ce2	-0.086053625
13	0xbe87d854	-0.26532233
14	0xbe397885	-0.18112381
15	0xbe717b16	-0.2358211
16	0x3e504cfa	0.20341864
17	0xbe8f7b9b	-0.2802399
18	0xbea198e7	-0.31561968
19	0xbe9ccea0	-0.30626392
20	0xbe93eeee	-0.28893226
21	0xbde922c7	-0.113835864
22	0x3d84a903	0.06477549
23	0xbe81cc43	-0.25351152
24	0xbd6362ca	-0.055514134
25	0xbed1f237	-0.41005108
26	0xbea105b7	-0.31449673
27	0xbd936dff	-0.071987145
28	0xbdb94e60	-0.09048152
29	0x3c6191c3	0.013767662
30	0x3d7d46fe	0.06183528
31	0xbdc65cac	-0.096856445
32	0xbe86d13e	-0.26331514
33	0xbe853821	-0.26019385
34	0xbf0eb9ab	-0.55752057
35	0xbe84f7ff	-0.25970456
36	0xbe9c1670	-0.30485868
37	0xbed5ce3f	-0.41758916
38	0xbe4ae359	-0.19813289
39	0xbe141ca0	-0.14464045
40	0xbeb17b55	-0.34664407
41	0xbe42c9fc	-0.19022363
42	0xbec112c8	-0.3770964
43	0xbd030af6	-0.031992875
44	0xbe6cb644	-0.23116404
45	0xbe3f4456	-0.18678412
46	0xbdd86121	-0.10565401
47	0xbe4ac042	-0.19799903
48	0xbde947c5	-0.11390642
49	0xbdaa5b8c	-0.083182424
50	0xbe99e2de	-0.30055898
51	0x3da4bec7	0.080442004
52	0xbd9b03b2	-0.07569064
53	0xbeb2a479	-0.34891108
54	0xbe80543e	-0.25064272
55	0xbea0e26f	-0.31422755
56	0xbe038562	-0.1284385
57	0xbd3f9950	-0.04677707
58	0xbe69d8c2	-0.22836593
59	0xbe1432f5	-0.14472564
60	0xbe4e0c5f	-0.20121907
61	0xbea075b6	-0.31339806
62	0xbde1a1bc	-0.110171765
63	0xbe181ffd	-0.14855953
64	0xbdff79e4	-0.12474421
65	0xbdba27e2	-0.09089638
66	0xbe99f54d	-0.30069962
67	0xbec4e7f1	-0.38458207
68	0x3e3b6e6b	0.1830384
69	0xbea0d8ea	-0.31415492
70	0x3d8da19b	0.069155894
71	0xbdc58714	-0.09644905
72	0xbddc3057	-0.107514076
73	0xbe2af395	-0.16694482
74	0xbbb4cff9	-0.0055179563
75	0xbe94d2cc	-0.29067075
76	0x3d80f29e	0.062962756
77	0xbeabb3ce	-0.33535618
78	0x3dadd2b8	0.08487457
79	0xbdd1a6eb	-0.10236915
80	0x3d117dda	0.035520412
81	0x3e55b3db	0.2086939
82	0xbe4e867b	-0.20168488
83	0xbd45eb56	-0.048320137
84	0xbd8e99c9	-0.06962926
85	0x3e88052c	0.26566446
86	0xbe9fd2ce	-0.3121552
87	0xbe04957e	-0.12947652
88	0xbd06a627	-0.0328733
89	0xbe80408c	-0.25049245
90	0xbd2a14d5	-0.041523773
91	0xbee0a0c3	-0.4387265
92	0xbde487e6	-0.11158733
93	0xbd545d0f	-0.05184656
94	0xbe3935f9	-0.18086995
95	0xbe356365	-0.17713697
96	0xbdbdb4ed	-0.092630245
97	0x3df8e2cd	0.12152634
98	0xbe6bef1a	-0.23040429
99	0x3dd38190	0.103274465
100	0xbd312846	-0.0432513
101	0xbe41739e	-0.1889176
102	0xbd61cbb0	-0.055125892
103	0xbd60e37c	-0.054904446
104	0xbe38b010	-0.18035913
105	0xbdb02cec	-0.08602318
106	0xbe3fd418	-0.18733251
107	0x3d5cde35	0.05392285
108	0x3daeb332	0.085302725
109	0x3d6e0e88	0.058119327
110	0xbd98b161	-0.07455707
111	0xbd55b831	-0.05217761
112	0xbe28fe16	-0.16503176
113	0x3eaefa81	0.34175494
114	0x3c07a816	0.008279821
115	0xbec8ff6f	-0.3925738
116	0x3dc40811	0.09571851
117	0x3df19fb1	0.11798037
118	0xbe8ff8f4	-0.28119624
119	0xbea26d4b	-0.3172401
120	0xbe82e5ff	-0.25566098
121	0x3e0d68d9	0.13809527
122	0x3dac8491	0.084237225
123	0x3d6ad11a	0.05732832
124	0x3e3777e7	0.17916833
125	0x3ca2b079	0.01985954
126	0x3e3a3282	0.1818333
127	0x3e89232d	0.2678465
128	0x3db8ce7d	0.090237595
129	0xbdaa95d0	-0.08329356
130	0x3d9b185b	0.07573005
131	0xbd8c7a39	-0.068592496
132	0x3e2e21d6	0.17005095
133	0x3e1ba264	0.15198666
134	0xbe11baa8	-0.1423136
135	0x3db6b777	0.08921712
136	0xbd249090	-0.040176928
137	0xbb9acd62	-0.0047241906
138	0xbc443630	-0.01197581
139	0xbb4337e0	-0.0029787943
140	0x3d9fac6d	0.077965595
141	0xbdade6bb	-0.08491274
142	0x3d9b2cbd	0.075768925
143	0xbdeafcd9	-0.11474008
144	0x3d80d71b	0.06291028
145	0x3c907a0b	0.01763632
146	0xbd9334d4	-0.071878105
147	0xbe902dee	-0.28160042
148	0x3d465918	0.04842481
149	0x3cf0ecb2	0.02940974
150	0x3d82695d	0.06367753
151	0x3dd6371b	0.10459729
152	0x3db91388	0.090369284
153	0x3e68025a	0.22657147
154	0x3e31a12a	0.17346635
155	0x3e1a788e	0.1508505
156	0xbc93f074	-0.018058993
157	0xbd9e2b27	-0.077230744
158	0x3d137e61	0.036009196
159	0x3d8cb17f	0.06869792
160	0x3ca3cb23	0.019994324
161	0xbab89a71	-0.0014084113
162	0xbb19e282	-0.0023480956
163	0xbe0ee99a	-0.139563
164	0xbd66562f	-0.056234535
165	0x3c012aa7	0.007883704
166	0x3df924b2	0.12165202
167	0x3d3fbb62	0.04680956
168	0x3e63c355	0.22242482
169	0x3da66273	0.081242464
170	0x3e33aa0f	0.17545341
171	0x3e9b28e0	0.30304623
172	0x3e419440	0.18904209
173	0xbe85fb76	-0.26168412
174	0x3e3310b2	0.17486838
175	0xbd68efba	-0.056869246
176	0xbe83d94c	-0.25751722
177	0xbd869f60	-0.06573367
178	0x3dd1b6f4	0.10239974
179	0xbd609e95	-0.054838736
180	0x3d97a531	0.07404555
181	0xbddc272b	-0.10749658
182	0xbd3299cf	-0.043603715
183	0xbe0df954	-0.13864642
184	0x3da1e942	0.079058185
185	0xbe2e4a58	-0.17020547
186	0x3daa3147	0.0831018
187	0x3e201b7f	0.15635489
188	0x3dd5f803	0.10447695
189	0xbea43f27	-0.3207943
190	0xbe58d93f	-0.21176623
191	0x3c25ca7e	0.010119079
192	0xbe81faf6	-0.2538678
193	0x3d6db577	0.058034386
194	0xbec6e4e4	-0.38846505
195	0xbdece95d	-0.11567948
196	0x3d0dc51d	0.03461181
197	0x3e1857d3	0.14877252
198	0x3d564cd1	0.05231935
199	0xbe504079	-0.20337094
200	0xbd1a388b	-0.03765158
201	0xbe22ffd6	-0.15917906
202	0x3f40df53	0.75340766
203	0xbd99e05a	-0.07513495
204	0xbe72a21c	-0.23694652
205	0x3caac644	0.020846494
206	0x3d9758b6	0.07389967
207	0xbe9304cd	-0.287146
208	0x3d257e58	0.040403694
209	0xbd151171	-0.036393587
210	0xbdebf3ad	-0.11521087
211	0xbe8e98e0	-0.2785101
212	0xbe5fce0b	-0.21855943
213	0x3d0e43d7	0.034732666
214	0xbde5c059	-0.11218328
215	0xbe2552b1	-0.16144826
216	0xbd6fea21	-0.058572892
217	0xbeb3eea3	-0.35143003
218	0xbec599ed	-0.38594
219	0xbe4aff73	-0.19824009
220	0x3e45e42d	0.19325323
221	0x3d47b553	0.04875691
222	0xbd170710	-0.03687197
223	0x3db446e1	0.088025816
224	0xbeaf8cde	-0.3428716
225	0x3a8d6aa6	0.001078923
226	0xbd040537	-0.032231536
227	0x3ddad6fd	0.10685537
228	0xbda64e24	-0.08120373
229	0xbeb9e322	-0.363061
230	0xbd7ef4cb	-0.06224517
231	0x3d897276	0.06711285
232	0xbe276353	-0.16346483
233	0xbdd6ebe1	-0.10494209
234	0xbe97a51c	-0.29618156
235	0xbe207222	-0.15668538
236	0xbc3801f3	-0.0112309335
237	0xbdb5730b	-0.08859833
238	0xbe4aa80f	-0.19790672
239	0xbd873af8	-0.06603044
240	0xbde24c09	-0.11049659
241	0xba98ed8e	-0.0011667477
242	0xbe2df2d3	-0.16987161
243	0xbd4485e4	-0.04797925
244	0xbe46fba1	-0.19431926
245	0xbe2b74a9	-0.16743721
246	0xbe1ec873	-0.15506153
247	0xbe143543	-0.14473443
248	0x3e06e3c2	0.1317282
249	0xbce45599	-0.027872847
250	0xbd0de4ba	-0.03464196
251	0x3d639d58	0.055569977
252	0xbe4efd97	-0.20213924
253	0xba6e9711	-0.000910149
254	0xbce63652	-0.028102074
255	0x3e0dc01f	0.1384282

lstm.weight_ih_l1 f4 [256, 64]
0	0x3dd6f188	0.10495287
1	0xbe48bd46	-0.19603452
2	0xbdf36ddd	-0.11886189
3	0x3e2e83bd	0.17042442
4	0x3da7dabc	0.08196017
5	0x3e309bf4	0.17246991
6	0x3eeb363b	0.45939812
7	0x3dab99bf	0.08378934
8	0x3d7b0332	0.061282344
9	0x3efa3851	0.4887109
10	0xbe65d7a7	-0.22445546
11	0x3e24f763	0.16109996
12	0xbe122e67	-0.14275514
13	0xbe2d5dc2	-0.16930297
14	0xbd96139f	-0.07327961
15	0xbe44753a	-0.19185343
16	0xbe7fadb9	-0.24968614
17	0xbe4d895a	-0.20071927
18	0xbc8aa60e	-0.016924884
19	0xbc854ba7	-0.016271425
20	0x3da46c71	0.08028496
21	0x3e049a33	0.12949447
22	0xbd1d3bdc	-0.038387164
23	0x3ecae799	0.3962982
24	0xbb9e0a79	-0.004823026
25	0xbe22f3e3	-0.15913348
26	0x3e6407b6	0.22268566
27	0xbe4c17b3	-0.19930916
28	0x3e9cd678	0.30632377
29	0x3d398bda	0.04529939
30	0xbd98a123	-0.074526094
31	0x3ecc3166	0.39881438
32	0x3e1c13f8	0.15241992
33	0xbe5f4268	-0.21802676
34	0x3d920491	0.07129777
35	0xbe349b3d	-0.17637344
36	0x3daa7b5d	0.08324311
37	0x3dfe538e	0.124182805
38	0x3da836ae	0.08213554
39	0xbc3ce1ad	-0.011528415
40	0xbe296996	-0.16544184
41	0xbd74ebf4	-0.059795335
42	0x3bdb4178	0.006691154
43	0x3eaf85c4	0.34281743
44	0xbd359d2b	-0.04433934
45	0x3deb7fc1	0.114989765
46	0xbe901444	-0.2814046
47	0xbed0201e	-0.40649503
48	0x3cdfc56b	0.027315816
49	0x3d657367	0.05601826
50	0xbdb568f6	-0.0885791
51	0x3e281e43	0.16417794
52	0x3e2a9658	0.16658914
53	0x3e3cb9ec	0.18430299
54	0xbda044b9	-0.07825608
55	0x3da527ec	0.08064255
56	0xbeda4963	-0.42634115
57	0x3d3290f0	0.043595254
58	0x3ea39e09	0.3195651
59	0x3e43b739	0.19112863
60	0x3ef0aae7	0.47005388
61	0x3e1efc8b	0.15526025
62	0x3cb64b5a	0.022252727
63	0xbc675576	-0.014119497
64	0x3d3b4190	0.045716822
65	0x3d95cba7	0.07314234
66	0xbe56a7d8	-0.20962465
67	0x3c9de3e0	0.019273698
68	0xbd6dff32	-0.0581047
69	0xbe09e642	-0.13466743
70	0xbd07e8bb	-0.033180933
71	0x3e972108	0.29517388
72	0x3e8cf91c	0.27533805
73	0x3d611b9f	0.054957982
74	0x3e8065ff	0.25077817
75	0xbde340b6	-0.11096327
76	0xbe5abe63	-0.2136169
77	0xbe0ddd77	-0.13854013
78	0xbd583e3e	-0.052793734
79	0x3d564f06	0.052321456
80	0xbe037dfc	-0.12841028
81	0xbd6f72d7	-0.05845913
82	0x3e0029e6	0.12515983
83	0x3e193173	0.1496027
84	0xbbf77e2c	-0.0075528827
85	0xbdce6078	-0.10076994
86	0xbed18dd0	-0.40928507
87	0xbd78a50b	-0.060704272
88	0xbdb87dd7	-0.09008377
89	0x3d864421	0.06555963
90	0xbbeffa88	-0.007323567
91	0xbd7fd4f8	-0.062458962
92	0x3bafcd0b	0.005365019
93	0x3df09ad6	0.117482826
94	0x3eb91593	0.36149272
95	0xbdee2c99	-0.116296
96	0x3bc963f7	0.00614595
97	0xbe948769	-0.2900956
98	0x3dbc1f71	0.091856845
99	0x3e2f01ff	0.17090605
100	0xbd190725	-0.03736033
101	0x3d08ebfb	0.033428174
102	0x3e9e59b5	0.30927816
103	0x3d13746c	0.0359997
104	0xbe258973	-0.16165714
105	0x3dde9a41	0.10869265
106	0xbd8e53e6	-0.06949596
107	0xbdbfbb52	-0.093619004
108	0xbe267818	-0.1625675
109	0x3e99f443	0.3006917
110	0xbc90e394	-0.017686643
111	0xbea68643	-0.3252431
112	0x3de6fae2	0.11278321
113	0x3ded71fa	0.11594005
114	0x3d004a2a	0.03132073
115	0xbe263308	-0.16230404
116	0x3e2029bb	0.15640919
117	0x3bb6c38b	0.0055775098
118	0xbe804864	-0.2505523
119	0x3d985da3	0.07439735
120	0x3ddb9c10	0.10723126
121	0xbe5a8ecb	-0.21343534
122	0x3e4ebd32	0.2018936
123	0x3eaa78a9	0.3329518
124	0xbe70a3f1	-0.23500039
125	0x3dfc7474	0.12326899
126	0x3e24af71	0.1608255
127	0x3e85dd59	0.26145437
128	0x3e1f2130	0.15540004
129	0xbc2f4c05	-0.010699277
130	0x3d715b5d	0.05892502
131	0xbe514b27	-0.20438825
132	0x3d0a7815	0.033805925
133	0xbcd7d18f	-0.026345043
134	0xbdf60cd3	-0.12014165
135	0xbe6f019d	-0.23340459
136	0x3d99bad2	0.07506336
137	0x3d415ec3	0.047209512
138	0x3d9f3a2d	0.07774768
139	0x3e28a12b	0.1646773
140	0x3c754a18	0.014971279
141	0x3e059491	0.13044955
142	0xbe6031c6	-0.21893987
143	0xbe78b7ea	-0.24288908
144	0x3efcec78	0.4939916
145	0xbef6caf9	-0.4820173
146	0xbf0ee197	-0.5581297
147	0x3e99f55e	0.30070013
148	0x3f274b64	0.6534941
149	0x3dd80695	0.105481304
150	0xbe6dc89b	-0.23221056
151	0x3e17e0b2	0.14831808
152	0x3e9c268f	0.30498168
153	0xbdff99d2	-0.12480511
154	0xbda9c158	-0.082888305
155	0x3eae56e7	0.34050676
156	0x3f01067f	0.5040054
157	0x3e5dfea2	0.21679166
158	0xbf0d88e4	-0.55287004
159	0xbefb6974	-0.49103892
160	0x3e503f5a	0.20336667
161	0x3ef70910	0.48249102
162	0x3e1f10e6	0.1553379
163	0xbe905ba8	-0.28194928
164	0xbdc08668	-0.09400636
165	0xbf025092	-0.5090419
166	0xbda2d54d	-0.0795084
167	0x3e11f831	0.14254834
168	0x3d1626ad	0.036657978
169	0xbdd2b180	-0.10287762
170	0x3ebc8620	0.3682108
171	0xbbd64bdb	-0.0065398044
172	0x3ee359de	0.444045
173	0xbcfa5d64	-0.03056211
174	0x3e858295	0.2607619
175	0xbb8d92b6	-0.004320468
176	0x3e254146	0.16138181
177	0xbd383186	-0.044969104
178	0x3e44731b	0.19184534
179	0x3d101cfd	0.035183895
180	0xbe420e42	-0.18950751
181	0x3e357eca	0.17724147
182	0xbefd3abb	-0.4945887
183	0x3e491ba8	0.19639456
184	0xbecb2c9f	-0.3968248
185	0x3daa55e0	0.083171606
186	0x3de68dd2	0.11257519
187	0x3f0e8b5e	0.5568141
188	0x3e2d8c84	0.16948134
189	0xbec80df1	-0.39073136
190	0xbd6bb512	-0.05754573
191	0x3efe8831	0.4971328
192	0x3e373242	0.17890266
193	0xbe0e44e0	-0.13893461
194	0xbe0c6043	-0.13708596
195	0xbe45b696	-0.19307932
196	0x3eaf6dd6	0.34263486
197	0x3eef547e	0.4674415
198	0x3f21bd0d	0.63179094
199	0x3e44395b	0.19162504
200	0x3db5cd58	0.08877057
201	0x3e0d31f5	0.13788588
202	0x3db5949d	0.08866236
203	0xbea31866	-0.31854552
204	0xbd439708	-0.047751456
205	0x3ecd6aed	0.4012064
206	0xbd2d4971	-0.042306367
207	0xbe602068	-0.21887362
208	0x3cea80f6	0.028625946
209	0xbec0a2be	-0.37624162
210	0xbe7aa8f4	-0.24478513
211	0x3f0a1aaf	0.53946966
212	0x3ddec5ba	0.10877557
213	0xbde17af8	-0.110097826
214	0x3dc55340	0.09635019
215	0x3d7fbbfe	0.062435143
216	0xbcd5c0c5	-0.026092896
217	0x3f133691	0.57505137
218	0xbe3dbba4	-0.1852861
219	0xba16db4b	-0.0005754723
220	0x3eb53f62	0.3539992
221	0xbdbec5fd	-0.09315107
222	0xbeb22e01	-0.34800723
223	0xbd95aabf	-0.07307958
224	0x3e499b37	0.19688116
225	0x3e6f539b	0.23371737
226	0x3df59ae4	0.11992434
227	0xbe08b68b	-0.13350885
228	0x3b22a1d1	0.0024815688
229	0xbc57cd2e	-0.013171477
230	0xbe2b5608	-0.16732037
231	0xbd4b3689	-0.049612556
232	0xbe61c8e2	-0.22049287
233	0x3e791c23	0.2432714
234	0x3e5afc74	0.21385366
235	0x3ec91ff7	0.392822
236	0x3e8b6de8	0.2723229
237	0xbea8667c	-0.3289069
238	0xbe26ce69	-0.16289677
239	0xbd5b449e	-0.053532235
240	0x3e83b1a4	0.25721467
241	0xbc8b45f1	-0.017001124
242	0xbe445a3d	-0.19175048
243	0x3e8ecd1d	0.27890864
244	0x3cfe16d3	0.031016743
245	0xbb294361	-0.0025827514
246	0x3cf1d44b	0.029520174
247	0x3e45ebb7	0.193282
248	0xbe905b0a	-0.28194457
249	0x3dfa070d	0.12208376
250	0x3e4bb9b3	0.19895057
251	0x3c8cc0cf	0.017181782
252	0x3e5c9ad9	0.21543445
253	0xbed190ee	-0.40930885
254	0x3dc6039c	0.09668657
255	0x3e972a02	0.29524237

lstm.weight_hh_l1 f4 [256, 64]
0	0x3e155fb0	0.14587283
1	0x3e1d13fa	0.15339652
2	0xbf28d740	-0.65953445
3	0x3e51da95	0.20493539
4	0xbc4b123c	-0.012394484
5	0xbebbc3ca	-0.36672813
6	0x3d9e0d9e	0.07717441
7	0xbe01b717	-0.126675
8	0xbe4f26fe	-0.20229718
9	0xbdef2603	-0.11677172
10	0x3cee56a4	0.029094048
11	0xbbb806cd	-0.005616045
12	0xbc9cb4e8	-0.019129232
13	0x3e0d84e5	0.13820226
14	0x3c03bb78	0.0080403015
15	0x3de5c470	0.11219108
16	0x3e3f7a83	0.18699078
17	0xbdea407e	-0.11438082
18	0x3e8bc1a5	0.27296177
19	0x3e7c5c9f	0.24644707
20	0x3c8bde7c	0.017073862
21	0xbe49cac5	-0.19706257
22	0xbd40d886	-0.047081493
23	0xbe73f5c8	-0.23824227
24	0xbc8630f3	-0.016380763
25	0xbe9ef37f	-0.31045148
26	0x3d001a00	0.031274796
27	0xbe41f8dc	-0.18942589
28	0x3e51d712	0.20492199
29	0xbe10968e	-0.14119932
30	0x3c18fa29	0.009336987
31	0xbec94f80	-0.39318466
32	0xbd9b3799	-0.07578964
33	0xbe0446e7	-0.12917672
34	0x3e0f0910	0.13968301
35	0x3e842ee7	0.25817034
36	0x3e7aa153	0.24475603
37	0xbd1fd5c9	-0.03902224
38	0x3d9748a0	0.07386899
39	0xbe74d8c0	-0.23910809
40	0xbc0cddeb	-0.008597831
41	0xba3f89ad	-0.0007306587
42	0xbe6817e8	-0.2266537
43	0xbe95833f	-0.29201695
44	0x3d300552	0.042973824
45	0x3d36be6f	0.044615205
46	0x3dbddc9a	0.09270592
47	0x3e2b2681	0.16713907
48	0x3e284c9b	0.16435473
49	0xbe923d59	-0.2856243
50	0xbe12c44a	-0.14332691
51	0x3d81e914	0.06343284
52	0x3dd83655	0.10557238
53	0x3ba6f822	0.0050954977
54	0xbdef62b3	-0.11688747
55	0xbe74095c	-0.23831695
56	0x3dc7cc35	0.09755746
57	0x3e47320d	0.19452687
58	0x3e385ff6	0.18005356
59	0xbdfe7748	-0.12425095
60	0x3dec008a	0.1152354
61	0xbd71600b	-0.058929484
62	0xbd9fed6e	-0.07808958
63	0x3dc14e8c	0.0943881
64	0xbb992749	-0.0046738726
65	0x3c90bbf6	0.017667752
66	0x3e5f95c0	0.21834469
67	0x3e26a950	0.16275525
68	0xbe148a4d	-0.14505883
69	0x3d65c762	0.05609835
70	0x3e91c40d	0.28469887
71	0xbe8e9df2	-0.27854878
72	0x3e1fe706	0.15615472
73	0xbd05177b	-0.032493096
74	0xbdbcb54c	-0.09214267
75	0x3d5d5ca5	0.05404343
76	0xbcb8b527	-0.022547318
77	0xbc380288	-0.011231072
78	0xbd418eb8	-0.047255248
79	0x3e71e830	0.23623729
80	0x3c56cde4	0.013110612
81	0x3e315e81	0.17321207
82	0x3d94d5d4	0.07267347
83	0x3d99e072	0.07513513
84	0xbd36241b	-0.044468027
85	0xbd1724be	-0.036900274
86	0xbdfb1e7f	-0.12261676
87	0xbe1c7133	-0.15277557
88	0x3da7ee7f	0.081997864
89	0x3df10532	0.11768569
90	0xbd1d7d83	-0.038449775
91	0x3de559f8	0.11198801
92	0xbe5f41b5	-0.21802409
93	0xbc1ca6e8	-0.009561278
94	0xbe27a15c	-0.16370147
95	0x3d865985	0.06560043
96	0x3df5cdc4	0.12002137
97	0x3e096321	0.13416721
98	0xbd1b40b8	-0.037903517
99	0xbea6251e	-0.32450193
100	0xbbe851ed	-0.0070898444
101	0xbdae9dbf	-0.085261814
102	0x3cd542bb	0.026032796
103	0x3e284811	0.16433741
104	0xbe07aaac	-0.132487
105	0x3f0a4012	0.54004014
106	0x3e020af1	0.12699486
107	0xbdd15237	-0.10220759
108	0x3c4439b1	0.011976645
109	0x3e82138d	0.2540554
110	0xbe20119d	-0.15631719
111	0x3d9430dc	0.07235882
112	0xbe2c59cb	-0.16831128
113	0xbca9883b	-0.020694843
114	0x3d212dfa	0.039350487
115	0xbdb618cb	-0.08891448
116	0xbdd44dce	-0.103664026
117	0x3dc54511	0.09632314
118	0x3d4d6c30	0.050152004
119	0x3e127928	0.1430403
120	0x3c65d6a8	0.014028229
121	0xbdaeaaf1	-0.08528698
122	0xbc87eb6e	-0.016591754
123	0x3e0c5f1f	0.13708161
124	0x3d6fff43	0.058593046
125	0xbd523a80	-0.05132532
126	0xbe067991	-0.13132311
127	0xbd23dc76	-0.04000517
128	0xbe28dfa0	-0.16491556
129	0x3d70eaaa	0.058817543
130	0xbe0fb81a	-0.14035073
131	0x3d269932	0.040673442
132	0xbd7d58b6	-0.06185218
133	0xbe1ca8f2	-0.15298823
134	0xbdac4786	-0.084120795
135	0xbea272c7	-0.31728193
136	0xbe61f70f	-0.22066902
137	0xbe6311d4	-0.2217477
138	0x3e3522d4	0.17689067
139	0x3d6c4886	0.05768635
140	0x3e948ab2	0.29012066
141	0x3d6d714d	0.05796938
142	0xbc871e89	-0.016494052
143	0x3d614930	0.055001438
144	0xbd8d818b	-0.06909474
145	0xbeb47658	-0.3524654
146	0x3d9efdb5	0.077632345
147	0xbe7918c0	-0.24325848
148	0xbd91ef46	-0.07125716
149	0x3c3eba10	0.01164104
150	0xbd9bff91	-0.07617105
151	0xbe5c30c2	-0.21502975
152	0x3ea673ea	0.3251031
153	0x3e265c48	0.1624614
154	0xbe4f0e3e	-0.20220277
155	0xbd3c042d	-0.04590242
156	0xbe8f6af3	-0.28011283
157	0x3e9b55ed	0.30338994
158	0xbc8762a2	-0.016526524
159	0x3dd955ab	0.10612043
160	0x3e2716a7	0.16317235
161	0x3e947736	0.289972
162	0xbd831cfd	-0.064020135
163	0xbeaa4e22	-0.33262736
164	0x3cc9680b	0.024585744
165	0xbe3d391c	-0.18478817
166	0x3e2086c1	0.15676405
167	0xbd39772b	-0.045279663
168	0xbe05fe6b	-0.13085334
169	0x3c6bbe8a	0.01438869
170	0x3e9a2130	0.30103445
171	0x3d44b4d6	0.04802402
172	0xbca63909	-0.020290868
173	0x3e4a4f90	0.19756913
174	0x3e15126f	0.14557813
175	0x3cfcd619	0.030863808
176	0x3e16b632	0.1471794
177	0x3bb60885	0.005555215
178	0x3db314e6	0.087442204
179	0x3ddbc769	0.10731394
180	0xbcb1d1ba	-0.02170645
181	0x3da6debf	0.08147954
182	0xbdcf7d3b	-0.10131308
183	0x3c866ab6	0.016408306
184	0xbe453987	-0.19260226
185	0xbd0c17f1	-0.03420252
186	0x3d93edad	0.072230674
187	0x3d0f070d	0.034918834
188	0x3da9f625	0.082989015
189	0x3da15cdf	0.07879042
190	0xbe0454f8	-0.12923038
191	0xbe455ba8	-0.19273245
192	0x3e25dba3	0.16197066
193	0x3e257b76	0.16160378
194	0xbd9d0ce1	-0.07668472
195	0x3e62835d	0.22120424
196	0xbd6d3cf9	-0.057919476
197	0x3e7007cd	0.23440476
198	0xbe40baba	-0.1882123
199	0x3e055c60	0.1302352
200	0x3ea45b1f	0.3210077
201	0xbe031240	-0.1279993
202	0x3e4178b0	0.18893695
203	0xbdaff7c8	-0.085921824
204	0x3d9d8188	0.07690722
205	0x3df1fbb6	0.11815588
206	0xbdf48332	-0.11939086
207	0x3eac8bb3	0.33700332
208	0x3f28394b	0.6571242
209	0xbd861e46	-0.06548743
210	0x3da5baf4	0.08092299
211	0xbd5d2491	-0.05398995
212	0x3e8a6334	0.2702881
213	0xbe2d5425	-0.1692663
214	0x3cdaba87	0.026700271
215	0xbe0ede0a	-0.13951889
216	0x3d377539	0.044789527
217	0x3ad6eab9	0.0016396857
218	0x3ec045aa	0.3755315
219	0xbd31d7e4	-0.04341878
220	0xbe58e54f	-0.21181224
221	0x3eb2e6ec	0.34941804
222	0x3e54f8a3	0.20797972
223	0xbd7fed1b	-0.06248198
224	0xbb8bead5	-0.0042699375
225	0x3e1254c8	0.14290154
226	0x3ea081c5	0.31349006
227	0xbc97360c	-0.018458389
228	0xbe021f82	-0.12707332
229	0xbd247445	-0.040149946
230	0xbe2ccd66	-0.16875228
231	0xbe5c94b8	-0.21541107
232	0x3e1f5d07	0.15562831
233	0xbe072551	-0.13197829
234	0x3e8f8e5f	0.28038308
235	0xbdd66c22	-0.104698434
236	0x3ee1d24a	0.4410575
237	0xbf15e4af	-0.5855207
238	0xbefced32	-0.49399716
239	0xbd94a933	-0.07258835
240	0x3da17565	0.07883719
241	0x3d5da496	0.05411204
242	0xbc1938da	-0.009351933
243	0x3e64ffc6	0.22363195
244	0xba88f1fe	-0.0010448096
245	0x3e7f7708	0.2494775
246	0x3c270d37	0.010196022
247	0xba8324fb	-0.0010005528
248	0xbd8b5d55	-0.06804911
249	0xbd9de13d	-0.077089764
250	0x3ec6e794	0.38848555
251	0xbbb898f8	-0.0056334697
252	0x3e34a80f	0.17642234
253	0xbee97d87	-0.45603582
254	0xbc9e5162	-0.019325916
255	0xbd9539d9	-0.07286424

lstm.bias_ih_l1 f4 [256]
0	0xbf244bb5	-0.6417802
1	0xbc61e0aa	-0.013786474
2	0xbe01ee57	-0.12688576
3	0xbf36d5a4	-0.7141974
4	0x3d4db752	0.050223656
5	0xbf5308b0	-0.8243513
6	0xbe32a638	-0.1744622
7	0xbf33c463	-0.7022154
8	0xbf2b0d85	-0.66817504
9	0xbe17d760	-0.14828253
10	0xbf1dd814	-0.61657834
11	0xbf9e4d70	-1.2367382
12	0xbf53e8a5	-0.8277686
13	0x3e04632f	0.1292846
14	0xbe662cbb	-0.22478001
15	0xbf049f3a	-0.5180546
16	0xbf12f6a8	-0.5740762
17	0x3da0bcaf	0.078484885
18	0xbd960a0b	-0.07326134
19	0xbe5300ec	-0.2060582
20	0xbe7ffa78	-0.2499789
21	0xbe845ba5	-0.2585117
22	0xbdd11989	-0.102099486
23	0xbf3bd16f	-0.73366445
24	0xbdcffe6a	-0.101559475
25	0xbda175f5	-0.07883827
26	0xbeb69ce1	-0.35666564
27	0xbf07fc85	-0.5311969
28	0xbe9f89c3	-0.3115979
29	0xbebb31a9	-0.36561325
30	0xbf06279a	-0.5240418
31	0xbebf7ae5	-0.3739845
32	0xbf5bb8ea	-0.8582903
33	0xbe57985f	-0.21054219
34	0xbf41f2d3	-0.75761145
35	0xbea77e6c	-0.3271364
36	0xbe1601bc	-0.14649099
37	0xbf1e6522	-0.61873066
38	0x3d5d8c53	0.0540889
39	0xbedf4d4e	-0.43613666
40	0xbe9a94b1	-0.30191568
41	0xbf8d8e39	-1.1059028
42	0xbf19069e	-0.5977572
43	0xbede6edc	-0.43443954
44	0xbf09fe9e	-0.5390414
45	0xbec873c8	-0.39150834
46	0xbeedf735	-0.46477666
47	0x3e3bed27	0.18352185
48	0xbed57693	-0.41692027
49	0xbea79c21	-0.32736304
50	0xbec9b68f	-0.39397094
51	0xbe075149	-0.13214602
52	0x3ddd0dee	0.107936725
53	0xbf18d71a	-0.5970322
54	0xbf00cbe2	-0.503111
55	0xbf1cdec1	-0.61277395
56	0xbdc370de	-0.09543012
57	0xbd95ace6	-0.073083684
58	0xbf07d104	-0.5305331
59	0x3c740fa2	0.014896305
60	0x3dc3ac20	0.095543146
61	0xbee40a7e	-0.44539255
62	0x3dfe7f61	0.12426639
63	0x3df5f44a	0.12009485
64	0xbee980a1	-0.4560595
65	0xbd4cd38d	-0.050006438
66	0xbe1a529a	-0.15070572
67	0xbeccd6dc	-0.40007675
68	0xbdc01add	-0.09380124
69	0xbf454cb3	-0.7707016
70	0xbc053823	-0.00813106
71	0xbee2fdf7	-0.44334385
72	0xbf011ebc	-0.5043752
73	0xbdf4fa32	-0.119617835
74	0xbecf6277	-0.4050481
75	0xbf63f1a8	-0.89040613
76	0xbed86fe8	-0.42272878
77	0x3db0b883	0.08628943
78	0xbde364fb	-0.11103245
79	0xbe3c4fb6	-0.18389782
80	0xbec53bd2	-0.38522202
81	0x3eab38bc	0.33441722
82	0xbbc7c656	-0.0060966415
83	0x3d4d4b87	0.050120857
84	0xbd269d50	-0.04067737
85	0xbd83c30c	-0.064336866
86	0xbbac0070	-0.0052490756
87	0xbe984957	-0.29743454
88	0xbcc9b3e8	-0.024621919
89	0xbdeadfd0	-0.1146847
90	0xbe49f3d6	-0.19721922
91	0xbedbc5f8	-0.42924476
92	0xbe23a536	-0.15980992
93	0xbf05e9b1	-0.5230971
94	0xbee6b908	-0.45063043
95	0xbea0fe6a	-0.31444103
96	0xbed55f92	-0.41674477
97	0xbe3344cd	-0.17506714
98	0xbee25441	-0.44204906
99	0xbea528b5	-0.3225762
100	0xbc7879b9	-0.01516574
101	0xbeca1e83	-0.39476404
102	0x3e06197c	0.13095659
103	0xbdc1f0dd	-0.09469769
104	0xbd4f855c	-0.05066429
105	0xbf3a0fa6	-0.7268013
106	0xbeec03a3	-0.46096525
107	0xbcda81d6	-0.026673239
108	0xbed6a9a4	-0.419263
109	0xbe9a062f	-0.30082843
110	0xbe5069c2	-0.20352843
111	0x3d58555d	0.052815784
112	0xbed91cb4	-0.4240471
113	0xbeb4a40c	-0.35281408
114	0xbe8c1687	-0.27360937
115	0xbddc1495	-0.10746113
116	0xbc57e12c	-0.013176244
117	0xbe635a1f	-0.22202347
118	0xbec7ebd0	-0.39047098
119	0xbe90dd8c	-0.28294027
120	0xbd85cd81	-0.065333374
121	0xbda3089d	-0.07960627
122	0xbed5b5d7	-0.41740295
123	0x3d892d2c	0.06698069
124	0xbdaeb9ae	-0.08531509
125	0xbee6f651	-0.451098
126	0x3e456fac	0.1928088
127	0xbe4f1434	-0.2022255
128	0x3b92e77c	0.0044831615
129	0x3c65d1e3	0.014027092
130	0x3d921224	0.07132366
131	0xbdf406a4	-0.11915329
132	0x3d64472e	0.055731945
133	0x3c3d04bd	0.011536774
134	0xbc2f0431	-0.010682152
135	0x3c0d428c	0.008621823
136	0xbd1ca861	-0.038246516
137	0xbd0ae6de	-0.03391158
138	0x3dad8a63	0.08473661
139	0xbd812a13	-0.06306853
140	0x3e007150	0.12543225
141	0xbdf5e10d	-0.12005816
142	0xbccc25ab	-0.024920305
143	0x3d9506b8	0.07276672
144	0xbd139a7a	-0.036035992
145	0x3c41520d	0.011799348
146	0xbdc4b520	-0.09604859
147	0x3d5f6f14	0.05454929
148	0x3d9deb5f	0.07710909
149	0xbcb0aed9	-0.021567749
150	0xbd1c86aa	-0.038214363
151	0xbae5f5b6	-0.0017544541
152	0x3d1f0e20	0.03883183
153	0xbcec3ed8	-0.02883856
154	0xbd8be499	-0.06830711
155	0x3d8b23b6	0.06793921
156	0x3d856db6	0.06515066
157	0xbd8df1f2	-0.06930913
158	0xbcda5704	-0.02665282
159	0x3db4ecf9	0.088342614
160	0xbdb3266b	-0.08747562
161	0x3dd23a8b	0.102650724
162	0xbd2f828e	-0.042849116
163	0x3d508248	0.050905496
164	0x3d3120b0	0.043244064
165	0x3de253fa	0.110511735
166	0xbc5cc859	-0.013475501
167	0x3d1ab6ce	0.037771992
168	0xbd5ab64e	-0.053396516
169	0x3d98d8d7	0.07463234
170	0x3c808af9	0.015691267
171	0x3b09ed1b	0.0021045867
172	0xbd5e3929	-0.05425373
173	0xbd901c9c	-0.07036707
174	0x3d0ed71d	0.034873117
175	0x39d80cc1	0.00041208233
176	0xbd4b7716	-0.049674116
177	0xbcd93fe3	-0.026519721
178	0xbd600620	-0.05469334
179	0xbc88c0c0	-0.016693473
180	0x3d8d4cf5	0.06899444
181	0xbd2990bb	-0.04139779
182	0xbd07e866	-0.033180617
183	0x3ce50fc7	0.027961625
184	0x3c4007e8	0.011720635
185	0xbddf5fb1	-0.109069236
186	0x3c81e814	0.015857734
187	0xbb7a988b	-0.0038237895
188	0x3dc98a9f	0.09840893
189	0xbd2165b6	-0.03940364
190	0x3db3c0dc	0.087770194
191	0xbb5f0eff	-0.0034036038
192	0xbf19b1d9	-0.60037
193	0xbd128643	-0.035772573
194	0xbeb4c1f4	-0.35304224
195	0xbf27fe4c	-0.656224
196	0x3db6e687	0.08930688
197	0xbf4b486e	-0.79407394
198	0xbe4de0e0	-0.20105314
199	0xbf1da4be	-0.615795
200	0xbef5ad1b	-0.47983631
201	0xbe8633d1	-0.26211408
202	0xbf335ce1	-0.70063597
203	0xbfa63b4a	-1.2986844
204	0xbf25b8a7	-0.6473488
205	0x3e44b463	0.19209437
206	0xbe80dd71	-0.25168946
207	0xbee15cc2	-0.4401608
208	0xbf1f5bf3	-0.6224968
209	0x3d168ed2	0.036757298
210	0xbdde388c	-0.10850629
211	0xbc5b28fe	-0.0133764725
212	0xbe02e1bc	-0.12781423
213	0xbe1733dd	-0.14765878
214	0xbcaec2ef	-0.021333186
215	0xbf46d295	-0.7766507
216	0xbe3b5043	-0.18292336
217	0xbdf513fc	-0.11966702
218	0xbecfec5a	-0.4061001
219	0xbefe720e	-0.49696392
220	0xbea77282	-0.3270455
221	0xbf21cd48	-0.6320386
222	0xbeec15d9	-0.46110418
223	0xbe94ab9f	-0.29037187
224	0xbf49a376	-0.78765047
225	0xbe7b0882	-0.24514964
226	0xbeff432d	-0.4985594
227	0xbef72b19	-0.48275068
228	0x3d03e2cf	0.032198723
229	0xbf099354	-0.5374043
230	0x3e2aad26	0.16667613
231	0xbea4b0f9	-0.3216627
232	0xbd7f5663	-0.062338244
233	0xbf90e412	-1.1319602
234	0xbf3f1ad2	-0.746503
235	0xbed159d0	-0.40888834
236	0xbeea04ed	-0.45706883
237	0xbefb2c0e	-0.4905705
238	0xbe93cfd2	-0.28869492
239	0x3e57d41f	0.21077012
240	0xbf170332	-0.5898925
241	0xbef83f3c	-0.48485744
242	0xbe902768	-0.28155065
243	0xbe3421a1	-0.17590953
244	0x3e2f1325	0.17097147
245	0xbf1a85f1	-0.6036063
246	0xbee4acc1	-0.4466305
247	0xbef51270	-0.4786563
248	0x3e242ad0	0.16031957
249	0xbd8a60d0	-0.06756747
250	0xbf196a58	-0.5992789
251	0xbdff9f55	-0.12481562
252	0x3d8b7465	0.0680931
253	0xbf002986	-0.5006336
254	0x3e93989d	0.28827372
255	0x3ea7acbe	0.3274898
