backend/Model_Pytorch/RNN_Model_our_data/output/checkpoints/best_checkpoint.pth (torch, 677915 bytes, 30 tensors)

lstm.weight_ih_l0 f4 [256, 15]
00000000: 7af1 d2bc 95a6 863d 7196 21bd 6500 00bd
00000010: a6f9 093e f531 21bd d17d ef3d 2b79 39be
00000020: b94e 86bd e4d3 d1bd 640d 823d 94e8 abbb
00000030: c25f b6bd 5660 2b3d 4ed0 223d 7730 80bd
00000040: 237f a3bd fdca 033e ca0d 9dbc 1652 913c
00000050: c39b 5dba 6255 053e b71a ce3a 213b 79be
00000060: 41be 53bd 8186 613d 56b9 823d 118c 67bd
00000070: 6d78 503e 9ebf 31be 7bc0 b03e 23e9 c7bd
00000080: b3db 86b8 232d 8d3d d29f 1e3e dc6a ce3e
00000090: 9ac4 e5bc af79 a2bc e84c ab3d 37de 9abc
000000a0: 464b 1cbe 1471 9dbe 0f41 953d ecce 5ebe
000000b0: 0ac1 36be f06d 933e 8cb1 b7bd 7d5b bbbd
000000c0: bb05 d33c 9baf 10be 1d5b 35be 0415 173d
000000d0: b924 933c ab7a 7ebd b2b0 f13d 2979 c5bb
000000e0: d603 a4bd 8289 d5bb 05af 473d c47b 0c3e
000000f0: bf1d 43be b1bd 7dbd 00b5 aabd a4b3 99bd
00000100: 9b07 833d c860 0cbe bf70 b53d af81 d33d
00000110: 6bde 4e3d 25ff d43d 9bea 003e f414 27bc
00000120: 9fcb 1bbd a3be c13d d165 14bd 8694 46be
00000130: 796c 273d ecb3 a43d e38e 0b3e bee5 243e
00000140: 08fd 693d 2041 bb3e e80c c03c 98c3 debd
00000150: 6c41 39bd 7d3b babd 7c10 bc3d 536e a5bc
00000160: b75b 0f3e 739e 9739 d480 ecbd 5825 3f3d
00000170: e30c 40be e8da d1bd 7075 44be 7872 b63d
00000180: f38a 3b3d 04c4 c0bd d388 373e 6701 203c
00000190: 7836 873d 9a72 813d 3530 713d fa08 273d
000001a0: d256 1c3e b334 533d b6ff c4bc 5665 63bd
000001b0: cc19 0fbe ff2a 7dbd d864 f73d 0424 c2bd
000001c0: 6249 72be 31a9 86bd 7b87 553d 0d4f d3bd
000001d0: 2460 09bd bcdc 33be 7200 1e3d 0def babd
000001e0: 95c2 943d a15d bcbd 7563 94bd dbe9 c7bd
000001f0: cfd6 02be dfea 06be 04fa dc3d 09a5 81bd
00000200: b3e0 47be 20e6 0bbe 0bf8 d7bb a663 b83e
00000210: 062b 12bd d2b7 753e d1e4 66bd c414 76bd
00000220: 46f4 59be 0739 3bbe b1df 66be 8707 a6bd
00000230: e139 e0bd a376 0bbe ee71 98bd 32f2 5f3d
00000240: c3ae 36bd daae 2e3e e19b edbd 9a59 b6bd
00000250: 0d15 8fbd 8d07 27bd 4e12 4abe 24ed b13d
00000260: 30b0 213d 9074 d8bd e819 883d dcde bc3c
00000270: 8920 643d 0587 4d3e 68dd 823d 7a1c 663d
00000280: 948a d0bd 16fe b73d 8e80 b5bd abe4 943d
00000290: 6a41 043e d289 503e 59e5 e0bd 541d 733c
000002a0: 46f9 8b3d 9430 093c ea8d be3d 1413 1abd
000002b0: ae63 9dbc a7b1 87be f349 413e b851 efbd
000002c0: 4034 2f3e 1c5e 753d 2ef7 3ebd 8b75 f3bc
000002d0: 7cad 68bb 1614 29be 9e7d 3abe 3dd0 9abd
000002e0: 9f6b 26bd 1ca4 5cbe df89 843d e44d 1d3d
000002f0: 1af0 5ebe b8a1 d73d 6125 0bbd a09c 30be
00000300: cf80 a5bd 18e0 27be c7eb 693d 1084 113e
00000310: e6f1 9a3d 5f25 e23c 2394 a9bd e9b6 02bd
00000320: 64e1 c83d 58db b7bd 5573 30bd 2407 7fbd
00000330: 1a99 763d 697e dc3d b708 ebbc 0d19 36be
00000340: 1770 09be d39b 873d 6e86 49be 390d 11bd
00000350: f3f6 f13d 8fa6 033c d1ef 873d e502 3bbe
00000360: 1963 f83d 4098 083c fdd3 2ebe 686c c8bd
00000370: 822f c93b a33b 2e3c 6c01 1dbe b6d7 b83d
00000380: e7ee 33be 7fc3 1e3e 79b0 df3d 665b 843e
00000390: eb09 4b3e 7f1c dd3d 5ad4 763e e9ce af3d
000003a0: 9bbd 5cbc c927 a83d 78d2 093e ac74 27bc
000003b0: 333c bbbd f800 0bbe b391 33be ef59 373c
000003c0: 5ca4 b8bd 290c a0bb 5cb2 4abe a558 40be
000003d0: 3eea f1bd f056 d5bd 90e8 17bd 586d 463c
000003e0: 0923 063e 34fe 3abe 5a26 533c 87b1 123e
000003f0: 0f29 063e fbcf f83d 1922 a33d f7d2 10be
-0.02574991 0.06574742 -0.039450113 -0.031250376 0.1347414 -0.039354283 0.116939195 -0.18112628
-0.06557984 -0.10245493 0.0635021 -0.0052462313 -0.08904983 0.04183992 0.039749436 -0.06259244
-0.07983234 0.12870403 -0.019171614 0.017739337 -0.0008453691 0.13020852 0.0015724514 -0.24338962
-0.051695112 0.055059914 0.06383006 -0.056530062 0.20358439 -0.17358252 0.3452185 -0.09761264
-6.43054e-05 0.06893375 0.15490654 0.40315902 -0.028047848 -0.019833414 0.08364278 -0.018904788
-0.1526309 -0.30750334 0.072877996 -0.21758622 -0.17847076 0.28794813 -0.08969411 -0.091483094
0.025759568 -0.14129488 -0.17710538 0.036885276 0.017961847 -0.062128704 0.1180128 -0.0060264063
-0.08008544 -0.0065166363 0.048750896 0.13719088 -0.19054316 -0.061948482 -0.08335304 -0.07504967
0.06397935 -0.13708794 0.08859395 0.103274696 0.050505083 0.104002275 0.12589495 -0.010197867
-0.038035985 0.09460189 -0.036229912 -0.19392595 0.040874932 0.0804213 0.13628726 0.16103265
0.057126075 0.36573124 0.023443654 -0.1087715 -0.045228407 -0.09093378 0.09182832 -0.020194208
0.1399983 0.00028919018 -0.115480095 0.046666473 -0.18754916 -0.10246831 -0.19185424 0.08908552
0.04578681 -0.09412387 0.17923288 0.009765959 0.06602186 0.06320687 0.058883864 0.040780045
0.15267494 0.05156393 -0.024047714 -0.055516563 -0.13974684 -0.061808582 0.12079781 -0.09479526
-0.23660806 -0.065752394 0.052131157 -0.10317812 -0.033538952 -0.17564672 0.038574643 -0.091276266
0.07263676 -0.09197546 -0.072455324 -0.09761401 -0.12777255 -0.13175534 0.10789874 -0.06330306
-0.1951931 -0.13662004 -0.0065908483 0.36013526 -0.03568556 0.23995903 -0.05637056 -0.060078397
-0.21284589 -0.18283473 -0.22546269 -0.081069045 -0.109485395 -0.13619475 -0.07443605 0.054674335
-0.04460026 0.17058888 -0.11601997 -0.08903809 -0.06986437 -0.040778685 -0.19733545 0.08687809
0.039474666 -0.105691075 0.06645566 0.023055486 0.05569509 0.20071037 0.06389886 0.0561795
-0.10182682 0.0898401 -0.088624105 0.072701775 0.12915578 0.20365074 -0.109812446 0.014838535
0.068346545 0.008373398 0.09304412 -0.03761585 -0.01921257 -0.26502725 0.18875866 -0.116855085
0.17109776 0.059904203 -0.046622448 -0.029719135 -0.0035503795 -0.16511568 -0.18211982 -0.075592496
-0.04062998 -0.21546978 0.06471609 0.03840436 -0.21771279 0.10528892 -0.033971194 -0.17247248
-0.08081209 -0.16394079 0.05710962 0.14210534 0.0756567 0.02760571 -0.08280208 -0.031912718
0.09808615 -0.089773834 -0.04307874 -0.06226267 0.060204603 0.10766298 -0.028690679 -0.17782994
-0.13421665 0.06621518 -0.19680187 -0.035413 0.1181468 0.008035316 0.06637538 -0.18262823
0.121282764 0.0083370805 -0.17073055 -0.09786302 0.0061396966 0.010634336 -0.15332574 0.090255186
-0.17571603 0.15504263 0.10922331 0.2585098 0.19828002 0.10796451 0.24104443 0.08584387
-0.01347294 0.082107134 0.13459194 -0.010220688 -0.091423415 -0.13574588 -0.17536049 0.011190875
-0.09015724 -0.004884262 -0.19794601 -0.18783815 -0.11812256 -0.10416973 -0.037087023 0.0121110305
0.13099302 -0.18261033 0.012887562 0.14325534 0.131016 0.12149044 0.07965488 -0.14142977

lstm.weight_hh_l0 f4 [256, 64]
00000000: 6083 97bd 433d 7abd 4cb7 ecbb 340a 87bd
00000010: a174 dc3d 51c1 f53c c603 86bd b8a7 043e
00000020: 9eec 1b3e 001d 84bd 30ee a6bd 4572 f9bd
00000030: 85ab 3c3d 1ee4 3f3c 1fc3 0dbe 28d6 82bc
00000040: 9eae b7bc b3c4 c73d 83e6 0cbe 5e7f 633d
00000050: 6592 27bd 4d11 67bd d467 f13d 9cb9 843c
00000060: f146 72bd a497 973d 90dd 89bd 675b 283d
00000070: 6a5a ec3c d42f f63c 823c b1bd 6729 f63d
00000080: f57c 9c3d 5e4d 3c3d 11c9 fe3d 3e9f 093e
00000090: 273a afbd 191d 18bd de90 20be 4e71 77bd
000000a0: 0f30 1d3e 4cd2 d53c 7577 c33d b8fa 973d
000000b0: 1f9e 8d3c d757 9dbd e955 10bc 89ea 0dbe
000000c0: a990 00bd 24ff 4c3d b559 55bc 9b94 28bd
000000d0: b88f 75bd 0b32 603e 4131 d93d fccb 3b3e
000000e0: 58e0 743d fe17 0f3e 65e3 983c 54c8 0cbc
000000f0: f4b1 00be 3f5f c9bd 3b04 cbbd f88a b6bd
00000100: fb11 a33d c576 873d 1b84 06bd ab5e 23bd
00000110: 1f12 a43b 5f86 a43d 5787 b3bc 7b44 5fbb
00000120: 571f d33d 9e8d 0ebe bc67 3abe 9597 49bc
00000130: 5173 49be c2d3 53bd 1c55 ae3d f88c 063d
00000140: 5add 9fbd 6cda 3bbe 16bb 67be 982e 153d
00000150: 90ce cb3d 4225 75bd 6282 a4bd d4db 15be
00000160: 6159 41be 0bed b33d 74de 8ebd c4a9 1fbd
00000170: e265 b2bd acaa 593e 5595 583c bd42 98bd
00000180: 5489 283d 2ac8 e23c 9850 4fbd 1a09 84bd
00000190: c773 313e 1c54 0fbe bc1b 8dbc ac97 3e3e
000001a0: f346 de3d 5a5e 9d3d 6f9b b7bd 8c1a c93d
000001b0: fef2 b2bd 1968 153d 9ef2 333d 9d63 04bd
000001c0: 52fa 35bd 2c13 f33d 130a a73d 2424 a2bd
000001d0: c495 52be efb1 0c3d 1178 02be b540 2a3e
000001e0: 93e7 e43d 212b 30be c3f9 523e 26a1 073b
000001f0: 267d 983d 5773 d2bd bfc8 e93d fb3b 7cbe
00000200: e492 203e bcf7 22bd da44 0b3c e8c6 143e
00000210: 68ad f0bd 649d 85bd e962 ccbc 6273 ff3c
00000220: a059 aebd 5c2d 2d3d 6e2b c5bd 5c66 c4bd
00000230: 84e2 ccbc 7ae1 183d e8a5 79bd d354 9abc
00000240: e58c 87be 3264 703d 0b3e b93c 74e8 503e
00000250: f77c 4b3e c854 82be c2a6 18bd bce7 863e
00000260: fa6c 9fbe d7a5 04bd cd14 ea3d b8ef 0a3c
00000270: 922a 7bbd 209f a7bd 4de7 dfbc a87c 29be
00000280: 16b1 2d3e 82f8 733d bea6 8f3d 2031 8d3c
00000290: cc95 e9bc e9ec 84be 80f0 183d b2e9 5d3d
000002a0: 5122 07bd e715 45bd 0c3e ddbd 8207 383d
000002b0: eaa1 5abc b4dd 873b b8bd 52be 305b 06bd
000002c0: 4a2b 3a3e b354 d83d 8ca6 413b a443 70bd
000002d0: 4203 4cbe 9479 5e3e 9b55 643e 852f 2abd
000002e0: 97e3 453c 06a1 dabd cc31 043e 4774 c53c
000002f0: 6f1e 31bc 2992 503d 26f2 c1bd 9516 bc3e
00000300: 327b 0ebe 114f f4bd 65ac 033e 8a41 463d
00000310: d17c fd3c 87ff 1dbc 772c 343d 2ea3 0b3e
00000320: a51c 1c3b 8c43 653c 7786 0e3e 3c87 82bd
00000330: c1e6 19be fbf1 f53c 9310 1b3e 91c5 82bd
00000340: 97ef 0ebe 030a e43d ea10 983c cfe6 37be
00000350: f726 e1bd b17b 7a3d 9e2e 733d 7aa4 583d
00000360: 335b b13c e349 133b 4ace aabd d02a e9bd
00000370: 2cae 913d 017a 753c 504f 70bd 8911 b73d
00000380: a960 ddbd 49ee bd3d 7228 203d f1bf 883c
00000390: 7a99 40bd 17cd 95bd b07e 53be 871b a5bd
000003a0: f408 9f3c b4fd bfbd 4f9a 1dbc 9270 8abd
000003b0: 2912 be3d 5964 2c3d ff99 793d df56 1abc
000003c0: 78c1 63be e2ac 26bd adaf 90bd 9522 11bd
000003d0: b88b f83d f99f 113d c571 d0bd 57b7 8dbd
000003e0: 67f9 293e 6879 d13d dd63 8e3d 762a cb3d
000003f0: cbe4 00be 888f 03bc 31da 3a3d e8ae 523d
-0.07398105 -0.06109358 -0.007223999 -0.06593743 0.10764433 0.029999407 -0.065436885 0.12954605
0.15226981 -0.06450844 -0.081508994 -0.12179998 0.04606201 0.011712102 -0.13843964 -0.015971258
-0.022422131 0.09754314 -0.13759808 0.05554139 -0.040911097 -0.056412984 0.11787382 0.016201787
-0.059149686 0.0740197 -0.06731713 0.041102793 0.028851707 0.030052103 -0.08654119 0.120196156
0.07641021 0.04597222 0.12440694 0.13439652 -0.085560136 -0.037137125 -0.15680262 -0.06041079
0.15350364 0.026101254 0.09544269 0.07420868 0.017287312 -0.0768277 -0.008809545 -0.13859
-0.03138796 0.05004801 -0.013021876 -0.041157346 -0.059951514 0.2189409 0.106050976 0.18339533
0.059784263 0.13973996 0.018663118 -0.008592684 -0.12567884 -0.0983262 -0.09912916 -0.08913225
0.07962414 0.0661445 -0.03284083 -0.039885204 0.005007043 0.08033442 -0.021915121 -0.0034067917
0.10308712 -0.1392121 -0.18203634 -0.012304206 -0.19672896 -0.05171562 0.08512327 0.032849282
-0.07805891 -0.1834504 -0.22629961 0.03642139 0.09951508 -0.059849985 -0.08032681 -0.14634639
-0.18881752 0.08785447 -0.06976023 -0.03898026 -0.08710839 0.21256512 0.013219197 -0.07434604
0.04114659 0.027683336 -0.05061397 -0.064470485 0.17329322 -0.13996929 -0.017225139 0.18612546
0.10853376 0.07684012 -0.089651935 0.098195165 -0.08737753 0.03647623 0.04393255 -0.03232156
-0.044428177 0.11868891 0.081562184 -0.079170495 -0.20564944 0.03434938 -0.12741114 0.16626246
0.11176982 -0.17203952 0.20603089 0.0020695417 0.07445745 -0.102759056 0.114152424 -0.24632256
0.15681034 -0.03978704 0.008500302 0.14529002 -0.117518246 -0.065241605 -0.024949508 0.031182948
-0.08513188 0.042279586 -0.09627424 -0.09589836 -0.025010355 0.037324406 -0.060949236 -0.018839275
-0.26474681 0.058689304 0.022612592 0.20401174 0.19871889 -0.25455308 -0.037268408 0.26348674
-0.3113783 -0.03238472 0.11429749 0.008480005 -0.061319895 -0.081846476 -0.027331972 -0.16551459
0.16962084 0.059563167 0.070142254 0.017235339 -0.028513812 -0.25961998 0.037338734 0.054177947
-0.03299171 -0.04811659 -0.1080285 0.044929035 -0.013344267 0.004146302 -0.20580184 -0.032801807
0.18180576 0.1056303 0.0029548733 -0.058658257 -0.19923118 0.21726066 0.22298281 -0.041549224
0.012078187 -0.10675244 0.12909621 0.024103297 -0.010810479 0.05092064 -0.09470014 0.3673598
-0.13914183 -0.11929143 0.12858732 0.048402347 0.030943306 -0.009643442 0.043987717 0.13636467
0.0023820784 0.013993155 0.13918482 -0.0637345 -0.15029432 0.030022612 0.15143041 -0.06385339
-0.13958584 0.11134722 0.018562753 -0.1795914 -0.1099376 0.061153118 0.05937063 0.052891232
0.021649932 0.002247446 -0.08340128 -0.11385119 0.07113299 0.014982701 -0.05866939 0.089388914
-0.10809452 0.09273965 0.03910107 0.016693087 -0.047021367 -0.073145084 -0.20653796 -0.08061891
0.019413449 -0.09374562 -0.00961931 -0.06759752 0.092808075 0.042087886 0.060937878 -0.009420126
-0.22241771 -0.040692218 -0.070647575 -0.03543337 0.12136024 0.035552952 -0.1017795 -0.06919735
0.16599046 0.102282345 0.06952641 0.09920208 -0.12587278 -0.008029826 0.04561824 0.051436335

lstm.bias_ih_l0 f4 [256]
00000000: 585f 7abd d99e c5bd 56c8 0abe 7de6 7a3c
00000010: 916d c2bd 6566 8c3d 2131 ab3d cbd2 42bd
00000020: f16d 9bbd 4953 d93d 5e2f 4bbb 5e08 553c
00000030: 4df4 303e b942 263e 2cc0 183d 29d6 d03c
00000040: 895a 12bd b673 ac3d a783 58bc 9062 a6bd
00000050: 814d 9f3c 9552 c7bc fe33 dd3d 5f42 5b3e
00000060: 0bcb f93c b529 57bd 5d28 cf3d aa49 903d
00000070: 1a6d 063d 35ba 863c 6d80 243e 7b42 a73d
00000080: 6d16 cbbc 9ae9 8abd dab2 423d 5df9 453e
00000090: 48b5 993d 40e3 8c3d 44af 023d 877c 17bd
000000a0: da18 933c f977 aa3d 364d 0bbd 3992 643b
000000b0: 3b60 cf3d e426 75bd 0fd1 103e 953b 793d
000000c0: 2683 12be 5332 683d db25 5d3d 0825 d73e
000000d0: d8dd 8f3d 1a4b cebd 61d0 57bd 9751 d2bd
000000e0: 3812 403d 8d1d 0bbe bb4a 09be f718 9f3d
000000f0: 4e77 f0bd 3b62 9cbd 6677 243c 5068 963d
00000100: 24a6 efbc 6dde 00be a80e 363d ff35 fc3d
00000110: 7620 5abd 4828 3bbe 42a6 b3bd 59ed 59bd
00000120: fffb a9bd 1b2b 06be 7b2a 2cbd 142e e8bc
00000130: d366 7e3c 4e92 06be d907 8c3d e291 7bbc
00000140: bfde 193e a679 cfbd c243 e0bd fa5d 8f3d
00000150: 80e2 3b3d dd46 a93d bb33 c2bd 1321 0ebd
00000160: 4fad 353e 62fb 1d3e 226f e8bd cac5 b03d
00000170: 62fa 5dbb 9ff9 bc3d f7ca af3c 0b59 a53c
00000180: 3bba a7bd e80c 1bbe c1e2 e0bd 931f 213e
00000190: f111 a1bc 2273 d03c a79e 093e a1ad b9bd
000001a0: a08f 873c 2d5d b53d fa07 df3b 39dc 30be
000001b0: 26d2 32bd 4650 e53c 6dac 283d 12d7 573e
000001c0: 9464 183e 347d 67bc 7ba6 0b3e 9dc4 0fbe
000001d0: 71db 04be 1bcd c33c 0ff8 ab3d 5184 e8bc
000001e0: 68ca 80bd 6523 07bc 411d a83d 70d2 85bd
000001f0: e4a1 c0bb 21a1 ecbd a1a5 603e a94f c5bd
00000200: 4652 e43b 2bc5 c13d 7e82 9e3d 0c3c ec3d
00000210: 7bdc c8bd 07e5 e23d 1038 c4bd b7b5 aaba
00000220: 1c1e a53c 21f0 9ebd 3cf1 8fbd b5e7 f4bb
00000230: a293 a2bc b7ef 4e3d 6890 f73c cd46 313c
00000240: 4b72 98bd 7b06 30bd 2362 833d ad7d 8c3c
00000250: b6c7 a0b9 ec17 acbb 6778 b1ba 970e 58bd
00000260: f606 d3bd c3ae 983d b6ff 82bd 7655 e8bd
00000270: f907 b3bd 4b56 a8bc bad8 7a3d a8b1 c7bd
00000280: b118 d7bd 23a6 03bd 64ea 0c3e 0672 843d
00000290: fc1d c23d 967f a7bc e9db 39bc 3a88 0bbd
000002a0: f4fe c53c 92a4 f93d 2a07 9abb cd5e a2bd
000002b0: c474 593d 6454 aabc cd4c f5bd b225 1b3d
000002c0: b9e4 883d 69a9 a5bc 7d19 473d cbb8 073d
000002d0: f0cf a5bd 0b27 443d 02d6 eabd ae7d cebd
000002e0: c579 d2bd 1fe8 0abd aaa4 37bd f15a bebd
000002f0: 4e32 93bd 6b02 8d3d b125 99bd 23bd a83d
00000300: 333c 6fba d08c d9bd 8db3 72bd 1be1 583d
00000310: 4b8e 34be d6fc c3bd bb9f a23a 11aa d8bd
00000320: 6c98 643d 1b30 713d f56e b7bd a8f4 66bb
00000330: 62e2 1d3e 6e22 a23c 2992 393d 78f5 023d
00000340: 1c1e 593c 8f5d c13d c725 a1bd 6e9f 28bc
00000350: 3dc7 543c 6d76 123e 0034 5fbd d6f0 3e3e
00000360: f4dc d23d ecb9 05bc f7cc 593d b57f 113e
00000370: 853b 383e ebf6 c23d 0f2c 813d 1800 133e
00000380: 0747 693b 8027 eebc 5ebf 963d 737e b03d
00000390: 0c4b 88bd 4e5c 86bd 59a7 2cbd 9923 d5bd
000003a0: 03ba 94bd 50b9 c73c 293c 9e3d d15a ab3d
000003b0: 286a e73d 1549 cc3c a015 5c3c 4a7e 1ebd
000003c0: 9185 7dbd 9867 913c 0c14 25bd 8491 123e
000003d0: a577 acbd 1050 92bc 9e68 833d 1c9b 0fbd
000003e0: c1bf 853d 30dc f33d 1403 8c3b 6519 943c
000003f0: e432 a9bd ddb2 d8ba f17c 363e eaea ce3d
-0.061126083 -0.096494384 -0.13552985 0.015313742 -0.094935544 0.06855468 0.0835898 -0.04756431
-0.07589329 0.106115885 -0.0031003575 0.013002483 0.17280693 0.1623639 0.037292644 0.025492745
-0.035730872 0.084205076 -0.013214982 -0.08124268 0.019446136 -0.02433137 0.10800932 0.21412037
0.030492326 -0.05253001 0.101151206 0.070453 0.03281889 0.016446212 0.16064616 0.08166977
-0.024790967 -0.06782837 0.047533847 0.19333406 0.0750528 0.06879282 0.031905428 -0.036983993
0.017956186 0.08323664 -0.03400918 0.0034877195 0.101257764 -0.059851542 0.1414225 0.060847837
-0.14307842 0.056688618 0.05399118 0.4202044 0.07024735 -0.10072918 -0.05268896 -0.10269468
0.046892375 -0.13585491 -0.13407414 0.077684335 -0.117415056 -0.076359235 0.010038232 0.07344115
-0.029254027 -0.12584849 0.04444757 0.123149864 -0.053253613 -0.18277085 -0.087719455 -0.053204868
-0.083000176 -0.13102381 -0.0420327 -0.028342284 0.015527445 -0.13141748 0.06837434 -0.015354605
0.15026377 -0.101306245 -0.10950424 0.070003465 0.045870304 0.08265469 -0.09482523 -0.03469951
0.17741893 0.15427926 -0.11349322 0.08631475 -0.0033871164 0.09227299 0.021459086 0.02018406
-0.081898175 -0.15141642 -0.1098075 0.15734701 -0.019661875 0.025445525 0.13439427 -0.0906632
0.016547978 0.088556625 0.006806371 -0.17271508 -0.043657444 0.027992379 0.041180063 0.21078137
0.14882118 -0.014128972 0.13637726 -0.14039846 -0.12974335 0.023901513 0.08396923 -0.028383406
-0.06288606 -0.008248185 0.08208705 -0.065342784 -0.005878674 -0.115541704 0.21938182 -0.096343346
0.0069678156 0.09461435 0.07739733 0.115348905 -0.09807678 0.1107884 -0.095810056 -0.0013024126
0.020155959 -0.07760645 -0.07028434 -0.0074739107 -0.019845787 0.05052158 0.030220225 0.010820103
-0.07443675 -0.04297493 0.064152025 0.01714977 -0.00030666374 -0.005251875 -0.0013539911 -0.05274829
-0.10304062 0.07455208 -0.06396429 -0.113444254 -0.08741755 -0.02054896 0.061241843 -0.09750682
-0.105027564 -0.032140862 0.13761288 0.06467061 0.09478375 -0.02044658 -0.011343935 -0.034065463
0.024169423 0.121895924 -0.004700561 -0.07928238 0.053089872 -0.020792194 -0.11977539 0.037877746
0.066842504 -0.020222383 0.048608292 0.033135217 -0.080963016 0.047888797 -0.114666 -0.10082565
-0.10277132 -0.033912774 -0.04483477 -0.092946894 -0.07187329 0.06885227 -0.07477892 0.082392
-0.0009126097 -0.10622561 -0.059253264 0.052949052 -0.17632405 -0.09569709 0.0012407223 -0.105793126
0.055809423 0.058883768 -0.0895671 -0.0035241041 0.1541839 0.019791808 0.045305405 0.03197238
0.013251808 0.09441673 -0.078685336 -0.010291917 0.012986955 0.14302988 -0.05449295 0.18646559
0.1029605 -0.008162003 0.053173985 0.14208873 0.17991455 0.09519752 0.06307232 0.14355505
0.0035595314 -0.02907157 0.07360719 0.08617868 -0.06654939 -0.065605745 -0.042151783 -0.1040718
-0.072620414 0.024380356 0.077263184 0.08366931 0.112995446 0.024937192 0.01343289 -0.038694657
-0.061894957 0.017749593 -0.04030232 0.14313322 -0.08421258 -0.017860442 0.064164385 -0.035060033
0.06530715 0.11907232 0.004272828 0.018078515 -0.0826166 -0.0016532798 0.17821099 0.101034

lstm.bias_hh_l0 f4 [256]
00000000: 1a4d 043c 3310 71ba 9401 f8b9 e3bd 23be
00000010: 6f16 46be e019 433d ff90 313b 8fdd a4bd
00000020: cf45 1bbe 8a88 c9bd fe59 273d e066 2d3e
00000030: 6a09 20bd 861b f4bb a5ac e63d fffb fbbc
00000040: 6bab a1bd 3019 48bd 5a56 593d 5b5c 19be
00000050: 3a42 353d 1749 31be a5c3 db3d 7c89 803d
00000060: 3063 b3bd c2c2 c0bc 9c20 333d af4a 01bb
00000070: 562e 143e 4881 c53d 8b70 2e3d 0c03 b7bc
00000080: 49b9 d8bd 59b3 a5bc 6b7c 4a3e 1650 8f3e
00000090: 50a0 3fbd a532 2dbd 3ca7 7fbd ff5d 9bbd
000000a0: 8682 c9bd efac d33c 6f66 d73d b01f 183e
000000b0: f5d9 d2bd 70b3 283c d896 f23d 3be8 d7bd
000000c0: fe55 bebc 2890 c9bc f03d d2bd 0392 6e3e
000000d0: 9814 d2bd 4cd0 9d3c 2210 37bd 440f 14bc
000000e0: 5712 38bd cba5 2ebe 22ab 81bd a4ad 19bd
000000f0: 67d3 653d 7828 27be 4f0c 00be 171b c13d
00000100: dfd4 b13d cef6 7ebd 3f58 c8bd e780 afbd
00000110: 0b1e 8d3c b8c2 71bd 1e70 f6bd 9562 24be
00000120: c538 a63d 7565 c3bc 383b ca3d 5370 21bd
00000130: f255 16be aba8 6dbd 50b8 443d 6592 9a3d
00000140: 4276 c83d 7ed5 b03d 9a40 04be ef0d 1a3e
00000150: 8917 52bc 0fab c8bd 6196 c5bd 5214 06bd
00000160: df64 2c3e 5167 4cbd 3b69 21be 21e6 de3b
00000170: 65fe cfbc 401d 1e3e e53c 423d c22f 8dbd
00000180: a92f c53d 003a 0fbd 75d1 80bb 1f35 c6bc
00000190: e50b 763c 1cd7 09be 134c 343e 990c c9bd
000001a0: 68df 8d3c 2a08 013e 7b6a 923d 4e76 debd
000001b0: eb01 8fbd 9038 91bd 5fb8 3b3e 78a3 293e
000001c0: bbff bb3b 1239 853d fd54 ef3d e6c0 61bd
000001d0: 2353 f6bc cc86 acbd 839c e43d b22e 10bd
000001e0: 61ea 843d f727 ddbd 6231 fc3c ce05 40bd
000001f0: 3b71 6439 55a4 49bd 28e5 253e a72b cfbd
00000200: 9524 03be 0746 c7bd 78b2 d9bd 2775 78bd
00000210: a9c7 cebc 8645 6abc 768f 733d db04 7a3d
00000220: 802e 9a3d 73b7 c23c 019e 8e3d 155e b93d
00000230: 9743 fbbd 01f8 923d c8e9 b8bc 3da1 70bc
00000240: ba20 a63d ad41 98bd bc36 d43b 3727 d6bd
00000250: 92f1 febb b5fa d4bd d71d aa3d 2387 e03c
00000260: b1d2 52bd 42f8 febd 8e92 893a 64c3 b13d
00000270: e513 c23d 113d a1bc e089 053d 4f26 e63c
00000280: f4f0 0cbd 03c4 e0bd bf68 043e 5ce2 89bd
00000290: c052 d0bd 1d13 ab3d 7918 6d3c 9db0 6e3d
000002a0: 9dba ec3d 306a 77bd 9815 c93d 812e 30bd
000002b0: ed4d adbd 23df 1cbc f859 2cbc a200 09be
000002c0: 48fa 99bd 0b16 e03d 3a79 8abd 21ad 263d
000002d0: 47e2 3b3d b1ae 86bd 76f6 a53d 66ac c33d
000002e0: 8093 37bc b918 9f3d fb7f 26bc 4b4d 453d
000002f0: 2c17 313d dc4b 7e3b ed6a 9f3d 9601 1bbd
00000300: a818 ebbc 1d82 84bd 78d3 7d3d b859 95bd
00000310: 5253 31bd 3a46 7d3d 46f3 ec3d b1a5 83bc
00000320: 9a59 fd3d 2fbb 30bd 1ecd b3bc ee6a 723e
00000330: 6546 4dbd d42f 903d d8db 953d 2674 b5bc
00000340: 4890 273e eee7 2d3d 94fa c0bd b206 f1bb
00000350: de0b 0fbe e28f 293d 0c09 cf3c d017 773d
00000360: af06 2c3d 073f 3e3d 2b69 913d 7fd2 343e
00000370: 0ce7 aa3d 71e9 023e c7eb a13d 0398 a23d
00000380: 7b95 0cbc e86c aabc 8b79 68bd 0e3a 29bc
00000390: 3b98 af3c 3eaa 4dbc c54a d2bd a331 0cbe
000003a0: f1d5 183d 274f ce3d 1ed0 853c 2de9 2a3c
000003b0: bea8 9a3d 3ef1 003e 4821 153e b35b ccbd
000003c0: 20f7 373d 200a bc3d 8489 3c3d 91bc b33e
000003d0: 77fc afbd c379 493d 2fbb e1bc f8f9 f63d
000003e0: f942 003d a86e 263d 150d febc 3586 813d
000003f0: 3405 eebc 04f3 d13b 3e51 6fbc c384 9b3d
0.008075023 -0.0009195834 -0.00047303422 -0.15990405 -0.19344495 0.0476321 0.002709448 -0.080500714
-0.15163349 -0.09840496 0.040857308 0.16933775 -0.039071478 -0.00744957 0.11263398 -0.03075981
-0.078940235 -0.048852146 0.053060867 -0.14976637 0.04425261 -0.17313038 0.107306756 0.06276223
-0.08759153 -0.023530368 0.04373227 -0.0019728353 0.14470801 0.09643799 0.042587798 -0.02234032
-0.10582215 -0.020227121 0.19774024 0.27990788 -0.046783745 -0.042284627 -0.062415347 -0.07586288
-0.098393485 0.025839297 0.105175845 0.14855838 -0.10295478 0.0102966875 0.118451774 -0.10542341
-0.023234364 -0.024604872 -0.1026572 0.23297887 -0.10257834 0.019264363 -0.04469312 -0.009036843
-0.044939365 -0.17055432 -0.06331469 -0.037519112 0.056109812 -0.16324031 -0.12504695 0.09428995
0.0868318 -0.06224709 -0.097824566 -0.08569508 0.01722624 -0.05902359 -0.120331034 -0.16053231
0.08116297 -0.02385209 0.09874576 -0.03941376 -0.14681223 -0.058022182 0.048027337 0.07547454
0.09788181 0.086344704 -0.12915269 0.15044378 -0.012822994 -0.09798252 -0.09647823 -0.032734223
0.16835354 -0.049903218 -0.15762798 0.006802336 -0.02538986 0.15440845 0.047421355 -0.06893875
0.09628231 -0.034967422 -0.003931219 -0.024195252 0.015017484 -0.13460964 0.17607145 -0.09816856
0.017318442 0.1260077 0.07149216 -0.108624086 -0.06982788 -0.070908666 0.1833205 0.16566265
0.0057372726 0.06505026 0.11686132 -0.055115603 -0.03006894 -0.08424148 0.11162665 -0.035200782
0.06490017 -0.10798638 0.030785266 -0.046880536 0.00021785956 -0.049228985 0.16200697 -0.10115748
-0.12806924 -0.097301535 -0.10629743 -0.0606586 -0.02524169 -0.014298802 0.059462987 0.061039787
0.075284004 0.023769116 0.069637306 0.09051148 -0.12268751 0.07176209 -0.022572413 -0.01468688
0.08111711 -0.07434402 0.0064762514 -0.104566984 -0.0077802623 -0.10399381 0.08306473 0.027408188
-0.051470462 -0.12449695 0.0010495947 0.08679846 0.09476451 -0.019682439 0.03260219 0.028094439
-0.03440948 -0.10974886 0.12930582 -0.06732628 -0.10172033 0.08353255 0.014471167 0.0582739
0.11559031 -0.060404003 0.09818572 -0.0430131 -0.08462129 -0.009574684 -0.010519497 -0.13379148
-0.075184405 0.10941704 -0.067614034 0.040692452 0.04587009 -0.065762885 0.08103649 0.09554367
-0.0112046 0.07768387 -0.010162349 0.048169415 0.04323499 0.003880254 0.07784066 -0.03784331
-0.02869828 -0.0647013 0.06196925 -0.07292503 -0.04329235 0.06183455 0.11569838 -0.016070219
0.12370606 -0.043147262 -0.021948393 0.23673603 -0.05011596 0.070403725 0.073173225 -0.02215011
0.16363633 0.042457514 -0.09422794 -0.0073555345 -0.1396937 0.041396983 0.025272869 0.060325444
0.04199856 0.046446826 0.07100137 0.17658423 0.0834485 0.12784363 0.07906299 0.0793915
-0.008580561 -0.020803884 -0.056756537 -0.010328783 0.021434894 -0.012552796 -0.102681674 -0.1369081
0.037313405 0.10073691 0.01633459 0.01043157 0.07551716 0.12592027 0.14563477 -0.09978428
0.04491341 0.09181619 0.046029583 0.35104802 -0.08593076 0.049188387 -0.027555076 0.120593965
0.03131387 0.040632874 -0.031012097 0.06324426 -0.029055215 0.0064071435 -0.014606772 0.07593682

lstm.weight_ih_l1 f4 [256, 64]
00000000: 71b2 07bd 18d4 19bd 0d88 3c3c b796 20be
00000010: 0a2c 1c3c 1f48 ce3d 5c7d 313e 92e4 36bd
00000020: a50a 9a3d 7661 2b3e 1df4 e6bc e332 303d
00000030: 0401 393e 0d1a 71bd 6308 3cbd cc7f debd
00000040: 9d61 e9bd e80b 183d 4ea6 e33d 18d4 10be
00000050: 9508 6cbc baab 823d 5709 b63d e641 0d3e
00000060: fb22 853e 87b6 f83d 49f2 47be 9a57 863d
00000070: 9feb 2ebe e3a0 3bbc 9c4c 11bd c96a f03d
00000080: 9549 de3c 7760 ff3c 7064 60bc 0a3b a7bb
00000090: c9dd 013e cc29 123e fe9f c5bd 47fe 0a3d
000000a0: 32b5 e33d b4a0 4d3e d6ad d43c 7649 11be
000000b0: de33 3d3d 73e0 203e 4afa 983d 656c c63c
000000c0: 1564 9d3c 087c 273e 5478 ccbb 6ac1 37be
000000d0: 1e23 7539 3c60 9c3c 42f6 f8bc 273e bc3d
000000e0: e7b3 3ebe 0a21 4b3e a9e8 933d a7fa 463e
000000f0: 2af1 13be ba49 2e3d 4bee a7bd 4e30 27be
00000100: 46e8 453e fcdb d03d fcb9 3c3d f5af 103d
00000110: 2bbc 3a3e 2092 6c3d 91cc e4bd 2996 7a3e
00000120: 3c92 d7bd 6b58 bf3d 309b ab3d 2311 223e
00000130: 6467 6dbe d2da 5c3d 7e11 af3d 4af3 67bd
00000140: 5e49 20bd 9d84 0ebc 6bf9 a4bb 0d0b a6be
00000150: 759a f83d 22ff 0dbc 4637 403e 9259 8d3c
00000160: 7b9f a53d bc92 a6be 7057 f9bd fbb3 eb3d
00000170: f452 0b3c a883 86bd 9ed3 b33d b939 f53d
00000180: cbe4 04be abff 5b3e 2b0c 843e 181e b0bc
00000190: afda c53e 0a75 debc a397 54be 4aa4 bd3d
000001a0: 9de4 633d e632 8e3c 4e45 6abc 758a 14bd
000001b0: fe3b a73d b12d 9b3d caa2 873e ce4f 833d
000001c0: 8512 5c3e 8175 7ebc 6e42 62bd 9ba4 0dbe
000001d0: 42e6 073d 30f6 19be 5675 40be a2c8 b13c
000001e0: 55be 9b3c 4f1b e3bd 73ad 9abc 7172 82bc
000001f0: 2c55 aabe ad5a e33d eebb c3bd 60eb af3d
00000200: ae9d ebbd 1ee7 e23a 1204 5d3d b502 38be
00000210: d7ea aebd 2cd2 12bd 599b 133d 980b aabd
00000220: ad8f 5e3c 4857 48bd 42cd ce3d ff17 adbd
00000230: ff86 603d aaa7 08be afbf a1bd c2c5 18bd
00000240: d127 c5bd b1cd ba3d d35d 803d 0ba0 30be
00000250: 4535 22bc 7c23 263e 1770 d23c f17c da3d
00000260: 5d63 0eba 1b10 7cbd f077 813d e9d0 533d
00000270: e23a 80bd 1b31 ae3d d9b0 953d ae74 0d3e
00000280: 467c 993a dbe1 ee3b 129a c73c d348 ef3a
00000290: ce10 973d bcd9 1bbd 5558 48be 1c50 743d
000002a0: edd3 b63d 33e3 59bc 1ec5 c3bd 74ff 9fbd
000002b0: cac8 61bd 18f5 25bd c2cb f13d 160e ef3d
000002c0: 0535 40bd 5117 8b3d d806 16be e14e 40bd
000002d0: ab86 e0bd 8f5b 0d3e c941 99bd add7 73bd
000002e0: e957 56bc 4008 9a3c 9516 c83d 3e24 61bd
000002f0: fc56 64bc 7f02 cd3d 6ca0 95bd c041 f73c
00000300: 52c6 a8bb 0ae2 56bd 984e d3bd 5eb6 3abe
00000310: a550 f53d 03c4 eebb 375f 513d 67c8 123e
00000320: a89c a83d b5df bf3d c1d8 96bd f5bb 5abe
00000330: 9881 733d cc8c aabc f0ce 8dbc 6e57 c9bd
00000340: 378e 4b3d a80c 40bd 83f3 fdbd 03eb 25be
00000350: 256d d73c f656 273d 0e96 dc3c f64e f1bb
00000360: 7bdd fa3b bb66 353d 7b18 25be 5032 ccbd
00000370: 24a5 dd3d dc7b 993d fff6 7fbd c40c 17ba
00000380: b025 b5bd e9f5 64bc 4d77 a23d 7a77 413d
00000390: 142c 9abd 70a0 adbd 3275 2ebd 1152 953d
000003a0: 10f4 25bc ece2 b4bd 8ecb 7fbd 8adb 8cbd
000003b0: bda8 213d 2339 e83d c782 dbbc dc48 413e
000003c0: 4408 c03c 270c a0bd 7b90 503d 6649 afbd
000003d0: e18e 063d 146c 2e3d b944 9fbd 53c6 abbd
000003e0: d81d bf3d 1843 9d3c 2c87 04be 19d1 073e
000003f0: 8701 2cbe abc4 1f3c 9fa3 aa3d fd98 c4bd
-0.03312916 -0.037555784 0.011507046 -0.15682493 0.009531984 0.1007235 0.17332977 -0.044651575
0.075215615 0.16736397 -0.028192574 0.04301728 0.18066794 -0.058862735 -0.045906436 -0.10864219
-0.113955714 0.03712073 0.111157045 -0.14143407 -0.014406343 0.063804105 0.088885 0.1379467
0.2600325 0.12144189 -0.19526018 0.065596774 -0.1708207 -0.011451933 -0.03547345 0.11739118
0.027134696 0.031173928 -0.013695821 -0.0051034736 0.1268226 0.14273757 -0.09649657 0.033933904
0.11118545 0.20080835 0.025961798 -0.1418818 0.046192043 0.1571062 0.07469614 0.024221608
0.019212762 0.16355908 -0.00623993 -0.17944875 0.00023378103 0.019088857 -0.030390862 0.09191542
-0.18623315 0.19836822 0.07222111 0.19431554 -0.14447466 0.04255078 -0.08199748 -0.1632702
0.19326887 0.10198209 0.046075806 0.035324056 0.18235843 0.057756543 -0.111718304 0.24471344
-0.10525939 0.09343036 0.08379209 0.1582685 -0.23183972 0.05391962 0.08548258 -0.056628503
-0.03913247 -0.00869861 -0.0050346158 -0.32430306 0.12138835 -0.008666785 0.18771085 0.017254625
0.08087059 -0.32533824 -0.121748805 0.11508938 0.008503664 -0.0656808 0.08780597 0.119739
-0.12977903 0.21484248 0.25790533 -0.021498725 0.38643405 -0.027155418 -0.2076097 0.09259851
0.055637944 0.017358255 -0.01429875 -0.036264855 0.081657395 0.07577074 0.26491386 0.06411706
0.2149144 -0.015530945 -0.055239134 -0.13832323 0.033178575 -0.1503532 -0.1879476 0.021702114
0.019011656 -0.11089193 -0.018881535 -0.01592371 -0.33268106 0.111012794 -0.09557329 0.08589816
-0.115046844 0.001731131 0.05395896 -0.17969783 -0.08540886 -0.035844967 0.036036823 -0.083029926
0.01358406 -0.048911363 0.100977436 -0.084518425 0.054816242 -0.13345209 -0.07897889 -0.03729797
-0.09626735 0.09121264 0.062678955 -0.17248552 -0.009900396 0.16224474 0.025688214 0.10668362
-0.00054316764 -0.061538797 0.063217044 0.051712904 -0.06261231 0.0850546 0.07309122 0.13814041
0.001171001 0.0072901077 0.024365459 0.0018255956 0.07376252 -0.038049445 -0.19564946 0.05964671
0.089271404 -0.013298797 -0.095590815 -0.07812396 -0.055123128 -0.040516943 0.11806442 0.116726086
-0.046925563 0.067915566 -0.14651048 -0.046950225 -0.10963186 0.13804458 -0.07483251 -0.059531856
-0.013082483 0.018802762 0.09769932 -0.054966204 -0.013936754 0.10010242 -0.07305989 0.03018272
-0.0051505947 -0.05246166 -0.10317725 -0.1823363 0.11978272 -0.00728655 0.051116195 0.1433426
0.08233005 0.093688406 -0.07365561 -0.21360762 0.059449762 -0.02081909 -0.01731059 -0.09831129
0.049696174 -0.04688707 -0.12399962 -0.16202931 0.026297161 0.040854417 0.02692702 -0.007364149
0.007655797 0.044287425 -0.1612262 -0.09970534 0.10822514 0.074943274 -0.062491413 -0.0005762095
-0.08845079 -0.013974645 0.07932911 0.047233082 -0.075279385 -0.08477867 -0.042592235 0.072910435
-0.01012899 -0.088323444 -0.062449984 -0.06877811 0.039467562 0.11339023 -0.026795758 0.1887545
0.023441441 -0.07814818 0.050919037 -0.085589215 0.032851104 0.04258354 -0.0777678 -0.08387437
0.09331864 0.019197032 -0.12942189 0.13263358 -0.16797458 0.009751479 0.083319895 -0.09599493

lstm.weight_hh_l1 f4 [256, 64]
00000000: 32ff b7bd 3700 9dbc 5393 a73c 1957 9bbd
00000010: f588 a8bd 6343 9d3c f7c2 c83c 7182 88bd
00000020: cdf2 35be 83f9 eebc 08d6 83bd 3c0b 5b3d
00000030: 2dbc 58bc 8ac9 343e cf16 3cbd 7984 54bd
00000040: 3dd3 e7bc cf57 a7bd f16e d13d 3907 9dbd
00000050: c820 d1bd 72d7 5f3d d376 b43d 5821 d03d
00000060: db41 f4bd ee3f caba 01b1 c8bd a062 e93c
00000070: 745f 703d 5c7f 153e c0fc 36bc 1e5c bf3d
00000080: 25f2 b1bd ae50 a8bd 98e9 923d 568b 0b3d
00000090: c6c8 9b3d 71eb 07bd 97f9 50bd 35f1 d0bd
000000a0: 7d46 68bc 5fe6 0ebe 7a90 94bc 20bc 41bd
000000b0: 86ac b53d c6e1 363d 0458 42bc 7da6 f7bd
000000c0: b67c 13be 16ce ffbd 4d36 e8bd bc62 db3c
000000d0: e35c 04bc c961 013e aaa7 bdbd 7bd5 42be
000000e0: a035 103e d69c 44bd 8858 98bd f1eb 143e
000000f0: e019 2d3d decc 4b3e a6e7 b03d 45ee 7c3c
00000100: 4d3b d83d d084 f3bd fd36 59bb f3db cf3c
00000110: c907 5cbd d915 31be 4aa4 d6bd cfb0 dbbd
00000120: 4d71 f63c 5cc4 383e 0c1f 1b3c 75fa 903e
00000130: 6189 393d 23b0 0a3e ff16 9b3d c4a2 863d
00000140: ce82 18be 5f13 f23b 52b9 7cbd ef26 cebd
00000150: f916 123e f602 2e3e 3f33 aebd e963 afbd
00000160: 088e 433d 46dc 0b3e 535c 42be a969 febc
00000170: a583 443e 62d3 5ebd 9510 ff3d 6fff c93b
00000180: 71bb 553d f14e d83d 7af5 c33d 08fa 81bd
00000190: a78a 94be 873f 63be 79e2 6fbd 958e aebd
000001a0: 3b51 13be 7909 f73c 7d3b 41bd 53cf 023d
000001b0: db01 193d 3b4a a4bc 81cd d9bc edf9 ebb8
000001c0: 0269 bcbc 2f6b 0bbe d3be 023e 35a9 e93d
000001d0: 72be d33b 4093 c7bb b1f8 f63d 204a 3a3d
000001e0: 605e 993d b2bf 233e 3571 cdbd 4f3e 393a
000001f0: b0a6 a2bd ed70 eebd d146 0b3d 8b2a 263e
00000200: a5b8 793d 251f afbd 2a41 393c 25c1 c13d
00000210: 58ed 2cbe 6829 85be 60d2 983d 67c6 6ebb
00000220: 97d1 a43d d942 cdbd 3691 b23d a89b 383e
00000230: 522c afbc 5b58 cb3d 095d 3bbd 77ad 0b3e
00000240: 0709 a9bd 6626 b63d 8c41 d63d cdc3 213e
00000250: cab0 893c 47fd 103e 4950 dbbd 9814 e5bd
00000260: bb04 cbbc c28e a33d 5e27 d3bc 64f8 0e3e
00000270: 2899 f6bc 5814 e2bd 86d8 b73c 4899 133d
00000280: f95f 0d3d cc8c 82bd 6270 d03d 10f5 973b
00000290: cfa6 d93d cf0b 9ebd 0da1 ab3d 00d8 25be
000002a0: a8c4 e3bd 1823 ee3d 5de9 78bc a1e6 84bd
000002b0: 5357 eabd 6625 d1bc 5306 06bd 01f0 8d3c
000002c0: 259f 3f3b ac07 2c3d 745b 88ba eb35 efbd
000002d0: 7b78 1e3c ab13 2abd ee69 3cbe b09b c13d
000002e0: 4777 06bd 8bb7 0c3d 0d35 103d 57db 3a3d
000002f0: 00d4 b73d c4e5 8cbc 2c0a 2dbd ee29 c73d
00000300: 3441 2b3d cf71 34be b15b 5cbd bba7 e93d
00000310: ad46 4bbd b31d 26be 29c2 5abc ab25 c6bd
00000320: 6db0 053e f2cd 903c 927b 323d 3b90 063e
00000330: 05f6 2d3d ed51 19bd bb86 113d ee3f 0b3e
00000340: 09e7 08be 5d04 a2bd bcab 38bd f900 edbd
00000350: ab91 173c e407 d9bd bbe5 0c3d 63f3 debc
00000360: 7531 ef3b 823d e03d d00f a0bd b547 053e
00000370: 975f c1bc 1777 683d dfba b73c 77de 463d
00000380: 1dba b8bc 0cef d6bd 5366 0cbe 53d9 5f3c
00000390: 851f 793c f7eb cabd a305 39bc fbe5 88bd
000003a0: 1b62 e3bd 0733 3f3d d8e6 fbbd c6ab 543d
000003b0: 2ecc a13c 95ba 91bd 59ab b3bc a4db 053e
000003c0: 2f4f 31bd d0ef dfbc 8e72 01bc bac4 cfbb
000003d0: 48ad 6ebd f240 39be 50bb 4f3d 697b 213b
000003e0: d52c 953d c88b f5bd 34ae 17bd 58a5 e13c
000003f0: af3d 713d 1bd8 ccbd bdb8 823d 8956 6abc
-0.089842215 -0.019165142 0.020455992 -0.07584972 -0.082292475 0.019197172 0.024507029 -0.06665505
-0.17768402 -0.02917171 -0.064373076 0.05347751 -0.013228458 0.17655006 -0.04592019 -0.05188415
-0.028298968 -0.08171045 0.102262385 -0.07667393 -0.10211331 0.054648824 0.088117264 0.1016261
-0.119266234 -0.001543043 -0.09799386 0.02848941 0.05868478 0.14599365 -0.011168659 0.09343742
-0.086887635 -0.082185134 0.07173461 0.034068428 0.07606654 -0.03318352 -0.051019277 -0.102022566
-0.014176962 -0.13955067 -0.018135298 -0.04729855 0.08870797 0.044648908 -0.011861805 -0.12092302
-0.14403042 -0.1249048 -0.11338482 0.026780479 -0.008078787 0.12634958 -0.09260495 -0.19026749
0.14082956 -0.048001133 -0.07438761 0.1454313 0.042261004 0.1990237 0.086379334 0.015437667
0.10558186 -0.11890566 -0.0033144348 0.025373435 -0.053718362 -0.1729349 -0.104805544 -0.10727083
0.030083323 0.18043655 0.009467851 0.28316084 0.04529703 0.13543753 0.075727455 0.06574014
-0.14893648 0.007387563 -0.061700173 -0.1006602 0.14266576 0.16993317 -0.08505868 -0.08563978
0.047742873 0.13658246 -0.18980531 -0.031056242 0.19190843 -0.05440081 0.12454335 0.0061644833
0.05218071 0.10561932 0.09568305 -0.06346518 -0.29012033 -0.22192203 -0.05856559 -0.08523289
-0.14386456 0.030155884 -0.047175873 0.031936 0.037355285 -0.020054927 -0.02658725 -0.000112522255
-0.02299929 -0.13615106 0.12768106 0.11409227 0.006461912 -0.0060905516 0.12059153 0.045480847
0.07488704 0.15991095 -0.10031358 0.00070664746 -0.07941949 -0.11642633 0.034003083 0.16227166
0.060967106 -0.08550862 0.01130704 0.094606675 -0.16887414 -0.26008153 0.07462001 -0.0036434175
0.080477886 -0.10022516 0.08719103 0.18028128 -0.021383438 0.09928962 -0.045743022 0.1364039
-0.08253675 0.08894043 0.10461721 0.15797348 0.016807932 0.14159118 -0.107086726 -0.111855686
-0.02478253 0.07986213 -0.025775608 0.13961941 -0.030102327 -0.110390365 0.022442114 0.036034852
0.034515355 -0.06374511 0.10177685 0.004637368 0.10627519 -0.07717096 0.083803274 -0.16195679
-0.111214936 0.11627787 -0.015192357 -0.064893015 -0.11442437 -0.025530528 -0.032720875 0.017326357
0.0029239145 0.041999504 -0.0010403232 -0.11680206 0.0096722795 -0.041522663 -0.18399784 0.09453523
-0.032828595 0.034354728 0.035206843 0.045619335 0.08975983 -0.017199405 -0.04224603 0.09724794
0.04181023 -0.1762154 -0.05379838 0.11408945 -0.04962795 -0.16222267 -0.013351955 -0.09675153
0.13055582 0.017676327 0.043574877 0.13140957 0.04247095 -0.037431646 0.03552888 0.13598606
-0.13369383 -0.079109885 -0.045085654 -0.11572451 0.009251039 -0.10597208 0.034398776 -0.027215665
0.007299597 0.10949232 -0.07815516 0.13015635 -0.023605151 0.056754198 0.022427974 0.048552003
-0.022549683 -0.10494813 -0.13710909 0.013662654 0.015205269 -0.09908288 -0.011292848 -0.0668449
-0.111026965 0.046679523 -0.12299889 0.05192163 0.01975068 -0.07115666 -0.02193229 0.13072067
-0.043288406 -0.027336031 -0.007900847 -0.0063405903 -0.058270723 -0.18091181 0.050715744 0.0024640209
0.07283942 -0.11989552 -0.037031367 0.027544662 0.058896717 -0.10002156 0.06382892 -0.014302858

lstm.bias_ih_l1 f4 [256]
00000000: 239e cfbc 9ed1 203e adfa 543c 671d adbd
00000010: 48b6 fbbc b148 273e be70 b4bd cc65 893c
00000020: 8bea 213d ced2 163d d750 cb3c 9b96 4e3e
00000030: eb79 b03d 9f8c da3c bfa6 db3d e043 c3bd
00000040: a148 2b3d e50f c53d 69dc 03bd 5849 773d
00000050: 9da6 3a3e 85d9 1cbd 8035 eb3d f855 bc3d
00000060: d4fc b2bd 224b df3c 4aa0 033e f79b 20be
00000070: bc80 00be 6c6b c1bd 9e28 f03b f538 6ebd
00000080: 8f01 7d3d ae1e 4e3e 3a17 7d3e af22 b6bc
00000090: 50c8 18bd 38b2 0f3e c800 02be 634e a93d
000000a0: de6f d4bd a61e f3bc 5b4f af3c ed55 183e
000000b0: c5c9 24bc d7dd 273e dd9e f43d 05c8 d93c
000000c0: f179 273e 16ff 813d 3b07 ccbd a68b d33d
000000d0: 1d16 613d d207 103d 2ae3 00bd 78b0 c63c
000000e0: f307 1dbe d049 123e bd92 7e3e 44d1 583e
000000f0: 2a04 403e 2f82 8e3c b522 663d b395 e73d
00000100: e806 2abe f63f 603d d3ee 993d 5690 84bc
00000110: b839 b0bd 8c83 fdbd 113c 263e 57ba 303e
00000120: a374 233e 9796 4c3d 540c 5d3d 3f53 9f3d
00000130: d3e6 52be 7473 443e e954 083e 18e1 813e
00000140: 2789 03be 149d 203e 9820 533d e0d1 b6bb
00000150: 5b3e 96bd af1b 273c a647 adbd 886f 9a3d
00000160: 24c4 d13b 1e14 a4bd 8509 4f3d c298 3d3d
00000170: a730 a8bd e0cb 05be aa06 89bc a95c d9bd
00000180: 1b59 f1bd 14e2 32be 6cca 53bd 4a0e 5d3d
00000190: 6ce8 113d aaf8 dc3d cc7c 983d 4813 913d
000001a0: 2376 2f3c 28cf 883d 71f6 14bc 271c 2dbe
000001b0: 3638 a23c 52e6 873d 3c6c 883d 0256 29bd
000001c0: 5e4d ae3c f816 ec3c 81d4 0bbe 601d a8bd
000001d0: a490 14be 18d4 813d 1474 f83d 99a5 043e
000001e0: 3fd1 743e 1982 08be 47db 8abe 8a7e c83d
000001f0: e8fa 62be d43d 2e3d 23d6 293e 9f20 f83d
00000200: f48d 45bd 1751 b73d 2521 7d3d d8d5 11b8
00000210: 5d20 4fbc 2e89 ffbc e4ea bdbd 8d4f 90bc
00000220: 7e2d 223d 8cb0 b73d 4f39 89bd fa9a 043e
00000230: c063 f83d f2ed 93bc f073 1dbe f7e8 47bd
00000240: 7acc 7dbd b7f9 da3a 9a7f 083e e36d a5bd
00000250: 66ce 0fbe c06e 273d ef46 dcbd a9a2 163e
00000260: 9607 25bd 0095 c53d 5294 cabd b394 87bd
00000270: 2e01 b43d dc40 943d 5948 0ebe 06d4 b0bd
00000280: edde cbbd 6764 8d3d a579 74bd c524 21bc
00000290: 1b2d e7bd 8b04 18be 0e51 063d c97c fb3d
000002a0: ca6c 81bd 87ee 463c d0cf d43d 14c5 203e
000002b0: be89 d3bd 7a01 8f3d 31d7 873d 783a 213d
000002c0: ff14 bbbd 8ec9 f6bd aa33 793d 6893 923d
000002d0: dffd 133d 506d c63c 5b38 4cbd b6ff 33be
000002e0: e66a 443d ef6b b93d 1ebd 1e3d 518d ee3d
000002f0: f138 993d 8525 bdbd 8f28 a2bd f9c2 e13d
00000300: 6cbb 213e 0d5e 983d b29c d0bc 3f78 183d
00000310: e8c2 d73d ec80 09bc ba30 e6bd 9127 fe3d
00000320: 0f84 d3bc 57c4 95bd 39ef bebc 3ddb 553e
00000330: fa04 913d e312 6abd ea78 7e3c a29f ac3d
00000340: 20e5 11bc c701 a13b febb 7cbd abe0 7f3c
00000350: 6fbe 193e 89cc 173d 587a 553e 0b2e 41bc
00000360: 880f d73d 0ffb a6ba 3ac5 c1bc da3a 6a3d
00000370: 1b94 09be 1b4e f33c cc4c e1bc cc05 6d3d
00000380: bbb0 b5b9 dbcf 513e 30e8 583e 5c7f 9ebd
00000390: f45d f33a 4c61 3b3a 69d9 fa3c a72c 363e
000003a0: 36e0 adbb 6d8e 053c d918 043d b401 82bc
000003b0: fabd c7bc bc57 863d dd48 83bd 4b5d 033d
000003c0: 06f3 883d 81b3 093d 4f66 bcbd a751 19bd
000003d0: 3341 01be 1920 91bd 84ff 66bd b693 5f3c
000003e0: d0f6 d0bb 78c8 113d 665a a83e f2b9 b03d
000003f0: e12b 5a3e 0331 4c3d be26 bebd 2835 ba3d
-0.02534396 0.15704963 0.012999219 -0.08452874 -0.030726567 0.16336323 -0.08810566 0.016772173
0.03953032 0.036822133 0.02481882 0.20174639 0.08617004 0.026678381 0.10725164 -0.095344305
0.04181731 0.09622172 -0.03219262 0.06037268 0.1822762 -0.03829338 0.11484814 0.09196085
-0.087396294 0.027257506 0.12854114 -0.15684496 -0.12549108 -0.09444317 0.0073290607 -0.058159787
0.061769065 0.20128891 0.24715891 -0.022233335 -0.037300408 0.14032829 -0.1269561 0.08266904
-0.103728995 -0.0296777 0.021400144 0.14876528 -0.010057871 0.16393219 0.11944363 0.026584635
0.1635511 0.06347482 -0.099623166 0.1032937 0.05495273 0.035163708 -0.03146664 0.024254069
-0.15335064 0.1428597 0.24860664 0.21173579 0.18751588 0.01739606 0.056185443 0.1130785
-0.16604197 0.054748498 0.07516255 -0.016182106 -0.08604759 -0.12378606 0.16233851 0.17258583
0.15962462 0.0499483 0.053966835 0.0777955 -0.20595865 0.19184667 0.1331364 0.25367045
-0.12845288 0.1568492 0.051544756 -0.0055792183 -0.07336112 0.010199471 -0.084609315 0.07540804
0.0064015556 -0.080116495 0.050546188 0.04628826 -0.08212405 -0.13066053 -0.01672681 -0.10613377
-0.11784574 -0.17469054 -0.051706716 0.053968705 0.035622045 0.107896164 0.07445678 0.07083756
0.010709318 0.06680137 -0.009091959 -0.1690527 0.019802194 0.06635727 0.06661269 -0.04134179
0.021277126 0.028819546 -0.13655283 -0.08208728 -0.14508301 0.06339282 0.12131515 0.12953795
0.23907946 -0.13330878 -0.2712042 0.097897604 -0.22166026 0.042539433 0.16585593 0.12115597
-0.04823108 0.089510135 0.061799187 -3.476985e-05 -0.012641993 -0.031193342 -0.092733175 -0.017616058
0.039594166 0.089692205 -0.06700384 0.12949744 0.12128401 -0.018057797 -0.15376258 -0.048806157
-0.061962582 0.0016706501 0.13329926 -0.080776 -0.14043579 0.040877104 -0.10755717 0.14710487
-0.040290438 0.0964756 -0.09891571 -0.06620159 0.087892875 0.072389334 -0.13894786 -0.0863419
-0.09954629 0.06903916 -0.05968632 -0.009835427 -0.112879 -0.14845483 0.032792144 0.1227966
-0.06319578 0.01214183 0.103911996 0.1570018 -0.103290066 0.069827035 0.066328414 0.0393624
-0.09134864 -0.12050162 0.060840286 0.07157022 0.036130782 0.024222046 -0.049858432 -0.17578015
0.04795351 0.0905379 0.038754575 0.11648048 0.07481564 -0.09235672 -0.07917892 0.11023516
0.15794152 0.07439814 -0.025465343 0.03722405 0.10535222 -0.008392554 -0.112397626 0.124098904
-0.025819806 -0.073128395 -0.02330743 0.20884414 0.07081027 -0.057146918 0.015531758 0.08428885
-0.008904725 0.004913542 -0.06170272 0.01561753 0.15014051 0.037060294 0.20847452 -0.011790763
0.10501009 -0.0012739616 -0.023653615 0.05718503 -0.13435404 0.02970033 -0.02750244 0.057866856
-0.00034654685 0.20489447 0.21182323 -0.077391356 0.0018567429 0.0007147982 0.030621247 0.17790471
-0.005306269 0.008151633 0.03225026 -0.015869953 -0.02438258 0.06559703 -0.06410382 0.032071393
0.06686978 0.033618454 -0.09199201 -0.037431385 -0.12622528 -0.070862 -0.056396022 0.013646057
-0.0063770786 0.035591573 0.3288147 0.08629216 0.21305801 0.04985143 -0.09284733 0.0909217

lstm.bias_hh_l1 f4 [256]
00000000: a362 22bb 5921 a63d b12a 5d3c 6099 393c
00000010: 6f49 f13d d545 853d 33ef 8c3d 9eb2 c73d
00000020: 2d6b 6a3c afd9 90bd 791e c6bd 9a9b 843e
00000030: 9d88 4f3e 59aa 54bc b59b 013e e6e7 92bd
00000040: 5c7a 183e 5466 6cbd 6547 9fbd 00bf a73d
00000050: 7e6b 473e b8f8 b0bd dbfe ad3e 5c69 c4bd
00000060: 48f3 1b3d 3c43 9dbc fb34 253e e3d0 8f3c
00000070: cca4 373d be32 72bd 2efd 713d e434 1abd
00000080: 1803 0c3d 339b 8c3e eb4c 2d3e 401a 34be
00000090: 3268 edbd 1690 ad3d 58f4 b53d 8541 1d3d
000000a0: 9b7c 5e3d 6489 6cbc f733 4f3e cfd0 ff3d
000000b0: 2406 c8bc 05c9 233e ec23 21bd 8711 363d
000000c0: f7e2 1d3e 3e27 0dbe cbf9 6ebd b7f7 b23d
000000d0: 1ad8 69bd b3f2 e2bc d72a dcbd 75f8 b03b
000000e0: b269 10be a152 4bbd 34d3 8e3e 7424 523e
000000f0: 93db 683e e257 89bd 4bff 8ebd 0a24 4b3e
00000100: cba5 b7bd 3799 1c3e 229c 3b3e c13e a73b
00000110: 9ecd 98bd 167a acbd 8cbf 3e3e e075 343e
00000120: aa9a e23d f6f7 be3c 7ac2 9c3d 4ae3 333e
00000130: 4e49 c2bd fcb0 833c 5520 b3bc 88d7 463e
00000140: 55a7 25bb 4f74 ff3d 1090 de3d d7f4 13be
00000150: d613 bd3d 8dc7 fc3d f14d e9bd 83ab a23d
00000160: 6071 81bd bc0a 88bc 8b99 593d 3791 023c
00000170: d95f d3bd c0d0 823c 4f4f fabc c0b9 1ebe
00000180: cce3 a1bd 1f2f 2bbe c3ec 8f3d 481c 753d
00000190: daa0 803d 33f5 84bc 30a6 e53d 2167 203e
000001a0: 50e5 b83d e8d6 163d 5d8e 02bd 3025 fcbd
000001b0: 1575 3b3d 2329 7ebd 1fdd 88bc 32f6 333d
000001c0: c1a0 bdbd 81e8 0abe 446f efbc ed3d 553b
000001d0: f420 093d 8415 a7bd 91a0 fb3d 1fa8 923c
000001e0: 39a4 dd3d b151 8c3d 6037 94be 00d1 71bb
000001f0: 8b0a efbc 8924 b0bd 3f99 48bd 1bd1 213e
00000200: 3206 8fbd acb8 04bc cac0 b73c d44c 443d
00000210: 2c0d d23c 600a fe3c 91bb 203d c5d7 b9bd
00000220: b51d 4bbd f41a 9ebd 0479 da3d dea9 783d
00000230: 3d99 51bd 2e6d cdbc 1792 5a3d 9cac 8b3d
00000240: bb77 c33d d4d9 56bd 8a12 9abd 184f b8bd
00000250: 5922 c53d 6d4c a6bd 31fd 473d d38b e9bb
00000260: 8c00 5dbc 5efd e5bd 542b e23d 5e27 9bbd
00000270: b34b e53d fa4c 3cbd 5ae4 f5bd 5829 913c
00000280: 9506 eabd edc9 a83d 51eb 943d 2833 a63d
00000290: 97f7 00bc de1a c5bd a288 e23d dd78 353e
000002a0: 9385 9c3d c3f8 713d 2b8c 13bd c3bd 09bd
000002b0: cfd3 3b3d 6f6b ecbd 68db df3d 9300 9cbd
000002c0: aa42 febd 5809 17be 3fe1 163e 0c22 a23d
000002d0: 2cba cabc d7e8 42bd 2fec d33d fa83 09be
000002e0: fb80 b5bd 3930 e6bc b200 cebc 3177 bcbd
000002f0: b172 04bd f90e 90bd 55dc fa3d 8da8 473d
00000300: 1e70 fb3d 64c5 1b3d e824 bfba c30d 6cbc
00000310: ced4 bd3d 4104 cabc 00ea 44bd 4376 91bd
00000320: a0d4 8e3d cae0 d53b 5bf0 f4bd d67d ea3d
00000330: a556 7d3e 98c3 26bc 97c0 a13d 1ba4 76bd
00000340: c8c4 a63d 76e2 babd a711 0f3d 58d9 dfbd
00000350: 3a81 3dbd d423 273d 4e6e 763d 005c 073e
00000360: 0cee 0e3d 0abd 333e e826 93bb 2d14 4b3c
00000370: 50e1 ab3c 8d5a 1c3c 51a0 323d 201a 253e
00000380: 4a25 603e f3e9 9f3e 01b1 ff3c 0fa1 0a3d
00000390: d039 20be b3bc 00be b684 14bd 331c 8f3b
000003a0: db10 edbc 667d 5f3d ec63 713e a5d9 283e
000003b0: 3a45 023e c0a3 9e3c e25d 163d d53c 8e3c
000003c0: 6912 ac3d 1a84 c73d 9b59 363d 47f4 d0bb
000003d0: 742b e13c 9db3 d2bd 2a9d caba 8223 503d
000003e0: 879e 543d e055 82bd d145 cc3e ca9a 613d
000003f0: 6e54 703e c7db ac3d fae4 7a3c 676b 363e
-0.002477803 0.08111829 0.013498948 0.011328071 0.117815845 0.0650746 0.06881561 0.097508654
0.014307779 -0.0707277 -0.09673781 0.25899965 0.20266958 -0.012980067 0.12657054 -0.07173137
0.14890426 -0.057714775 -0.07777289 0.08190727 0.19474599 -0.08641189 0.33983502 -0.09590408
0.038073808 -0.019197099 0.16133492 0.01755566 0.044834897 -0.059130423 0.05907934 -0.037648097
0.034182638 0.27462158 0.16923873 -0.17588139 -0.11592139 0.08474748 0.088844955 0.038392562
0.05431805 -0.014437053 0.20234667 0.12490999 -0.02441699 0.15994652 -0.0393409 0.04445031
0.15418611 -0.13784501 -0.05834369 0.08738654 -0.057090856 -0.027703619 -0.107503586 0.005400712
-0.1410282 -0.049639348 0.2789551 0.20521718 0.22740011 -0.067062154 -0.06982287 0.19837967
-0.089671694 0.15292822 0.18321279 0.0051039164 -0.07461093 -0.084217235 0.18627757 0.1762309
0.11064656 0.023311596 0.07654281 0.17567173 -0.09486638 0.016075604 -0.021866003 0.19418156
-0.002527674 0.12473356 0.108673215 -0.14448868 0.09232299 0.12342749 -0.11391819 0.079428695
-0.06320453 -0.016606681 0.053124946 0.007969192 -0.10321016 0.01596868 -0.030555395 -0.15500546
-0.07904777 -0.16717194 0.070275806 0.059841424 0.0628068 -0.016230201 0.112133384 0.1566434
0.09028113 0.036826044 -0.03187405 -0.123117805 0.045765955 -0.06205095 -0.016707001 0.043935962
-0.09259177 -0.13565256 -0.02922786 0.0032538131 0.033478692 -0.08158401 0.12286485 0.017902432
0.108223386 0.06851519 -0.28948498 -0.0036898255 -0.029179832 -0.086007185 -0.048974272 0.15802424
-0.069836035 -0.00810067 0.022430796 0.04792483 0.025641046 0.031010807 0.039241377 -0.09074358
-0.049588878 -0.07719985 0.10667613 0.060708873 -0.05117153 -0.025076475 0.05336198 0.06820032
0.09544321 -0.05245383 -0.07523067 -0.08999461 0.09625692 -0.08120046 0.048825447 -0.007127264
-0.0134889 -0.112299666 0.110434204 -0.07575868 0.11196079 -0.045971848 -0.12006445 0.01771991
-0.11427037 0.08241639 0.072714455 0.08115226 -0.00787153 -0.09624265 0.11061217 0.17721887
0.07642665 0.05907513 -0.036022346 -0.033628237 0.045856293 -0.11543929 0.1093052 -0.07617297
-0.12415059 -0.14749658 0.14734362 0.0791665 -0.024746977 -0.047585335 0.10347783 -0.13429251
-0.08862492 -0.028099166 -0.025146816 -0.092024215 -0.03233594 -0.07034106 0.12249056 0.048744727
0.12277244 0.038030043 -0.0014583142 -0.014407578 0.09269105 -0.024660232 -0.048074722 -0.07102635
0.06974149 0.006527041 -0.11959907 0.114497826 0.24740084 -0.010178469 0.07898062 -0.060215097
0.08143002 -0.09125225 0.034928944 -0.10930127 -0.04626582 0.040805653 0.06016379 0.13218689
0.034894988 0.17552581 -0.004490722 0.012394947 0.02098146 0.009543073 0.04360992 0.16123247
0.21889225 0.31233177 0.031212332 0.033845004 -0.15647054 -0.12571983 -0.036259376 0.0043673753
-0.028938701 0.05456295 0.23573273 0.16489275 0.1272172 0.019365191 0.036710627 0.017362991
0.08401949 0.09741993 0.04451905 -0.0063767764 0.02748654 -0.10288165 -0.0015458215 0.050815113
0.051908996 -0.063640356 0.39897016 0.05507926 0.23469707 0.08440357 0.015313381 0.17814408
