backend/Model_Pytorch/RNN_Model_our_data/output/checkpoints/best_checkpoint.pth (torch, 660059 bytes, 27 tensors)

lstm.weight_ih_l0 f4 [256, 15]
0.09203195 -0.04273976 -0.28874746 -0.16226856 -0.42242527 0.16317962 0.1576907 0.056593142
0.063625105 -0.19652115 -0.06110928 -0.06305732 -0.06690739 -0.069582276 0.010944545 0.5314096
0.06165298 0.15019578 0.28827268 0.10005489 -0.066403165 0.041798346 0.16490759 0.012185173
0.16779503 0.15094939 -0.13579093 -0.032152608 0.07947836 0.085206784 0.020733379 -0.032118928
-0.11326597 -0.20857835 -0.13869081 0.17225285 0.09283373 0.2515543 0.16775829 0.2970359
0.0018442986 0.0928007 0.106295824 0.10528641 0.19217683 -0.32937714 -0.51157206 0.03407526
0.3022802 0.0030317332 -0.4270785 -0.07021736 0.16276173 -0.51864064 -0.0755362 0.29644966
0.30650064 0.702915 0.42927262 0.855805 -0.19136779 -0.008395518 0.24139242 0.4922543
0.033846702 -0.11785116 -0.17075835 -0.07335664 -0.5074398 0.2329352 0.55498886 -0.33881035
-0.12768269 0.024629427 -0.33807123 -0.17343937 0.321859 0.16373996 0.18989016 0.4422533
-0.16432227 -0.12793148 -0.39243206 -0.034443714 0.038595803 -0.014149287 0.06907798 -0.18961895
0.31475013 -0.03699464 -0.05582818 0.19352424 -0.22345898 -0.039434906 -0.21528515 -0.0910503
-0.06039541 0.21126392 -0.14983359 -0.06704705 -0.13253106 0.07121774 -0.24559432 -0.037472285
-0.04259181 -0.039959524 0.14747988 0.19467525 0.19478671 0.35233113 -0.08571864 0.007620577
0.55125934 -0.02205375 -0.13672249 -0.29847586 -0.08333679 0.40215367 0.01967575 0.16186783
-0.028955923 0.41702962 0.0044790427 0.06480736 0.027596157 0.17487872 -0.28772217 0.23379175
-0.25390735 0.12938681 0.092801236 -0.5802991 0.40514365 -0.07425814 0.2757371 -0.17557125
0.10618667 0.23877476 0.05662921 0.36493695 0.43201482 -0.03505865 -0.03146387 -0.19497551
0.084365115 0.12929118 -0.16609263 0.1817695 0.12782551 0.2821926 -0.047586992 -0.20851344
-0.37059692 -0.043493632 -0.7296862 0.37799343 -0.0074616503 0.3068178 -0.026432144 0.0024312346
-0.3069875 0.023752771 -0.048335966 0.6128248 -0.37939852 -0.16819343 -0.5250688 -0.12429786
0.030665426 -0.047604986 0.14783978 0.09570894 -0.20789921 -0.30713454 0.16731048 0.6198325
-0.024705838 0.3322509 0.051953796 0.36784765 0.7254359 0.19065584 0.25715286 0.15483098
0.3112559 0.10099676 0.03387497 -0.18618433 -0.117951035 0.15101613 -0.016857106 0.036192324
-0.16946454 -0.117487796 -0.17411724 0.14570238 0.25915545 0.03840968 -0.06970528 -0.054102264
-0.12527226 0.14912196 -0.2594601 -0.11001654 0.17377642 0.13715212 -0.050826624 -0.20623104
0.044987738 -0.25419226 -0.30790344 -0.090166345 0.23896904 0.27871093 0.40982756 -0.23167466
-0.14276332 -0.48669022 -0.115892336 0.31334648 0.11928209 -0.33189914 -0.063151814 -0.026029505
-0.106717736 -0.24332358 0.21670192 0.40566087 0.30327395 0.47761664 -0.06941989 -0.20318907
-0.4129044 0.0012263145 0.16637656 0.03992637 -0.029503673 -0.24380822 0.10173888 0.12097656
-0.06796662 -0.25790322 0.054885916 0.3191593 -0.054642577 0.041972622 -0.35076377 0.019487955
-0.6885199 -0.14601737 0.19362469 -0.22655825 0.17471707 -0.32486638 0.10070022 -0.20919609
00000000: 3f7b bc3d e30f 2fbd b5d6 93be bb29 26be
00000010: 2048 d8be 8f18 273e ac79 213e 36ce 673d
00000020: e14d 823d d73c 49be b94d 7abd 3224 81bd
00000030: be06 89bd 2781 8ebd c050 333c 760a 083f
00000040: d687 7c3d eccc 193e 7a98 933e 94e9 cc3d
00000050: 62fe 87bd be34 2b3d 89dd 283e 52a4 473c
00000060: 76d2 2b3e 7a92 1a3e c70c 0bbe 74b2 03bd
00000070: 8dc5 a23d e580 ae3d 0cd9 a93c 238f 03bd
00000080: fdf7 e7bd 9095 55be f704 0ebe 0d63 303e
00000090: 9c1f be3d bacb 803e d4c8 2b3e 1715 983e
000000a0: 64bc f13a 4b0e be3d a0b1 d93d 67a0 d73d
000000b0: 01ca 443e 1fa4 a8be 63f6 02bf 8092 0b3d
000000c0: 78c4 9a3e 0bb0 463b 08aa dabe 1fce 8fbd
000000d0: 03ab 263e a2c5 04bf b9b2 9abd 40c8 973e
000000e0: a7ed 9c3e 3df2 333f 9fc9 db3e 0916 5b3f
000000f0: ebf5 43be 5b8d 09bc 932f 773e c108 fc3e
00000100: d7a2 0a3d f35b f1bd 47db 2ebe 023c 96bd
00000110: 93e7 01bf 9186 6e3e c013 0e3f 8d78 adbe
00000120: 40bf 02be a7c3 c93c ac17 adbe 179a 31be
00000130: b4ca a43e 73ab 273e 9172 423e 066f e23e
00000140: 1944 28be 7800 03be dbec c8be da14 0dbd
00000150: a216 1e3d 69d2 67bc c278 8d3d 782b 42be
00000160: ee26 a13e b187 17bd 17ac 64bd 382b 463e
00000170: 6ed2 64be 7f86 21bd b673 5cbe 9478 babd
00000180: 2d61 77bd 9255 583e fa6d 19be f74f 89bd
00000190: 39b6 07be 9bda 913d 147d 7bbe 8a7c 19bd
000001a0: c074 2ebd 99ac 23bd f704 173e f358 473e
000001b0: 2b76 473e bf64 b43e 418d afbd 08b6 f93b
000001c0: 551f 0d3f 11aa b4bc fb00 0cbe d4d1 98be
000001d0: 7bac aabd 16e7 cd3e 0a2f a13c aec0 253e
000001e0: f934 edbc e884 d53e efc4 923b b9b9 843d
000001f0: 5611 e23c 6813 333e 5250 93be 1b67 6f3e
00000200: 2500 82be fa7d 043e 930e be3d 7b8e 14bf
00000210: fd6e cf3e a714 98bd 6a2d 8d3e f3c8 33be
00000220: 6678 d93d 5f81 743e 08f4 673d 04d9 ba3e
00000230: 0c31 dd3e a999 0fbd 42e0 00bd a9a7 47be
00000240: 9ec7 ac3d e864 043e 3014 2abe c921 3a3e
00000250: b1e4 023e 8c7b 903e 94ea 42bd 8c84 55be
00000260: e1be bdbe 6126 32bd b7cc 3abf 5b88 c13e
00000270: dc80 f4bb 3917 9d3e 3988 d8bc 5955 1f3b
00000280: 772d 9dbe 2c95 c23c effb 45bd 16e2 1c3f
00000290: 8640 c2be e63a 2cbe e96a 06bf e08f febd
000002a0: 0f36 fb3c 72fd 42bd 5063 173e 0c03 c43d
000002b0: 88e3 54be bd40 9dbe 7053 2b3e 58ad 1e3f
000002c0: e663 cabc ca1c aa3e 81cd 543d 8756 bc3e
000002d0: 2bb6 393f 493b 433e 8aa9 833e 038c 1e3e
000002e0: ef5c 9f3e 64d7 ce3d 7bc0 0a3d 1ba7 3ebe
000002f0: 5090 f1bd f9a3 1a3e ea17 8abc 673e 143d
00000300: 1d88 2dbe 719d f0bd ca4b 32be 0133 153e
00000310: 06b0 843e 7853 1d3d a4c1 8ebd 569a 5dbd
00000320: 5f47 00be 6db3 183e f4d7 84be 5a50 e1bd
00000330: 72f2 313e 9b71 0c3e 942f 50bd 3b2e 53be
00000340: 1045 383d 7d25 82be 85a5 9dbe 22a9 b8bd
00000350: 4db4 743e 33b3 8e3e ebd4 d13e 1f3c 6dbe
00000360: 8c30 12be 762f f9be f658 edbd f36e a03e
00000370: 2b4a f43d afee a9be bd55 81bd d43b d5bc
00000380: d48e dabd d129 79be 1ce7 5d3e c8b2 cf3e
00000390: b946 9b3e 2b8a f43e 042c 8ebd cc10 50be
000003a0: 3568 d3be 49bc a03a 9e5e 2a3e d589 233d
000003b0: b0b1 f1bc dda8 79be 795c d03d 8fc2 f73d
000003c0: 1532 8bbd e40b 84be 0ed0 603d d968 a33e
000003d0: e5d0 5fbd 7ceb 2b3d 4f97 b3be 34a5 9f3c
000003e0: d742 30bf 9485 15be 8d45 463e e3fe 67be
000003f0: 08e9 323e e354 a6be eb3b ce3d 8037 56be

lstm.weight_hh_l0 f4 [256, 64]
0.16261786 -0.48594102 -0.39374346 0.42019895 0.12361834 -0.027033543 -0.23009767 -0.10001738
-0.009897968 -0.18653868 -0.18965377 -0.21259159 -0.16469431 0.22448006 -0.30957642 -0.0059727584
0.14802365 -0.004764595 0.1222727 0.0031909104 0.32440993 0.14840123 0.16829447 0.13166979
0.19439387 0.089555316 0.1457552 0.33006915 0.3718768 -0.44719824 0.0133274365 0.06363613
0.28808898 0.18420243 -0.13720176 -0.1003639 0.031534035 0.17504372 0.10687991 -0.32465082
-0.27517915 0.20880552 0.26648548 -0.46551976 0.0909431 0.27661106 0.23936984 0.11352654
0.0807322 0.30721557 0.11643274 0.38618723 -0.109922014 0.1645967 -0.2841842 0.28362632
0.33045018 -0.051940046 -0.024139568 0.077337526 0.34767708 0.25955403 0.18555766 -0.1524691
-0.2623466 0.20594837 0.14033325 0.37505254 0.042981483 -0.021699548 0.3950772 -0.10007849
0.07129447 0.057416763 0.3349248 0.060314007 0.12719066 -0.17449112 0.010452269 0.047583804
-0.06843208 0.12374385 -0.40825334 -0.22483861 -0.15098731 -0.100604236 0.59697497 -0.0026908463
-0.29146338 0.30191275 0.3075353 -0.46795937 0.4539816 -0.27163357 -0.18618464 -0.47134984
-0.29530498 0.4510823 -0.035423614 0.19395103 -0.3525042 -0.2750773 0.057980172 0.23869449
0.23769012 -0.02311108 0.43395934 0.021888532 0.022218505 0.0829082 0.25076923 0.04193983
0.032346804 -0.07699003 -0.19047497 0.5312553 0.09070645 0.051290303 0.076554954 -0.2794237
-0.036610097 0.5267306 -0.5411374 -0.15794559 -0.15387684 0.29562762 -0.3959942 0.37216187
-0.17328934 -0.18270041 -0.08477363 0.46758497 0.011979233 -0.20566207 0.16527136 0.14800988
-0.006358356 -0.23403531 -0.0022641157 0.051116105 -0.3144026 -0.1665302 -0.45991522 0.3133501
-0.24797572 -0.14318617 -0.24870835 -0.4956339 -0.08344876 -0.051680114 0.56833994 -0.06538305
-0.07908012 0.25304317 0.30331144 -0.040521123 -0.015439326 0.122266926 -0.2798986 -0.5367297
-0.16699913 0.27339077 -0.29221722 -0.032502063 -0.19971277 0.09477668 0.44966304 0.084044054
0.025902215 0.090723634 0.2251155 -0.19537918 0.14056946 -0.05030486 0.031663284 0.42428285
0.41998854 0.15749316 -0.087915316 0.19422495 -0.04309444 0.054292712 0.16432348 0.27761906
0.15031216 0.13236858 -0.15163915 -0.08595912 0.15501645 0.326458 -0.09206011 0.2650444
-0.28909644 0.31034744 -0.10219453 0.4440328 0.42760086 0.30765444 0.0909602 -0.5190577
-0.12279084 0.18231654 -0.00032771713 0.4975266 0.10153945 -0.052513573 0.72978014 -0.4552543
-0.16525926 -0.05850933 -0.17339809 -0.46969044 -0.09860533 -0.015561892 0.1574881 -0.2228419
0.2780403 -0.20243964 0.39598587 -0.48595327 -0.22580633 -0.32792953 0.038726814 0.05504185
0.09345365 0.32586223 -0.4217224 0.039964404 -0.33655187 0.05689436 0.23274922 0.25474927
0.036001794 0.16733427 0.36585096 -0.05816092 0.26401982 -0.504504 0.2374922 0.108783536
-0.43429556 -0.09041305 -0.05186408 -0.07580997 0.048605435 -0.17124858 0.030742941 -0.23146555
0.0028606877 0.10769737 -0.08854403 0.08124369 -0.20838839 -0.2705854 0.04694375 0.017601488
00000000: 4c85 263e 43cd f8be be98 c9be 5124 d73e
00000010: 9d2b fd3d 7375 ddbc b99e 6bbe ead5 ccbd
00000020: 162b 22bc ff03 3fbe 9934 42be 9cb1 59be
00000030: a0a5 28be 1ade 653e cd80 9ebe 21b7 c3bb
00000040: 8393 173e 5220 9cbb 1c6a fa3d 981e 513b
00000050: 0f19 a63e 7ef6 173e 6355 2c3e 72d4 063e
00000060: 300f 473e c768 b73d da40 153e d3fe a83e
00000070: a366 be3e 2bf7 e4be 525b 5a3c a953 823d
00000080: 6680 933e 909f 3c3e 9e7e 0cbe 978b cdbd
00000090: d529 013d a93e 333e dbe3 da3d a238 a6be
000000a0: 48e4 8cbe 1dd1 553e c970 883e 9b58 eebe
000000b0: 6040 ba3d f79f 8d3e 5e1d 753e 9a80 e83d
000000c0: ec56 a53d 5c4b 9d3e 4a74 ee3d 55ba c53e
000000d0: cb1e e1bd 0a8c 283e 9780 91be 7837 913e
000000e0: c430 a93e 16bf 54bd 58c0 c5bc 2363 9e3d
000000f0: bb02 b23e 44e4 843e d402 3e3e dc20 1cbe
00000100: 4b52 86be 21e4 523e 85b3 0f3e e306 c03e
00000110: 5a0d 303d 40c3 b1bc 8f47 ca3e f4f5 ccbd
00000120: d602 923d d72d 6b3d 437b ab3e d20b 773d
00000130: 453e 023e cdad 32be fe3f 2b3c 3ce7 423d
00000140: 1e26 8cbd 6a6d fd3d 9506 d1be 183c 66be
00000150: 6b9c 1abe 9809 cebd 5ad3 183f e958 30bb
00000160: b03a 95be 4f94 9a3e 4475 9d3e 5f98 efbe
00000170: 4770 e83e 8e13 8bbe 30a7 3ebe c454 f1be
00000180: 3732 97be 42f4 e63e 5a18 11bd 199b 463e
00000190: 6e7b b4be efd6 8cbe 9e7c 6d3d 546c 743e
000001a0: 0a65 733e 7353 bdbc eb2f de3e 944f b33c
000001b0: 9503 b63c c6cb a93d d364 803e 19c9 2b3d
000001c0: 157e 043d f3ac 9dbd df0b 43be 5900 083f
000001d0: 4ec4 b93d c815 523d d8c8 9c3d a010 8fbe
000001e0: 78f4 15bd d1d7 063f fb87 0abf 7dbc 21be
000001f0: e491 1dbe 815c 973e c0bf cabe 008c be3e
00000200: c372 31be d115 3bbe cc9d adbd 4c67 ef3e
00000210: 8b44 443c 1499 52be e53c 293e e78f 173e
00000220: c259 d0bb f4a6 6fbe 8f61 14bb 1f5f 513d
00000230: 61f9 a0be e586 2abe 027a ebbe 6d6f a03e
00000240: 59ed 7dbe 659f 12be 67ad 7ebe bac3 fdbe
00000250: 2fe7 aabd 87ae 53bd ba7e 113f 8ce7 85bd
00000260: c2f4 a1bd e08e 813e a34b 9b3e 7af9 25bd
00000270: 3af5 7cbc 1567 fa3d df4e 8fbe 1e67 09bf
00000280: d201 2bbe e0f9 8b3e 7f9d 95be e220 05bd
00000290: 8181 4cbe 471a c23d 3c3a e63e 4a1f ac3d
000002a0: e230 d43c 50cd b93d ad84 663e 7b11 48be
000002b0: 71f1 0f3e 780c 4ebd 5cb1 013d 9a3b d93e
000002c0: bd08 d73e e345 213e f20c b4bd e8e2 463e
000002d0: cc83 30bd 0962 5e3d 6a44 283e 1624 8e3e
000002e0: 6eeb 193e a18b 073e 4b47 1bbe 560b b0bd
000002f0: a2bc 1e3e 8125 a73e 038a bcbd e6b3 873e
00000300: 7304 94be dce5 9e3e 5e4b d1bd 4458 e33e
00000310: 80ee da3e e284 9d3e 5749 ba3d f7e0 04bf
00000320: c479 fbbd 30b1 3a3e 73d1 abb9 cebb fe3e
00000330: eaf3 cf3d 7918 57bd dfd2 3a3f 1717 e9be
00000340: b939 29be 7ba7 6fbd 458f 31be 447b f0be
00000350: 97f1 c9bd 4ef7 7ebc 8f44 213e ab30 64be
00000360: 4c5b 8e3e 564c 4fbe a9be ca3e dece f8be
00000370: c639 67be 61e6 a7be 02a0 1e3d 9073 613d
00000380: a164 bf3d 6ad7 a63e 00ec d7be b7b1 233d
00000390: 8750 acbe 0f0a 693d d055 6e3e 7f6e 823e
000003a0: 9e76 133d ad59 2b3e d150 bb3e 253a 6ebd
000003b0: 9b2d 873e 2d27 01bf 2831 733e e7c9 de3d
000003c0: fd5b debe 7a2a b9bd 6e6f 54bd 4242 9bbd
000003d0: 7e16 473d ca5b 2fbe 9fd8 fb3c 4e05 6dbe
000003e0: 607a 3b3b 7090 dc3d 9356 b5bd 1763 a63d
000003f0: c463 55be 2b8a 8abe 1748 403d ff30 903c

lstm.bias_ih_l0 f4 [256]
-0.32651263 -0.14860503 0.24356866 -0.22856511 -0.6671157 -0.22806089 -0.415501 0.15026483
-0.123647444 -0.20408665 -0.44098645 -0.06940858 -0.45334673 -0.31842014 -0.46382722 -0.75729597
-0.34016004 -0.27055547 -0.4546846 -0.21209459 -0.542636 -0.43993166 0.13226143 -0.43278912
-0.5571974 -0.7025763 -0.5701675 -0.33032852 -0.65409976 -0.62296635 0.18327731 -0.3972678
-0.64634943 -0.6119227 0.037062198 -0.68470377 -0.35129315 -0.44773698 -0.34981337 -0.41018277
-0.51185226 -0.20839119 -0.22340757 -0.3462188 -0.42828408 -0.57857776 -0.44138876 -0.31043097
-0.11000016 -0.45290717 -0.5062356 -0.2995093 -0.624411 -0.41666615 -0.28181556 -0.46153647
-0.33022705 -0.36709884 -0.5178638 -0.06828722 -0.24661998 -0.6129171 -0.39266288 -0.5200167
-0.16634762 -0.19061151 -0.014257341 -0.10216887 -0.58881795 -0.13369614 0.15318027 -0.115151934
-0.21989097 -0.11092687 -0.46848476 0.13962798 0.2341191 -0.26167032 -0.35400382 -0.24694659
-0.24536334 -0.19079383 -0.76105917 -0.48795125 -0.03265095 -0.17122371 -0.10562462 -0.08397483
-0.06672297 0.1852546 -0.37250635 -0.23274586 -0.4496241 -0.46639916 -0.2443162 -0.21008156
-0.02130615 0.15353398 -0.2193526 0.15732516 -0.27923867 0.0941492 -0.25000003 -0.27441248
-0.20431563 -0.54476994 -0.2868225 -0.05192235 -0.22529948 -0.30390194 0.10302483 0.17459112
-0.11120389 -0.17989227 -0.5551164 0.15953603 -0.092668906 -0.13511388 -0.22771364 -0.066979356
-0.049339667 -0.03046871 -0.5212196 -0.30823874 -0.047621045 -0.1433109 0.07793476 0.024188373
0.2307508 -0.007566854 -0.049557503 0.077932104 -0.03963224 0.13346286 -0.27281758 0.19283456
0.096180074 -0.026076868 0.13180786 0.028967349 0.070621885 0.015718706 -0.05059262 0.13605279
-0.1520971 0.097803056 -0.18612547 0.32391107 -0.0013328085 -0.06473123 -0.08318966 0.09731256
0.24537967 -0.11810225 -0.08137755 0.032830577 -0.01661373 0.082140885 -0.04143271 0.0030322382
0.12503126 0.1298188 -0.24679278 0.0152132055 0.077165954 -0.08119042 -0.06384825 -0.108719856
0.058798898 -0.023221102 0.057700932 0.16563961 -0.04918151 -0.029374246 -0.07046869 -0.08325255
0.13973519 -0.07929632 0.09579749 -0.16135074 -0.18847935 0.07165236 -0.018861642 0.0064667882
-0.019877685 -0.21008281 -0.024844892 -0.017444644 -0.044882227 0.17675047 0.036410987 0.037743088
-0.21998927 0.24055457 0.5659884 -0.3007486 -0.6376855 -0.41957888 0.0073508658 -0.020254258
0.0034590538 -0.053903222 -0.5228474 -0.10529966 -0.38133994 -0.4765855 -0.50433177 -0.5602996
-0.30603066 -0.2940426 -0.31404576 0.18434058 -0.5062197 -0.2459674 -0.028635675 -0.2025699
-0.42373466 -0.6143357 -0.72070843 -0.22576831 -0.49195325 -0.27119437 -0.034065146 -0.45103
-0.28970763 -0.018770691 -0.15588532 -0.6480487 -0.32406178 -0.03553076 -0.27298394 -0.3782177
-0.46924517 -0.23617415 -0.21153195 -0.19739816 -0.56671804 -0.5500352 -0.28975934 -0.41381803
0.037831586 -0.2889171 -0.41989824 -0.38280535 -0.56982124 -0.44635198 0.036107477 -0.21622439
-0.18379131 -0.075926036 -0.3156852 -0.16127712 -0.18900405 -0.4362549 -0.10104948 -0.35794854
00000000: aa2c a7be eb2b 18be 106a 793e f90c 6abe
00000010: 18c8 2abf cb88 69be 8cbc d4be 06df 193e
00000020: df3a fdbd 17fc 50be fac8 e1be 1626 8ebd
00000030: 101d e8be f707 a3be c37a edbe 26de 41bf
00000040: 7529 aebe 3f86 8abe 6bcc e8be 532f 59be
00000050: 31ea 0abf b93e e1be 8a6f 073e 8996 ddbe
00000060: 7da4 0ebf 0adc 33bf 7ff6 11bf d220 a9be
00000070: 1573 27bf b97a 1fbf 0cad 3b3e af66 cbbe
00000080: 2877 25bf f7a6 1cbf 88ce 173d bf48 2fbf
00000090: b2dc b3be c83d e5be bd1a b3be 7a03 d2be
000000a0: c008 03bf 8064 55be f4c4 64be 9743 b1be
000000b0: 0d48 dbbe ac1d 14bf b5fd e1be cff0 9ebe
000000c0: c447 e1bd 73e3 e7be a898 01bf 4859 99be
000000d0: 66d9 1fbf 4455 d5be 214a 90be 824e ecbe
000000e0: 8513 a9be 61f4 bbbe b992 04bf 2cda 8bbd
000000f0: f389 7cbe 23e8 1cbf 1c0b c9be d01f 05bf
00000100: 0857 2abe aa2f 43be 9f97 69bc ea3d d1bd
00000110: c6bc 16bf a4e7 08be 4adb 1c3e c7d4 ebbd
00000120: 192b 61be a02d e3bd 3cdd efbe a3fa 0e3e
00000130: ebbc 6f3e a7f9 85be fd3f b5be 91df 7cbe
00000140: 8740 7bbe 755f 43be c6d4 42bf bfd4 f9be
00000150: 01bd 05bd 4555 2fbe b951 d8bd fffa abbd
00000160: 0da6 88bd 62b3 3d3e 27b9 bebe ee54 6ebe
00000170: 2135 e6be dfcb eebe 072e 7abe 9f1f 57be
00000180: 3c8a aebc 0338 1d3e f89d 60be d919 213e
00000190: 5ff8 8ebe 4cd1 c03d 0100 80be cb7f 8cbe
000001a0: 1e38 51be 0b76 0bbf 66da 92be 88ac 54bd
000001b0: e8b4 66be 0999 9bbe affe d23d 04c8 323e
000001c0: ddbe e3bd ae35 38be 1c1c 0ebf 6a5d 233e
000001d0: 32c9 bdbd 4b5b 0abe c42d 69be 792c 89bd
000001e0: 6418 4abd 8499 f9bc a66e 05bf 78d1 9dbe
000001f0: 490e 43bd 18c0 12be 429c 9f3d b226 c63c
00000200: f049 6c3e 5ff3 f7bb cffc 4abd de9a 9f3d
00000210: 6a55 22bd 7daa 083e bfae 8bbe 6c76 453e
00000220: 0ffa c43d 289f d5bc a4f8 063e ef4c ed3c
00000230: 35a2 903d 84c4 803c 353a 4fbd 6c51 0b3e
00000240: 58bf 1bbe f84c c83d ad97 3ebe acd7 a53e
00000250: a2b1 aeba cf91 84bd 575f aabd cf4b c73d
00000260: cf44 7b3e 98df f1bd 46a9 a6bd 5b79 063d
00000270: 8419 88bc 7b39 a83d 58b5 29bd 84b8 463b
00000280: 3208 003e 38ef 043e 3fb7 7cbe cf40 793c
00000290: 2f09 9e3d 2a47 a6bd dfc2 82bd 84a8 debd
000002a0: 1dd7 703d 2e3a bebc d057 6c3d 6e9d 293e
000002b0: 8d72 49bd 42a2 f0bc e351 90bd 5080 aabd
000002c0: be16 0f3e 1c66 a2bd 7931 c43d 2139 25be
000002d0: bb00 41be 79be 923d bb83 9abc 5ae7 d33b
000002e0: 87d6 a2bc f31f 57be 8487 cbbc 12e8 8ebc
000002f0: 6dd6 37bd 13fe 343e b023 153d 7f98 1a3d
00000300: de44 61be f053 763e 9ee4 103f b8fb 99be
00000310: 5b3f 23bf 0bd3 d6be 88df f03b 42ec a5bc
00000320: 4bb1 623b a0c9 5cbd 54d9 05bf 59a7 d7bd
00000330: fd3e c3be 0403 f4be e31b 01bf cb6f 0fbf
00000340: 0db0 9cbe c08c 96be 9bca a0be c7c3 3c3e
00000350: 9d97 01bf e1de 7bbe 5d95 eabc 7c6e 4fbe
00000360: c0f3 d8be 1b45 1dbf 5980 38bf cf2f 67be
00000370: 4ce1 fbbe fdd9 8abe e587 0bbd 67ed e6be
00000380: 8f54 94be fec4 99bc 67a0 1fbe 85e6 25bf
00000390: 6deb a5be b488 11bd 8dc4 8bbe c0a5 c1be
000003a0: e740 f0be a3d7 71be d59b 58be be22 4abe
000003b0: 6f14 11bf 1bcf 0cbf 565b 94be f5df d3be
000003c0: 4bf5 1a3d f1ec 93be e7fc d6be 10ff c3be
000003d0: cedf 11bf 3f88 e4be 6fe5 133d ed69 5dbe
000003e0: ca33 3cbe 1c7f 9bbd 7ea1 a1be d425 25be
000003f0: 478a 41be cd5c dfbe 08f3 cebd 0845 b7be

lstm.bias_hh_l0 f4 [256]
-0.24787477 -0.22249562 0.19095291 -0.3019523 -0.782852 -0.36349013 -0.4440172 0.14341164
-0.0618776 -0.16417608 -0.4865146 -0.2789132 -0.49530572 -0.45583433 -0.5791007 -0.7399623
-0.16050379 -0.27933452 -0.39429837 -0.2516261 -0.6557132 -0.37705758 0.14762191 -0.23487504
-0.4155006 -0.6083271 -0.5076246 -0.28555077 -0.6601294 -0.5869364 0.36425352 -0.36878115
-0.42280594 -0.6665251 0.072226405 -0.61898166 -0.24203534 -0.46765926 -0.37031096 -0.3810083
-0.5102898 -0.26613638 -0.20577942 -0.25906926 -0.37353846 -0.70893604 -0.56526136 -0.30816483
-0.18362767 -0.3755232 -0.33997068 -0.39414385 -0.4796858 -0.500791 -0.2921014 -0.5432034
-0.13989869 -0.3343601 -0.3809945 -0.113125324 -0.29708484 -0.75344497 -0.42929417 -0.40594447
-0.18207341 -0.14519975 -0.051400576 -0.22548626 -0.5425446 -0.24773923 0.0038765976 -0.24719034
-0.06194442 -0.2014552 -0.40865588 0.14837588 0.30829817 -0.2418239 -0.21804413 -0.17947
-0.1363424 -0.30347922 -0.81548154 -0.43769974 0.017674722 -0.16831 -0.038619563 0.10537465
-0.06771683 0.14691834 -0.4807993 -0.20795251 -0.3569992 -0.3528856 -0.34605607 -0.17315352
-0.003183163 0.15185224 -0.21798427 0.17793009 -0.23914364 0.27480143 -0.39530197 -0.30778402
-0.39676633 -0.3969088 -0.30218533 -0.052921664 -0.18734926 -0.20030051 0.15072386 0.26876476
-0.17621149 -0.13515382 -0.6666713 0.08822325 -0.14447874 0.012677468 -0.24474669 0.10280997
-0.11396821 -0.13801566 -0.5348544 -0.19394882 0.0046885614 -0.13631578 -0.056764156 0.111081816
0.087176934 -0.08197162 0.041844204 0.040439907 -0.08731218 0.0257432 -0.2058991 0.10318047
0.06336709 -0.09569243 0.10248098 -0.14147794 0.04481222 0.091893725 -0.18357636 -0.029074406
-0.08104979 0.019818325 -0.22381541 0.21934271 -0.05661614 0.061476767 -0.12521185 0.078348964
0.09677703 -0.07753797 0.012696046 0.094218425 -0.015280095 0.048637915 -0.12464941 -0.02036323
-0.016033145 0.23739164 -0.242547 0.014996522 -0.038835965 -0.15581909 -0.025828734 -0.14582117
0.004886414 -0.048956413 -0.024290167 0.19087426 -0.005223528 0.06693886 -0.18908702 -0.24972908
-0.056957927 -0.1995387 -0.0020854354 -0.03786651 -0.09158619 0.06383083 -0.052263137 0.07788028
-0.10951706 -0.12142129 0.074851096 -0.07299067 -0.16710515 0.052678905 0.11763031 0.015751272
-0.0070163496 0.16942881 0.44488943 -0.33885533 -0.7584917 -0.24948381 0.003492101 -0.11308528
0.15199855 -0.066590965 -0.52594906 -0.15336588 -0.1874485 -0.3774658 -0.31467682 -0.63121516
-0.32238784 -0.27318344 -0.33493865 -0.003682833 -0.53250825 -0.26139352 -0.082112625 -0.4257097
-0.54241925 -0.6171037 -0.75095403 -0.15308686 -0.42332247 -0.25110918 0.018251177 -0.4036383
-0.3279157 -0.22923864 -0.21945587 -0.6517641 -0.32206035 -0.09464965 -0.3025008 -0.39892283
-0.47964126 -0.2885868 -0.06430315 -0.11489186 -0.5573935 -0.5595599 -0.14064246 -0.36272615
-0.03462396 -0.29920003 -0.34049863 -0.42237025 -0.37546456 -0.39646074 0.01986054 -0.19847569
-0.24242099 -0.22634046 -0.41913494 0.016125618 -0.12149772 -0.49492002 -0.17831321 -0.57658017
00000000: e2d2 7dbe e4d5 63be 2989 433e 7e99 9abe
00000010: fd68 48bf 611b babe 3956 e3be 80da 123e
00000020: 5e73 7dbd c61d 28be 7118 f9be b6cd 8ebe
00000030: b698 fdbe 1e63 e9be f23f 14bf 2b6e 3dbf
00000040: 1b5b 24be ef04 8fbe 7ae1 c9be 23d5 80be
00000050: d2dc 27bf b10d c1be 332a 173e 1583 70be
00000060: 7fbc d4be 53bb 1bbf b0f3 01bf b633 92be
00000070: 3efe 28bf 7741 16bf 707f ba3e e2d0 bcbe
00000080: 057a d8be 64a1 2abf 70eb 933d 9575 1ebf
00000090: 1dd8 77be 0971 efbe 6699 bdbe 8513 c3be
000000a0: 5aa2 02bf 0743 88be d7b7 52be baa4 84be
000000b0: 6f40 bfbe d57c 35bf f8b4 10bf c8c7 9dbe
000000c0: e408 3cbe 9444 c0be a310 aebe 39cd c9be
000000d0: 6199 f5be d733 00bf 518e 95be 610f 0bbf
000000e0: 9a41 0fbe 3f31 abbe b611 c3be 40ae e7bd
000000f0: 811b 98be c5e1 40bf 72cc dbbe f4d7 cfbe
00000100: 7471 3abe 3eaf 14be 6989 52bd dfe5 66be
00000110: 34e4 0abf 5aaf 7dbe 840e 7e3b 771f 7dbe
00000120: 6fb9 7dbd 464a 4ebe 583b d1be d9ef 173e
00000130: 42d9 9d3e afa0 77be f646 5fbe fcc6 37be
00000140: 589d 0bbe a161 9bbe 66c3 50bf 2e1a e0be
00000150: 94ca 903c 7559 2cbe 8c2f 1ebd aace d73d
00000160: 1faf 8abd c371 163e 532b f6be 81f1 54be
00000170: 99c8 b6be 6cad b4be 432e b1be 284f 31be
00000180: 9d9c 50bb 277f 1b3e 4537 5fbe 4e33 363e
00000190: 12e2 74be c6b2 8c3e 0565 cabe de95 9dbe
000001a0: f524 cbbe a137 cbbe 09b8 9abe 63c4 58bd
000001b0: 7cd8 3fbe 941b 4dbe 5b57 1a3e 899b 893e
000001c0: c970 34be c365 0abe f8aa 2abf 64ae b43d
000001d0: 3cf2 13be 28b5 4f3c e09e 7abe 098e d23d
000001e0: 2a68 e9bd fa53 0dbe 38ec 08bf 859a 46be
000001f0: 81a2 993b 5d96 0bbe 8881 68bd dd7e e33d
00000200: d289 b23d bde0 a7bd d464 2b3d 51a4 253d
00000210: bad0 b2bd 67e3 d23c 37d7 52be 4850 d33d
00000220: 9bc6 813d 65fa c3bd 8ce1 d13d 98df 10be
00000230: 058d 373d c732 bc3d 71fb 3bbe 732d eebc
00000240: 6ffd a5bd 0a5a a23c de2f 65be 609b 603e
00000250: 53e6 67bd 10cf 7b3d 8937 00be 6c75 a03d
00000260: 0933 c63d 3acc 9ebd 1403 503c 97f5 c03d
00000270: 5d59 7abc 8d38 473d 3148 ffbd cad0 a6bc
00000280: f157 83bc cb16 733e 3e5e 78be f9b3 753c
00000290: 7612 1fbd 0a8f 1fbe c896 d3bc 2552 15be
000002a0: 361e a03b 8586 48bd 2cfc c6bc 8b74 433e
000002b0: 212a abbb 3e17 893d 07a0 41be fbb8 7fbe
000002c0: b74c 69bd df53 4cbe cdab 08bb ea19 1bbd
000002d0: 8a91 bbbd bdb9 823d df11 56bd b27f 9f3d
000002e0: 7b4a e0bd baab f8bd 884b 993d 227c 95bd
000002f0: 9d1d 2bbe d6c5 573d 29e8 f03d d008 813c
00000300: 68e9 e5bb bf7e 2d3e 8cc8 e33e 727e adbe
00000310: 832c 42bf af78 7fbe bcdb 643b 4199 e7bd
00000320: 82a5 1b3e d860 88bd 99a4 06bf f20b 1dbe
00000330: 80f2 3fbe 3343 c1be 521d a1be 5197 21bf
00000340: 0510 a5be b3de 8bbe 147d abbe af5b 71bb
00000350: 7652 08bf 5fd5 85be aa2a a8bd 9ff6 d9be
00000360: fddb 0abf 82fa 1dbf 863e 40bf cdc2 1cbe
00000370: b9bd d8be 6291 80be 7e83 953c aea9 cebe
00000380: 91e4 a7be 89bd 6abe 0ab9 60be 03da 26bf
00000390: 18e5 a4be add7 c1bd 63e1 9abe 9d3f ccbe
000003a0: 8a93 f5be a6c1 93be 5fb1 83bd 6c4c ebbd
000003b0: 57b1 0ebf 513f 0fbf 9404 10be 3eb7 b9be
000003c0: dad1 0dbd bf30 99be d655 aebe ea40 d8be
000003d0: e43c c0be e7fc cabe 92b2 a23c 363d 4bbe
000003e0: 353d 78be cbc5 67be db98 d6be df19 843c
000003f0: ccd3 f8bd 2866 fdbe bd97 36be c29a 13bf

lstm.weight_ih_l1 f4 [256, 64]
0.07574879 -0.07972606 -0.84395534 -0.3031485 0.27899688 -0.38437173 0.16243553 0.13371468
0.6552073 -0.6053654 0.24741179 -0.28884697 -0.031245785 -0.35781586 -0.2710073 0.18798757
-0.009540649 0.11925392 -0.30406818 1.4511814 0.005662495 0.68235976 -0.9215395 -0.1989012
0.040816505 0.57193303 0.35219824 0.7304907 0.31683174 -0.3623277 -0.41262826 -0.27987167
-0.18090115 0.17278312 -0.060158715 -0.34937534 0.59379333 -0.11903419 0.22168049 -0.06485915
-0.5267691 0.091926806 -0.05776056 0.29373232 -0.2313459 0.06994614 0.5248566 -0.27397916
0.9168099 0.16740547 0.227785 0.12206212 0.4952641 0.56787 -0.35120502 0.43161863
0.11458286 0.3092038 -0.5849966 0.42555907 0.174268 0.1807664 0.09580933 -0.028116504
-0.25504202 -0.25701967 -0.3774426 0.4485105 0.1759658 -0.36532936 0.30582184 0.030519074
0.40778852 -0.5432743 0.31962752 0.07029592 -0.13301529 -0.5183886 -0.48355898 0.50790733
0.171514 0.14952913 -0.49544963 0.31835103 -0.0634997 0.1781325 -0.023231259 0.078803495
0.0049262485 0.40685144 -0.6209989 0.14349806 -0.10320183 0.24345577 -0.006995866 -0.20041172
0.015009788 -0.3385142 -0.083395064 -0.19313511 0.4813762 0.14172429 0.40361163 0.494184
0.13812226 0.11156872 0.12726676 -0.07151925 0.082669154 0.07320359 0.5183867 0.29072544
-0.033979323 0.07466651 -0.6955215 -0.0014983402 0.67761743 -0.10676775 0.15296009 0.00588731
0.24557914 0.3275976 0.37128505 0.3459327 0.06983842 0.09696875 -0.14506957 -0.03411661
0.1673718 0.9941855 0.2953617 0.167729 0.10033609 -0.06428646 -0.0028837177 -0.5877041
-0.7796845 0.45756686 0.3982988 0.24210879 -0.0046563656 0.1862872 0.1708957 -0.8967217
0.323479 -0.34614223 0.035065774 -0.13354424 0.01867223 -0.2657643 0.01584776 0.11570615
-0.09158148 0.22880471 -0.33123365 -0.18891054 -0.40200055 -0.51619184 0.28156826 0.18098536
0.089827895 0.68689364 -0.04489506 0.055976048 -0.50167346 0.11558906 -0.91819096 0.03364005
0.011854341 0.04893809 -0.049769823 0.21442832 0.19325735 0.18849763 -0.19477569 -0.01615082
-0.4823163 -0.32338303 -0.6510329 0.59295946 0.13999717 0.23234971 0.2505223 -1.0708057
-0.21113978 -0.25343993 0.21605793 0.22551814 -0.04107698 0.053509332 0.096594565 -0.77027327
0.02216351 0.24151833 -0.23072673 0.0011743777 -0.14681526 0.059873138 0.06230461 -0.13387686
-0.019268218 -0.12611745 -0.49519295 0.27073225 -0.12389546 0.22286034 0.2087145 -0.49718437
0.18636905 0.36991367 -0.1251831 0.39094892 -0.54317266 0.48965108 -0.4269653 -0.13535953
-0.060322605 0.3108181 0.18379314 0.17241709 -1.0402309 0.40624928 -0.7654621 0.29558685
0.027748195 -0.37329668 0.29779962 0.25264275 -0.3410703 0.03219932 -0.088820554 0.28370214
0.26439723 -0.094441324 -0.41264227 -0.23798949 0.0846988 0.093517914 0.6054737 -0.6032851
-0.841374 -0.004618393 -0.11838843 -0.36890036 0.27458307 -0.2918499 0.12657657 0.44134492
0.21271753 0.25646722 0.5614734 0.5395018 -0.048868623 -0.4468264 0.28255618 0.13933939
00000000: 2e22 9b3d 6b47 a3bd 750d 58bf 4836 9bbe
00000010: aed8 8e3e 5fcc c4be 8055 263e 80ec 083e
00000020: aabb 273f 3af9 1abf 8459 7d3e c0e3 93be
00000030: 29f7 ffbc a433 b7be 78c1 8abe d07f 403e
00000040: 6250 1cbc 663b f43d d3ae 9bbe 50c0 b93f
00000050: 738c b93b 21af 2e3f 03ea 6bbf c2ac 4bbe
00000060: 352f 273d 346a 123f 5453 b43e 7001 3b3f
00000070: c537 a23e 0483 b9be 0344 d3be 574b 8fbe
00000080: 273e 39be 0fee 303e fc68 76bd 53e1 b2be
00000090: d702 183f 33c8 f3bd 3600 633e e0d4 84bd
000000a0: 57da 06bf 1f44 bc3d 5696 6cbd 1564 963e
000000b0: f1e5 6cbe ec3f 8f3d 015d 063f ff46 8cbe
000000c0: 0eb4 6a3f 576c 2b3e 7940 693e b4fb f93d
000000d0: 4293 fd3e ee5f 113f 25d1 b3be 1efd dc3e
000000e0: 6baa ea3d f64f 9e3e 56c2 15bf e1e2 d93e
000000f0: 5073 323e d41a 393e af37 c43d 9554 e6bc
00000100: de94 82be 1598 83be 2840 c1be 2ba3 e53e
00000110: 6130 343e 730c bbbe ae94 9c3e 2303 fa3c
00000120: a8c9 d03e 0614 0bbf 38a6 a33e 4ff7 8f3d
00000130: 2935 08be 1eb5 04bf 0b95 f7be 3706 023f
00000140: 5ea1 2f3e 2a1e 193e 93ab fdbe e8fe a23e
00000150: 210c 82bd 5e68 363e 7b4f bebc ba63 a13d
00000160: 5e6c a13b d54e d03e c9f9 1ebf 28f1 123e
00000170: 7b5b d3bd 784c 793e 943d e5bb bb38 4dbe
00000180: 9deb 753c bc51 adbe 08cb aabd 36c5 45be
00000190: f176 f63e 2c20 113e 2fa6 ce3e af05 fd3e
000001a0: ec6f 0d3e 247e e43d 3852 023e af78 92bd
000001b0: 724e a93d c4eb 953d feb4 043f f7d9 943e
000001c0: e72d 0bbd c1ea 983d b20d 32bf f463 c4ba
000001d0: 5678 2d3f 0da9 dabd 92a1 1c3e 56ea c03b
000001e0: 1979 7b3e dfba a73e 1319 be3e 171e b13e
000001f0: 7207 8f3d 8d97 c63d 1e8d 14be dcbd 0bbd
00000200: 8363 2b3e f182 7e3f a639 973e 27c1 2b3e
00000210: 027d cd3d 9fa8 83bd c1fc 3cbb c773 16bf
00000220: 6799 47bf 3446 ea3e d2ed cb3e 5eeb 773e
00000230: 6d94 98bb 12c2 3e3e 48ff 2e3e 8e8f 65bf
00000240: 0a9f a53e 8e39 b1be 21a1 0f3d d2bf 08be
00000250: 81f6 983c 4212 88be 29d3 813c 59f7 ec3d
00000260: 128f bbbd c84b 6a3e 7597 a9be c471 41be
00000270: 04d3 cdbe 2625 04bf b729 903e 3a54 393e
00000280: b0f7 b73d 43d8 2f3f e2e3 37bd 2447 653d
00000290: ac6d 00bf f5b9 ec3d 900e 6bbf 26ca 093d
000002a0: b638 423c 4f73 483d 71db 4bbd 1993 5b3e
000002b0: 41e5 453e 8605 413e 4773 47be b94e 84bc
000002c0: 29f2 f6be 7692 a5be 18aa 26bf 31cc 173f
000002d0: 6b5b 0f3e 15ed 6d3e 7544 803e 2910 89bf
000002e0: 0735 58be e1c2 81be 4a3e 5d3e 3aee 663e
000002f0: 5640 28bd 9a2c 5b3d 5fd3 c53d a130 45bf
00000300: 4090 b53c 9550 773e a143 6cbe 94ed 993a
00000310: bd56 16be 893d 753d 1e33 7f3d 0417 09be
00000320: 62d8 9dbc ef24 01be ee89 fdbe 6b9d 8a3e
00000330: e7bc fdbd 8035 643e 41b9 553e f38e febe
00000340: 87d7 3e3e 5365 bd3e 0030 00be 752a c83e
00000350: 5d0d 0bbf 8cb3 fa3e 329b dabe b09b 0abe
00000360: d614 77bd 8d23 9f3e 4534 3c3e 1b8e 303e
00000370: 4926 85bf e8ff cf3e 53f5 43bf 2957 973e
00000380: 2f50 e33c be20 bfbe 3179 983e 645a 813e
00000390: c4a0 aebe 6fe3 033d 8de7 b5bd 6841 913e
000003a0: 135f 873e 746a c1bd d945 d3be 84b3 73be
000003b0: 9176 ad3d 5286 bf3d 5300 1b3f e470 1abf
000003c0: 4964 57bf e355 97bb a275 f2bd 82e0 bcbe
000003d0: 2796 8c3e 5a6d 95be 4a9d 013e f6f7 e13e
000003e0: a0d2 593e ac4f 833e b9bc 0f3f ca1c 0a3f
000003f0: 772a 48bd 6ec6 e4be 34ab 903e fcae 0e3e

lstm.weight_hh_l1 f4 [256, 64]
0.16248347 -0.27553445 0.20690809 -0.65173763 0.19526827 -0.016953118 0.25073522 0.22448799
-0.021644846 -0.5338372 -0.14031495 0.25098556 0.19804676 0.11127554 0.03959341 0.26232648
-0.51180184 0.12817416 0.21664238 -0.0035281614 0.29951623 0.38378096 0.08160281 0.1685268
0.5388034 -0.22724098 0.4099516 -0.05256653 -0.20886242 -0.13646449 -0.8058479 0.41203547
0.39321005 0.45769763 -0.026031325 0.42351198 0.43668556 0.065815516 0.1239271 0.32546324
0.09915288 0.5206906 0.11625127 0.33159378 0.2782347 0.25442165 -0.16060711 0.10484813
-0.031696036 0.38209647 -0.08438367 0.32512233 -0.017941704 -0.30120096 -0.017263927 -0.33451822
-0.24498121 -0.44901672 0.20420612 0.15665592 -0.020872341 0.0620538 -0.3019601 -0.075381055
0.21711037 0.04029333 0.05344822 0.12496966 0.11268257 0.1672711 0.095112845 -0.15463391
0.005780843 0.1804968 -0.12969539 -0.023676177 0.2088952 0.1271362 -0.049357448 0.07189731
0.083483405 0.16971195 -0.063338794 -0.06929958 -0.49684498 0.05960312 0.08951917 0.058383696
0.3820013 0.07643833 -0.056759812 0.20327109 0.0039705825 -0.14147982 -0.0006175767 -0.03384578
-0.042775884 0.26574567 -0.046639428 0.14264339 0.1419118 0.19989477 -0.22931737 -0.1872645
0.11484495 0.17515051 0.11010516 -0.084637806 -0.23065963 0.03330998 -0.20736794 -0.017885983
0.05379992 0.13596864 -0.013822224 0.21040687 -0.025168208 -0.060439624 0.0047177263 0.06557222
-0.050663445 0.28099558 0.037820935 0.007061865 -0.14925036 0.13275449 0.26858 -0.20173284
0.17955083 -0.17472306 0.40091977 0.39068758 0.33492944 -0.16032758 0.25532663 -0.0739772
0.24509606 -0.178952 0.4142838 -0.32688382 0.20690608 -0.40378252 -0.301322 0.8505755
0.32101658 -0.5488533 0.19548242 -0.43857324 0.12867813 0.092781276 0.07992106 0.24312018
0.3821179 0.16971448 0.444173 -0.30247408 -0.023132863 0.4006748 -0.3822547 0.008339728
0.17362107 -0.027293481 -0.045665517 -0.38719863 0.13894968 -0.27467638 0.048589442 0.016731037
0.25673667 -0.18917872 -0.14513913 0.069366224 -0.24977039 -0.38084564 -0.09005517 0.34151834
0.09420834 0.2301578 -0.09823324 -0.2683678 0.43576404 0.14825101 -0.19062252 0.1447587
0.00949025 0.50931364 -0.27977145 -0.44719723 0.1916926 0.13700444 0.4409809 0.21382843
-0.27169225 0.051568232 0.32029396 0.23557223 -0.061859414 0.1378401 0.2129178 0.017267833
-0.15410651 -0.04826871 -0.06471583 0.007330935 -0.036407888 -0.06895693 0.30770224 0.32073435
-0.21647969 0.12988007 0.15869017 -0.055762045 -0.044227835 -0.24083382 0.10947433 0.15758096
0.2289064 0.13239823 0.28619274 0.25839496 -0.28238344 -0.16558456 0.14482476 -0.46576902
-0.048972514 0.046929818 -0.15756978 -0.10199884 0.034458824 0.06967395 0.2936388 -0.29514217
0.0048971004 -0.049362537 0.07044842 -0.17539299 0.31118375 0.22700995 0.24486169 0.033332333
0.048993003 0.2812052 0.19592732 0.118523136 -0.10940384 0.005099526 0.056555137 0.038848788
-0.24673733 0.08326755 0.16188265 0.051026702 -0.028428467 -0.037754778 0.3781798 -0.18941194
00000000: 1162 263e da12 8dbe b7df 533e 47d8 26bf
00000010: 68f4 473e 44e1 8abc 5e60 803e 2ee0 653e
00000020: 8850 b1bc 8ea9 08bf b9ae 0fbe 2e81 803e
00000030: c5cc 4a3e 6ee4 e33d b32c 223d a84f 863e
00000040: 7205 03bf 1640 033e 80d7 5d3e ba38 67bb
00000050: 315a 993e f07e c43e 601f a73d 4a92 2c3e
00000060: 05ef 093f dcb1 68be 2de5 d13e 0050 57bd
00000070: 08e0 55be 59bd 0bbe 0c4c 4ebf 50f6 d23e
00000080: d452 c93e 5857 ea3e a53f d5bc 90d6 d83e
00000090: 4095 df3e 49ca 863d 7ecd fd3d 1ea3 a63e
000000a0: aa10 cb3d fb4b 053f 2515 ee3d a9c6 a93e
000000b0: c774 8e3e 8e43 823e 3176 24be 9eba d63d
000000c0: b4d3 01bd 26a2 c33e 58d1 acbd 6f76 a63e
000000d0: 7bfa 92bc 0337 9abe 146d 8dbc f945 abbe
000000e0: 5bdc 7abe 85e5 e5be 691b 513e 696a 203e
000000f0: 79fc aabc 202c 7e3d 849a 9abe 6261 9abd
00000100: 2e52 5e3e 9e0a 253d 85ec 5a3d 18f0 ff3d
00000110: 1fc6 e63d 1e49 2b3e 86ca c23d 5a58 1ebe
00000120: 3a6d bd3b 27d4 383e dece 04be 8bf4 c1bc
00000130: a0e8 553e fe2f 023e 092b 4abd e63e 933d
00000140: 59f9 aa3d f8c8 2d3e c5b7 81bd f0ec 8dbd
00000150: 7762 febe 6722 743d d455 b73d be23 6f3d
00000160: ad95 c33e b38b 9c3d fa7c 68bd 4c26 503e
00000170: a91b 823b 16e0 10be dfe4 21ba dfa1 0abd
00000180: c435 2fbd d10f 883e fc08 3fbd 1c11 123e
00000190: 5451 113e 37b1 4c3e 2cd2 6abe 44c2 3fbe
000001a0: d433 eb3d a85a 333e d07e e13d 9656 adbd
000001b0: 0a32 6cbe 0c70 083d 4358 54be a085 92bc
000001c0: 4e5d 5c3d 5d3b 0b3e 9c76 62bc e674 573e
000001d0: 8f2d cebc 8a8f 77bd 2897 9a3b ba4a 863d
000001e0: 7984 4fbd a7de 8f3e 20ea 1a3d 3867 e73b
000001f0: 16d5 18be cbf0 073e 5183 893e 0e93 4ebe
00000200: 2cdc 373e 9aea 32be 5b45 cd3e 3408 c83e
00000210: df7b ab3e ea2c 24be 2cba 823e 5c81 97bd
00000220: 76fa 7a3e 313f 37be 021d d43e 515d a7be
00000230: 30df 533e 95bc cebe e146 9abe 51bf 593f
00000240: 495c a43e a681 0cbf 8b2c 483e ac8c e0be
00000250: 33c4 033e 1c04 be3d a7ad a33d 7ff4 783e
00000260: f5a4 c33e a2c9 2d3e a56a e33e e2dd 9abe
00000270: 2181 bdbc 3f25 cd3e e3b6 c3be 5ba3 083c
00000280: b9c9 313e 9496 dfbc c40b 3bbd e63e c6be
00000290: d348 0e3e 62a2 8cbe b905 473d 870f 893c
000002a0: fd72 833e 11b8 41be 5a9f 14be e10f 8e3d
000002b0: cfc3 7fbe 33fe c2be d86e b8bd 7edb ae3e
000002c0: 4df0 c03d 7cae 6b3e 822e c9bd 8167 89be
000002d0: 771c df3e 1dcf 173e 8d32 43be a03b 143e
000002e0: fe7c 1b3c 6162 023f 343e 8fbe 09f7 e4be
000002f0: 114b 443e e44a 0c3e 40c8 e13e d7f5 5a3e
00000300: 3f1b 8bbe 3639 533d 92fd a33e d939 713e
00000310: 4c60 7dbd f525 0d3e 2007 5a3e 4575 8d3c
00000320: 19ce 1dbe 69b5 45bd bc89 84bd 5738 f03b
00000330: 7020 15bd 4a39 8dbd 268b 9d3e 4b37 a43e
00000340: daac 5dbe 48ff 043e ad7f 223e be66 64bd
00000350: 3f28 35bd 249d 76be 1434 e03d e75c 213e
00000360: 7066 6a3e 6793 073e db87 923e 584c 843e
00000370: 9094 90be 008f 29be f14c 143e 4779 eebe
00000380: 6797 48bd 7b39 403d f959 21be c5e4 d0bd
00000390: b224 0d3d 37b1 8e3d d357 963e e01c 97be
000003a0: db77 a03b 5f30 4abd 4347 903d 389a 33be
000003b0: 7a53 9f3e 4c75 683e 06bd 7a3e 7c87 083d
000003c0: e3ac 483d 21fa 8f3e 2ca1 483e 42bc f23d
000003d0: 1f0f e0bd ed19 a73b 5ca6 673d e81f 1f3d
000003e0: b6a8 7cbe 2d88 aa3d 91c4 253e 6001 513d
000003f0: d1e2 e8bc c1a4 1abd c8a0 c13e 34f5 41be

lstm.bias_ih_l1 f4 [256]
-0.5704459 -0.46701732 -0.5642267 -0.25760704 -1.4722636 -1.0172579 -0.0070917807 -1.865988
-1.3621581 -1.2238576 0.045610145 -0.2705154 -1.2408719 -0.15515968 -0.052659407 -0.83943015
-0.4170579 -0.22716391 -1.0686487 -0.45541915 -1.1475074 -0.93192893 -1.8733299 -0.44557405
-0.8608463 -0.36011153 -0.82812 -1.2690067 -0.6484928 -1.5286793 -0.7539772 -1.1338927
-1.3277078 -0.27302006 -0.77723795 -0.39235413 -1.3790207 -1.0507749 -0.93207586 -0.3223643
-0.61764735 -0.13562755 -0.14947334 -0.9668926 -0.9359688 -0.5979455 -1.0074754 -0.8999731
-1.2135687 -0.8901563 -1.0104799 -1.1004429 -1.1354396 -0.06402643 -0.8107769 -0.45745486
-0.7560499 -1.1368002 -0.1866995 0.051751126 -1.9121149 -0.70729077 -0.34444034 -0.41287804
-0.12822369 -0.020107303 -0.67065656 -0.20219667 -1.0094926 -0.44445613 -0.07112392 -0.9677905
-0.9936393 -0.73573685 0.14051054 -0.058783785 -0.919547 0.043005344 -0.14817886 -0.54472995
-0.5247669 0.24244282 -0.6011985 -0.05119667 -0.87167835 -0.5286458 -0.9370964 -0.3811934
-0.5009119 0.056170754 -0.098189585 -0.92858034 0.036601886 -1.1228892 0.5753749 -0.63291353
-0.5948798 0.094890684 -0.56117016 0.0005038167 -0.5488803 -0.3164449 -0.71057934 0.46758303
-0.04402107 0.049789697 0.29942185 -0.58695745 -0.60712236 -0.26204595 -0.9462924 -0.3292899
-0.6699724 -0.54592454 -0.49054447 -0.5456718 -0.79816955 -0.08899116 -0.1613278 0.116316184
-0.3602099 -0.86423236 -0.0725905 0.06198609 -1.0114981 -0.2929592 -0.42246935 0.06570552
-0.12292746 -0.08492504 0.0861729 0.00953996 0.107251875 0.055443134 -0.070513904 -0.05962768
-0.005637708 0.009043391 -0.012392383 0.041268516 -0.0038759646 -0.00727859 -0.14657189 -0.03892802
-0.07639212 0.014672949 0.049997512 -0.027930792 -0.009304685 0.019650944 -0.053637605 -0.07474128
-0.018239968 -0.024923936 0.046712857 0.0023759452 0.040699672 -0.06480764 0.016011827 0.089456
0.0024536236 -0.028490148 0.041836176 0.014222531 0.072237015 0.03027112 -0.028115138 -0.000493463
0.024589404 0.045631338 -0.12027174 0.21450964 -0.06252607 -0.04605432 0.007448944 0.116562836
-0.03291326 0.043423854 0.038251314 0.0542605 -0.06727988 0.035624065 -0.088060975 -0.04741082
-0.0252306 -0.06224845 0.0014246812 -0.039554894 0.035049543 0.10964491 -0.06641053 -0.065847054
-0.5058441 -0.27256423 -0.68792415 -0.3907412 -1.4382918 -1.0898885 0.03804729 -1.7773671
-1.3413718 -1.2710614 0.084045954 -0.27685928 -1.243769 -0.12569413 0.2575541 -0.7302884
-0.25281313 0.123848364 -0.9700072 -0.531908 -1.0740107 -1.027779 -1.7984912 -0.4925331
-0.71458656 -0.36218855 -0.6750662 -1.4609883 -0.35830888 -1.5379436 -0.4095105 -1.1514671
-1.1401752 -0.03368978 -0.719465 -0.22349183 -1.2255206 -1.0288415 -1.0557356 -0.011869241
-0.6350242 0.18167327 -0.0012401275 -1.1064014 -0.8530812 -0.45640445 -1.1644971 -0.73134005
-1.3033834 -0.826193 -0.95464087 -0.9496463 -1.1024083 0.18068744 -0.6266413 -0.28607818
-0.94963366 -0.9982409 -0.18001653 -0.1168248 -1.9961082 -0.3602777 -0.5817574 -0.5053999
00000000: be08 12bf e51c efbe 2971 10bf 12e5 83be
00000010: 2273 bcbf 8235 82bf 2b62 e8bb b2d8 eebf
00000020: 325b aebf 5ea7 9cbf b4d1 3a3d ff80 8abe
00000030: e4d4 9ebf 2ee2 1ebe 64b1 57bd e5e4 56bf
00000040: 9d88 d5be a89d 68be 7bc9 88bf b32c e9be
00000050: 86e1 92bf e592 6ebf 46c9 efbf 4822 e4be
00000060: 6c60 5cbf 8a60 b8be acff 53bf d06e a2bf
00000070: a003 26bf c3ab c3bf a604 41bf 6523 91bf
00000080: 54f2 a9bf 49c9 8bbe 11f9 46bf a4e2 c8be
00000090: c083 b0bf cb7f 86bf 869c 6ebf ef0c a5be
000000a0: 231e 1ebf f3e1 0abe 8a0f 19be 4686 77bf
000000b0: a79b 6fbf f512 19bf f4f4 80bf a364 66bf
000000c0: 3856 9bbf 49e1 63bf 6857 81bf 50db 8cbf
000000d0: 1656 91bf 4a20 83bd 138f 4fbf 8637 eabe
000000e0: 7c8c 41bf ab82 91bf 272e 3fbe fdf8 533d
000000f0: 2ec0 f4bf 0211 35bf 7c5a b0be c064 d3be
00000100: 124d 03be 12b8 a4bc 26b0 2bbf a50c 4fbe
00000110: 0e37 81bf c18f e3be 6ba9 91bd 1ec1 77bf
00000120: 255f 7ebf 4059 3cbf ffe1 0f3e 44c7 70bd
00000130: 6f67 6bbf 5f26 303d 33bc 17be 6c73 0bbf
00000140: 2057 06bf ee42 783e 25e8 19bf 99b3 51bd
00000150: 5026 5fbf 5555 07bf 8de5 6fbf c82b c3be
00000160: c33b 00bf 4e13 663d 9f17 c9bd 71b7 6dbf
00000170: dceb 153d d5ba 8fbf c54b 133f 9f06 22bf
00000180: 0b4a 18bf 0c56 c23d d9a8 0fbf 9112 043a
00000190: 6b83 0cbf 1105 a2be 87e8 35bf 0b67 ef3e
000001a0: 704f 34bd 48f0 4b3d d24d 993e d842 16bf
000001b0: 5f6c 1bbf e32a 86be 3840 72bf b098 a8be
000001c0: 5083 2bbf b6c1 0bbf a528 fbbe 26b1 0bbf
000001d0: d754 4cbf ff40 b6bd 1d33 25be 2e37 ee3d
000001e0: 6f6d b8be 553e 5dbf 54aa 94bd 20e5 7d3d
000001f0: c578 81bf c0fe 95be e74d d8be 9e90 863d
00000200: 64c1 fbbd 2eed adbd 6b7b b03d 7e4d 1c3c
00000210: dfa6 db3d 5718 633d 9869 90bd 273c 74bd
00000220: 86bc b8bb bb2a 143c 6c09 4bbc 2d09 293d
00000230: e503 7ebb 3d81 eebb f116 16be fd72 1fbd
00000240: 7973 9cbd cf66 703c 31ca 4c3d 1ecf e4bc
00000250: ad72 18bc 04fb a03c 1bb3 5bbd f511 99bd
00000260: fc6b 95bc 482d ccbc fb55 3f3d bfb5 1b3b
00000270: b3b4 263d deb9 84bd 3c2b 833c b534 b73d
00000280: f9cc 203b 2c64 e9bc 695c 2b3d 9e05 693c
00000290: 00f1 933d 24fb f73c b851 e6bc be5b 01ba
000002a0: b86f c93c ede7 3a3d 0851 f6bd 6aa8 5b3e
000002b0: ab0d 80bd 74a3 3cbd 4516 f43b 7fb8 ee3d
000002c0: 0ed0 06bd 36dd 313d 69ad 1c3d 4240 5e3d
000002d0: 09ca 89bd 8aea 113d 5059 b4bd d931 42bd
000002e0: 67b0 cebc 3bf8 7ebd 5ebc ba3a 5004 22bd
000002f0: 1c90 0f3d 838d e03d 3e02 88bd d2da 86bd
00000300: 007f 01bf 8a8d 8bbe cc1b 30bf 3b0f c8be
00000310: f219 b8bf 7781 8bbf 7ad7 1b3d c480 e3bf
00000320: 12b2 abbf 24b2 a2bf 4920 ac3d 80c0 8dbe
00000330: d333 9fbf f6b5 00be 22de 833e 2ef4 3abf
00000340: b970 81be 36a4 fd3d 6452 78bf 1f2b 08bf
00000350: 2f79 89bf 438e 83bf f634 e6bf 4c2d fcbe
00000360: 25ef 36bf c770 b9be 23d1 2cbf aa01 bbbf
00000370: 4374 b7be 56db c4bf 5cab d1be 4663 93bf
00000380: 43f1 91bf 4bfe 09bd dc2e 38bf 0bdb 64be
00000390: dcdd 9cbf 14b1 83bf 5822 87bf 3477 42bc
000003a0: f290 22bf 8f08 3a3e c68b a2ba 909e 8dbf
000003b0: 8863 5abf d8ad e9be 3e0e 95bf 1a39 3bbf
000003c0: 44d5 a6bf 6281 53bf 5863 74bf 051c 73bf
000003d0: b71b 8dbf 2106 393e 906b 20bf d778 92be
000003e0: 311b 73bf b78c 7fbf 4156 38be d741 efbd
000003f0: 7980 ffbf 5276 b8be 0eee 14bf e361 01bf

lstm.bias_hh_l1 f4 [256]
-0.47599316 -0.4776844 -0.69324905 -0.30420405 -1.498572 -0.9402803 -0.09114764 -1.6571918
-1.3068752 -1.2950864 0.05322729 -0.19288957 -1.2673428 -0.19625637 0.07906655 -0.64630955
-0.32536855 -0.08743374 -1.0780371 -0.54855245 -1.0178553 -0.944419 -1.8234632 -0.36211324
-0.8988648 -0.43413052 -0.706783 -1.3139639 -0.43722394 -1.4807733 -0.72207737 -0.9908371
-1.3154432 -0.22444497 -0.8933637 -0.22043777 -1.2978646 -1.1183599 -0.7938397 -0.23028617
-0.42008337 -0.16177598 -0.09116415 -0.88578016 -0.88902646 -0.4637024 -1.102093 -0.89275587
-1.0693501 -0.75033766 -0.94655025 -1.0246134 -1.1476043 -0.112795256 -0.76308113 -0.36127415
-0.8673993 -1.0591012 -0.2586806 0.0018144627 -1.9035416 -0.49739096 -0.3688498 -0.4113009
-0.26761338 -0.193795 -0.47785193 -0.16919339 -1.0495771 -0.5248122 0.12205615 -1.0195506
-1.0615159 -0.89825857 0.14263733 -0.056957573 -0.71235317 0.04408848 -0.14013231 -0.5549066
-0.57152873 0.19176914 -0.5373524 0.02077225 -1.0141114 -0.7229093 -1.0541549 -0.59451663
-0.49423465 0.09232755 -0.04805407 -1.0771292 -0.0037516688 -1.0995857 0.44909093 -0.6117269
-0.6416376 0.1386688 -0.48798957 -0.02526503 -0.57661766 -0.34321102 -0.7179297 0.55198616
0.03610565 0.11790607 0.31526986 -0.63091165 -0.5119249 -0.14921397 -0.8662513 -0.13136543
-0.643486 -0.39888412 -0.44538763 -0.47033024 -0.6239252 0.08421048 -0.23185746 0.08412506
-0.35923216 -0.7683677 -0.11545418 -0.046131525 -0.84637177 -0.17368703 -0.45501998 -0.11157306
-0.021321319 0.01240678 0.0034215979 -0.034166522 -0.13356479 -0.030745689 0.019479858 0.04543028
-0.022409486 -0.0025484338 0.021430276 0.00813853 -0.014228915 0.022636632 0.055490695 -0.08815804
0.032442067 0.10404963 0.039109148 0.0883194 -0.0012875389 -0.024277717 0.028064718 0.07958321
0.053733647 -0.02447607 -0.040031675 -0.051156104 0.05064462 0.04602949 -0.1314541 0.0007003222
0.017236682 -0.061348304 -0.037863534 0.0034799099 0.059467576 -0.056269698 0.06889937 -0.12053663
0.08228843 -0.06254723 0.047217295 0.08803249 0.024126215 0.011976843 -0.0049274852 -0.11508253
0.023918752 -0.06318496 -0.065640695 -0.07255829 0.030961813 -0.09277892 0.088829726 -0.087754264
0.047449768 0.032181483 0.060416583 0.07114335 -0.037893444 -0.017054478 -0.03103002 0.034729622
-0.44780377 -0.23229873 -0.73502505 -0.37447387 -1.4198292 -0.9814509 0.018450463 -1.7007811
-1.2332231 -1.1709591 -0.038302314 -0.26094723 -1.1823615 -0.15597124 0.17396112 -0.83440286
-0.33946648 0.1677778 -0.97035253 -0.60482264 -0.98857135 -0.9544842 -1.7518936 -0.49371824
-0.9192046 -0.3516446 -0.69581133 -1.3801078 -0.36067012 -1.3717369 -0.42804313 -1.1020057
-1.2827245 -0.091345176 -0.7795146 -0.4446814 -1.3843919 -0.99543023 -1.0145214 -0.035394993
-0.5179657 0.16738263 0.00026279615 -1.0436754 -0.7742774 -0.47207743 -1.0578163 -0.7360358
-1.2186371 -0.7504048 -1.0271263 -1.1484016 -1.0694721 0.10709909 -0.79517466 -0.32866377
-0.8540003 -1.1321002 -0.2188752 0.023238169 -1.94269 -0.47142726 -0.5809724 -0.5023385
00000000: 60b5 f3be 0d93 f4be c578 31bf a2c0 9bbe
00000010: 35d1 bfbf 36b6 70bf 9dab babd dc1e d4bf
00000020: b047 a7bf 64c5 a5bf dc04 5a3d d884 45be
00000030: 4a38 a2bf 6ef7 48be a5ed a13d 8b74 25bf
00000040: b596 a6be 7610 b3bd 1ffd 89bf ef6d 0cbf
00000050: 1549 82bf 72c5 71bf 3e67 e9bf e866 b9be
00000060: 011c 66bf 5b46 debe bbef 34bf f82f a8bf
00000070: d1db dfbe fb89 bdbf 10da 38bf 80a7 7dbf
00000080: 7160 a8bf e7d4 65be 7cb3 64bf 70ba 61be
00000090: 6d20 a6bf 6b26 8fbf 1439 4bbf 23d0 6bbe
000000a0: 2b15 d7be 9aa8 25be 45b4 babd 7dc2 62bf
000000b0: 3d97 63bf 676a edbe 6211 8dbf a68b 64bf
000000c0: 77e0 88bf 2116 40bf 1e51 72bf 8826 83bf
000000d0: b3e4 92bf 3301 e7bd 4959 43bf edf8 b8be
000000e0: e10d 5ebf a190 87bf c971 84be 44d3 ed3a
000000f0: 40a7 f3bf 07aa febe e2d9 bcbe 0896 d2be
00000100: 9f04 89be 3272 46be 02a9 f4be 0841 2dbe
00000110: 8b58 86bf 185a 06bf 93f8 f93d a280 82bf
00000120: c1df 87bf 46f4 65bf 850f 123e 584c 69bd
00000130: c75c 36bf 1f96 343d d87e 0fbe 5c0e 0ebf
00000140: b54f 12bf 215f 443e ed8f 09bf 912a aa3c
00000150: 67ce 81bf 9510 39bf 8cee 86bf 3e32 18bf
00000160: 530c fdbe 3a16 bd3d 58d4 44bd 5fdf 89bf
00000170: 8fde 75bb 39bf 8cbf 3fef e53e 229a 1cbf
00000180: 5d42 24bf 32ff 0d3e c5d9 f9be 9cf8 cebc
00000190: 379d 13bf 5bb9 afbe 3eca 37bf f74e 0d3f
000001a0: 85e3 133d bd78 f13d 0d6b a13e 6d83 21bf
000001b0: 830d 03bf 8ccb 18be a5c2 5dbf a984 06be
000001c0: 80bb 24bf 8a3a ccbe d909 e4be 20cf f0be
000001d0: 90b9 1fbf 8b76 ac3d 0b6c 6dbe c249 ac3d
000001e0: 47ed b7be bfb3 44bf 3e73 ecbd 69f4 3cbd
000001f0: d2ab 58bf 03db 31be 61f8 e8be 6b80 e4bd
00000200: 0caa aebc cf45 4b3c e33c 603b 32f2 0bbd
00000210: 35c5 08be 62de fbbc 3994 9f3c 1a15 3a3d
00000220: 1994 b7bc a003 27bb 8c8e af3c 7857 053c
00000230: 6520 69bc 7570 b93c 364a 633d 348c b4bd
00000240: f9e1 043d f917 d53d ea30 203d cde0 b43d
00000250: a3c2 a8ba 10e2 c6bc fbe7 e53c 86fc a23d
00000260: d017 5c3d 0a82 c8bc 41f8 23bd 1089 51bd
00000270: bc70 4f3d 6b89 3c3d e79b 06be d495 373a
00000280: f133 8d3c 5c48 7bbd cb16 1bbd 330f 643b
00000290: 4694 733d 0e7b 66bd 1d1b 8d3d e9db f6bd
000002a0: d686 a83d c318 80bd ec66 413d 614a b43d
000002b0: 57a4 c53c 853a 443c be76 a1bb 64b0 ebbd
000002c0: 42f1 c33c 1e67 81bd a16e 86bd 7199 94bd
000002d0: a1a3 fd3c e002 bebd 5cec b53d 82b8 b3bd
000002e0: b05a 423d bbd0 033d 6177 773d 9bb3 913d
000002f0: 2836 1bbd d5b5 8bbc ab32 febc a640 0e3d
00000300: 8946 e5be b8df 6dbe 9a2a 3cbf 0abb bfbe
00000310: f7bc b5bf 5e40 7bbf 6d25 973c 32b3 d9bf
00000320: 41da 9dbf fde1 95bf e3e2 1cbd e09a 85be
00000330: 9f57 97bf edb6 1fbe dd22 323e 6d9b 55bf
00000340: 8dce adbe f2cd 2b3e 0669 78bf a8d5 1abf
00000350: 0313 7dbf 1459 74bf 0d3e e0bf a3c8 fcbe
00000360: fe50 6bbf c30a b4be b120 32bf 5fa7 b0bf
00000370: c1a9 b8be 1395 afbf 7828 dbbe 860e 8dbf
00000380: 5130 a4bf 2e13 bbbd 458e 47bf 48ad e3be
00000390: c133 b1bf 84d4 7ebf d6db 81bf 57fa 10bd
000003a0: 6699 04bf 5a66 2b3e e7c7 8939 2897 85bf
000003b0: 0b37 46bf 22b4 f1be 8666 87bf d86c 3cbf
000003c0: 4dfc 9bbf 871a 40bf e078 83bf d3fe 92bf
000003d0: 76e4 88bf c556 db3d 9190 4bbf 9e46 a8be
000003e0: c39f 5abf a9e8 90bf d220 60be f95d be3c
000003f0: 11aa f8bf ea5e f1be 9bba 14bf 4299 00bf
