backend/Model_Pytorch/RNN_Model_our_data/output/checkpoints/best_checkpoint.pth (torch, 677915 bytes, 30 tensors)

lstm.weight_ih_l0 f4 [256, 15]
-0.03335337 0.03030464 0.21962672 0.3876189 -0.27548075 0.007837833 0.03504428 -0.012217928
-0.022587685 -9.435939e-05 -0.012991683 -0.024075273 0.035824306 -0.032085028 -0.034126073 -0.031548996
-0.055630803 -0.0024209307 -0.09237767 0.028528478 0.014892593 -0.01018677 -0.17925484 0.06408445
-0.06907054 0.05553434 -0.0086524775 0.019234508 0.047482263 -0.07870281 -0.117760085 0.040097144
-0.05386243 -0.19634439 -0.22772762 0.01725076 0.019007891 -0.3146046 -0.005232932 0.10605524
0.12685615 -0.028822646 -0.023679765 -0.004160679 -0.009164752 -0.23814858 -0.003381257 0.010199775
0.09484283 0.10089283 -0.10934199 0.100229606 0.1328666 0.15314439 0.08026594 -0.0020218983
-0.057533 -0.15827791 -0.0638841 -0.13803363 -0.12675276 0.017243307 0.0280794 -0.06152386
-0.050659284 -0.006674844 0.03268184 0.044234365 0.12996247 -0.07027191 -0.009246082 0.066561334
0.042288065 -0.074273124 -0.03690437 -0.041060895 -0.030278116 -0.009649699 0.08196274 0.093552485
0.00393867 0.017381778 -0.1990243 -0.14754438 0.0031315456 -0.19942908 0.12314927 0.024339013
0.011352727 -0.10434388 -0.09919265 0.03962627 -0.118982285 0.074500486 0.012818506 -0.034774117
0.0028556683 -0.06134427 0.13493724 -0.15691045 -0.32756075 -0.05438402 -0.036874954 0.033082657
-0.04333039 -0.1687581 0.32245514 0.21961392 0.4554935 0.015101652 -0.45662907 0.049135562
0.05530863 -0.3102455 0.124540135 0.5690719 0.14135917 -0.1961648 0.11274234 -0.23254438
-0.034035522 -0.031290688 0.19215024 0.09516136 0.0652651 -0.0034513795 -0.050394055 -0.08830444
-0.08576406 -0.018006865 -0.010126992 0.0365872 -0.053234685 0.0043188552 0.083949514 -0.012938023
0.045861043 0.08651405 -0.084325574 0.092480995 -0.0013766111 0.000644949 0.022777451 -0.1369443
0.10005459 0.05989401 -0.0034034513 0.0079554655 0.003692263 -0.015395567 -0.09354293 0.20831642
-0.09508524 0.119319774 -0.19375996 -0.095570914 0.083455764 0.0035242434 0.34725305 0.19590472
-0.18574195 -0.2721838 -0.009257399 -0.29456508 -0.38577545 -0.035180766 0.09575676 0.04299142
-0.20060912 -0.090323865 -0.03328791 0.012199874 -0.17513603 -0.0019296827 0.05932067 -0.08201718
-0.07914269 -0.012561949 0.037169628 -0.002688514 0.17848484 -0.37605262 -0.41183233 -0.4803967
-0.53628814 -0.13447914 -0.046472054 0.22142364 -0.08772991 -0.49140388 -0.5246865 0.24151778
0.31796482 0.4236263 0.3539761 -0.05128086 -0.14738813 0.025088549 -0.055844776 -0.035152268
-0.035474546 -0.010063467 0.15422301 -0.049741566 -0.045128692 0.0111924345 0.008799672 0.05937514
0.032916002 0.060185716 -0.54865414 -0.026032314 -0.21342592 -0.14003955 -0.13109066 -0.097806916
-0.2974825 0.77034146 -0.30051732 -0.27397364 -0.3451513 0.1855791 0.1675251 0.08566987
0.22320402 -0.07496144 0.22711188 0.14328763 0.19895943 -0.0094369445 -0.011771951 -0.2375412
0.15094587 0.09391226 -0.2435702 0.16819991 -0.08824439 -0.0042431946 -0.05438988 0.12952152
-0.12714617 0.016461635 -0.07151291 -0.18811171 -0.06553526 0.0032704994 -0.034776844 0.040417664
-0.016617335 -0.20540607 0.10690103 0.062096104 -0.053372633 -0.09407373 0.10232546 -0.006834919
00000000: 8b9d 08bd 7041 f83c d4e5 603e fc75 c63e
00000010: d00b 8dbe 416a 003c 978a 0f3d b42d 48bc
00000020: cf09 b9bc d0e2 c5b8 11db 54bc 8239 c5bc
00000030: 82bc 123d 976b 03bd c8c7 0bbd 8539 01bd
00000040: 20dd 63bd 7aa8 1ebb 8130 bdbd 8eb4 e93c
00000050: 1000 743c 69e6 26bc 958e 37be b53e 833d
00000060: db74 8dbd fa77 633d 1fc3 0dbc b091 9d3c
00000070: c37c 423d f02e a1bd 332c f1bd e73c 243d
00000080: da9e 5cbd 810e 49be 6e31 69be 7751 8d3c
00000090: 70b6 9b3c db13 a1be 0479 abbb 7d33 d93d
000000a0: 94e6 013e 781d ecbc 11fc c1bc 4e56 88bb
000000b0: c227 16bc 39dd 73be 1498 5dbb f51c 273c
000000c0: f53c c23d e6a0 ce3d b1ee dfbd 2e45 cd3d
000000d0: 2f0e 083e e2d1 1c3e 7862 a43d d381 04bb
000000e0: b9a7 6bbd 9b13 22be abd5 82bd b058 0dbe
000000f0: 7acb 01be d641 8d3c c506 e63c 7100 7cbd
00000100: 1c80 4fbd a6b8 dabb 65dd 053d 182f 353d
00000110: e214 053e b8ea 8fbd e17c 17bc 4f51 883d
00000120: 4036 2d3d 821c 98bd 0929 17bd 782f 28bd
00000130: d009 f8bc c519 1ebc 15dc a73d 7298 bf3d
00000140: f50f 813b 3b64 8e3c 07cd 4bbe e015 17be
00000150: 9e3a 4d3b 2337 4cbe af35 fc3d 9c62 c73c
00000160: ca00 3a3c 3fb2 d5bd 8425 cbbd 284f 223d
00000170: fcac f3bd b693 983d b604 523c 4e6f 0ebd
00000180: 2a26 3b3b 2144 7bbd fd2c 0a3e 22ad 20be
00000190: 0bb6 a7be c7c1 5ebd 310a 17bd ae81 073d
000001a0: 357b 31bd ecce 2cbe d718 a53e 79e2 603e
000001b0: 7236 e93e eb6c 773c 49cb e9be 5f42 493d
000001c0: 4d8b 623d 80d8 9ebe e60e ff3d b2ae 113f
000001d0: 75c0 103e 6ddf 48be 75e5 e63d 1d20 6ebe
000001e0: d568 0bbd aa2a 00bd 08c3 443e f6e3 c23d
000001f0: b5a9 853d 8a30 62bb ff69 4ebd f5d8 b4bd
00000200: 11a5 afbd 2283 93bc afeb 25bc 76dc 153d
00000210: 9d0c 5abd 2f85 8d3b b9ed ab3d 00fa 53bc
00000220: cad8 3b3d 472e b13d e3b2 acbd ad66 bd3d
00000230: 676f b4ba cb11 293a c797 ba3c 203b 0cbe
00000240: 6ce9 cc3d 6c53 753d 700c 5fbb a457 023c
00000250: e5f9 713b b03d 7cbc 7093 bfbd e650 553e
00000260: 0dbc c2bd ed5d f43d 0369 46be afba c3bd
00000270: dbea aa3d fef6 663b 27cb b13e 3f9b 483e
00000280: 2333 3ebe ad5b 8bbe 58ac 17bc 3cd1 96be
00000290: 5c84 c5be b519 10bd 1f1c c43d c517 303d
000002a0: 7a6c 4dbe b8fb b8bd e758 08bd fbe1 473c
000002b0: dc56 33be 68ed fcba 3bfa 723d a0f8 a7bd
000002c0: 9015 a2bd a2d0 4dbc 2e3f 183d c831 30bb
000002d0: bbc4 363e f889 c0be b0db d2be 8ef6 f5be
000002e0: 2e4a 09bf e6b4 09be 7b59 3ebd e1bc 623e
000002f0: bdab b3bd 4a99 fbbe db51 06bf 7050 773e
00000300: 49cc a23e 8ce5 d83e 5b3c b53e e10b 52bd
00000310: eaec 16be 8086 cd3c 7ebd 64bd d3fb 0fbd
00000320: c24d 11bd 3de1 24bc a3ec 1d3e d0bd 4bbd
00000330: ddd8 38bd 7960 373c 802c 103c 5933 733d
00000340: eed2 063d 4c85 763d 9974 0cbf b841 d5bc
00000350: 538c 5abe 8766 0fbe a13c 06be fe4e c8bd
00000360: a04f 98be 1935 453f 68dd 99be 4646 8cbe
00000370: acb7 b0be 7308 3e3e b38b 2b3e af73 af3d
00000380: 988f 643e 6285 99bd 0490 683e feb9 123e
00000390: 05bc 4b3e 6a9d 1abc 24df 40bc 003e 73be
000003a0: 8e91 1a3e 1255 c03d 776a 79be 993c 2c3e
000003b0: 7ab9 b4bd 7f0a 8bbb ecc7 5ebd 4aa1 043e
000003c0: 9b32 02be 8dda 863c 5c75 92bd 5ba0 40be
000003d0: 5a37 86bd e055 563b 2a72 0ebd fe8c 253d
000003e0: 1421 88bc f855 52be edee da3d 7c58 7e3d
000003f0: 439d 5abd baa9 c0bd 0390 d13d 75f7 dfbb

lstm.weight_hh_l0 f4 [256, 64]
0.18580835 -0.25697377 -0.25467888 -0.017177911 0.1608369 0.06376996 -0.053137496 0.018854938
0.121392615 -0.066845894 -0.03136818 -0.075323425 0.18302865 -0.037004314 -0.2615798 -0.17887345
0.24059679 -0.30410528 -0.06807236 -0.10803051 -0.0895035 -0.30086142 0.10970026 0.23464721
-0.14661328 -0.0150014665 -0.08868181 -0.529648 0.09810629 0.06778589 0.07067725 -0.3475217
0.3331978 -0.010779093 0.040207732 -0.082082234 0.08510139 0.22593884 0.019702693 0.20680274
-0.06337514 -0.23348431 0.054229457 -0.0662302 0.09407619 0.12812477 0.14510275 -0.285752
-0.1812327 -0.33652562 0.17840543 0.23969182 0.08371832 0.065370366 -0.10184045 0.6736731
0.62698376 -0.015364844 -0.061171163 0.1113233 -0.23669854 0.14921597 0.07095872 0.060546372
0.2998999 0.06780189 0.1644952 0.03551424 0.1084782 -0.18441577 0.33512244 0.00037980868
0.45417848 -0.120146796 0.143385 0.19603994 -0.09628042 -0.15568806 -0.07069192 -0.38741794
-0.18680744 -0.06265375 -0.5000249 0.16718283 -0.5621464 -0.05035972 -0.07103263 0.01734689
0.094655715 0.11223898 -0.340519 -0.0294262 -0.41157869 0.2534422 -0.23518337 -0.3315585
-0.063019484 -0.22039357 0.2252965 0.16197799 -0.033990737 -0.33144805 0.13642897 -0.0036106769
0.09076912 -0.10131545 0.22258063 0.19964974 0.042839903 0.10209598 0.17638321 0.049853347
0.19805063 -0.12088098 -0.0844322 -0.17325874 -0.5936525 -0.28493908 -0.26626652 0.12375631
-0.2290474 -0.05619664 0.09155519 0.043083824 -0.0046550534 0.10143741 0.13100305 0.056790806
0.14118715 0.34012428 0.4029625 0.18476206 0.04375603 0.0519494 0.51401836 0.2372323
0.6942346 0.25784656 0.13594645 -0.12429249 -0.44197994 0.27380684 -0.20570636 -0.06525117
-0.052619692 -0.5848309 -0.46889716 0.31287828 -0.2440933 0.056090828 0.1751522 0.33453348
0.11473096 0.027279042 -0.5629727 -0.43641686 -0.3019394 -0.02996382 -0.20068783 0.024802431
-0.014518295 -0.35111833 0.16410422 0.22900407 0.38871187 -0.42020988 -0.18299349 0.5769455
0.4268874 0.11030119 -0.14882669 0.1996631 0.4454435 0.29910958 0.55826503 -0.13596252
-0.006641674 -0.09729137 -0.17583887 -0.23743692 -0.3108506 -0.28806838 0.1647768 0.46033823
0.38722706 -0.21286312 0.17981432 -0.18451752 -0.010559092 -0.13877742 0.06326569 0.06319725
0.21340004 0.23313352 0.37062892 -0.031719033 0.23479897 -0.27886972 0.2283854 -0.37853092
-0.06409668 0.012557656 0.035876542 -0.039377365 -0.38153064 -0.09875503 0.37135598 -0.04732311
-0.08499331 0.13789417 -0.5537029 0.32739902 -0.57231253 -0.16278873 0.11763838 0.16613126
0.3397293 0.2786365 -0.018574497 -0.183912 -0.30557436 0.017314214 -0.23917903 0.15394846
0.17399767 -0.6858784 0.37236542 0.34052965 0.10115638 0.017130211 0.19193493 -0.24954386
-0.11721068 0.12514704 -0.056271505 0.28053758 0.14863132 0.50007784 0.5496007 0.04846528
-0.15271576 -0.13057357 -0.29929245 -0.49775863 -0.32949644 -0.19528839 -0.21650462 -0.008069733
-0.14224662 -0.45576394 0.36740953 -0.10412042 0.20999558 -0.053329878 0.5096195 -0.040117804
00000000: 8b44 3e3e 1192 83be 4565 82be b1b8 8cbc
00000010: 6eb2 243e d399 823d b4a6 59bd ac75 9a3c
00000020: b19c f83d 80e6 88bd ec7b 00bd 2b43 9abd
00000030: dd6b 3b3e d691 17bd caed 85be 9a2a 37be
00000040: 015f 763e b0b3 9bbe 8569 8bbd 1a3f ddbd
00000050: 9c4d b7bd 820a 9abe 88aa e03d 5c47 703e
00000060: cb21 16be b6c8 75bc cf9e b5bd 0397 07bf
00000070: f3eb c83d 54d3 8a3d 3cbf 903d 5dee b1be
00000080: e798 aa3e cb9a 30bc ddb0 243d bb1a a8bd
00000090: a349 ae3d 835c 673e 8b67 a13c 19c4 533e
000000a0: d3ca 81bd 8316 6fbe b51f 5e3d b3a3 87bd
000000b0: 04ab c03d 2433 033e d195 143e 164e 92be
000000c0: 1195 39be 164d acbe eaaf 363e c671 753e
000000d0: 8374 ab3d e6e0 853d ba91 d0bd d775 2c3f
000000e0: 0282 203f d4bc 7bbc 9d8e 7abd 78fd e33d
000000f0: 1a61 72be 12cc 183e ce52 913d 79ff 773d
00000100: 7b8c 993e b8db 8a3d 6e71 283e 6177 113d
00000110: d229 de3d 7dd7 3cbe 2b95 ab3e 0f21 c739
00000120: 158a e83e 860f f6bd 84d3 123e b2be 483e
00000130: ab2e c5bd b16c 1fbe edc6 90bd a55b c6be
00000140: 734a 3fbe 9c50 80bd a201 00bf fa31 2b3e
00000150: d4e8 0fbf fe45 4ebd 8e79 91bd 111b 8e3c
00000160: dbda c13d 8ddd e53d 8258 aebe 370f f1bc
00000170: 71ba d2be 2dc3 813e e9d3 70be 09c2 a9be
00000180: 5c10 81bd daae 61be 20b4 663e 8fdd 253e
00000190: df39 0bbd 8fb3 a9be 09b4 0b3e 1ba1 6cbb
000001a0: 29e5 b93d 7a7e cfbd 2dec 633e fb70 4c3e
000001b0: e578 2f3d b217 d13d cd9d 343e 0633 4c3d
000001c0: c9cd 4a3e 7290 f7bd caea acbd bd6a 31be
000001d0: 9cf9 17bf 89e3 91be 1654 88be f373 fd3d
000001e0: 678b 6abe 732e 66bd 4a81 bb3d aa78 303d
000001f0: 6b89 98bb 6bbe cf3d aa25 063e 7a9d 683d
00000200: 5d93 103e c524 ae3e 1a51 ce3e 4432 3d3e
00000210: 8639 333d e5c8 543d b596 033f 06ed 723e
00000220: 5cb9 313f 7704 843e 8c35 0b3e 108d febd
00000230: 324b e2be 6930 8c3e b0a4 52be 68a2 85bd
00000240: bf87 57bd 7ab7 15bf 4a13 f0be 9531 a03e
00000250: 98f3 79be 7fbf 653d 195b 333e f947 ab3e
00000260: 11f8 ea3d 4c78 df3c fb1e 10bf 0872 dfbe
00000270: cd97 9abe af76 f5bc 1c81 4dbe 782e cb3c
00000280: 25de 6dbc c8c5 b3be f00a 283e 0b80 6a3e
00000290: 3e05 c73e c025 d7be a562 3bbe b3b2 133f
000002a0: fc90 da3e 97e5 e13d 0666 18be 7c74 4c3e
000002b0: 2c11 e43e e424 993e 75ea 0e3f c239 0bbe
000002c0: 66a2 d9bb b340 c7bd 1b0f 34be aa22 73be
000002d0: cf27 9fbe b37d 93be 40bb 283e 74b1 eb3e
000002e0: a042 c63e caf8 59be 3f21 383e 29f2 3cbe
000002f0: 0b00 2dbc ab1b 0ebe 7191 813d 8f6d 813d
00000300: 8a85 5a3e 8eba 6e3e 13c3 bd3e d1eb 01bd
00000310: 246f 703e 03c8 8ebe dddd 693e cece c1be
00000320: 1f45 83bd a0be 4d3c 48f3 123d 294a 21bd
00000330: fc57 c3be 1440 cabd 5f22 be3e e1d5 41bd
00000340: f910 aebd 2134 0d3e 79bf 0dbf d8a0 a73e
00000350: 1383 12bf 17b2 26be 64ec f03d 501e 2a3e
00000360: 00f1 ad3e 71a9 8e3e 8b29 98bc 6d53 3cbe
00000370: 3e74 9cbe 8ad6 8d3c 59eb 74be aaa4 1d3e
00000380: 722c 323e ba95 2fbf aea6 be3e e759 ae3e
00000390: 132b cf3d a854 8c3c 978a 443e 6d88 7fbe
000003a0: 270c f0bd 8c26 003e f37c 66bd 9fa2 8f3e
000003b0: cf32 183e 1a05 003f a2b2 0c3f 8883 463d
000003c0: 8561 1cbe 14b5 05be dc3c 99be 38da febe
000003d0: c2b3 a8be aef9 47be 63b3 5dbe ea36 04bc
000003e0: 19a9 11be e459 e9be 1a1d bc3e 163d d5bd
000003f0: 1509 573e 6e70 5abd 6c76 023f 9152 24bd

lstm.bias_ih_l0 f4 [256]
-0.20087928 -0.32684058 -0.45519754 -0.66231215 -0.4490528 -0.6509742 -0.7376643 -0.4808698
-0.39759305 -0.3645337 -0.7119378 -0.26540074 -0.28496635 -0.21899684 -0.3686393 -0.5709316
-0.5946295 -0.6199239 0.02444898 -0.3934277 -0.23752886 -0.7552534 -0.2752912 -0.3922248
-0.47793612 -0.51722044 0.030700961 -0.8002556 -0.3085433 -0.28231594 -0.58853155 -0.78365374
0.5817175 -0.4464045 -0.5451771 -0.59280014 -0.58417195 -0.7700864 -0.45504135 -0.2352318
-0.85073763 -0.34840173 -0.40976068 -0.5000123 -0.49196917 -0.4521017 -0.7704976 -0.80133545
-0.49381137 -0.5163268 -0.32091558 0.15617403 0.060499996 -0.31734058 -0.5984659 -0.34904715
-0.52213514 -0.7444478 -0.23713592 -0.93804216 -1.00788 -0.50769246 -0.65097886 -1.0529641
-0.36424455 0.14710918 0.22517228 0.011820974 -0.29974344 -0.07526092 0.20193109 -0.2329871
-0.5538713 0.24492528 -0.17557503 0.08239827 -0.038352516 -0.750058 -0.29631236 -0.2280294
-0.30043426 -0.11737184 -0.022812402 0.1657678 0.12490853 -0.35666 -0.6352685 -0.50426817
-0.061915405 0.3504868 -0.08729355 -0.19568199 -0.02907121 0.090335935 0.07485758 -0.37986916
-1.040692 -0.5727086 -0.18495628 -0.21811688 -1.0159312 0.06406251 -0.16945074 -0.093539566
-0.3361627 0.06473376 0.19342215 0.18824443 -0.1024668 -0.004525328 -0.1414701 -0.19889507
-0.41206208 -0.4779373 -0.08207768 0.01590441 -0.08814062 0.21721646 0.15418507 -0.14247109
-0.13901289 -0.35871726 0.29107413 -0.05369707 0.03439814 0.16820359 0.12056144 -0.26141122
-0.015949292 -0.022771444 -0.047231305 0.03285048 -0.025741724 -0.051441748 -0.034427367 -0.15516056
0.05231026 0.012690777 0.035032794 0.03348148 0.021654109 -0.11979543 -0.040191706 0.058893126
-0.13598222 -0.07714891 0.3210164 -0.020966256 0.23695578 0.04459424 -0.18417293 -0.2245648
-0.011254252 -0.23952171 0.07915267 0.09305513 0.041844238 -0.12911342 0.0864029 -0.009223513
-0.003651336 0.17572233 -0.15284847 -0.040943228 -0.02504867 -0.0036112664 -0.11788771 0.035011813
-0.045562975 0.051966645 -0.04348252 -0.07369088 0.060833704 -0.16184568 -0.01177021 -0.12696862
-0.041516043 0.17265658 0.019055257 0.18115304 0.24462812 -0.03718963 0.23135038 -0.107497975
0.034087505 0.08026373 -0.19276808 -0.2096032 -0.105875865 0.034124102 0.029931976 -0.105995364
-0.099778585 -0.10809095 -0.1307188 -0.7520779 -0.4436988 -0.5452667 -0.47407034 -0.6649414
-0.35305187 -0.025500786 -0.6553585 -0.25656903 -0.50403666 -0.21069808 -0.6642911 -0.57195866
-0.5856672 -0.71207446 -0.11762276 -0.23857015 -0.11474476 -0.6997508 -0.5252317 -0.4069967
-0.27630466 -0.23966826 0.03510123 -0.8148285 -0.100205675 -0.4446601 -0.43675464 -0.7582317
1.021066 -0.47120735 -0.5739358 -0.5288679 -0.538276 -0.6504261 -0.20540547 -0.24805887
-0.9066456 -0.23036936 -0.17077602 -0.3808145 -0.525509 -0.42560565 -0.56052506 -0.8069503
-0.48751196 -0.40667027 -0.27959713 0.23801075 -0.0031627626 -0.13544543 -0.41867092 -0.1387841
-0.17127484 -0.8072067 -0.19881174 -0.7073352 -1.1523223 -0.47401437 -0.63793635 -1.1283574
00000000: 4cb3 4dbe a657 a7be a70f e9be 4a8d 29bf
00000010: 40ea e5be 3fa6 26bf 91d7 3cbf 9134 f6be
00000020: 5191 cbbe 29a4 babe 8e41 36bf 9be2 87be
00000030: 1ce7 91be b540 60be 4abe bcbe 9328 12bf
00000040: a439 18bf 55b3 1ebf 3a49 c83c 5b6f c9be
00000050: c43a 73be 4958 41bf f8f2 8cbe b0d1 c8be
00000060: 0bb4 f4be 8f68 04bf 9580 fb3c 8ddd 4cbf
00000070: 63f9 9dbe b78b 90be 01aa 16bf 889d 48bf
00000080: 70eb 143f 218f e4be ba90 0bbf c0c1 17bf
00000090: 4b8c 15bf 6224 45bf 2efb e8be 9be0 70be
000000a0: f1c9 59bf b661 b2be 27cc d1be ce00 00bf
000000b0: 62e3 fbbe e079 e7be 553f 45bf 5224 4dbf
000000c0: d8d4 fcbe fe2d 04bf 0c4f a4be 16ec 1f3e
000000d0: d8ce 773d 777a a2be 1035 19bf 4fb6 b2be
000000e0: a6aa 05bf 2294 3ebf c2d3 72be 8823 70bf
000000f0: 3602 81bf 22f8 01bf 8da6 26bf 87c7 86bf
00000100: 437e babe caa3 163e 9093 663e c2ac 413c
00000110: f977 99be 6622 9abd 06c7 4e3e 2c94 6ebe
00000120: 82ca 0dbf b1cd 7a3e f1c9 33be 6dc0 a83d
00000130: 8717 1dbd cd03 40bf 41b6 97be 8a80 69be
00000140: 85d2 99be a660 f0bd 13e1 babc 09bf 293e
00000150: 0bd0 ff3d 249c b6be f5a0 22bf b817 01bf
00000160: 029b 7dbd 0173 b33e f6c6 b2bd dc60 48be
00000170: bf26 eebc 0c02 b93d ee4e 993d 367e c2be
00000180: 6535 85bf 089d 12bf 2e65 3dbe 085a 5fbe
00000190: 090a 82bf 3533 833d 7f84 2dbe ac91 bfbd
000001a0: 841d acbe 2293 843d 7510 463e 26c3 403e
000001b0: 1dda d1bd 3449 94bb 8add 10be 26ab 4bbe
000001c0: cdf9 d2be 33b4 f4be 5818 a8bd f749 823c
000001d0: 1283 b4bd fe6d 5e3e b1e2 1d3e f1e3 11be
000001e0: 6559 0ebe caa9 b7be ab07 953e 75f1 5bbd
000001f0: 10e5 0c3d 903d 2c3e ebe8 f63d b1d7 85be
00000200: 17a8 82bc 2e8b babc 9d75 41bd 3a8e 063d
00000210: 4fe0 d2bc 95b4 52bd b603 0dbd 69e2 1ebe
00000220: 4843 563d faec 4f3c 8c7e 0f3d e023 093d
00000230: f563 b13c 4e57 f5bd 0fa0 24bd eb39 713d
00000240: ec3e 0bbe 3f00 9ebd 435c a43e 6dc1 abbc
00000250: 89a4 723e 73a8 363d d497 3cbe 51f4 65be
00000260: c163 38bc 2e45 75be cc1a a23d b093 be3d
00000270: dd64 2b3d 4f36 04be 01f4 b03d 381e 17bc
00000280: 414b 6fbb 8ef0 333e 4f84 1cbe 16b4 27bd
00000290: de32 cdbc ffaa 6cbb 1d6f f1bd 8c68 0f3d
000002a0: 3ea0 3abd fada 543d ba1a 32bd 3eeb 96bd
000002b0: c32c 793d e0ba 25be d7d7 40bc 1004 02be
000002c0: ba0c 2abd e3cc 303e c519 9c3c 2f80 393e
000002d0: cb7f 7a3e 2754 18bd 1de7 6c3e e627 dcbd
000002e0: 579f 0b3d 4f61 a43d ff64 45be 39a2 56be
000002f0: 72d5 d8bd b7c5 0b3d e733 f53c 1914 d9bd
00000300: b758 ccbd ca5e ddbd 26db 05be 2d88 40bf
00000310: 7d2c e3be 9996 0bbf 59b9 f2be 9939 2abf
00000320: 37c3 b4be 06e7 d0bc 93c5 27bf 045d 83be
00000330: 8c08 01bf 3dc1 57be fb0e 2abf e26b 12bf
00000340: 49ee 15bf 834a 36bf 34e4 f0bd bc4b 74be
00000350: 4dff eabd de22 33bf 9675 06bf df61 d0be
00000360: ce77 8dbe 996b 75be 4fc6 0f3d 9a98 50bf
00000370: a238 cdbd 7daa e3be 4e9e dfbe 791b 42bf
00000380: 4ab2 823f 1742 f1be 75ed 12bf e363 07bf
00000390: 75cc 09bf 5382 26bf d055 52be 2503 7ebe
000003a0: ed19 68bf f2e5 6bbe e9df 2ebe 1efa c2be
000003b0: c287 06bf fce8 d9be 927e 0fbf 4b94 4ebf
000003c0: 2b9b f9be 1637 d0be 5b27 8fbe 17b9 733e
000003d0: 5a46 4fbb 35b2 0abe 095c d6be 6b1d 0ebe
000003e0: ac62 2fbe 19a5 4ebf 4e95 4bbe eb13 35bf
000003f0: 4c7f 93bf 03b2 f2be cc4f 23bf 046e 90bf

lstm.bias_hh_l0 f4 [256]
-0.20774546 -0.28165033 -0.27759778 -0.7349 -0.58518285 -0.46470824 -0.6374131 -0.39140552
-0.3543509 -0.279344 -0.83673775 -0.26280004 -0.27200058 -0.35837474 -0.4928235 -0.73418504
-0.36979416 -0.6675072 -0.1321474 -0.3775287 -0.3814469 -0.7026608 -0.3035402 -0.42458394
-0.47496068 -0.51689786 -0.06343577 -0.62540275 -0.2648719 -0.41148564 -0.5980066 -0.72903156
0.7707321 -0.5078582 -0.63439643 -0.6888544 -0.75104326 -0.87917507 -0.55393755 -0.22242509
-0.9912723 -0.45891735 -0.27448693 -0.47645533 -0.4956504 -0.39960808 -0.75187874 -0.8684935
-0.6796597 -0.73453337 -0.35532436 0.17880654 0.06537078 -0.35042635 -0.7136932 -0.5447004
-0.5569589 -0.79384875 -0.3185153 -0.72763556 -1.1215798 -0.5296366 -0.7189859 -1.1946971
-0.5309496 -0.016605968 0.25762612 -0.12359828 -0.13150094 -0.005802712 0.19451839 -0.31006888
-0.51920664 0.09592931 -0.1380996 0.10199452 -0.044723053 -0.9063957 -0.41674203 -0.23242821
-0.24235086 -0.18449597 -0.08377888 0.06775353 0.29527548 -0.29110438 -0.7397311 -0.50595045
0.04611837 0.16903342 -0.0013189884 -0.36693805 0.027320996 0.23069681 0.00043053032 -0.5336025
-1.0920576 -0.41408113 -0.07617915 -0.30680555 -0.8029565 0.03287565 -0.20655797 0.053468764
-0.22863601 0.003959413 0.08485055 0.07051369 -0.11217243 -0.06679424 -0.28898618 -0.15484561
-0.40407577 -0.56895006 -0.2376871 0.03823894 -0.11583782 0.15118647 0.22324325 -0.07090383
-0.18794 -0.34074485 0.2829105 -0.20425497 0.06859956 0.11933605 0.0722923 -0.34378734
-0.08580739 -0.015066623 -0.20650004 -0.07208644 0.13372646 0.03222202 0.07299995 -0.053855374
-0.092086166 0.10817652 0.038170736 0.104119904 -0.15076914 -0.037121054 0.17398636 0.16332915
-0.034135193 0.08610815 0.32727942 -0.09763784 0.2003538 0.19056472 -0.067822866 -0.13252911
0.07523724 -0.03220767 0.05630574 0.11647838 0.20192586 -0.05209238 -0.09971802 0.14969409
-0.09474566 0.2010903 -0.16057502 -0.1731193 -0.007584606 0.03005483 -0.1456829 0.03496014
-0.06092467 0.064094976 0.04193373 -0.022811789 0.057699565 -0.21164712 -0.05424883 -0.12402741
-0.0765957 0.06832209 0.10574638 0.15837109 0.16564967 -0.046411403 0.040746152 -0.1274853
-0.027758215 -0.030827288 0.015149035 -0.11028521 0.098471045 -0.019835375 0.03084785 0.0049984846
0.14530955 -0.17667733 -0.21058914 -0.78325623 -0.5692816 -0.38064992 -0.30602276 -0.54403025
-0.31904152 -0.19100188 -0.6951911 -0.30655888 -0.508602 -0.16408136 -0.5364623 -0.70203197
-0.3621501 -0.53345776 -0.14871006 -0.1383472 -0.007150958 -0.77597946 -0.42116007 -0.31361023
-0.32187745 -0.20661451 -0.10886836 -0.73876876 -0.16324842 -0.47032878 -0.49830565 -0.54696405
1.0503178 -0.5795741 -0.56557536 -0.5350155 -0.7073456 -0.6403232 -0.23998284 -0.2656872
-0.7631924 -0.3515907 -0.12739016 -0.3947518 -0.5796211 -0.27734563 -0.5603566 -0.8302734
-0.5881004 -0.5182134 -0.19214143 0.06979148 -0.025524683 -0.03125745 -0.59090626 -0.21896061
-0.16084453 -0.63747984 -0.17940077 -0.71078897 -1.0883753 -0.42264926 -0.6577876 -0.9379555
00000000: 3abb 54be 7934 90be 4c21 8ebe 6822 3cbf
00000010: 8bce 15bf 3dee edbe 812d 23bf 4e66 c8be
00000020: 7b6d b5be 2d06 8fbe 7234 56bf ba8d 86be
00000030: a943 8bbe e57c b7be 5d53 fcbe 8df3 3bbf
00000040: a955 bdbe c0e1 2abf a651 07be 714b c1be
00000050: 024d c3be 94e1 33bf 9f69 9bbe 1163 d9be
00000060: 0c2e f3be 6b53 04bf 9dea 81bd 651a 20bf
00000070: 4a9d 87be 3fae d2be f616 19bf d0a1 3abf
00000080: b34e 453f ff02 02bf ce67 22bf c358 30bf
00000090: 5f44 40bf 9e11 61bf dace 0dbf 67c3 63be
000000a0: 05c4 7dbf 37f7 eabe 8d89 8cbe f4f1 f3be
000000b0: e4c5 fdbe 6e99 ccbe 207b 40bf 9755 5ebf
000000c0: 2efe 2dbf 610a 3cbf 13ed b5be 1019 373e
000000d0: 1ee1 853d 156b b3be 99b4 36bf 7c71 0bbf
000000e0: dc94 0ebf ac39 4bbf 7014 a3be 5346 3abf
000000f0: ed8f 8fbf 4496 07bf 760f 38bf d6eb 98bf
00000100: 50ec 07bf 3d09 88bc 92e7 833e 1821 fdbd
00000110: 2fa8 06be ad24 bebb d42f 473e 59c1 9ebe
00000120: baea 04bf 9676 c43d fb69 0dbe 81e2 d03d
00000130: 852f 37bd 8c09 68bf 365f d5be a901 6ebe
00000140: d32a 78be 83ec 3cbe 4394 abbd 5dc2 8a3d
00000150: 592e 973e a20b 95be 045f 3dbf f885 01bf
00000160: 9ee6 3c3d 1917 2d3e e8e1 acba 4edf bbbe
00000170: 48d0 df3c c93b 6c3e cdb8 e139 2c9a 08bf
00000180: 8bc8 8bbf 7102 d4be d003 9cbd 9e15 9dbe
00000190: 8f8e 4dbf 9ea8 063d ef83 53be 1002 5b3d
000001a0: 8f1f 6abe f7bd 813b 20c6 ad3d 7b69 903d
000001b0: a9ba e5bd 6bcb 88bd fff5 93be d98f 1ebe
000001c0: 05e3 cebe b6a6 11bf 3f64 73be 6fa0 1c3d
000001d0: 613c edbd a0d0 1a3e e199 643e 0736 91bd
000001e0: 5873 40be 1c76 aebe a5d9 903e 3728 51be
000001f0: ed7d 8c3d 7566 f43d fc0d 943d e504 b0be
00000200: c9bb afbd ffd9 76bc bf74 53be 0ea2 93bd
00000210: 97ef 083e 3dfb 033d ff80 953d 7497 5cbd
00000220: ac97 bcbd a78b dd3d eb58 1c3d d13c d53d
00000230: 3a63 1abe 3f0c 18bd 7b29 323e c23f 273e
00000240: 58d1 0bbd 7859 b03d 2b91 a73e 59f6 c7bd
00000250: 8c29 4d3e 6623 433e b7e6 8abd b6b5 07be
00000260: fb15 9a3d 31ec 03bd d9a0 663d 388c ee3d
00000270: a7c5 4e3e d25e 55bd f638 ccbd 6849 193e
00000280: 030a c2bd 9eea 4d3e c76d 24be 3046 31be
00000290: 4988 f8bb 8c35 f63c e62d 15be 5d32 0f3d
000002a0: 268c 79bd 3a44 833d b4c2 2b3d cadf babc
000002b0: 6156 6c3d 06ba 58be 0534 5ebd 1502 febd
000002c0: 35de 9cbd 74ec 8b3d 8f91 d83d 082c 223e
000002d0: 11a0 293e e219 3ebd 70e5 263d 828b 02be
000002e0: 3265 e3bc 8289 fcbc a833 783c 36dd e1bd
000002f0: 30ab c93d cc7d a2bc a1b4 fc3c 54ca a33b
00000300: 07cc 143e e7ea 34be aea4 57be 7b83 48bf
00000310: 70bc 11bf 8ce4 c2be 04af 9cbe 9145 0bbf
00000320: 6959 a3be ff95 43be 0bf8 31bf 49f5 9cbe
00000330: be33 02bf f204 28be 9855 09bf 5eb8 33bf
00000340: bd6b b9be b090 08bf 7347 18be e3aa 0dbe
00000350: 9552 eabb 97a6 46bf 4ba2 d7be 8591 a0be
00000360: 1fcd a4be c192 53be 60f6 debd f31f 3dbf
00000370: 982a 27be efce f0be eb21 ffbe d605 0cbf
00000380: d070 863f f85e 14bf 8cc9 10bf c7f6 08bf
00000390: 9a14 35bf 39ec 23bf 10be 75be 2708 88be
000003a0: 9460 43bf b203 b4be 9172 02be e81c cabe
000003b0: 0c62 14bf 3f00 8ebe 8873 0fbf cc8c 54bf
000003c0: bf8d 16bf a2a9 04bf b9c0 44be d6ee 8e3d
000003d0: 2419 d1bc d007 00bd a245 17bf 3637 60be
000003e0: 6eb4 24be e131 23bf d6b4 37be 44f6 35bf
000003f0: e24f 8bbf 7c65 d8be c564 28bf da1d 70bf

lstm.weight_ih_l1 f4 [256, 64]
0.1309985 -0.12889358 -0.10694441 0.28860608 0.20365268 -0.25661 -0.09767364 -0.034271296
0.2050684 0.025097435 -0.10881446 -0.08472749 0.11221245 -0.01361877 -0.025352212 0.14075863
-0.028590048 -0.010080713 0.1366106 -0.19791193 0.21525851 0.015481969 0.032237858 -0.03432202
0.00452259 0.15175052 0.092701 0.039303366 0.16821845 -0.10785599 0.10292328 0.10826393
-0.039460886 0.2893055 -0.18558826 0.06763823 -0.05860671 0.17780882 -0.14734945 -0.23135564
0.3592855 0.09544772 0.06429465 0.05427482 -0.061098278 -0.16954632 0.17733768 -0.23248076
0.0036538413 0.17314057 0.02159998 0.0894436 0.32980686 -0.025340362 0.10925122 -0.13306667
0.13490206 -0.06574211 -0.16874358 -0.13803507 0.16284613 0.06364909 0.009284179 0.062316403
-0.07569362 -0.09351857 -0.22500178 0.07600831 -0.08803532 -0.016879655 -0.13780385 -0.21754122
-0.16773435 -0.038802054 -0.085913 -0.042892706 0.027652694 0.048219003 -0.062132854 0.2705975
-0.06837234 0.18122175 0.16539852 -0.045764662 0.1592783 -0.004830396 -0.021248376 -0.023863018
-0.15461938 -0.093569584 0.16356163 -0.015169373 0.07059059 -0.0030183813 -0.009860105 -0.2795329
0.07478968 0.15470439 -0.19060217 -0.18288359 -0.20017232 0.16346908 -0.016914636 0.10907636
0.1306713 -0.0075915945 0.054544512 0.021894485 0.084823586 -0.25449982 0.12276704 -0.1743019
-0.13894036 0.18860377 0.21147072 0.24681468 0.18038414 0.10431363 0.22875963 -0.2769795
0.19604889 0.19115232 -0.06384079 -0.24742983 0.1167823 0.19844197 0.0905504 0.07333762
-0.030410793 -0.049281593 0.11919871 -0.04266872 0.16880713 -0.029797316 -0.15376218 0.15933685
-0.044236664 -0.07887089 0.0961088 0.02643347 -0.060144287 0.013237174 -0.04536916 -0.14357209
0.24916354 -0.1418455 -0.01655975 0.03752166 0.06631282 -0.058113534 -0.007017203 0.056096636
-0.24767241 0.2290264 0.07063852 -0.22088744 0.02633759 0.16886187 -0.021462208 -0.15307379
0.081763096 -0.12426071 0.23126926 0.10976524 -0.043991018 -0.051938675 -0.06544117 -0.028740244
-0.114426434 -0.098425455 0.088168986 -0.035976373 -0.040755983 0.06312039 0.055378027 0.006881416
-0.091635294 -0.21786442 0.080204256 -0.059723333 -0.12965909 0.09858714 -0.17344144 0.11406253
-0.100471094 0.063310124 0.20224008 -0.033960372 -0.074903734 0.011876054 0.035639215 -0.16516003
-0.063192 -0.119782425 -0.26437035 0.18193902 0.105347574 -0.27364936 0.032613873 0.15111755
0.44142383 -0.123055175 -0.14542213 0.13109781 0.030581178 0.011128922 -0.22080645 -0.3945446
-0.3068381 -0.14700785 0.35396814 -0.091100655 0.12739682 -0.27458724 -0.17801157 0.059473407
-0.15812908 0.0619926 0.1479163 -0.53603685 0.043641172 -0.09673184 -0.15649514 -0.24902251
-0.14451483 0.507574 0.05491891 -0.2366931 -0.15025531 0.39621833 0.041420802 0.17732467
-0.12603307 0.032209232 -0.08064669 -0.06096197 0.20626695 -0.07083954 0.101484254 -0.07251476
-0.73350865 0.2137424 0.4164015 0.24865142 0.17386505 -0.10064463 0.26751438 0.11134608
0.38283986 -0.07038477 -0.062111016 0.014248706 -0.37379616 0.0140606705 -0.37985948 -0.15929335
00000000: 7924 063e aefc 03be ac05 dbbd 2dc4 933e
00000010: 548a 503e 6362 83be 1e09 c8bd 0f60 0cbd
00000020: 73fd 513e 2399 cd3c 1eda debd 9b85 adbd
00000030: a4cf e53d 4321 5fbc 71af cfbc 0823 103e
00000040: ad35 eabc 9329 25bc a6e3 0b3e 6da9 4abe
00000050: ba6c 5c3e 16a8 7d3c d80b 043d 3f95 0cbd
00000060: 3c32 943b 7d64 1b3e 06da bd3d 91fc 203d
00000070: 7541 2c3e 9ae3 dcbd 71c9 d23d 7bb9 dd3d
00000080: bda1 21bd da1f 943e d90a 3ebe ea85 8a3d
00000090: 970d 70bd 8413 363e c6e2 16be 7ee8 6cbe
000000a0: 45f4 b73e 187a c33d eaac 833d 464f 5e3d
000000b0: 3042 7abd 8d9d 2dbe 0298 353e 700f 6ebe
000000c0: 4975 6f3b c34b 313e 71f2 b03c 352e b73d
000000d0: 72dc a83e 9796 cfbc 1bbf df3d a142 08be
000000e0: c423 0a3e cda3 86bd 1ecb 2cbe 1159 0dbe
000000f0: 23c1 263e 745a 823d ab1c 183c 7c3f 7f3d
00000100: 4205 9bbd aa86 bfbd de66 66be 3faa 9b3d
00000110: dd4b b4bd 3447 8abc 741c 0dbe 20c3 5ebe
00000120: 8ec2 2bbe e7ee 1ebd 28f3 afbd 43b0 2fbd
00000130: e787 e23c 4a81 453d 057f 7ebd c18b 8a3e
00000140: cc06 8cbd 3292 393e 3b5e 293e ba73 3bbd
00000150: da19 233e 4c48 9ebb 1311 aebc 607c c3bc
00000160: 8b54 1ebe 69a1 bfbd b37c 273e f688 78bc
00000170: cd91 903d 09d0 45bb 478c 21bc f01e 8fbe
00000180: 552b 993d d46a 1e3e 372d 43be d645 3bbe
00000190: f9f9 4cbe 7064 273e 9090 8abc 6d63 df3d
000001a0: b3ce 053e e9c2 f8bb 116a 5f3d 105c b33c
000001b0: fdb7 ad3d cd4d 82be 496d fb3d 337c 32be
000001c0: 6246 0ebe 5921 413e c88b 583e fdbc 7c3e
000001d0: 9fb6 383e 62a2 d53d f73f 6a3e 42d0 8dbe
000001e0: 0ac1 483e 6fbd 433e f6be 82bd 3f5e 7dbe
000001f0: 8f2b ef3d 5f34 4b3e 7d72 b93d 0932 963d
00000200: 0e20 f9bc 7fdb 49bd 741e f43d 65c5 2ebd
00000210: c7db 2c3e 8019 f4bc d573 1dbe 3329 233e
00000220: 8131 35bd 1087 a1bd b1d4 c43d 018b d83c
00000230: db59 76bd bbe0 583c 03d5 39bd 9004 13be
00000240: ba24 7f3e f23f 11be 50a8 87bc 50b0 193d
00000250: 04cf 873d 7508 6ebd 91f0 e5bb 96c5 653d
00000260: d69d 7dbe e685 6a3e eeaa 903d 5130 62be
00000270: eec1 d73c 20ea 2c3e 83d1 afbc 60bf 1cbe
00000280: 6973 a73d 667c febd d9d1 6c3e 99cc e03d
00000290: ed2f 34bd a6bd 54bd 0506 86bd a970 ebbc
000002a0: 6858 eabd 4993 c9bd f191 b43d f65b 13bd
000002b0: bfef 26bd 4345 813d 12d4 623d 807d e13b
000002c0: 49ab bbbd da17 5fbe 2142 a43d 74a0 74bd
000002d0: 5ac5 04be 0ee8 c93d a29a 31be 9e99 e93d
000002e0: cac3 cdbd bda8 813d 0618 4f3e 081a 0bbd
000002f0: 2167 99bd c893 423c 6dfa 113d b61f 29be
00000300: cf6a 81bd 7d50 f5bd 8d5b 87be 394e 3a3e
00000310: 78c0 d73d c51b 8cbe 2096 053d 8fbe 1a3e
00000320: 4e02 e23e 5a04 fcbd 8ae9 14be 813e 063e
00000330: 6185 fa3c 1556 363c 161b 62be c001 cabe
00000340: e219 9dbe 3a89 16be 503b b53e fb92 babd
00000350: 5074 023e b396 8cbe aa48 36be 639a 733d
00000360: 97ec 21be f4eb 7d3d 5f77 173e b639 09bf
00000370: 16c1 323d 581b c6bd 4340 20be c2ff 7ebe
00000380: b2fb 13be 5ff0 013f a7f2 603d ad5f 72be
00000390: 87dc 19be 21dd ca3e dca8 293d 9994 353e
000003a0: d00e 01be d4ed 033d 182a a5bd 42b3 79bd
000003b0: a537 533e 5214 91bd fad6 cf3d 9e82 94bd
000003c0: 39c7 3bbf 4adf 5a3e 9432 d53e 7a9e 7e3e
000003d0: ae09 323e c61e cebd a5f7 883e 6a09 e43d
000003e0: 9603 c43e e425 90bd 1f68 7ebd 6873 693c
000003f0: 3662 bfbe ba5e 663c f17c c2be cc1d 23be

lstm.weight_hh_l1 f4 [256, 64]
-0.051035814 0.072784804 0.23238455 -0.18877503 0.2565172 0.050096218 0.21400662 0.28134137
0.13456593 -0.029504137 -0.14850993 -0.16657487 0.2276476 -0.18294908 -0.0822113 0.0148132555
-0.4587283 0.4140158 -0.074285194 -0.40036628 -0.017663887 0.09349693 0.063994855 -0.02357466
-1.3117565 0.13454393 -0.026697721 -0.06181129 -0.0072868336 0.24795923 -0.011345649 -0.027324894
-0.16582496 -0.37335435 -0.08240022 0.00021712239 -0.098540135 0.03812286 -0.44102454 -0.029387003
0.23388259 -0.17752053 -0.088213 0.13044687 0.08542553 0.1656132 0.16124557 0.05454751
0.014882887 0.1362154 0.12384786 0.11005226 -0.012013514 -0.19839618 -0.19557792 0.14184631
-0.29049134 -0.23329772 0.18647614 0.19712628 -0.084388696 0.110560946 -0.016216535 0.023834772
-0.0627839 0.023973947 0.049785376 0.044245046 0.220555 0.023106376 0.027595459 -0.048572853
-0.023615763 0.05139382 -0.018824704 -0.08769234 0.118169606 -0.05053163 -0.0027048304 0.010292076
-0.07822476 0.067863554 0.13313831 -0.052026607 -0.20000316 0.207527 -0.02933466 0.081473075
-0.39791626 0.15935697 0.02275469 0.1671502 0.14348055 -0.03556217 0.13787454 -0.018968925
0.099499375 -0.08090605 -0.042282816 -0.021470115 -0.05907657 0.013528548 -0.3335578 -0.11283036
0.21198246 -0.11480152 -0.1448776 -0.0419825 0.10640736 0.018939773 0.0790882 0.055551354
-0.07002522 0.12093484 0.057303462 0.04309196 0.09259975 -0.22959039 -0.03190499 0.16068164
-0.002856324 -0.04614983 0.026203018 0.09326778 -0.16464038 -0.01993887 0.10151559 0.004598425
0.11387504 -0.14362426 -0.12989147 -0.052976742 -0.09987167 0.02530156 -0.029037993 0.074792705
0.032159157 0.07912638 0.011539909 -0.02651252 0.022392511 -0.018049197 0.22054254 0.039248895
-0.09540593 -0.2600996 -0.06984251 -0.08537535 -0.018118432 -0.13950664 0.28404233 -0.104596704
0.0012944142 0.08166133 -0.12081298 0.09396689 -0.027593266 0.25771937 -0.028619802 0.015153309
-0.04545608 0.20608348 0.24882951 0.07196275 -0.030652346 0.05797518 0.010366138 -0.062407833
-0.1845885 0.018094044 0.08112162 -0.106042996 0.005249337 0.10263655 -0.2048658 -0.08548713
-0.059893955 -0.09249585 -0.10014334 -0.06645899 0.08472952 0.05013386 0.021241413 -0.028744716
0.11213161 -0.06263778 0.049068216 0.102569446 0.08804326 0.07586021 0.01651119 0.07173395
0.054545727 -0.011502357 0.07632142 -0.15687874 -0.038621973 0.03970085 -0.030615866 0.4717591
-0.10761016 0.004850102 0.03550495 -0.105255224 0.19871704 -0.010293558 -0.016963052 0.08476766
-0.0058617773 0.034680467 -0.14735778 -0.19056217 -0.16299845 0.12043639 -0.13348405 0.15924701
0.07352066 0.050710123 0.2372267 -0.12329395 0.16359703 -0.23422693 0.07764035 -0.033963297
0.059544347 -0.33351853 0.089669816 0.011005648 -0.11952055 0.10797974 -0.147383 0.017905975
0.16529348 -0.07662658 0.052239757 -0.06418401 0.16208224 -0.04380039 0.26735395 0.16154182
0.038359497 0.34624258 0.13447857 0.060409203 -0.058218814 -0.09761716 -0.0067095226 0.16963634
-0.24207892 0.00018324496 -0.2015255 0.23397964 -0.06607986 0.0760067 0.05837593 0.029056763
00000000: ee0a 51bd 3310 953d 37f6 6d3e 3e4e 41be
00000010: 3956 833e b131 4d3d 8d24 5b3e fa0b 903e
00000020: a7cb 093e a9b2 f1bc fd12 18be 9a92 2abe
00000030: 741c 693e 0157 3bbe 665e a8bd 4cb3 723c
00000040: 70de eabe e1f9 d33e d622 98bd cffc ccbe
00000050: dbb3 90bc 527b bf3d bc0f 833d a51f c1bc
00000060: a3e7 a7bf e2c5 093e 2eb5 dabc d62d 7dbd
00000070: 64c6 eebb 06e9 7d3e 1ae3 39bc 75d8 dfbc
00000080: 05ce 29be 4d28 bfbe 72c1 a8bd 59ab 6339
00000090: 69cf c9bd b726 1c3d f8cd e1be 03bd f0bc
000000a0: eb7e 6f3e f1c7 35be 04a9 b4bd dd93 053e
000000b0: 95f3 ae3d 8296 293e 8f1d 253e 366d 5f3d
000000c0: 5ad7 733c 0d7c 0b3e f2a3 fd3d 1463 e13d
000000d0: 54d4 44bc 5e28 4bbe 9445 48be 2940 113e
000000e0: 48bb 94be 99e5 6ebe 9af3 3e3e 79db 493e
000000f0: fbd3 acbd c76d e23d 8ad8 84bc 2441 c33c
00000100: d894 80bd 0365 c43c c0eb 4b3d 4b3a 353d
00000110: 2bd9 613e 9549 bd3c df0f e23c 54f4 46bd
00000120: d875 c1bc 5482 523d 4436 9abc 0b98 b3bd
00000130: e802 f23d 41fa 4ebd 8643 31bb 18a0 283c
00000140: 4e34 a0bd 0cfc 8a3d 6955 083e da19 55bd
00000150: a1cd 4cbe f581 543e 3e4f f0bc 5bdb a63d
00000160: aebb cbbe 792e 233e 0b68 ba3c 6c29 2b3e
00000170: 91ec 123e a3a9 11bd fc2e 0d3e b864 9bbc
00000180: 54c6 cb3d 12b2 a5bd bf30 2dbd 18e2 afbc
00000190: 46fa 71bd d8a6 5d3c 17c8 aabe 9b13 e7bd
000001a0: ee11 593e 0f1d ebbd cb5a 14be d8f5 2bbd
000001b0: 1aec d93d 9527 9b3c fff8 a13d d189 633d
000001c0: 6269 8fbd afac f73d 09b7 6a3d 3281 303d
000001d0: f0a4 bd3d be19 6bbe cfae 02bd ba89 243e
000001e0: 2a31 3bbb 9b07 3dbd b6a7 d63c 2e03 bf3d
000001f0: 7d97 28be d756 a3bc 68e7 cf3d 62ae 963b
00000200: 5137 e93d 3d12 13be 4502 05be 24fe 58bd
00000210: 8589 ccbd 3845 cf3c 16e1 edbc eb2c 993d
00000220: 52b9 033d 030d a23d e311 3d3c c930 d9bc
00000230: 8070 b73c e9db 93bc e7d5 613e 73c3 203d
00000240: 2f64 c3bd c62b 85be 9709 8fbd 46d9 aebd
00000250: 1b6d 94bc d4da 0ebe ff6d 913e cc36 d6bd
00000260: 55a9 a93a 0e3e a73d cc6c f7bd b671 c03d
00000270: 460b e2bc cbf3 833e 1374 eabc 9645 783c
00000280: 2830 3abd 8c07 533e 2acd 7e3e 3561 933d
00000290: a11a fbbc 6277 6d3d bcd6 293c 5b9f 7fbd
000002a0: c504 3dbe f639 943c 1823 a63d 122d d9bd
000002b0: a102 ac3b 1d33 d23d 57c8 51be e013 afbd
000002c0: 5d53 75bd 776e bdbd f417 cdbd a71b 88bd
000002d0: ac86 ad3d 2a59 4d3d 7902 ae3c 0a7a ebbc
000002e0: 42a5 e53d 3d48 80bd c1fb 483d ee0f d23d
000002f0: 0650 b43d 995c 9b3d 7a42 873c 40e9 923d
00000300: 576b 5f3d 6274 3cbc 684e 9c3d d2a4 20be
00000310: 1332 1ebd 5c9d 223d 20ce fabc 698a f13e
00000320: b762 dcbd 9bed 9e3b a36d 113d 0d90 d7bd
00000330: 7b7c 4b3e 50a6 28bc 19f6 8abc ab9a ad3d
00000340: 2714 c0bb 1b0d 0e3d f5e4 16be bb22 43be
00000350: 11e9 26be 5ba7 f63d 0bb0 08be a611 233e
00000360: 0092 963d 6bb5 4f3d 8eeb 723e 8a81 fcbd
00000370: fb85 273e 2fd9 6fbe e701 9f3d 191d 0bbd
00000380: c6e4 733d f1c2 aabe cfa4 b73d 0951 343c
00000390: 31c7 f4bd 7b24 dd3d 92eb 16be 8daf 923c
000003a0: b242 293e 65ee 9cbd 5bf9 553d e872 83bd
000003b0: e3f8 253e 0a68 33bd 9ee2 883e 386b 253e
000003c0: d91e 1d3d b546 b13e c0b4 093e a46f 773d
000003d0: da76 6ebd 81eb c7bd 8edb dbbb 26b5 2d3e
000003e0: 89e3 77be 7225 4039 b35c 4ebe 5c98 6f3e
000003f0: e154 87bd 67a9 9b3d 991b 6f3d 7308 ee3c

lstm.bias_ih_l1 f4 [256]
0.29803133 0.31240642 -0.13897756 0.225827 -0.1633194 -0.13234168 0.279912 0.017100856
-0.16200382 0.4385163 0.4539085 -0.22518717 -0.20690529 0.06689439 -0.24632688 -0.17530023
0.003099079 -0.14887215 -0.25611028 -0.09091117 0.10437226 0.17259647 -0.22723626 -0.10762233
-0.3343716 -0.046550807 0.44596553 0.2870862 -0.2064711 -0.035352837 -0.1463513 -0.12766637
-0.10770093 -0.11660615 -0.24738194 -0.04776478 0.2675676 -0.085037254 0.1433422 0.4044391
-0.030344937 -0.018592203 -0.101096645 0.3055361 -0.23535521 -0.08684256 -0.06338086 0.2633658
-0.18713465 0.18252233 -0.05418993 -0.14603975 0.0956543 -0.04694594 -0.19719689 -0.17064257
-0.31137744 -0.14338319 -0.12793119 0.34343398 -0.06358882 0.23961838 0.26236078 -0.25166032
-0.040645666 -0.95085347 0.32609788 -0.7895616 -0.08241111 0.27226168 -0.53285116 0.12818736
0.16720952 -0.5207359 -0.114977375 0.22917032 0.3005866 0.13393736 0.19610044 0.31012392
-0.0046098516 0.30508304 0.24589899 0.19679408 -0.30941418 -0.7210152 0.22655442 0.2719711
0.13091753 0.18433048 -0.6873137 -0.9916305 0.25004002 0.22629462 0.37110943 0.44065905
0.10418802 0.24059416 0.25307238 0.23970005 -0.36764887 0.15539128 0.1283416 -0.20908248
0.07781763 0.29457408 0.18420178 -0.6980424 0.11354286 0.3053163 0.17815298 -1.1372565
0.2581662 0.016471373 0.22307305 0.2677229 -0.16162913 0.1524185 0.15858899 0.42442074
0.30382603 0.32343185 0.31751153 -0.12454549 0.12774831 -0.78630775 -0.81031805 0.22366846
-0.052226696 -0.04079491 -0.05738427 -0.00024177026 0.06622258 0.038465187 0.04961123 0.056408018
0.043280017 0.01302585 0.0415788 -0.06324106 -0.022616839 0.07388208 -0.006593384 -0.104218245
0.014283191 0.1313641 -0.121391416 0.092688344 -0.12803362 0.05897531 -0.013373504 0.05255465
-0.030757444 0.0886217 0.00884675 -0.064991936 0.08616178 -0.12879276 0.04380137 0.03786418
0.04459643 -0.059909023 -0.043591253 0.09229369 0.058746338 0.08334728 -0.27890006 0.0030527636
0.046806704 -0.13912943 -0.016698532 -0.026663488 -0.049043212 -0.06258683 0.08959986 -0.0038928494
0.04841504 -0.009248427 0.11543239 -0.0022661583 -0.08734105 -0.09211177 0.05557962 0.052986354
0.019330021 -0.022445204 -0.013717401 0.0131353745 -0.08158869 0.10909252 0.027666075 -0.003883801
0.95998096 0.3654163 0.039420307 0.7067258 -0.054688923 0.11304048 0.70011795 0.13612941
-0.06180136 0.8094272 1.0084848 0.033899933 0.12637743 0.6851144 -0.040617295 0.06922637
0.11721816 0.21340571 0.0842581 0.4227164 -0.08862083 0.63853645 -0.15116772 -0.030883104
-0.13887927 0.2207458 0.7543841 0.59983945 -0.02804506 0.16249815 0.057315942 0.122333415
0.17156173 0.13092078 0.0438539 0.050950244 0.96415323 0.12177366 -0.079920605 0.89541966
-0.035012785 0.058601405 0.048054554 0.56353706 -0.002135482 0.21564294 0.2094809 0.50289184
-0.021783283 0.41921252 0.10835828 0.1084764 0.24055085 -0.028901862 -0.0023801331 -0.06312274
-0.055563066 0.14342679 0.13606587 0.74088675 0.08966983 0.7631097 0.7241533 -0.03454216
00000000: 9097 983e bcf3 9f3e 2250 0ebe 313f 673e
00000010: 333d 27be 9484 07be a050 8f3e 1817 8c3c
00000020: 54e4 25be 3585 e03e b266 e83e 7797 66be
00000030: fbde 53be edff 883d 1d3d 7cbe e781 33be
00000040: eb19 4b3b f171 18be e320 83be a32f babd
00000050: 20c1 d53d 21bd 303e 9fb0 68be 1969 dcbd
00000060: c132 abbe 0fac 3ebd 9855 e43e f6fc 923e
00000070: 296d 53be 23ce 10bd 1ddd 15be f9ba 02be
00000080: 4e92 dcbd 35cf eebd b151 7dbe 01a5 43bd
00000090: 9ffe 883e 0328 aebd 4cc8 123e a412 cf3e
000000a0: f295 f8bc ad4e 98bc c20b cfbd 3a6f 9c3e
000000b0: f500 71be 83da b1bd d3cd 81bd e2d7 863e
000000c0: 3aa0 3fbe 22e7 3a3e 43f6 5dbd 728b 15be
000000d0: 67e6 c33d 634a 40bd fbed 49be edbc 2ebe
000000e0: dd6c 9fbe 0bd3 12be 6500 03be 94d6 af3e
000000f0: db3a 82bd 855e 753e 2754 863e 9fd9 80be
00000100: 127c 26bd 226b 73bf 4df6 a63e b620 4abf
00000110: 28c7 a8bd e265 8b3e ef68 08bf 8c43 033e
00000120: f938 2b3e f34e 05bf 4279 ebbd a0ab 6a3e
00000130: 7de6 993e e026 093e 8ece 483e 90c8 9e3e
00000140: 3d0e 97bb d833 9c3e f2cc 7b3e 6384 493e
00000150: 896b 9ebe 7494 38bf e2fd 673e cc3f 8b3e
00000160: 3f0f 063e 21c1 3c3e caf3 2fbf 7fdb 7dbf
00000170: 3f05 803e c7b9 673e 0e02 be3e 109e e13e
00000180: 8760 d53d 515e 763e b492 813e ee73 753e
00000190: 793c bcbe e41e 1f3e fb6b 033e b819 56be
000001a0: d95e 9f3d 6ad2 963e 649f 3c3e e8b2 32bf
000001b0: 2989 e83d 6b52 9c3e bc6d 363e 9f91 91bf
000001c0: 5c2e 843e f9ee 863c 436d 643e fa12 893e
000001d0: 1b82 25be 9813 1c3e 2765 223e ad4d d93e
000001e0: 168f 9b3e dc98 a53e df90 a23e b511 ffbd
000001f0: 74d0 023e 774b 49bf 0171 4fbf 5809 653e
00000200: a9eb 55bd 9018 27bd c50b 6bbd b683 7db9
00000210: b49f 873d ac8d 1d3d 2535 4b3d 180c 673d
00000220: 6346 313d 606a 553c 884e 2a3d 8784 81bd
00000230: f346 b9bc 7d4f 973d 500d d8bb 6070 d5bd
00000240: 0c04 6a3c 5084 063e 109c f8bd 63d3 bd3d
00000250: 3f1b 03be 1890 713d 8b1c 5bbc 8b43 573d
00000260: 09f7 fbbc 4b7f b53d f5f1 103c 7e1a 85bd
00000270: 9675 b03d 40e2 03be 1169 333d 7817 1b3d
00000280: bfaa 363d 2a63 75bd be8c 32bd 7904 bd3d
00000290: 00a0 703d fbb1 aa3d fdcb 8ebe e010 483b
000002a0: 63b8 3f3d f277 0ebe 5ccb 88bc 636d dabc
000002b0: 89e1 48bd 862d 80bd 2280 b73d 2d1f 7fbb
000002c0: d94e 463d b786 17bc d167 ec3d d483 14bb
000002d0: dddf b2bd 18a5 bcbd 75a7 633d 3808 593d
000002e0: fe59 9e3c 01df b7bc f3be 60bc c135 573c
000002f0: f917 a7bd e66b df3d f7a3 e23c 5e87 7ebb
00000300: 50c1 753f d817 bb3e 3077 213d fbeb 343f
00000310: 7e01 60bd c481 e73d ee3a 333f 8265 0b3e
00000320: 6c23 7dbd 9f36 4f3f 0816 813f a8da 0a3d
00000330: 1669 013e a863 2f3f 525e 26bd 8ec6 8d3d
00000340: 1310 f03d 0787 5a3e 838f ac3d 496e d83e
00000350: d67e b5bd 2077 233f b6cb 1abe 90fe fcbc
00000360: 5e36 0ebe 300b 623e 511f 413f 148f 193f
00000370: c1be e5bc ea65 263e 1fc4 6a3d f189 fa3d
00000380: e1ad 2f3e 1910 063e 26a0 333d 34b1 503d
00000390: bfd2 763f 7864 f93d 6aad a3bd 393a 653f
000003a0: 9169 0fbd 0708 703d dad4 443d f743 103f
000003b0: 71f3 0bbb 81d1 5c3e 2982 563e 85bd 003f
000003c0: db72 b2bc 06a3 d63e f2ea dd3d e028 de3d
000003d0: f652 763e 99c3 ecbc 02fc 1bbb 7f46 81bd
000003e0: 1996 63bd 79de 123e da54 0b3e c1aa 3d3f
000003f0: d1a4 b73d 285b 433f 1c62 393f 147c 0dbd

lstm.bias_hh_l1 f4 [256]
0.44818297 0.15687475 -0.06577583 0.38232395 0.047299072 -0.11193727 0.25487775 -0.13295053
-0.22724354 0.35130504 0.43474331 -0.09779123 -0.14230323 0.1666715 -0.06986327 -0.21251082
-0.16131881 -0.22550125 -0.14514945 0.0031972656 0.15578888 0.23401274 -0.10966236 -0.070343
-0.35592988 0.06636545 0.22075546 0.37100554 -0.1587364 -0.17401531 -0.13051176 -0.09094522
-0.16886212 -0.14339623 -0.26582748 -0.23164965 0.4676209 -0.002179847 0.21939449 0.4824417
-0.03258692 -0.054198965 -0.23129924 0.19282848 -0.24797413 -0.09996176 -0.0141301155 0.2776284
-0.22001456 0.21514459 0.038609035 -0.23789206 -0.003515133 -0.06542549 -0.25220904 -0.22904918
-0.31592247 -0.11242846 -0.16067207 0.39225882 -0.012589247 0.28199914 0.30562812 -0.28592607
-0.114836775 -1.0169984 0.09115676 -0.6824219 0.0624342 0.331211 -0.6267719 -0.014024529
0.13663532 -0.4710564 -0.21514393 0.11284526 0.20180246 0.07905494 0.16242673 0.17399816
-0.11423174 0.37780276 0.34934884 0.054277163 -0.31690717 -0.63468015 0.04839362 0.30067232
0.3384848 0.19300976 -0.65394354 -0.9423091 0.19681858 0.14924797 0.3129606 0.4741531
-0.0038001104 0.15271041 0.1044089 0.4270578 -0.32189924 0.34231532 -0.0061331284 -0.13886967
0.06461707 0.30521518 0.088994704 -0.60318327 0.030889127 0.32108274 0.094756186 -1.0915085
0.2429748 0.16708915 0.21683918 0.113488264 -0.052025948 0.06443584 0.19185063 0.44356507
0.34715685 0.33034235 0.28565943 -0.17384097 0.17477526 -0.6197826 -0.8713989 0.35663906
-0.000964314 -0.00089473143 0.12689148 -0.035739515 0.026623618 -0.0700671 -0.03832951 0.0013934466
0.03239364 -0.08225718 0.0004213247 -0.008083296 0.114468426 0.012212786 0.028769681 0.061417412
0.04183319 0.085808344 0.05624527 -0.0064597074 -0.12299424 0.08453532 -0.010785424 -0.08882659
-0.11488262 0.082918055 0.06515211 0.086982 -0.09059636 -0.056684326 0.11272708 0.050261382
-0.034001812 -0.02733656 0.10505043 -0.11880066 -0.010022499 -0.076081134 -0.27165523 0.10758189
0.11891288 -0.02809154 0.044928443 0.020040862 0.047555935 0.07979415 0.002015675 -0.0002668996
-0.07702186 0.10013318 0.067283 -0.00020649246 0.060231946 -0.090681456 -0.06703392 0.18354884
-0.13136183 -0.024844518 -0.043990225 0.12075664 -0.20208769 -0.06546797 -0.02583181 -0.021641195
0.87778205 0.37265605 0.06971271 0.66600573 0.028105829 0.21248375 0.70683897 -0.06206567
-0.056594167 0.87378216 0.9065089 -0.11384375 0.07883924 0.4958188 0.07478751 0.12616344
0.05654581 0.012351732 -0.064923435 0.53830886 0.08841425 0.6225861 -0.14703596 -0.09413715
-0.08867074 0.061857503 0.76264656 0.7045137 0.038923968 0.0015024769 0.07712017 -0.023012152
0.22374947 0.19689861 0.018881572 0.2318649 0.8663493 0.12895228 -0.084758796 0.868146
0.058808647 0.07544241 0.08887137 0.63028854 0.047019962 0.01304482 0.1710026 0.53957754
0.11488324 0.3741717 0.2122579 -0.00024563936 0.3226024 -0.051099315 0.0038766328 0.0998974
0.041103855 0.09907841 -0.0041776225 0.7459635 0.2119978 0.70360625 0.74151486 0.15264893
00000000: 3d78 e53e c6a3 203e 7ab5 86bd f7bf c33e
00000010: acbc 413d 5e3f e5bd 567f 823e 2f24 08be
00000020: 88b2 68be 41de b33e ad96 de3e c546 c8bd
00000030: f0b7 11be efab 2a3e 7914 8fbd 709c 59be
00000040: c230 25be cde9 66be 0fa2 14be 3789 513b
00000050: 1f87 1f3e 09a1 6f3e a996 e0bd fe0f 90bd
00000060: 713c b6be 9cea 873d b80d 623e 70f4 bd3e
00000070: cb8b 22be 1231 32be e0a4 05be 7d41 babd
00000080: 31ea 2cbe 76d6 12be 8a1a 88be 9135 6dbe
00000090: 026c ef3e c4db 0ebb f3a8 603e 9902 f73e
000000a0: dd79 05bd bcff 5dbd b5d9 6cbe d474 453e
000000b0: eeec 7dbe c0b8 ccbd 0082 67bc 4f25 8e3e
000000c0: 7f4b 61be dd4e 5c3e 8224 1e3d fa99 73be
000000d0: 255e 66bb cdfd 85bd 8b21 81be de8b 6abe
000000e0: 97c0 a1be e440 e6bd 3887 24be 26d6 c83e
000000f0: 2143 4ebc 3162 903e 4a7b 9c3e e764 92be
00000100: 8b2f ebbd 012d 82bf 65b0 ba3d 34b3 2ebf
00000110: 01bb 7f3d 7d94 a93e 2074 20bf 23c7 65bc
00000120: 21ea 0b3e 4e2e f1be b14e 5cbe 6a1b e73d
00000130: 4ea5 4e3e 8ee7 a13d 3153 263e 932c 323e
00000140: 55f2 e9bd 5d6f c13e dadd b23e bb51 5e3d
00000150: a841 a2be 667a 22bf 6338 463d b9f1 993e
00000160: e14d ad3e 5aa4 453e d868 27bf 2b3b 71bf
00000170: cf8a 493e 76d4 183e 5f3c a03e 32c4 f23e
00000180: 460b 79bb 1e60 1c3e 55d4 d53d 52a7 da3e
00000190: facf a4be f443 af3e 69f8 c8bb da33 0ebe
000001a0: f455 843d 2a45 9c3e db42 b63d 386a 1abf
000001b0: 320b fd3c f564 a43e 880f c23d 8db6 8bbf
000001c0: 63ce 783e 6b19 2b3e 170b 5e3e 896c e83d
000001d0: 2919 55bd f0f6 833d 7e74 443e f61a e33e
000001e0: 8bbe b13e a222 a93e f441 923e 5e03 32be
000001f0: 49f8 323e 13aa 1ebf 0014 5fbf 6599 b63e
00000200: 04ca 7cba 698c 6aba d7ef 013e 9963 12bd
00000210: c619 da3c 577f 8fbd 67ff 1cbd 4fa4 b63a
00000220: 32af 043d 7476 a8bd 3ee5 dc39 cd6f 04bc
00000230: 6c6e ea3d 2318 483c 65ae eb3c d390 7b3d
00000240: 4759 2b3d 49bc af3d 7161 663d f4ab d3bb
00000250: 67e4 fbbd db20 ad3d 59b5 30bc b7ea b5bd
00000260: 9447 ebbd f1d0 a93d 786e 853d 9e23 b23d
00000270: 968a b9bd d32d 68bd 75dd e63d e1de 4d3d
00000280: 7c45 0bbd ecf0 dfbc ae24 d73d c34d f3bd
00000290: 6835 24bc 6dd0 9bbd 6516 8bbe e553 dc3d
000002a0: 9988 f33d 3b20 e6bc e306 383d bc2c a43c
000002b0: 03ca 423d 1e6b a33d 6a19 043b a8ee 8bb9
000002c0: a3bd 9dbd a012 cd3d abcb 893d e685 58b9
000002d0: c6b5 763d 33b7 b9bd 1449 89bd 3af4 3b3e
000002e0: b783 06be bb86 cbbc 182f 34bd 424f f73d
000002f0: 13f0 4ebe 1214 86bd 3b9d d3bc e048 b1bc
00000300: 53b6 603f c6cc be3e 8ac5 8e3d 5a7f 2a3f
00000310: 323e e63c 5795 593e 66f3 343f 9238 7ebd
00000320: 49cf 67bd 30b0 5f3f f810 683f e926 e9bd
00000330: 7876 a13d f6db fd3e 322a 993d fd30 013e
00000340: 949c 673d eb5e 4a3c 94f6 84bd 9cce 093f
00000350: 8812 b53d cd61 1f3f 9890 16be faca c0bd
00000360: 0199 b5bd 4b5e 7d3d ce3c 433f 035b 343f
00000370: bd6e 1f3d c2ee c43a 2ef1 9d3d fb83 bcbc
00000380: 951e 653e ca9f 493e 87ad 9a3c fe6d 6d3e
00000390: 11c9 5d3f 110c 043e 0596 adbd d13e 5e3f
000003a0: 56e1 703d 8d81 9a3d 3102 b63d 975a 213f
000003b0: 0198 403d f1b9 553c 4e1b 2f3e c121 0a3f
000003c0: e747 eb3d 6f93 bf3e 235a 593e 28c9 80b9
000003d0: 242c a53e 844d 51bd 1b0f 7e3b 0297 cc3d
000003e0: 845c 283d 9fe9 ca3d 70e4 88bb 77f7 3e3f
000003f0: f415 593e 8a1f 343f ebd3 3d3f 0050 1c3e
