backend/Model_Pytorch/RNN_Model_our_data/output/checkpoints/latest_checkpoint.pth (torch, 677989 bytes, 30 tensors)

lstm.weight_ih_l0 f4 [256, 15]
00000000: d45d e0bd 0722 cd3c 5904 7d3a e6c2 a53c
00000010: 15b8 e9bb f643 5ebd c495 bbbc b5a9 b0bd
00000020: ed67 9e3d 7874 713d 1512 28bd 29bc 63bd
00000030: e385 87bd fd31 963d ac11 80bb a321 cdbd
00000040: 2a01 0c3d f75b c1bd 9b63 09be 28dc 04be
00000050: 1a49 9c3d 2290 6f3d 69e4 c3bc 7343 d5bc
00000060: e8e9 813d b297 bcbd 40fb 12bd 7401 8b3d
00000070: 1339 1ebe b941 efbd 03f7 f0bd df7d 84bd
00000080: 9bc5 113e 15ee 013e 9cae d7bc 3c86 79bd
00000090: a99e 2ebd 17c2 83bc b995 c9bc 1e1f 81bd
000000a0: d8ba 4a3d 4e48 1bbe 5fd4 c9bc ce74 b8ba
000000b0: f632 b1bc ba9f 2a3d 1343 bb3d 225b dc3d
000000c0: 8dcf 723d 5b54 113e 9753 a73b 0430 bebc
000000d0: 5c16 c1bd ad86 fabd 4cd5 c53d 63b5 773d
000000e0: 757b e7bd 00d0 d33d ce4e 1c3e a1d2 6d3d
000000f0: 2d62 a13b 5b01 653d 6e02 80bd 1c18 8dbd
00000100: d240 9a3d dfeb 923c 698e 11be f802 143e
00000110: fcb6 a6bb 97c5 27bd a447 733d ecf5 973c
00000120: f56c c8bd d211 9ebc 33f8 5b3d ea49 cc3d
00000130: 8a2e afbd 668e 8ebd 5ba1 0bbe fb66 a43d
00000140: fb1a cdbd eeb3 c63c 9177 06bd a544 783d
00000150: 5089 1bbd f737 033e 0fe4 223e a3b9 04be
00000160: c650 153e 1e1b 8fbd fc80 843d c02c c13d
00000170: 9d48 06bc f1bb aa3d 633a b8bc 4f3d 583e
00000180: 07ce a7bd 121a 16be d0f8 a2bd df83 0c3d
00000190: a5b9 b13d c4a3 133c e19b b43d a43d 703d
000001a0: 33dd 603c 89d2 313d f2df 90bd 7c5d ee3d
000001b0: 5cd9 163e 7247 95bd cffd 39be b2a7 dcbb
000001c0: b113 073e e2a2 203c dd15 1abc 8c25 153d
000001d0: 02db cfbd f0b7 1ebe 3653 63ba 9f6a e4bd
000001e0: 4ece 0abd ae43 24be 00bc b0bc b2b2 30bd
000001f0: 8337 873d a71f 303d 9ec3 d9bd 41b9 c8bc
00000200: b6cd c0bd 5a51 273d 805a 68bd 6242 42bd
00000210: 70a5 b2bd 286d 12bd dfb5 f6bc eea7 fa3c
00000220: 69c8 84bd 0f91 c2bd 009e ab3d c561 ef3c
00000230: d927 bd3d a08d 25bd 789b 2e3e d282 b83d
00000240: 433f 0e3e adda a7bd 7e96 abbd 2361 a6bb
00000250: 2177 803d 7baf 63bd c09b 5c3d ecf6 a13d
00000260: a70a c43c b139 72bd ecb2 9bbd adba 29bd
00000270: a6de 553d 46bc 103d 15d8 723c 32a2 133d
00000280: 4a0e 6cbd 8ebb 64bd 8b5c 0bbc 7fa5 013d
00000290: 1d51 babd dc8c b73d e84b 073e 854d bd3c
000002a0: 8f0f 483c 38ee 613d 3020 393d 1113 b83c
000002b0: 7354 ee3c ea4d 2e3e 29fc 83bd 05a3 973c
000002c0: 53a9 c3bd f0a4 40bd 608a 39bb 96d9 ffbb
000002d0: 483e e5bd a608 3d3c 97bc 853d e5ca 7ebd
000002e0: 4d12 e5bd fef9 8dbc 9fdc 2b3d 66ba 4ebd
000002f0: 24ce e9bc 080c 2bbe 62eb c43d 57ee 473e
00000300: efb2 553d 7ce0 293c fe7c 3e3d 4e5f babc
00000310: d793 753d ba34 08be 8804 bdbd 921b 10be
00000320: ee0b 00be 1dd7 71bd 2f44 c73d 5e5b a9bd
00000330: 6246 44bd 9e18 7a3d 9381 dbbd d6d6 2bbc
00000340: 55ad 13bd a239 54bd 77f2 45bd 8ca4 59bd
00000350: a662 c5bc 8611 87bc 3e98 f4bc dcb1 81bd
00000360: 9291 b5bd 8680 53bd 4b7e c0bd 2e5f f3bd
00000370: 3778 633d 80ae 723d d23f 1fbe 24a2 97bd
00000380: caaa 223c 225e a9bc a182 c13d 3fce b3bd
00000390: 84f5 753d ee84 d63d 9f7e fbbd fd9d c23d
000003a0: 0607 dabd a08f 983c 2440 163d 9848 cf3c
000003b0: 8e32 da3d 9d69 9d3d 98a4 d1bd 72b1 593d
000003c0: 42bb c3bb 625f f7bd 7f91 4d3c fc3f 21bd
000003d0: b004 203e 2a00 0cbd dd20 03bd e59e bd3b
000003e0: 3492 eabc 44d4 b23d 0216 c73b c002 c2bd
000003f0: a012 523d 6bf7 84bd e075 1fbd e428 e5ba
-0.10955396 0.02504064 0.0009651832 0.020234536 -0.00713254 -0.05426403 -0.022898562 -0.08626119
0.07734666 0.058948964 -0.04103287 -0.055599365 -0.06617334 0.07333753 -0.0039083567 -0.10016181
0.034180798 -0.09441369 -0.13416903 -0.12974608 0.076311305 0.058487065 -0.023912625 -0.026033139
0.06343442 -0.09208621 -0.035884142 0.067873865 -0.1545146 -0.116824575 -0.11765864 -0.064693205
0.14235537 0.12688477 -0.026328377 -0.06091903 -0.04263178 -0.01608376 -0.024607526 -0.06304763
0.049494594 -0.15164301 -0.0246374 -0.0014072896 -0.021630745 0.041656233 0.09143653 0.1075957
0.059279967 0.14192335 0.0051064 -0.023216255 -0.09428093 -0.122327186 0.09659824 0.06047572
-0.113028444 0.10342407 0.15264437 0.0580622 0.0049250335 0.055909496 -0.062504634 -0.06889364
0.07531895 0.017934738 -0.14214481 0.14454257 -0.0050877314 -0.04095992 0.059394494 0.018549882
-0.09786407 -0.019295607 0.053703498 0.099750355 -0.085537985 -0.06960754 -0.13635771 0.080274545
-0.10014912 0.024255719 -0.03282887 0.06061234 -0.03797275 0.12814318 0.1590731 -0.1296144
0.14581594 -0.06987594 0.06469914 0.094323635 -0.008196023 0.08336628 -0.022488778 0.21117137
-0.081935935 -0.14658383 -0.079576135 0.03430545 0.08677987 0.009011213 0.08818794 0.058652535
0.013724613 0.043413673 -0.07073964 0.116389245 0.14731354 -0.07289018 -0.18163227 -0.006733858
0.13191105 0.009804459 -0.009404627 0.03641276 -0.10149194 -0.15499854 -0.0008671762 -0.11153149
-0.033888154 -0.16041443 -0.02157402 -0.043139167 0.06602385 0.042998936 -0.10633014 -0.024502398
-0.09414236 0.040849067 -0.056726933 -0.04742659 -0.08722961 -0.03574863 -0.03011602 0.030597653
-0.06483538 -0.09500324 0.083797455 0.029221425 0.09236116 -0.040418267 0.17051494 0.09009327
0.1389132 -0.08196006 -0.083783135 -0.0050774976 0.06272722 -0.055587273 0.053859472 0.07908425
0.02393086 -0.05913705 -0.07602486 -0.041437794 0.052214287 0.0353358 0.014822026 0.036043353
-0.057630815 -0.05584293 -0.008505951 0.03165197 -0.090975024 0.08962414 0.1321255 0.023108253
0.012210741 0.055158824 0.045196712 0.02247003 0.029093003 0.1702191 -0.0644458 0.018510351
-0.095537804 -0.047032297 -0.0028311238 -0.0078079207 -0.1119352 0.0115377065 0.06530111 -0.062205214
-0.11185131 -0.01733112 0.041958448 -0.050470732 -0.028540678 -0.16703808 0.09615208 0.19524513
0.052172597 0.010368463 0.04650592 -0.022750523 0.059955444 -0.13301364 -0.0922938 -0.14073017
-0.12504551 -0.05904304 0.09729802 -0.0826938 -0.047918685 0.061058633 -0.10718074 -0.010488233
-0.036053974 -0.051812775 -0.048326936 -0.05313544 -0.02409489 -0.016487848 -0.029857751 -0.06332752
-0.08865656 -0.05163624 -0.093990885 -0.118833885 0.055534568 0.059248447 -0.1555169 -0.07403973
0.009928415 -0.020674769 0.094487436 -0.08779573 0.060048595 0.10474573 -0.122800104 0.0950279
-0.10645871 0.018623173 0.036682263 0.02530317 0.10654174 0.0768616 -0.10236472 0.05314774
-0.0059732506 -0.1207874 0.012546896 -0.03936766 0.15626788 -0.034179844 -0.032013763 0.005786764
-0.028634168 0.08731893 0.0060756216 -0.09473181 0.051287293 -0.06492504 -0.038930774 -0.00174835

lstm.weight_hh_l0 f4 [256, 64]
00000000: f040 f23d 5838 9d3d 1d8d 513d cf4f 423c
00000010: 85dd c9bd 1cec bbbb c646 06bd 53c8 ee3d
00000020: 8efd 9dbd d06d 583d 91d8 903d f08e b13d
00000030: f17e ddbb 137b 29bc 2473 ce3d 7b90 9cbd
00000040: 2f83 3bbd 3fe9 9b3d e3bf fdbc edec 523d
00000050: 06bc 1c3d f74e bb3d 4bca e33d 2cf8 debc
00000060: 8292 363d fdab 73bd 16bf 6a3d 541a 8abd
00000070: 8d27 9b3b 42d7 a2bd 4ca5 1fbd 6d51 dcbc
00000080: de2a 19bc b59c 8ebd c270 5f3c 266d 953d
00000090: 1179 dfbd c244 6a3c 4bb2 703d 4a3f d4bd
000000a0: 7cab 78bd 6848 7b3d 079d 81bd e9c7 f93b
000000b0: bbc9 f8bd a9d9 d93c b587 9b3d e8d1 ba3d
000000c0: 2ffb a33d d41b c43d d1ae 05be 39f7 2bbd
000000d0: 465c 50bd 777c 6fbd 1705 bd3c 7205 2fbd
000000e0: e157 983d 9d76 783d 6bbf d83d 8099 223d
000000f0: 3cc0 30bd 95ce 0e3e efd3 dfbd f576 b3bc
00000100: 6718 b93d 929a f13d 2bbd f63c ff4c d53d
00000110: ae31 afbd 3bf4 b1bd db70 35be b780 32be
00000120: 4b2a 4abd a089 d2bd 7d09 f5bc 6462 753d
00000130: 6e5b 613d e252 8f3d baa7 38bd ca3e 8ebd
00000140: 57a2 b6ba 0ea6 2dbd 56c4 a53c 395f a03c
00000150: 61d6 c6bb cc68 3dbc fed6 55bd d06b 08bd
00000160: f99e c0bd 8127 b4bd d216 0a3e 50f1 70bd
00000170: 9c97 03be d491 fa3d b9d9 b0bd 7d26 10be
00000180: 0bee 76bc 813b c73c 7200 e4bc 343d e33d
00000190: 1659 003e 4fb1 f9bd 53c6 f7bd c3f1 1abe
000001a0: 0007 bcbc 979d c73d b314 97bc 922c 4b3d
000001b0: d906 b63c 0eb6 1dbd 85f9 c8bd 2002 b03c
000001c0: d17b 44bd 64e3 92bd 1585 3b3d 59ca 133e
000001d0: a55b 0e3d 0b34 8cbd 2617 e5bd e30d 63bd
000001e0: a260 ecbd 7049 163d a157 18bd 556c 88bb
000001f0: 6666 263d a005 31bd c0eb 28be 7bb0 1d3e
00000200: c6e7 8abc 5d20 c2bd 3892 cdbc 425a d13d
00000210: 0785 443d 2f36 043c 1baf 3e3c b86c 7e3d
00000220: 7ecc 9b3c eaa6 c2bd 38e0 f73d 8158 0c3d
00000230: 486f 9cbc 286f e9bc 9d20 75bd 497a 1c3e
00000240: 543a 993d 1e9e c6bd b76d 1f3e a7be 2e3c
00000250: 9238 8c3d 468a ffbd 070e b7bd 8daa 893c
00000260: b218 bfbd 3a86 a43d 512f 423d 59aa 00bd
00000270: b3d1 013d 4f89 9e3c 2b3e 0a3d bca0 c23d
00000280: 2a96 62bd ea67 2dbd 5739 d6bd 97c8 a3bd
00000290: c7b0 843d c168 503d 2950 72ba 214e c6bd
000002a0: 2f84 d4bd 5e25 81bd 411f d43d a4e3 7abd
000002b0: daad 0cbe 3763 173e 872a 9f3d 8374 813d
000002c0: b335 8d3d e9c5 3b3d 8fc8 403d 35df 9bbd
000002d0: b8c8 a8bd fd04 a3bc 5672 fb3c 3733 3ebd
000002e0: ad42 93bc 708e c0bd 333e 5c3d 9f7e 5abd
000002f0: 14e5 2d3d f48e 103d 6842 c2bc 3dbe 26bd
00000300: d49f d43c fbbc d23d 7478 0c3d 1e0b 5b3d
00000310: fa75 a0bd 72f5 a93d 3944 ab3d e875 813b
00000320: e8ae f23d f02f d6bd 67ad 98bd 55fe 063e
00000330: 83bb 4e3d d7ef bebc f237 9dbc fb6b e63d
00000340: de45 9f3d 7b51 09be a2ae a6bd 7dff 6cbd
00000350: 157c ccbd 4c6f 803d fad1 a5bc 7594 bfbc
00000360: c86c 8d3d 72d7 ff3d 2d0e ed3c 6b84 f73c
00000370: b95d 69bd aeab f03d ee21 04bc bac3 acba
00000380: 8a54 29be c306 a7bd 59a2 3abe 48b2 18bd
00000390: c738 e3bc 4b9e d73d 9a96 2abe c171 7c3a
000003a0: e447 76bd 8a74 ecbb 204a 4c3d f689 d93c
000003b0: 2541 e4bd 34f9 cbbc fca5 ba3d 4088 21bd
000003c0: 7c09 21bd 943e a7bc 1031 613d cfea 9abc
000003d0: 3383 ca3c 9433 00bd 9390 76bd 098f 48bd
000003e0: 7023 19be d3af 253d 3edd a63d 5304 a73c
000003f0: 9e77 023e 2488 673c 435f d2bd d206 6bbd
0.11828792 0.07676762 0.051159967 0.011859848 -0.098567046 -0.0057349335 -0.03278234 0.116593026
-0.07714377 0.0528391 0.07072557 0.08669841 -0.0067595174 -0.010344285 0.10080555 -0.07644745
-0.045779403 0.076128475 -0.030975288 0.05149548 0.03826525 0.09145921 0.11122569 -0.027217947
0.044573314 -0.059490193 0.05731114 -0.06743303 0.0047349394 -0.079512134 -0.038976 -0.026894296
-0.009348599 -0.06963483 0.013637723 0.07296209 -0.109117635 0.01429862 0.058763783 -0.10363634
-0.060710415 0.06134835 -0.06328779 0.007622708 -0.12147852 0.026593046 0.075942434 0.09122068
0.08006894 0.0957562 -0.13054968 -0.041983817 -0.05086925 -0.05846831 0.023073716 -0.042729802
0.074386366 0.060659993 0.10583385 0.03969717 -0.04315208 0.13945992 -0.10929095 -0.02190731
0.090378575 0.1179706 0.0301195 0.104150765 -0.085543975 -0.086891614 -0.17718832 -0.17431913
-0.04935674 -0.10280156 -0.02991175 0.059908286 0.055018835 0.069982305 -0.04508183 -0.0694557
-0.0013933879 -0.04239469 0.020235222 0.019576656 -0.0060680364 -0.01156063 -0.052206986 -0.033305943
-0.09405322 -0.08796597 0.13485268 -0.058823884 -0.12850803 0.12234846 -0.08635277 -0.14077182
-0.015071402 0.024320366 -0.027832244 0.11095658 0.12533984 -0.12192022 -0.12098374 -0.15131287
-0.022952557 0.09746855 -0.018442487 0.049603052 0.022220062 -0.0385037 -0.09813217 0.021485388
-0.047969643 -0.071722776 0.045781214 0.14432658 0.034755368 -0.06845864 -0.11186056 -0.055433165
-0.11541869 0.03669113 -0.037192944 -0.004163305 0.040625 -0.043218255 -0.16496181 0.15399353
-0.016956221 -0.09478829 -0.025094137 0.102222934 0.047978427 0.008069559 0.011638428 0.0621154
0.019018408 -0.095044926 0.12103313 0.03426409 -0.019096032 -0.028495386 -0.059845556 0.15281023
0.07481828 -0.09698127 0.15569197 0.010665572 0.068467274 -0.124775454 -0.089382224 0.016804958
-0.09330882 0.08033414 0.047408406 -0.031412456 0.031694125 0.019352583 0.033750694 0.09503314
-0.05531899 -0.04233543 -0.104601555 -0.07997244 0.0647903 0.05088115 -0.0009243512 -0.09682871
-0.103767745 -0.06305955 0.10357524 -0.06125225 -0.13738194 0.14783941 0.07771783 0.06321051
0.06895008 0.04584304 0.047066268 -0.07610933 -0.08241409 -0.01989984 0.030694168 -0.04643556
-0.01797613 -0.09402168 0.053770255 -0.05334341 0.042454794 0.03529258 -0.023713306 -0.04070877
0.025955118 0.102899514 0.03429456 0.0534774 -0.07835002 0.08298768 0.08362622 0.003950823
0.11849767 -0.10458362 -0.07454949 0.13182957 0.050471794 -0.023307724 -0.019191716 0.112510644
0.07776998 -0.13409989 -0.08138777 -0.05786084 -0.09984604 0.06271228 -0.020241726 -0.02338622
0.06905514 0.12492265 0.028937424 0.030214509 -0.056974147 0.11751495 -0.00806473 -0.001318089
-0.16536155 -0.081555866 -0.18225993 -0.037279397 -0.027737034 0.10528239 -0.16659012 0.0009629988
-0.060127154 -0.007216041 0.04987538 0.026555043 -0.11145238 -0.024899103 0.0911369 -0.03943658
-0.039315686 -0.020415582 0.05497843 -0.018910794 0.024720764 -0.03129919 -0.06019647 -0.048964534
-0.14954925 0.040450882 0.08147667 0.020387804 0.12740943 0.01413158 -0.10272076 -0.05737955

lstm.bias_ih_l0 f4 [256]
00000000: c17e a73d b865 c73d b579 aebd 60e0 a83d
00000010: e307 093e 1719 86bc 7ef0 de3d 13cf 263e
00000020: e204 dd3d c4e5 403d d3fa 493d c7da 893d
00000030: 39b0 4d3a ae46 e63d 9961 65bd fc31 f1bc
00000040: 987d 0d3e 473c 743d a141 0c3e 407c 263d
00000050: c2f7 7cbd f6b7 9abd db06 f5bc 7659 043e
00000060: f226 e93d c572 673d 6023 71bc 3f80 d43d
00000070: e681 f73d 3835 6dbd 697b 1e3d 82b2 8e3d
00000080: bca4 81bd 3fa8 293e 92c8 223e e388 a7bc
00000090: 65a9 4b3c 724d 103d 00ec 65bc 18d4 e33d
000000a0: 0e2f 5d3d ea4a 8ebc 1350 81bd 5f83 0c3e
000000b0: 3a58 763d 7487 32bd 9852 293b 62c9 a73c
000000c0: f41c 24bd 15dc 1b3c 53f7 3fbd c631 763d
000000d0: bae2 423d d317 cdbd e69d 7a3d 531b 49bd
000000e0: 7b1a 813d be26 ea3d f842 c73d 154f bcbd
000000f0: 9106 25bd e7b3 a43b d251 933c d646 353d
00000100: 8730 5ebd cd0f 843d d945 e8bd c6d4 f53c
00000110: 39a7 963d 2c29 d63d fc05 3b3d 8e02 c03d
00000120: 7663 1c3e 169f e23c 19c4 c13c 5183 bfbd
00000130: 9d88 9fbd d925 05bd 2a0d 9c3d 3d5e 723d
00000140: e11f 3b3d 2620 c23d b63c 063e 2adb ad3d
00000150: d251 c13d 1df9 a53d 1efb 2ebc 0fd9 033e
00000160: a2a6 523d 793b 60bb e0ce c1bd 8472 a53d
00000170: 6661 8e3d 279a af3c 4e6b db3d 1aa0 583b
00000180: b6ce 04bb ef5c 1c3e 7e61 553d 226d 82bc
00000190: 8e04 053e 80c7 5e3d e962 be3c 9887 8f3d
000001a0: 8200 7bbb 87c6 99ba de9d 963a dcd6 233e
000001b0: f1fc b4bd 840c 6d3d efca 703d 5ba2 5f3c
000001c0: 1cfb cdbc cfc0 623d b25c 973d dc09 d13d
000001d0: 6635 133c f849 b23d e349 613c a8e1 793c
000001e0: 6371 6fbd 1f77 b73c a6f4 943d 3437 8fbd
000001f0: e776 163d be6d 763d ff3a 81bd e666 94bd
00000200: 6656 f13d 2716 bd3d f9f3 fdbd de86 59bb
00000210: 6f43 96bd 4741 0fbe cd64 ef3d 8ea9 11bb
00000220: 3729 eb3c 0ac6 0cbd 83bb 0d3e 4baa d13d
00000230: 8d4e 1ebd d3c3 833d 0609 8c3d de03 afbd
00000240: de3d 2bbd ab2c a5bd 3d52 f73c 0242 29bd
00000250: 1f24 d03d 7c97 103e 6653 1dbc 0651 b8bd
00000260: cef2 073c e347 133e c3ee a03d 5a5f b63d
00000270: 74ff c6bc fc66 323c b96d edbd 232f c0bd
00000280: 95ee a33c 027e c53d 4c6b a6bc cea9 0c3d
00000290: 7bb0 9d3d 07df 37bd 661b 01be b65e b4bd
000002a0: e0b3 fdbd b03c d83b ec21 1bbb 4cf5 a33d
000002b0: 1f39 e9bd 95bb 033e a960 ebbd 9d10 843d
000002c0: b724 6dbd 05cd e13d 81fe 8eb9 13f5 613d
000002d0: 3594 8cbc 148c de3d caad 393c 418c 9d3d
000002e0: 38a2 e6bd 8828 17be 9d38 e33d d68b ec3d
000002f0: 7246 0c3d 2c61 b93d 1bc4 18be 8320 db3d
00000300: 3c19 91bd 7f5e d43d e75b bd3d 6349 ea3d
00000310: 7525 f2bc 529e 19bd cf53 79bd 2907 a0bc
00000320: bdd1 d7bc 0124 2abc 6f1b e93b ae48 f23d
00000330: 801e 073e b3e5 a33d f971 fa3d 5d47 cd3c
00000340: 871d 94bc 3210 a43d b167 30bc 4e4a 4b3d
00000350: b264 3ebd 9cfb 443d bd1c 4ebd 0153 f4bc
00000360: 8350 003e c169 94bd 882d d33d 7c0f 2ebd
00000370: 4268 513c 5bad d93d 7403 203e e608 6f3d
00000380: 0d35 2b3e c270 b83d 75d6 023d a450 ac3d
00000390: ada0 21bd 3768 d23d 62ff 043e ff72 1b3e
000003a0: 1256 7d3d 163c 393e 667c 5cbd 4bde 97bb
000003b0: eb47 093e a5e4 503b 4720 df3b 8ab8 213e
000003c0: c74d 083e dac5 11bd 3271 113c d5d0 b4bd
000003d0: 44ee d53d aa4d 9abd 8d1f df3d 3284 533d
000003e0: abca 503e a51c 01bd fb81 a1bb 6c1d 053e
000003f0: fb8d eb3c ed19 2a3d 8aea 003e 41b2 6c3d
0.08178473 0.09736198 -0.085193075 0.08245921 0.13381915 -0.016369386 0.10885714 0.1628993
0.10791947 0.04709412 0.04931147 0.067311816 0.00078463886 0.1124395 -0.05600128 -0.02944278
0.13817441 0.059627797 0.1369691 0.040645838 -0.061759718 -0.07554619 -0.029910496 0.12924752
0.11384381 0.056505937 -0.014717907 0.103760235 0.12085323 -0.05791208 0.03869191 0.069676414
-0.06330249 0.16568087 0.15896824 -0.020451015 0.0124305235 0.035230108 -0.014033318 0.11124438
0.053999953 -0.017369706 -0.06314101 0.13721989 0.060142733 -0.04358621 0.0025836583 0.020481769
-0.040066674 0.009512921 -0.046866726 0.06010606 0.047579505 -0.1001431 0.06118574 -0.049098324
0.06303879 0.11433171 0.0972957 -0.09194771 -0.040289465 0.005026329 0.01798335 0.044257008
-0.054245498 0.06448326 -0.113414474 0.030008685 0.07356114 0.10457072 0.045660004 0.09375487
0.15272316 0.027663749 0.023653077 -0.093512185 -0.07789729 -0.032506797 0.07619698 0.059171904
0.0456847 0.09478788 0.13109097 0.08489068 0.09439434 0.08104155 -0.010679988 0.1287577
0.051428445 -0.0034215136 -0.094632864 0.08078483 0.06952171 0.02143581 0.10713826 0.0033054412
-0.002026481 0.15269826 0.05209493 -0.01592118 0.12990019 0.054389477 0.023240523 0.07008284
-0.0038299863 -0.0011732139 0.001149114 0.15999931 -0.08837307 0.057873264 0.058787283 0.013649548
-0.025144152 0.055359658 0.07390727 0.10206959 0.008984899 0.08705515 0.013750526 0.015251555
-0.058457743 0.022395669 0.072732255 -0.06992951 0.036734488 0.060163252 -0.06310081 -0.07246189
0.11784057 0.09232741 -0.1240005 -0.003319196 -0.07337081 -0.13989745 0.11689148 -0.0022226307
0.028706176 -0.034368552 0.13841061 0.10237559 -0.03864913 0.06433835 0.068376586 -0.085456595
-0.041807048 -0.0806516 0.030190581 -0.041322716 0.101631396 0.14120287 -0.009602403 -0.08999829
0.008297635 0.14382891 0.0785804 0.089049056 -0.024291731 0.010888811 -0.115931936 -0.093839906
0.020011226 0.09643175 -0.020314835 0.034341626 0.076996766 -0.04489043 -0.12608108 -0.08807127
-0.12387824 0.0065990314 -0.0023671342 0.08005771 -0.11387848 0.12864526 -0.11493046 0.06448481
-0.057896342 0.110254325 -0.0002727397 0.05516536 -0.017160514 0.108665615 0.011332938 0.07692767
-0.112614095 -0.14761555 0.110947825 0.11550109 0.03424687 0.09051737 -0.14918558 0.106995605
-0.07084891 0.10369586 0.092460446 0.11439779 -0.029558877 -0.0375045 -0.06087094 -0.019534664
-0.026345128 -0.010384561 0.007113866 0.11830269 0.13195229 0.08002796 0.1222877 0.025058443
-0.018080486 0.080109015 -0.010766909 0.04963141 -0.04648275 0.048091516 -0.050320376 -0.029824736
0.12530713 -0.072467335 0.10311419 -0.042495236 0.012781205 0.10628768 0.15626317 0.058358096
0.16719456 0.09005882 0.031942803 0.084138185 -0.039459873 0.10273784 0.12988046 0.15180586
0.06184966 0.18089327 -0.053829573 -0.0046346537 0.13406341 0.0031874564 0.0068092677 0.15793052
0.1331092 -0.035589077 0.0088770855 -0.08828894 0.10445836 -0.075343445 0.1089469 0.051639743
0.20389812 -0.03152146 -0.004928825 0.12999505 0.028754225 0.04152863 0.1258947 0.057787184

lstm.bias_hh_l0 f4 [256]
00000000: 14f7 12bd 3d4e f2bc dc97 de3c b180 fc3d
00000010: 9952 14bd 79ac 903d 0dbb 043e 4be5 12bd
00000020: 1d6f a13d 8bba 20bd 98d1 3f3c e118 d8bc
00000030: 196b 7fbc 5bac a53d 8bb1 87bd 2c9e 523d
00000040: f606 64bc 728f 9ebd ac0f 963d 1a8c ecbd
00000050: 0f82 f93d 4fa1 9e3d 9268 56bd 0aaf ff3d
00000060: 4968 123e 06df ea3b 8eca c0bd 998f f83d
00000070: 2686 b4bc aba5 2e3e b8d3 0d3e e859 89bd
00000080: 5299 2ebd 1de8 423d 2a87 063e 3bc0 efbc
00000090: 23c4 ba3d 99e4 c93d 38dc 62bd 88b2 fe3b
000000a0: 922f c33d ccab 0c3e 2e0b 133c d396 093e
000000b0: af22 5abc 747c 0f3e f8f3 13bd 3787 f63d
000000c0: e460 853d 03a3 d93d 3e9a 9aba cab0 c7bd
000000d0: 69f1 3c3d 996f 3c3d b3ae 453d 819d ff3d
000000e0: 7827 eb3d 893c c13d 221e 2abd 3c57 893d
000000f0: ac2e 193e f68a 42bd 2d90 123e 3f2a 4d3d
00000100: 5d01 23bc bc24 c4bd 2e73 3fbc d203 b9bd
00000110: c7e2 88bd 430f e93d 9016 5a3d d713 05bd
00000120: 5ccd af3c 0386 adbd b7aa 073e f868 d0bc
00000130: fb6a 4d3b a798 b13d 74a1 b53d ad63 d23d
00000140: a7db b63d cc3b 753a d29d 34bd a2c3 393d
00000150: 6e24 9d3d f27b e33d 25c7 42bd 1452 f43c
00000160: 4c23 8e3d e4be 8ebd ce94 ec3d d05a e63d
00000170: 7a3e 81bc 4327 b83d 576c aa3d be05 52bc
00000180: d943 c93d 6963 3c3d 6bd3 1a3d 44b7 7e3a
00000190: f9d1 c7bd 6c69 04ba acf1 3c39 acea a33c
000001a0: 3faa 6cbd c2f9 a23d 61d7 5f3c 9e97 6dbd
000001b0: 43e4 e4bb c71e 95bd 5e25 74bd d8fc 64bc
000001c0: c109 61bc e658 203c 6dc4 cfbc 7cf8 193d
000001d0: 41a5 803d da21 0a3d bf97 123e d763 213e
000001e0: 7661 30bd 3a72 973d 9b8c dc3d 9b72 b93c
000001f0: e567 c63d e44f d03c d5df 883d 642c 063d
00000200: 8182 313d 3fd3 e4bd 4a22 80bd 4246 f23c
00000210: 57a9 2d3d daab 79bd e976 82bd ad49 05be
00000220: 61cf e2bc 5c3c 9ebd 8871 2dbd 4e7f c23c
00000230: 1a07 0e3d da73 a3bd a13f 45bc 7d0a 53bd
00000240: 2419 1e3c 42f9 bebd 8786 d9bd 5177 aebd
00000250: 7bc0 a83d 0c05 a3bd c7e1 a03d 0409 cabd
00000260: 2023 a23d 9218 023e c9e1 853d a26c 03bd
00000270: 4b80 52bd bee5 963d 3bcb 423d 6d47 c9bc
00000280: 08d2 e3bd 3c6c 243d ca34 bfbd be24 72bd
00000290: e9c5 bd3d 07e1 53bd f313 2b3d 4b90 4a3d
000002a0: 62d6 183d 56a9 f33c 8cda 173d 2456 753d
000002b0: 8217 5c3d 93c8 f63a 5189 d9bd b628 ae3d
000002c0: e27f 943d 3782 083e ddac a2bc 282e 283d
000002d0: d837 10be 2499 f73d a856 483d 6c19 47bd
000002e0: 5f95 aebd 7736 febd 9158 f73d c9b9 c93d
000002f0: aa98 a93d 279c e43c 0ed7 253d dd36 5b3d
00000300: e559 6cbd 629b 98bb f5eb 6d3d 5981 da3d
00000310: 3cf9 a93d a912 e03d 1f22 a1bd 94a5 fd3d
00000320: bb10 1d3e 0cd5 d23d 3ba7 d43d 5275 b5bd
00000330: 2d3c 103e 4937 103d 2f48 2f3e 2640 243d
00000340: b271 e23d 7fad 8bbc 93a4 623d eab1 013d
00000350: bf3c 763d 83de c43d a1f3 b73d 117e 25bd
00000360: f200 49bd 1a6e fc3d b474 093e 60b2 193c
00000370: ea04 3dbd 9e7d 0abd 6ee6 c63c 74f4 a43d
00000380: 194b e43d fd67 0ebd 3c24 10bd f137 2a3e
00000390: feb7 eb3c 887d 38bd 62e4 0d3d b228 123e
000003a0: f3c9 d2bd 8da7 073e 81e2 063e 9cc8 9f3d
000003b0: 3d32 153e bd8c 983c 8bcd ad3d ba74 1b3e
000003c0: 3ab6 f93c 4cd7 0a3e bb22 793d 0cc3 5a3d
000003d0: 8574 99bd 2ee1 3b3d 2b66 e43c 854b 1c3e
000003e0: 8547 de3c 150b 083e 6ac4 e73c e8bf b33d
000003f0: e19d 143d 2b30 c03c e9b1 2ebc 8327 d43d
-0.035880163 -0.029578323 0.027172022 0.123292334 -0.036211584 0.070641465 0.12961979 -0.035863202
0.07882521 -0.0392404 0.011707686 -0.02637905 -0.015589499 0.08089515 -0.066256605 0.051420376
-0.013917675 -0.07742204 0.07327208 -0.1155016 0.1218301 0.07745611 -0.05234582 0.12484558
0.14297594 0.0071676997 -0.09413634 0.12136764 -0.022036623 0.17055385 0.13850296 -0.067066014
-0.042626686 0.04758464 0.13137498 -0.029266467 0.09119441 0.09858055 -0.0553858 0.0077727474
0.09530558 0.1373741 0.008974833 0.13436441 -0.013313933 0.14012319 -0.03612134 0.12037509
0.06512621 0.10626795 -0.0011795235 -0.09750517 0.046128664 0.046004865 0.04826231 0.12481213
0.114821374 0.09435374 -0.041532643 0.06706092 0.1495921 -0.047495805 0.14312811 0.050089117
-0.0099490555 -0.09577319 -0.011685176 -0.09033932 -0.06683879 0.11379864 0.053244174 -0.032489624
0.021460228 -0.08472826 0.13248716 -0.025440678 0.0031344283 0.08671694 0.08868685 0.10272918
0.08928614 0.0009354919 -0.04409582 0.045352586 0.07672964 0.11107625 -0.0475532 0.029824294
0.06940326 -0.06970003 0.1155182 0.1124779 -0.015776861 0.089918636 0.083214454 -0.012818752
0.09827394 0.045993242 0.03779928 0.000971664 -0.09756846 -0.00050511095 0.00018019107 0.020009361
-0.057779547 0.07957794 0.01366219 -0.05800592 -0.0069852187 -0.07281261 -0.05960595 -0.013976298
-0.013735236 0.00978682 -0.025362218 0.03759049 0.0628152 0.03372369 0.14315699 0.15760742
-0.043061696 0.07394834 0.10769006 0.022637656 0.09687785 0.02542872 0.066833176 0.032757178
0.04333735 -0.111731045 -0.0625654 0.029574517 0.042397823 -0.060954906 -0.063703366 -0.13016386
-0.027686777 -0.077263564 -0.0423446 0.023742344 0.03467474 -0.07981081 -0.012039096 -0.051523674
0.009649549 -0.09324886 -0.10621362 -0.085188515 0.08239838 -0.07959947 0.078555636 -0.09865001
0.07916856 0.12704685 0.06537206 -0.032086022 -0.05139188 0.073680386 0.047557097 -0.024570191
-0.11124045 0.040142283 -0.093362406 -0.05911707 0.09266264 -0.051728275 0.041767072 0.049454015
0.037313826 0.029743832 0.037073657 0.059896603 0.053733356 0.0018828086 -0.10621894 0.08503859
0.07250954 0.13330923 -0.019857818 0.041059643 -0.14083803 0.12089756 0.048910767 -0.04860823
-0.08524584 -0.12412732 0.120774396 0.09849889 0.082810715 0.02790649 0.040488295 0.05351912
-0.057702918 -0.004657195 0.058086354 0.10669202 0.08299491 0.10941059 -0.07867836 0.12385097
0.15338413 0.10294542 0.10383459 -0.08860268 0.14085455 0.035208974 0.1711738 0.04010024
0.11056842 -0.017050503 0.05533273 0.031663813 0.060116526 0.09612753 0.089820154 -0.04040343
-0.049073167 0.12325688 0.13423425 0.009380907 -0.046147265 -0.033811204 0.0242798 0.08054438
0.11147136 -0.03476714 -0.035190806 0.16622902 0.028774258 -0.04504159 0.03464163 0.14273337
-0.10292425 0.1324751 0.13172342 0.07801935 0.14569946 0.018621797 0.0848647 0.15181246
0.0304824 0.13558692 0.060824137 0.053408667 -0.074929275 0.045869045 0.027880749 0.15263183
0.027133713 0.13285477 0.0282919 0.087768376 0.036283378 0.023460468 -0.010662534 0.10359099

lstm.weight_ih_l1 f4 [256, 64]
00000000: 13be 1d3e 1a03 edbc 1c06 84bd 5848 2e3d
00000010: 68d6 c33c 4e3a a1bd 8a3b 1a3d 3718 2b3c
00000020: 2e20 8d3d 5906 0c3d b8e2 85bd ab4d 7ebc
00000030: 5612 513d bc44 453e d790 b4bc 977e 30be
00000040: 3a9e 0fbd 34cf c43b 5e5a 21be d511 94bd
00000050: efa8 4dbd 0654 92bd 790e e6bd 1358 32bd
00000060: 802c a53d 0946 5abd d9a1 acbd e867 943d
00000070: e218 e93c 9e79 293e 2e1f 253c a06d 28be
00000080: 0613 c3bd 5c0e 39bd f8ac 16be 6e52 1d3d
00000090: 0897 eebd 6ca6 583c fbde f9bd 552a 80bd
000000a0: 70c7 473d c653 e0bc 47e7 1c3e 100b f13d
000000b0: dd34 893c 3d83 2a3d 498e 023d 8894 89bd
000000c0: a01d 723d a1cf 213e eff0 603b 1bd2 bd3d
000000d0: cf9c 69bd 5814 fc3c 0db2 da3d 6471 203e
000000e0: 9f9d 28be c9a8 d6bd 1845 a03d 5f8b 4dbd
000000f0: 0d89 54bd 2864 583d eec3 45be c609 263d
00000100: ed92 00bc 14fa 953d 6301 d5bd 49a1 b7bd
00000110: 816b 8bbc bfa9 a9bd 522c f0bd dcac 583d
00000120: 8ad6 9c3d e2b5 bc3d 430c 92bd 3ef2 8d3c
00000130: ed4a 8a3d c827 993c 3896 8cbc a51a e6bd
00000140: aa91 e83d 4504 6bbd e50a 11bd a92c fd3d
00000150: 34ef 3bbc b51e f4bc 78af 263e c523 ebbd
00000160: 58c1 edbc aee4 98bc eba7 f83d b4c5 a23d
00000170: 3acb 05bd 4d71 813d 431a be3d 2ed3 c03d
00000180: 9442 983d 000c ac3d 8e27 fbbd 8d1f b4bd
00000190: 0263 86bd ccc3 2bbd b6ed f6bd 7fc2 923d
000001a0: 2b3e a8bc 1f88 8cbc a2dc 913c ed53 f8bc
000001b0: 2b17 363d 5632 ea3d d317 5abd d6db 82bd
000001c0: 9b7d 043e 102c 583d 3a64 f5bd 0bbe 54bd
000001d0: 1836 fabd b681 a53c 242c 523c 28eb 193e
000001e0: 9e7b 6bbd 9442 bcbd 1f19 9d3d 8c4a 063e
000001f0: bd3f 3bbd bef2 abbd de3a 9cbd 2b62 26bd
00000200: 901e afbd 2db8 bc3c 3d52 c8bd 86e3 e73d
00000210: 05fd cd3d 39f7 493c 6bf8 393d 9b35 08be
00000220: 8189 88bd 2208 863d 2a6e 49bd 4a6e dd3d
00000230: 4b18 13be d179 4fbd 0c9e c3bc 580c fdbc
00000240: 520b db3d 9bf7 3dbd 0940 9f3d c90e 8bbd
00000250: ce6e b13d 7956 d43c 25d5 01be 35bf 873d
00000260: c26d 0fbb e057 0e3e ee21 88bc 3130 883c
00000270: c733 5d3d 8e4d 523d 89a4 d83d e2b2 da3d
00000280: c80d 29bd c9f9 debd 0926 00be a747 b03d
00000290: d7dc a0bd 605f b73d c6a4 e5bd 03dd 90bd
000002a0: 2add 1dbe d804 ddbd 9fbe 513d 3ce1 76bc
000002b0: fec1 ffbd 97f3 cfbd edc9 1fbd df1d 023e
000002c0: ad52 cabd 78ef 9139 2edd 993d eca4 783d
000002d0: 69b6 57bd f409 29bd a26c cc3d e61e 5c3b
000002e0: 6b44 5fbd b9ac 13bc 18b5 a5bd 8a7b 2dbd
000002f0: abbf ae3d 5d7c 86bb 88a4 f13d db1e 1a3e
00000300: 34b6 81bd bf29 6abd 5f1d 0ebe ea74 32bd
00000310: 278c 683d bbba dcbd e53b 41bd d042 e2bd
00000320: 3b77 2e3d 9e2d 31bd 6c2d 18bd c0e1 82bb
00000330: bf1c 413c 0bc0 8ebd 19b3 bbbd 34d5 a23d
00000340: c2b2 d6bd ddbc 2e3d d196 a83d e863 28bc
00000350: 2458 90bd e441 3a3d d470 5c3d a9c7 acbc
00000360: b330 d1bd 99b4 0c3e 1b99 6fbd 7b06 fb3d
00000370: 0432 843d 1168 d3bd 5feb 8cbd 962c 2e3d
00000380: 007d 9fbd 8ed4 123d caab b2bc e215 263d
00000390: 90e4 d3bc fca6 f3bd fd8b aebd f07f a23d
000003a0: a6b7 a13d f1ea a23d 72c7 f23d acd7 e9bd
000003b0: 3bc4 813c ea5d 93bc 6121 bc3d 9ba0 b7bc
000003c0: 1aaa b43c f24c 32bd ca0b 72bd 84b3 723d
000003d0: 40ad 80bc 19ad 1c3d 84ce e53c 297a e93c
000003e0: f75c 0a3d eb5c 4b3d 886f 703d d34d 073e
000003f0: adad 2b3d ffa7 fe3d e1aa 0bbe 94e4 9cbb
0.15404539 -0.028932143 -0.06446478 0.04254946 0.023905948 -0.07872449 0.037654437 0.010442785
0.068909034 0.03418574 -0.06537384 -0.015521447 0.051042877 0.19264501 -0.022041721 -0.1723579
-0.035063006 0.006006146 -0.15757129 -0.07229964 -0.050209936 -0.071449324 -0.11233229 -0.043541025
0.08065128 -0.053289447 -0.084293075 0.07246381 0.028454248 0.165503 0.010078235 -0.16448069
-0.09525113 -0.04517971 -0.1471442 0.03840869 -0.11649901 0.013223272 -0.12200733 -0.06258074
0.048774183 -0.027383696 0.153226 0.11769688 0.01674884 0.041629065 0.031873975 -0.06717783
0.059110284 0.1580186 0.0034323295 0.0926859 -0.05703431 0.03077142 0.10678492 0.15668255
-0.16466378 -0.10481412 0.078256786 -0.050181743 -0.051888514 0.05282989 -0.19313022 0.040536664
-0.00784753 0.07323089 -0.10400655 -0.089663096 -0.017019035 -0.082843296 -0.117272034 0.052899227
0.076581076 0.09214379 -0.07131245 0.017327424 0.06752572 0.018695727 -0.017161474 -0.11235551
0.11355908 -0.05737712 -0.03541078 0.12362034 -0.011470605 -0.029799799 0.16277874 -0.11481432
-0.029022858 -0.01866373 0.12141403 0.07947865 -0.032664515 0.063204385 0.09282353 0.09415279
0.07434574 0.08400726 -0.12263404 -0.0879508 -0.06561853 -0.041934773 -0.120570585 0.071660034
-0.020537456 -0.017154751 0.017805401 -0.030313456 0.04445569 0.11435382 -0.053245377 -0.06389587
0.1293854 0.052776396 -0.11982007 -0.05193905 -0.12217349 0.020203453 0.012827907 0.15031111
-0.057490937 -0.09192386 0.07670807 0.13114375 -0.045715082 -0.08395909 -0.076284155 -0.040620964
-0.08550751 0.02303704 -0.09781311 0.113226935 0.10058025 0.012327009 0.045402925 -0.13301699
-0.06666852 0.0654452 -0.049177326 0.108120516 -0.14364736 -0.050653283 -0.023879074 -0.030889675
0.106955186 -0.046378713 0.077758856 -0.067899294 0.086637124 0.02592014 -0.12678964 0.06628267
-0.002188549 0.13900709 -0.016617741 0.016624542 0.054004457 0.051343493 0.105782576 0.106786504
-0.04127291 -0.108874865 -0.1251451 0.086074166 -0.07854622 0.08953738 -0.11213069 -0.07073405
-0.15416399 -0.107919395 0.05120718 -0.0150683485 -0.12488173 -0.10153883 -0.03901093 0.12706707
-0.098790504 0.00027834973 0.0751289 0.060704157 -0.052664194 -0.041269258 0.099816576 0.0033587753
-0.054508608 -0.009013348 -0.080911815 -0.042354144 0.085326515 -0.0041041807 0.1179896 0.15050833
-0.063335806 -0.05716872 -0.13878392 -0.04356853 0.056774285 -0.107778035 -0.04717626 -0.110479
0.042594176 -0.043256395 -0.037152693 -0.0039941967 0.011786639 -0.06970223 -0.091650195 0.079508215
-0.10483314 0.042660583 0.08231891 -0.010277726 -0.070480615 0.045472994 0.05381854 -0.0210913
-0.10214367 0.13740768 -0.058495622 0.122570954 0.06454852 -0.103225835 -0.06880831 0.04252299
-0.07787514 0.03584724 -0.021810431 0.040548213 -0.025865823 -0.11897084 -0.085227944 0.079345584
0.07896356 0.07954968 0.118544474 -0.11418089 0.01584064 -0.017989118 0.09186054 -0.02241545
0.022053767 -0.043530412 -0.059093274 0.05925323 -0.015707612 0.038251016 0.028052576 0.028500633
0.033780064 0.04964916 0.058700114 0.13213281 0.041913677 0.124343865 -0.13639404 -0.004787991

lstm.weight_hh_l1 f4 [256, 64]
00000000: 251c e5bd 3f43 183e 2a93 e53c 0e5a d33d
00000010: 0cea f73d 0601 f2bd 547c 05bc 06a9 0b3d
00000020: 0395 5abd 54a5 a7bc 477d 093d f965 7cbd
00000030: e85c ecbd 1f25 a5bc 4edd 8c3c 893b ea3c
00000040: 1a7e 0f3e 9690 06b9 2937 7a3d 5457 ad3d
00000050: 9375 e0bd b73a b73d 1df6 1e3d 0289 d13d
00000060: 15fc 67bd 12a2 4f3b 8634 77bd 9633 85bd
00000070: 209f 9a3d 85d6 0b3d dad3 a53d 07f1 693c
00000080: 4548 173d e999 543d b52d 253e 9e9c a8bd
00000090: 726c 91bd 9993 393d aab4 67bd b413 fdbd
000000a0: c53a 4f3e ec8c 833d 43ce 08bd f2c4 0bbd
000000b0: 87e0 143c b904 96bd a5b4 f7bd dcda f93d
000000c0: 529d d3bc 2a91 cc3c 7833 893d 08cf 6abd
000000d0: 945f 1f3c baf7 9d3d 3700 19bc f06b adbd
000000e0: 1260 4bbc 9323 1a3d 2c33 b73c c0e1 9a3c
000000f0: da87 613d ab59 a43b a181 5cbd 92c0 67bd
00000100: a372 ddbd 28c2 8a3c 8698 b13d 0321 ef3d
00000110: 1317 35bc 84e2 dcbc ad29 abbd 991b 373c
00000120: ecb9 d63d aae9 d23d 3fee 9fbc 9798 493c
00000130: 5ef6 a6bd 6db4 ab3d fb3d b53d 9135 b5bd
00000140: 38f3 823c e776 e8bd 05ec dd3d 7dd3 90bd
00000150: 1485 a23d cc75 f1bb 66e1 bd3d 2add f53d
00000160: 8486 11bd 82f6 883c e0b1 3fbd d040 e3bd
00000170: 47ca 6a3d 9866 563d c58c a03d f2c2 2fbc
00000180: 82f8 153e ddbc 553c 9c0a aabc 0e5e 743d
00000190: 46c3 973d 42e3 073d b0df a1bd 091f 9ebc
000001a0: 7643 ed3d bef0 1abe 0206 bb3d ae34 573d
000001b0: a472 d9bc c192 eb3d 7ec3 96bd 554b c2bd
000001c0: 97f7 19bd 4de8 b9bd fbbc bfbd 4930 0ebe
000001d0: 2e45 943c 7455 8d3c aa41 803c 7451 abbd
000001e0: 7fe6 53bd e617 da3d e8bf 1dbd c9b4 6f3d
000001f0: 2006 45bd 7888 13be 76d3 b3bd b289 20be
00000200: f44b 803d fa20 053b 6f7e 15bd 33f9 d5bc
00000210: 6b59 db3b c5a7 6ebd cac1 e5bc c254 23be
00000220: 7b5d 333e d7b0 b13d 2517 d6bc 9355 ddbd
00000230: d5f8 e8bd e07e 8fbd 7e53 0cbe 9d02 193d
00000240: 60e7 283e 53f9 35bd cdb9 693d b491 02bd
00000250: ede2 e63d 3438 b33c b0be 7d3d bedd 9dbd
00000260: de86 f43d 9ac5 683d 7007 7f3c f9a0 febd
00000270: c652 793d f580 09bc 3519 1cbd 8f8f 9a3d
00000280: a490 aa3d 7e45 d1bd cfdf 823b 90b1 163c
00000290: 66d4 aabd 66a1 f53a 3059 cebd 823e 133d
000002a0: fc6a 11bd 1c60 15bc 7401 a63d 71fe 13bd
000002b0: 28cd a8bd f23c 9e3d 1a1e b93d 8954 9fbd
000002c0: 912a 4bbd 54aa 393c 3624 473c af0c a5bd
000002d0: 1cd1 f2b9 f3ae a2bd 6de3 c23c 88ee fe3c
000002e0: b325 cc3d e476 9c3d c68c 043e c03b a43c
000002f0: b622 153e c8f6 c73c 23b6 16bc 250a 63bd
00000300: c2d1 e8bd 5695 a8bd f11c 88bc a281 813d
00000310: 3cbc b1bd e75b d2bc 73e6 513d 13c1 9a3d
00000320: 6718 01bd f47f a53d 9fe9 9c3d 71d6 843c
00000330: 2ac3 043d e596 283d df3e b4bd 9494 8b3d
00000340: f463 e43c 64de ba3b 0a56 08bd b107 00bc
00000350: ff1b c73d 5bef e33d a3b0 5b3d 8981 6d3d
00000360: fbba 14bd 22b2 e13c 3720 fbbc 39cc 6f3d
00000370: b63e 34bc 3c47 db3d db69 a8bd e510 91bc
00000380: 1af6 963d 39ea d5bc 26f8 cdbd 6b6c 1bbd
00000390: 3c88 50bd d19f b53d e790 dabd 6980 1cbe
000003a0: 2b42 093e 61af 76bd 015c be3d cc69 b6bd
000003b0: c9b3 a1bd c722 9a3d 4705 e53b 1218 af3d
000003c0: 8780 c83d 4451 54bc 5d6c 5dbd 2b2c a5bd
000003d0: 38ad a4bd 393c b03d d145 aabd f479 21bd
000003e0: 4214 943b 7ba3 d63d 46d2 393a bc76 d33c
000003f0: 2af3 b4bd 4f13 f8bd b039 13bc 0700 893d
-0.11187009 0.14869402 0.028024275 0.10319911 0.12105188 -0.118166015 -0.008147318 0.03409674
-0.053364765 -0.020464577 0.03356674 -0.061620686 -0.11541158 -0.020159302 0.01719537 0.028592842
0.14012948 -0.00012833098 0.06108776 0.08463922 -0.109599255 0.08946746 0.03880893 0.1023121
-0.05663689 0.0031682295 -0.060352825 -0.0650398 0.07549882 0.03414013 0.08097048 0.014278657
0.036934156 0.051904593 0.16130717 -0.08232997 -0.071007624 0.045306776 -0.05656878 -0.12357274
0.20237263 0.06423363 -0.03339983 -0.03412337 0.009086735 -0.073251195 -0.12095002 0.12199947
-0.025831852 0.024971563 0.0669927 -0.057326347 0.009727377 0.07713266 -0.00933843 -0.08467853
-0.012413042 0.037631582 0.022363268 0.018906474 0.0550612 0.005015572 -0.05383456 -0.056580134
-0.10812881 0.016938284 0.0867167 0.11676218 -0.011052865 -0.02696348 -0.083575584 0.011176013
0.104846805 0.10298474 -0.019522784 0.012304447 -0.081524596 0.08384023 0.088497125 -0.088481076
0.015985116 -0.11350804 0.10836033 -0.07071588 0.07935539 -0.007368779 0.09271507 0.12005074
-0.035528675 0.016719107 -0.046800494 -0.110963464 0.057321813 0.052343935 0.0783935 -0.010727631
0.1464558 0.013045517 -0.020757012 0.05966001 0.07410292 0.033175714 -0.07903993 -0.019301908
0.11585133 -0.15130898 0.09132005 0.052540474 -0.026543923 0.115026005 -0.07361506 -0.09487025
-0.037589636 -0.09077511 -0.09362217 -0.13885607 0.018099394 0.017252661 0.015656311 -0.08365145
-0.05173349 0.106490895 -0.038513094 0.05852202 -0.048101544 -0.14407527 -0.08780567 -0.15677527
0.06264487 0.0020313845 -0.03649753 -0.026119804 0.006694009 -0.058265466 -0.028046507 -0.15950301
0.17516129 0.08676308 -0.026134083 -0.108073376 -0.11375586 -0.07006621 -0.13703725 0.037356008
0.16494513 -0.044427227 0.05706196 -0.031877235 0.112737514 0.021877386 0.061949432 -0.077083096
0.119397864 0.056829073 0.015565738 -0.12433047 0.060869955 -0.008392562 -0.038109977 0.07546913
0.08328369 -0.10218333 0.003993965 0.009197608 -0.08341293 0.0018740117 -0.10075605 0.035948284
-0.03550242 -0.009117153 0.08105746 -0.036131326 -0.082422554 0.07726468 0.090389445 -0.07779796
-0.04960114 0.011332113 0.012154629 -0.0805906 -0.00046313636 -0.07943525 0.023790086 0.0311196
0.09968128 0.07639864 0.12944326 0.020048022 0.14564022 0.024409667 -0.009198698 -0.055429596
-0.11368133 -0.082316086 -0.016615363 0.063235536 -0.08678481 -0.025678588 0.051245164 0.07556357
-0.031517413 0.08081046 0.07661747 0.016215535 0.032412685 0.04115953 -0.08801054 0.068154484
0.027879693 0.0057027806 -0.03328518 -0.007814334 0.09722137 0.11129638 0.05363525 0.057984862
-0.03631113 0.02755076 -0.03065501 0.05854437 -0.01100128 0.10706946 -0.08223315 -0.017708251
0.07371159 -0.026112663 -0.10057096 -0.037945192 -0.050911173 0.08868373 -0.10672169 -0.1528336
0.13404147 -0.060225848 0.09294892 -0.08906898 -0.078956194 0.075261645 0.0069891545 0.08549513
0.0979014 -0.012958828 -0.05405842 -0.08065065 -0.08040851 0.086052366 -0.08314098 -0.039422944
0.0045190165 0.104804 0.0007088523 0.025813453 -0.08835442 -0.12113058 -0.008985922 0.06689458

lstm.bias_ih_l1 f4 [256]
00000000: 13db 253e 9c96 ca3d 6576 6a3d 4ece 2dbd
00000010: cf55 b33d d588 a63d 3867 cebc 0eb2 30bd
00000020: fecd 143e 1d91 fe3d 7ac0 fb3d 39dd c93c
00000030: 8bce 363e 45fe d3bc 5100 57bd f104 86bd
00000040: 041d 343d 2d84 883d 5c11 273d c47c bc3d
00000050: 2418 5a3d f440 133e 7e44 013e 8126 0f3e
00000060: 13fb 023e face c63d 6371 45bb b308 82bc
00000070: a54a 5dbd 0f3a 173c 1bfa 00bd 11f5 f13d
00000080: 9200 093e 15ce e7bc df71 f3bc 4b4e 6bbd
00000090: 1a3f c53d 406b 903d 4357 a73c 40f2 3bbc
000000a0: d7d9 8ebd 5e87 273e 04c8 7b3d 6024 023e
000000b0: 8beb e7bc a92e 043e ef00 603d 5641 5a3d
000000c0: 32d3 543d c569 003e bfb8 283e bbff a6bd
000000d0: 1e7d fa3d db95 023c 3078 0e3e f019 ad3d
000000e0: 6bbf 723c a791 133e b7bb c33c c2e2 bebc
000000f0: 37b2 9bbd 62d2 69bc ac4a 03bd 9f37 bfbd
00000100: 123f c83c c27a 98bd f7e1 353d c1a2 823d
00000110: bd04 dd3d f367 bbbd 3af3 f63d ee15 72bc
00000120: bde2 c53d 2e49 e63d 8aa3 99bd 8428 2a3d
00000130: ceca 8cbd 19c1 353d 5de5 013e 686b d43d
00000140: 09a1 bf3d fd0e 173d 3a7b a8bd 8467 0c3d
00000150: d670 f53c 26af b83c dce8 023e a046 64bd
00000160: 4bf3 9bbd 1d10 61bd db91 03bd 0ebb 1e3c
00000170: 4ad8 78bd 1cb1 aa3d aa86 5d3c 56ef 8ebd
00000180: abb4 893d 9288 c33d 8141 e33d 0415 2cba
00000190: 8c52 60bd 6573 893d b21f 053e 56be e63d
000001a0: f7a7 a9bc 8110 d93d ebeb 643d f71a 673a
000001b0: 13e4 c23b 3814 843d 7ec7 153e 356a 7f3d
000001c0: 35d8 2e3e 2247 6d3d 3637 e53d facc 06bd
000001d0: 6c07 06bd 629b 7a3d 9347 143d 9a77 583d
000001e0: 13f2 6ebd 5973 ec3d fb51 bc3d 356c 31bd
000001f0: ce59 923d 085b 023e 04c7 223e 148b 4dbd
00000200: 97f4 e1bd e38c cdbd ff43 e43d e8db 9a3d
00000210: 9e09 683d c4b3 513c dba5 2b3d 0af9 84bd
00000220: bc7e 93bb 076f e1bd 9b8d 30bd 7836 463d
00000230: b29d b9bd 2da1 963d 59cf b8bd e17d bbbd
00000240: 6f14 9a3d b24b afbc 22b5 4fbc 1d5c b63d
00000250: 5fea b4bd dbaf d23d a3d0 563d 144c a33d
00000260: 323b 113c 7555 8c3b b710 dabc ef10 9bbd
00000270: fd46 ae3b eed7 3c3d e863 11bc 07c9 283d
00000280: dec6 64bd 847e 3f3d cd6a d5bd d25c 79bd
00000290: bbc6 e93c 37f4 9d3d 5221 a43d 38c1 f63a
000002a0: c587 cf3d 66fc bdbd 1fe3 b9bd 744c f139
000002b0: 5c2b d2bd 48cc 39b8 c079 4f3d 1abf 403d
000002c0: 31e2 093e d63e c5bc c286 9e3c 6b22 39bd
000002d0: 1bd7 203d 6df4 543d cfb6 313b 3f59 a93d
000002e0: a410 f73d 402d 3f3d 95e5 8f3d 679e aebc
000002f0: 2aae d9bc ed84 b6bd 452a d93d 9acd a13d
00000300: 5434 be3d fa16 87bd 83cf 663d be73 96bb
00000310: 32dc ff3d 4a5d a13c 553e 953d abe8 febc
00000320: 737d 213d 0b31 0f3d 9aed c43d 0e6e cf3d
00000330: d9fa 19bc 2ff8 6abd 70a4 2f3b 85c3 373e
00000340: a451 1a3e 2832 24bc d598 c03d e68b 02bd
00000350: 3b72 483d 1a73 6d3c 059e e9bc 9680 96bc
00000360: cecc 5f3d 943c 1a3e ed00 85bc 929d 53bd
00000370: d812 143e 76cf 643d 6cc7 a93d 1fc7 3ebd
00000380: ae09 543e c898 e63d 721d b13d c42c 9d3d
00000390: ff7f 723d 3fab 123d b12b 223d 56c9 0bbd
000003a0: b67a 4f3d 8638 58bd 70ae 24bd ab65 ef3d
000003b0: a53f e33d 3dfc 223d 761a 9f3c 1b39 e63d
000003c0: d44a 7bbd daf4 6d3d cb0e 82bd b1f5 91bd
000003d0: 958f fd3d ff23 1c3d c37e 633d 1d96 06bd
000003e0: 1d56 cb3d c881 b83d 2023 ee3d 9f4f 023e
000003f0: 95b4 ea3d 769a 6b3d 485d 133e 4a81 55bd
0.16196851 0.09892008 0.057241816 -0.042433076 0.08756601 0.081315674 -0.025195703 -0.043138556
0.14531705 0.12430022 0.12292571 0.02464162 0.17852227 -0.025878081 -0.052490536 -0.06543911
0.043972984 0.066658355 0.04078804 0.09203485 0.05324568 0.14380246 0.12623784 0.13979532
0.1279109 0.097074464 -0.0030127398 -0.015873289 -0.054026265 0.009230151 -0.03148852 0.11814321
0.13379124 -0.02829651 -0.029717384 -0.057447713 0.09631176 0.07051706 0.020427352 -0.011471331
-0.069751434 0.16360232 0.061470047 0.12709188 -0.028310558 0.12908424 0.05468839 0.053284965
0.051959224 0.12540348 0.16476725 -0.081542455 0.122308955 0.007970299 0.13913035 0.08452213
0.014816145 0.1441103 0.02389322 -0.023301486 -0.07602351 -0.014271351 -0.032053635 -0.09336781
0.024444137 -0.07445289 0.04440495 0.06378699 0.107919194 -0.09150686 0.120581105 -0.014775736
0.096623875 0.11244427 -0.07501896 0.041542545 -0.068746194 0.044373605 0.12685151 0.103720486
0.09356887 0.03687953 -0.082266286 0.034278408 0.02996103 0.022544455 0.12784141 -0.055731416
-0.07614764 -0.054947007 -0.03212152 0.009688152 -0.060753144 0.08334562 0.013520876 -0.069792435
0.06723913 0.09547533 0.11096478 -0.0006564411 -0.054766223 0.06711463 0.13000372 0.112667724
-0.020709975 0.10598851 0.05588905 0.0008815969 0.0059475987 0.06449169 0.14626881 0.062357146
0.17074664 0.057929166 0.11192171 -0.032910325 -0.03272192 0.06118334 0.03620107 0.052848436
-0.05833633 0.11545438 0.09195324 -0.043316085 0.07146035 0.12730038 0.15896231 -0.050181463
-0.1103298 -0.10036638 0.11145782 0.07561475 0.056649797 0.012799207 0.04190622 -0.06492813
-0.004501192 -0.11007505 -0.043103795 0.04839179 -0.09063281 0.073549606 -0.090239234 -0.09154869
0.07523429 -0.021398399 -0.012677463 0.08904288 -0.08833765 0.10287448 0.052445065 0.07973495
0.008864211 0.004282648 -0.026619298 -0.07571589 0.005318521 0.046104364 -0.008873917 0.04120734
-0.055853717 0.046751514 -0.10420761 -0.060879536 0.028537145 0.07712596 0.08014168 0.0018825894
0.10133318 -0.09276657 -0.09076523 0.00046024064 -0.102621764 -4.429769e-05 0.05065322 0.04705725
0.13465191 -0.024077814 0.019351367 -0.04519884 0.03926764 0.051990915 0.002711702 0.082689755
0.12063721 0.046674013 0.07026211 -0.021315766 -0.026572306 -0.08912072 0.106037654 0.079005435
0.092873245 -0.06596179 0.056350242 -0.0045914343 0.12493171 0.019697804 0.072872795 -0.031116804
0.03942628 0.03495888 0.096156314 0.10128413 -0.009398186 -0.057365593 0.0026800893 0.17945679
0.15070206 -0.010021724 0.094041504 -0.0318717 0.048937064 0.014492774 -0.028517732 -0.018371861
0.054638676 0.15062171 -0.016235793 -0.051663943 0.14460313 0.055861913 0.0828999 -0.046576615
0.20706818 0.112596095 0.086481944 0.07674554 0.059204098 0.035807844 0.03959245 -0.034127556
0.050654136 -0.05278828 -0.04020542 0.116893135 0.110961236 0.039791334 0.019421797 0.11241361
-0.06135066 0.058094837 -0.06350478 -0.0712694 0.12380902 0.038120266 0.05554081 -0.032858003
0.09928534 0.09009129 0.11627793 0.12725686 0.114602245 0.057520352 0.14391053 -0.052125253

lstm.bias_hh_l1 f4 [256]
00000000: a2e6 773d c8ed c0bc c4c2 053e 5688 ec3c
00000010: 4c33 6a3d 6f21 00bd 2d87 5e3d 1d03 e2bb
00000020: 9518 e9bc 0e46 8c3d af20 043e 010f 98bd
00000030: 20f7 1f3e a7d3 f1bc c7e9 d53c ec2b e23d
00000040: 5243 d43b d26d 083d cc33 923c c987 153d
00000050: eaa9 20bd 6de8 7f3d bc42 fa3d 224a b73d
00000060: 1123 083e a6fe b33d eced 923d 2eea e43b
00000070: 4194 9a3c 7a9e 883d bdf4 de3d fd1b 60bd
00000080: 43b8 8b3c 0fdc 9b3d 85e7 273d 9de1 1cbc
00000090: 3d95 903d 6e5d 263e e20d b53d 5d66 973d
000000a0: 1c55 cdbd 4433 7abd a066 a03d d910 3a3d
000000b0: 5a1e 373d 012a 3aba 6918 35bd c3c3 c1bc
000000c0: 48e7 5abd cee1 463d 38d4 313e 8671 a03c
000000d0: 81ff 273e 64db 363e 491b ad3d 0102 71bc
000000e0: af81 f53c 0143 093e e61b fe3d 6848 f53d
000000f0: 97e3 843d c88b 18bd 51be 723c 2ae2 ae3d
00000100: 090e 1d3e 2a82 78bd f2d8 a13d 8c6c 823d
00000110: 13c2 cdbc 00e2 083e 36fe df3d e803 053e
00000120: 241c 38bd bef7 c13d 75eb 9dbc 95d4 90bd
00000130: 08dc 813d 3112 683d 3f92 e03d 74f7 31bd
00000140: 9cd1 03bc 9c09 d73d 99e5 0e3c 36a4 de3d
00000150: 2e93 95bd b5b6 e4bc 9cae ec3c 04e7 1bbd
00000160: a5d6 b4bd 80ef 123e 7fe2 c03d 5777 dcbd
00000170: 9214 1d3e c628 abbc 7669 083d 8dd0 8e3d
00000180: 3258 e13d 286c 943d b03a 5b3d a2b2 df3d
00000190: 0b08 7c3d d5ee de3d 9ce9 fa3d 7602 0c3d
000001a0: def2 cc3b 09d4 043e c174 343d 1da8 d73c
000001b0: 78ed bdbc e24b bd3d 8e9b c13d 46c3 053e
000001c0: 04d4 bf3c 44f7 f93d 1332 d0bc 06be 943d
000001d0: 5982 be3d add1 cb3c aa15 9a3b 4adf 373d
000001e0: fe8d aabc 984a e93d 5d5f 533c c393 4f3d
000001f0: 89e3 4bbd 8be6 dd3d 874d 013e b318 a7bd
00000200: a911 ffbd b3b7 a3bd 51fc a6bd b8fc ca3d
00000210: 5d4e e63d d718 58bd c9d8 7e3d b9b0 423d
00000220: 75dd f43c 15da e9bd 2c5b b03d da86 72bd
00000230: 6465 9fbd 03a3 cd3d 0ef6 b63c 04f0 6e3d
00000240: f966 903d 4742 a3bd 363f c0bc c30b 73b8
00000250: f95b ee3d 2b1d 783c 7986 583d 07e4 163e
00000260: c2f8 113d 313a 8a3d c724 c9bd f7fe bd3d
00000270: 4efd 643d c76e aa3c a134 a7bd 17de f9bd
00000280: 67f6 b63d 849c 363d 1302 7d3d 74c1 00bd
00000290: db69 2fbc 79ac c3bd 2486 d2bd 294b 25be
000002a0: 9096 ab3d 8879 a0bd 47e1 d93b 344e ae3d
000002b0: 5d63 ffbc 54fc b2bd 894b 973d 5b66 3b3b
000002c0: 5eb0 cb3c 2713 b03d 4614 cc3d 208c 1abd
000002d0: 8130 af3d b702 bb3d 1ca5 00be 0ef1 833c
000002e0: 6abc a0bc 3186 18bd 0eb2 15b9 01dd 7c3d
000002f0: 4277 553c 32a9 ffbd ef6d d9bd 324f 01bd
00000300: 4e39 3b3d 018c 173d 5856 243e 4587 273d
00000310: d4e4 803d 6803 283e b715 133e 83c6 87bd
00000320: 98cd 193d 07c7 ea3d 4e97 1abd e483 4dbc
00000330: ae02 963d 8718 4ebd 3d56 063d daf7 f83d
00000340: 799a 1ebd 6740 b73c 3b25 fd3d fdab c73d
00000350: 889d b53d c17a fdbc 3898 5abd 45e8 673d
00000360: 61c9 0fbd 916e 9fbd a332 e23c c807 9bbd
00000370: c58b a63d 1a8b efbc afe6 ca3c 7647 0c3e
00000380: 97f0 963d 909f 8e3d 234a a63d 56c7 c03c
00000390: 2076 a53d b91c bb3d 1f46 693d df41 ca3d
000003a0: c16f fd3d 1c36 6ebd 179a e63d bec8 c7bc
000003b0: f43a 77bc c5d8 44bc 3695 a13b e9cc ed3d
000003c0: 38cd 093e 4dbd 023e b577 183e 4c09 3cbd
000003d0: e485 013d e9f4 ebbc 3b96 0d3e 4d77 9d3c
000003e0: 49e4 fd3d 0e86 6a3d 77f8 68bc ab16 6abd
000003f0: aa32 56bd 6de0 193d 3bfd 283e 1582 453d
0.060522683 -0.023550883 0.13062578 0.028873604 0.057177827 -0.031281885 0.054328132 -0.006897344
-0.028454104 0.06849299 0.12903093 -0.07424737 0.15621614 -0.029519869 0.02611245 0.11043534
0.006477752 0.033307858 0.017846964 0.036506448 -0.039224543 0.062477518 0.1221976 0.089496866
0.13294627 0.08788805 0.07174286 0.006985924 0.018869521 0.06670852 0.10886524 -0.05471419
0.017055636 0.07610332 0.04099228 -0.009575275 0.07059715 0.16246578 0.088405386 0.07392571
-0.10025999 -0.061084047 0.07832074 0.045426223 0.04470668 -0.0007101596 -0.044212732 -0.023652917
-0.053443223 0.048555188 0.17366111 0.019585382 0.16406061 0.17857128 0.0845247 -0.01470995
0.029969065 0.13404466 0.12407665 0.11976701 0.06488722 -0.03724268 0.014815883 0.08539231
0.15337385 -0.06067101 0.07902707 0.0636836 -0.025116956 0.13367462 0.10937159 0.12989771
-0.044948712 0.09471081 -0.019277314 -0.07071797 0.06340796 0.056657974 0.10965394 -0.04344888
-0.00804558 0.1049988 0.008721733 0.108711645 -0.07303463 -0.027919153 0.028891854 -0.03806211
-0.08830003 0.14349174 0.09418201 -0.1076495 0.15339878 -0.020893466 0.0333037 0.06973372
0.1100315 0.07247192 0.053522766 0.109227434 0.061531108 0.10885397 0.12251589 0.034182034
0.006254538 0.1297151 0.044056658 0.02632528 -0.023184523 0.09242989 0.09453498 0.13062772
0.023416527 0.12205365 -0.025414502 0.072628066 0.093022056 0.024880255 0.0047022896 0.04489068
-0.02081966 0.11391181 0.012901154 0.050678026 -0.04977754 0.10834988 0.1262723 -0.08159008
-0.1245454 -0.07994022 -0.08153594 0.099114835 0.11245415 -0.052758064 0.06221846 0.047531817
0.029890755 -0.11418549 0.0861114 -0.059210636 -0.077830106 0.10040858 0.022334125 0.058334365
0.070508905 -0.07971626 -0.023467641 -5.794667e-05 0.11638636 0.015143673 0.052862618 0.14735423
0.035637625 0.067493804 -0.09821468 0.09277146 0.055905633 0.020804776 -0.08164335 -0.122005634
0.08933716 0.04458286 0.061769556 -0.03143449 -0.01070639 -0.09554381 -0.102794915 -0.16141953
0.08378327 -0.0783568 0.0066491696 0.0851101 -0.03117531 -0.08739534 0.07387454 0.0028594944
0.024864372 0.08597403 0.09964804 -0.03773129 0.08554173 0.09131377 -0.12562984 0.016106155
-0.019621093 -0.03723735 -0.00014276078 0.061734203 0.013028922 -0.12483443 -0.10616671 -0.031569667
0.045708947 0.036998753 0.16048563 0.040900487 0.062936455 0.1640755 0.14363752 -0.0662966
0.037549585 0.11463743 -0.03774195 -0.012543652 0.0732473 -0.05031636 0.032797087 0.12156649
-0.038721535 0.022369577 0.12360617 0.09749601 0.08867937 -0.030942323 -0.053367823 0.056617994
-0.03510416 -0.07784761 0.027612036 -0.075698435 0.08132128 -0.029241133 0.024768202 0.13699135
0.073701076 0.06964028 0.08119609 0.02353255 0.08079171 0.09136338 0.05695164 0.09875845
0.12374831 -0.05815707 0.11259859 -0.024387714 -0.015089739 -0.0120145725 0.0049311174 0.11611349
0.13457191 0.12767525 0.14889415 -0.045907304 0.03162183 -0.028803306 0.1382684 0.019221926
0.123970576 0.05725675 -0.014219395 -0.057150524 -0.05229441 0.037567545 0.1650285 0.04821976
