backend/Model_Pytorch/RNN_Model_our_data/output/checkpoints/latest_checkpoint.pth (torch, 660133 bytes, 27 tensors)

lstm.weight_ih_l0 f4 [256, 15]
0	0x3dc6dc2f	0.097099654
1	0xbd7250e5	-0.05915918
2	0xbe9e4c63	-0.30917653
3	0xbe16661b	-0.14687388
4	0xbef6ff22	-0.48241526
5	0x3dbc2a7c	0.09187791
6	0x3e712fe7	0.2355343
7	0xbc07db6c	-0.00829206
8	0xbc3b3d0f	-0.011428132
9	0xbe4e5c96	-0.20152506
10	0xbdb36b7c	-0.087607354
11	0xbd2f6734	-0.04282303
12	0xbd39be47	-0.04534748
13	0xbd90a4c8	-0.070626795
14	0x3c885b72	0.016645167
15	0x3ebb2080	0.36548233
16	0x3d6a4a6a	0.057199873
17	0x3e39970f	0.1812403
18	0x3ec06d27	0.37583277
19	0x3d84e8bd	0.06489704
20	0xbddea18e	-0.10870658
21	0x3cdcb52e	0.026941862
22	0x3ea24e29	0.31700256
23	0xbb2b603a	-0.0026149885
24	0x3e09e9f0	0.13468146
25	0x3e0c06a0	0.13674402
26	0xbdc33bf1	-0.09532917
27	0xbd0897d0	-0.033347905
28	0x3dc165c9	0.09443242
29	0x3dff1229	0.12454636
30	0x3c7439fa	0.014906401
31	0xbe2ae638	-0.16689384
32	0xbe3b4fc0	-0.18292141
33	0xbe623e99	-0.22094192
34	0xbe88ebda	-0.2674244
35	0x3dd1c668	0.10242921
36	0x3da6e4dc	0.0814912
37	0x3ecb0570	0.39652586
38	0x3dce6bfd	0.10079191
39	0x3e9f5838	0.31121993
40	0xbd65537e	-0.055987827
41	0x3dda2765	0.10652045
42	0x3db07642	0.08616306
43	0x3df04582	0.117320076
44	0x3dcd4ff8	0.100250185
45	0x3c3ac32f	0.011399074
46	0xbf34160f	-0.7034616
47	0x3dd2683f	0.102737896
48	0x3ec91780	0.39275742
49	0x3d47d1aa	0.048783936
50	0xbeda3d9e	-0.42625135
51	0x3c86a190	0.01643446
52	0x3e774c2a	0.24150148
53	0xbf121ced	-0.5707539
54	0x3d89320a	0.06698997
55	0x3f0a0a5c	0.5392206
56	0x3eadc982	0.339428
57	0x3f5481eb	0.8301074
58	0x3f135193	0.5754635
59	0x3f6af7a9	0.9178415
60	0xbdf48757	-0.119398765
61	0xbd1d9d79	-0.038480256
62	0x3e88192e	0.2658171
63	0x3f1b600a	0.6069342
64	0xbccd42a6	-0.025056195
65	0x3d8c9a42	0.0686536
66	0xbe4b2738	-0.1983918
67	0xbdbc4e23	-0.09194591
68	0xbef102cc	-0.47072446
69	0x3eb4f0b9	0.35339907
70	0x3f276259	0.6538444
71	0xbea8b240	-0.32948494
72	0xbe64deb0	-0.22350574
73	0x3de9d256	0.114170715
74	0xbf10585d	-0.5638483
75	0xbe851a30	-0.25996542
76	0x3ebfc530	0.3745513
77	0x3e5bab8f	0.21452163
78	0x3e337894	0.17526466
79	0x3f0c8904	0.5489657
80	0xbe8f69ea	-0.28010494
81	0x3be01d1f	0.006839409
82	0xbee3dd3a	-0.4450472
83	0xbcdc91ad	-0.026924932
84	0xbd85a89a	-0.06526299
85	0x3e0364cc	0.1283142
86	0x3dc25d4c	0.09490451
87	0xbe57732c	-0.21040028
88	0x3e92b3de	0.28652853
89	0xbd5776c9	-0.052603517
90	0xbe0035c9	-0.12520517
91	0x3e974d7a	0.29551297
92	0xbea20fb7	-0.31652614
93	0xbdd288a9	-0.10279972
94	0xbeab73e3	-0.33486852
95	0xbd9ad941	-0.07560969
96	0xbe0e39db	-0.13889258
97	0x3e2de35d	0.16981263
98	0xbe337ee2	-0.1752887
99	0xbe0c0b13	-0.136761
100	0xbde73d85	-0.11291031
101	0x3dafd520	0.08585572
102	0xbe625e34	-0.22106248
103	0xbdc1c920	-0.0946219
104	0xbbc6ce37	-0.006067063
105	0xbdadb9c7	-0.084827
106	0x3dbe360a	0.09287651
107	0x3e676d09	0.22600187
108	0x3e37503d	0.17901702
109	0x3ee32878	0.44366813
110	0xbe3236a9	-0.17403664
111	0xbc2de9ae	-0.010614796
112	0x3f165a6c	0.5873172
113	0xbd9ad33a	-0.075598195
114	0xbe1eda24	-0.15512902
115	0xbed5ac70	-0.41733122
116	0xbdfe7a4a	-0.124256685
117	0x3eeef535	0.46671453
118	0xbdb8cb0c	-0.09023103
119	0x3e5c2ae8	0.21500742
120	0x3ce7a61a	0.028277446
121	0x3ef3d346	0.47622126
122	0x3c42553f	0.011861145
123	0x3d943105	0.07235912
124	0x3d1144a0	0.035465837
125	0xbd830281	-0.06396962
126	0xbeb2cae3	-0.34920415
127	0x3e6f7ffe	0.23388669
128	0xbe69ead4	-0.22843486
129	0x3e652cce	0.22380373
130	0x3df53a52	0.11974014
131	0xbf661372	-0.8987342
132	0x3ef70d17	0.48252174
133	0xbc858337	-0.01629792
134	0x3ef96b9a	0.48714906
135	0xbe760a41	-0.24027349
136	0x3d2c8892	0.04212243
137	0x3e9e4d64	0.3091842
138	0x3dd6e204	0.10492328
139	0x3ee8b2ba	0.45448858
140	0x3ef4e210	0.47828722
141	0x3d10ed4a	0.035382546
142	0xbe1458dc	-0.14487022
143	0xbe77ceea	-0.24200025
144	0x3dcffef8	0.10156053
145	0x3e509155	0.2036794
146	0xbe394ed3	-0.18096475
147	0x3dff4ce9	0.12465841
148	0x3e214b4e	0.15751383
149	0x3e8814e9	0.26578453
150	0xbd4fc830	-0.050728023
151	0xbe351c48	-0.1768657
152	0xbefabda1	-0.489728
153	0xbdabf14f	-0.08395635
154	0xbf6b4fa5	-0.919184
155	0x3f249e13	0.643037
156	0xbd9018e9	-0.07036001
157	0x3eb63a16	0.3559119
158	0x3b633138	0.0034666788
159	0x3dc6bd7a	0.097041085
160	0xbef7199a	-0.4826172
161	0x3e28289f	0.16421746
162	0x3c1a1510	0.009404436
163	0x3f556851	0.833623
164	0xbee5a97c	-0.4485587
165	0xbd068da3	-0.03284992
166	0xbf31ec37	-0.6950106
167	0xbe2693ae	-0.16267273
168	0x3cb89098	0.022529885
169	0xbe0d2573	-0.13783817
170	0x3e21ce8e	0.1580145
171	0x3c8db8f8	0.017300114
172	0xbe53cd24	-0.20683724
173	0xbe9cc2dd	-0.3061742
174	0x3e61db10	0.22056222
175	0x3f243068	0.6413636
176	0xbd9e286c	-0.077225536
177	0x3e856e3a	0.2606066
178	0xbcda3c44	-0.026640065
179	0x3ec3e2f5	0.38259092
180	0x3f90eaf9	1.1321708
181	0x3e4ed97e	0.20200154
182	0x3e89ef04	0.26940167
183	0x3e23d50e	0.15999243
184	0x3eac9e41	0.33714488
185	0x3de89532	0.11356582
186	0x3e041245	0.12897594
187	0xbe689c47	-0.22715865
188	0xbe3db74c	-0.18526953
189	0x3e1d813a	0.15381327
190	0xbc8134b1	-0.015772196
191	0x3d414ed4	0.047194317
192	0xbe1cafb8	-0.15301406
193	0xbd9fb4c3	-0.077981494
194	0xbe05e0c7	-0.13074027
195	0x3e1ac0f8	0.15112674
196	0x3ed12568	0.4084885
197	0xbc058322	-0.00814894
198	0xbda3ab2a	-0.07991631
199	0xbe02c0e7	-0.12768899
200	0xbe394a81	-0.18094827
201	0x3e87ce84	0.26524746
202	0xbee87813	-0.4540411
203	0xbd83d18c	-0.06436452
204	0x3e29e21c	0.1659016
205	0x3e6f701e	0.23382613
206	0x3be2eee8	0.0069254525
207	0xbdd751a1	-0.10513616
208	0x3d902669	0.07038576
209	0xbebe527b	-0.37172303
210	0xbf110ad7	-0.56657165
211	0xbeb40a2b	-0.35164008
212	0x3e8646e6	0.26225966
213	0x3ea1daf3	0.31612357
214	0x3ed9481c	0.42437828
215	0xbed59f5e	-0.4172315
216	0xbe660485	-0.22462662
217	0xbf0a1c5e	-0.53949535
218	0xbe0041b5	-0.12525065
219	0x3ed031b9	0.40662935
220	0x3eb0deb1	0.345449
221	0xbe8f8371	-0.2802997
222	0xbd5a3a24	-0.053278103
223	0xbde70cbd	-0.112817265
224	0xbe0a9e54	-0.1353696
225	0xbe8c4bae	-0.2740149
226	0x3e4453cd	0.19172592
227	0x3ef60a84	0.48054898
228	0x3eb19115	0.34681
229	0x3f14b05e	0.58081615
230	0xbe07450f	-0.13209938
231	0xbe84691f	-0.2586145
232	0xbf1d3ace	-0.61417854
233	0x3ca29534	0.019846536
234	0x3ea0751b	0.31339344
235	0x3c43ea1f	0.011957674
236	0x3d34a38b	0.04410128
237	0xbee011ee	-0.4376368
238	0xbb471626	-0.0030378192
239	0x3d9cc5bf	0.076549046
240	0xbe461c08	-0.1934663
241	0xbeb759a7	-0.35810587
242	0x3e041c1b	0.12901346
243	0x3eefedef	0.46861216
244	0xbd4b0c3b	-0.04957221
245	0x3bb69a5d	0.0055726008
246	0xbee6659d	-0.449994
247	0x3d202524	0.03909792
248	0xbf433b18	-0.76262045
249	0xbcf408aa	-0.029789288
250	0x3e7e0e5b	0.24810164
251	0xbe9ed63c	-0.31022823
252	0x3e6cc010	0.23120141
253	0xbed8e36e	-0.42361015
254	0x3e6cd627	0.23128568
255	0xbe25ccd8	-0.16191423

lstm.weight_hh_l0 f4 [256, 64]
0	0x3ea391ea	0.3194726
1	0xbef8c5f3	-0.48588523
2	0xbed0c6f7	-0.40776798
3	0x3f0b6902	0.54457104
4	0x3de92d24	0.11385563
5	0xbd96e1c4	-0.0736728
6	0xbea99b67	-0.33126375
7	0xbe11d32d	-0.14240713
8	0xbd0015f1	-0.031270925
9	0xbc9476c3	-0.018123036
10	0xbeaeed4e	-0.34165424
11	0xbdb633f1	-0.08896626
12	0xbe1f8a60	-0.1558013
13	0x3ea03918	0.3129356
14	0xbeb5fc78	-0.3554418
15	0xbdf12d50	-0.11776221
16	0x3e428a12	0.18997982
17	0xbce71cb4	-0.028211929
18	0x3f025584	0.50911736
19	0x3ac7d1e9	0.0015245053
20	0x3e96ff4d	0.29491654
21	0x3d3c7f57	0.04601988
22	0x3eae0b04	0.3399278
23	0x3e927cd4	0.2861086
24	0x3e7f6bf2	0.24943522
25	0x3e4459fa	0.19174948
26	0x3e28c6e3	0.1648212
27	0x3eb4f4f9	0.3534315
28	0x3ea1b2ff	0.31581876
29	0xbf11412d	-0.56740075
30	0x3e26a1c7	0.1627265
31	0x3d58fb4e	0.052974038
32	0x3eb92d0a	0.36167175
33	0x3e0c109a	0.13678208
34	0xbdf3eba6	-0.11910181
35	0xbddab413	-0.10678878
36	0xbd217ddc	-0.03942667
37	0x3e6ed148	0.23322022
38	0x3dce12a9	0.10062153
39	0xbec729e3	-0.38899145
40	0xbeb78fb2	-0.35851818
41	0x3ee46b13	0.4461294
42	0x3ec26bc8	0.37972856
43	0xbf18217a	-0.5942608
44	0x3de47b6c	0.11156353
45	0x3e28b00e	0.1647341
46	0x3eb0670b	0.34453616
47	0x3e20a34a	0.1568729
48	0x3e378765	0.17922743
49	0x3edc602c	0.43042123
50	0x3e22326c	0.15839547
51	0x3efb21f9	0.49049357
52	0xbd98db8f	-0.074637525
53	0x3e739171	0.2378595
54	0xbed94221	-0.42433265
55	0x3e88a144	0.26685536
56	0x3ec4678f	0.3836026
57	0xbe02cf0e	-0.12774298
58	0x3d0a1967	0.03371563
59	0x3d98cf90	0.074614644
60	0x3ed85650	0.4225335
61	0x3e8806d2	0.26567703
62	0x3e7e2f97	0.24822842
63	0xbe91f9e7	-0.28510973
64	0xbed2bf2f	-0.41161487
65	0x3ef490c2	0.4776669
66	0x3e435c29	0.19078125
67	0x3f073a43	0.52823275
68	0xbde2ed7b	-0.11080452
69	0x3da5a424	0.08087948
70	0x3eb91751	0.36150602
71	0xbe83f953	-0.25776157
72	0x3cc98933	0.024601554
73	0x3bf0c2c9	0.007347439
74	0x3edc0675	0.42973676
75	0x3dea73fe	0.11447905
76	0x3e292762	0.1651893
77	0xbe5f575a	-0.21810666
78	0x3e05842b	0.130387
79	0x3dd4fa4d	0.103993036
80	0xbe06c647	-0.13161574
81	0x3e47c952	0.19510391
82	0xbe9cf9ea	-0.3065942
83	0xbe5af25d	-0.21381517
84	0xbe98f075	-0.29870954
85	0xbeb68694	-0.3564955
86	0x3f4972cd	0.786908
87	0xbd8a5c2d	-0.067558624
88	0xbdebb26f	-0.11508643
89	0x3edea002	0.4348145
90	0x3e2bc194	0.16773063
91	0xbf2a92e8	-0.6663041
92	0x3f17ec4e	0.5934495
93	0xbd5ac4c2	-0.0534103
94	0xbe8e0bfb	-0.27743515
95	0xbf0578b1	-0.52137285
96	0xbed5448c	-0.4165386
97	0x3ecb89e7	0.3975365
98	0xbe0faa0e	-0.14029714
99	0x3ecbbc35	0.39792028
100	0xbf06cf47	-0.5266003
101	0xbeb4e831	-0.35333398
102	0xbd5faa98	-0.05460605
103	0x3eba9d42	0.36448103
104	0x3e1d82fe	0.15382001
105	0xbe01d2d8	-0.12678087
106	0x3e57a774	0.21059972
107	0x3d472aef	0.04862493
108	0x3d3a0932	0.045418926
109	0x3e227c29	0.15867676
110	0x3e493050	0.19647336
111	0xbd9933af	-0.07480561
112	0xbd3ac56c	-0.045598432
113	0xbdd9c50e	-0.10633288
114	0xbee8b5f9	-0.45451334
115	0x3f53443c	0.8252599
116	0x3df21f23	0.11822345
117	0x3e612627	0.2198721
118	0x3da05068	0.07827836
119	0xbec80367	-0.39065096
120	0xbd5c0cba	-0.053723074
121	0x3f3fa9c5	0.7486842
122	0xbf44d760	-0.76891136
123	0xbe207e21	-0.15673114
124	0xbe970eac	-0.2950338
125	0x3ecc6fcf	0.39929053
126	0xbf012a9f	-0.5045566
127	0x3ebceb85	0.36898437
128	0xbd977f3a	-0.073973134
129	0xbe1dab71	-0.15397431
130	0xbe05d704	-0.13070303
131	0x3e97804b	0.29590067
132	0xbd29a662	-0.04141844
133	0xbe7040c3	-0.23462205
134	0x3e0c9d06	0.13731775
135	0x3e4642cd	0.1936142
136	0x3d9e6837	0.07734721
137	0xbe7e5282	-0.24836162
138	0xbd417281	-0.04722834
139	0x3d941ac2	0.07231666
140	0xbed7f506	-0.42179126
141	0xbd904cd5	-0.070459045
142	0xbef22141	-0.47290996
143	0x3f2ad890	0.667367
144	0xbe865e45	-0.26243797
145	0xbe269c0c	-0.16270465
146	0xbecf69b5	-0.40510336
147	0xbf15aa20	-0.58462715
148	0xbeee3591	-0.46525243
149	0xbe95e246	-0.29274195
150	0x3f3967bc	0.7242391
151	0xbe05ad80	-0.13054466
152	0xbcd9976c	-0.026561461
153	0x3dd357db	0.103194915
154	0x3ed1bd2e	0.40964645
155	0x3dad7a8d	0.0847064
156	0x3cac9db3	0.02107129
157	0x3ec4aeca	0.38414603
158	0xbeddc03b	-0.43310723
159	0xbf4746de	-0.7784251
160	0xbdc15586	-0.094401404
161	0x3c8f8716	0.017520469
162	0xbe913df0	-0.28367567
163	0x3dcdc5fd	0.10047529
164	0xbe5cbfcc	-0.2155754
165	0x3e8f822a	0.28028995
166	0x3eb51174	0.35364878
167	0x3ddab53a	0.106790975
168	0xbd8c923c	-0.068638295
169	0xbc6ccf64	-0.014453743
170	0xbd628d46	-0.05531051
171	0xbe6c0118	-0.23047292
172	0x3e345d34	0.17613679
173	0xbe017e81	-0.12645914
174	0x3d96d993	0.07365718
175	0x3f150aad	0.58219415
176	0x3f161181	0.5862046
177	0x3e3c7787	0.18404971
178	0xbe6b92fb	-0.23005287
179	0x3ef4ec4f	0.4783654
180	0xbe00d09d	-0.1257958
181	0xbe31e783	-0.17373471
182	0x3e3d9ead	0.18517561
183	0x3f052a75	0.5201791
184	0x3e4c5043	0.19952492
185	0x3e2f76cb	0.1713516
186	0xbeb8a17a	-0.36060697
187	0x3c041702	0.008062126
188	0x3e1ac647	0.151147
189	0x3ef86273	0.4851261
190	0xbdd05a3f	-0.10173463
191	0x3ed00e9f	0.40636155
192	0xbed09d3c	-0.4074496
193	0x3ef9741f	0.48721406
194	0xbe89ad45	-0.26890007
195	0x3f3f8845	0.74817306
196	0x3ea6e594	0.3259703
197	0x3eedcbec	0.46444643
198	0x3ded76e0	0.11594939
199	0xbeaea2f0	-0.34108686
200	0xbddb201b	-0.10699483
201	0x3da3192b	0.07963785
202	0xbe4d8ac5	-0.20072468
203	0x3f06e3e0	0.5269146
204	0x3e5794f5	0.21052916
205	0xbd6a6c83	-0.05723239
206	0x3f81fe21	1.0155679
207	0xbf48cf96	-0.7844175
208	0xbea011d5	-0.31263605
209	0xbe490f6b	-0.19634788
210	0x3e52785d	0.20553727
211	0xbedc00d3	-0.4296938
212	0x3c31050c	0.010804426
213	0x3e5ccc3c	0.21562284
214	0x3b56076a	0.0032658228
215	0xbed44ea8	-0.4146626
216	0x3f099595	0.5374387
217	0xbe7cb2f9	-0.24677648
218	0x3f1b2ee6	0.60618436
219	0xbf4f85a5	-0.810633
220	0xbeb5c492	-0.35501534
221	0xbf23ebbb	-0.6403157
222	0x3e08782f	0.13327096
223	0x3dee2ff9	0.11630244
224	0x3df44a5d	0.11928246
225	0x3f098103	0.5371248
226	0xbf192502	-0.59822094
227	0x3cf18464	0.029482074
228	0xbeb2ff5f	-0.34960458
229	0x3c5103a0	0.012757212
230	0xba30d0ad	-0.00067449623
231	0x3e862d25	0.26206318
232	0xba219099	-0.00061632093
233	0x3e94af9e	0.29040235
234	0x3edc5e93	0.43040904
235	0xbda94f4f	-0.0826708
236	0x3f0f656e	0.56014144
237	0xbf4d1a91	-0.8011866
238	0x3ddf12e0	0.10892272
239	0x3e63c1fd	0.2224197
240	0xbebafea4	-0.365224
241	0xbe5c18a3	-0.21493773
242	0x3cc2afe0	0.023765504
243	0x3e4c81eb	0.19971435
244	0xbc87caf0	-0.01657626
245	0xbe91bfc2	-0.28466612
246	0xbc2bb855	-0.01048096
247	0xbe526b9b	-0.2054886
248	0x3c04c608	0.008103855
249	0x3de0989c	0.10966608
250	0x3e405c79	0.18785276
251	0x3b3b00db	0.0028534445
252	0xbe2eda91	-0.17075564
253	0xbf14893b	-0.580219
254	0xbd418331	-0.047244254
255	0x3ee01d38	0.43772292

lstm.bias_ih_l0 f4 [256]
0	0xbece94fb	-0.40348038
1	0xbe889ab4	-0.2668053
2	0x3e8f0e6e	0.27940696
3	0xbe69571c	-0.22787136
4	0xbf39a145	-0.725117
5	0xbe870006	-0.26367205
6	0xbf086780	-0.5328293
7	0x3db41aa7	0.08794146
8	0xbe7ecdd6	-0.24883208
9	0xbe8e7f9b	-0.2783173
10	0xbf002779	-0.5006023
11	0xbe4d547c	-0.2005176
12	0xbf15bc70	-0.5849066
13	0xbed11ea4	-0.4084369
14	0xbeabc838	-0.33551192
15	0xbf2f788f	-0.6854333
16	0xbed8a29e	-0.42311567
17	0xbebe28cf	-0.3714051
18	0xbef449b3	-0.47712478
19	0xbe599367	-0.21247636
20	0xbf1eaedb	-0.6198556
21	0xbf177601	-0.59164435
22	0x3e28f248	0.16498673
23	0xbefab3bf	-0.4896526
24	0xbf061acc	-0.5238464
25	0xbf5d6ff7	-0.8649897
26	0xbf1c5d0d	-0.61079484
27	0xbed0a709	-0.40752438
28	0xbf0f202d	-0.5590847
29	0xbf19f9f7	-0.6014704
30	0x3e47e24d	0.1951992
31	0xbed6e7c0	-0.41973686
32	0xbf66930a	-0.90068114
33	0xbf3e0d94	-0.7423947
34	0x3caf6006	0.021408092
35	0xbf35c338	-0.71001005
36	0xbe8d5b30	-0.27608633
37	0xbf0d77f2	-0.5526115
38	0xbea8b159	-0.32947806
39	0xbef9a788	-0.4876063
40	0xbf14f878	-0.58191633
41	0xbe4a4c88	-0.19755757
42	0xbea1eaf5	-0.3162457
43	0xbeee8f81	-0.4659386
44	0xbf0a46aa	-0.54014075
45	0xbf3680f1	-0.712905
46	0xbf0cb2ec	-0.54960513
47	0xbed68bd8	-0.41903567
48	0xbd49ef51	-0.049300496
49	0xbf0ddac6	-0.55411947
50	0xbedfcb10	-0.43709612
51	0xbee233b0	-0.4418006
52	0xbf3283d8	-0.6973243
53	0xbefe3ab9	-0.49654177
54	0xbee322d2	-0.44362503
55	0xbf24ce3a	-0.64377177
56	0xbee1e1b4	-0.4411751
57	0xbefc37e7	-0.492614
58	0xbf26ab09	-0.6510473
59	0xbe0ab62d	-0.13546057
60	0xbebeefa6	-0.37292212
61	0xbf23a3eb	-0.63921994
62	0xbf1ca452	-0.6118823
63	0xbf039de7	-0.51412815
64	0xbe094acc	-0.13407439
65	0xbe383dae	-0.17992279
66	0x3c436edd	0.011928287
67	0xbe80eaed	-0.25179234
68	0xbf16062a	-0.58603156
69	0xbde092c0	-0.1096549
70	0x3e51e2dd	0.20496698
71	0xbe0e6066	-0.1390396
72	0xbe9c1f31	-0.30492547
73	0xbe094b9d	-0.1340775
74	0xbeee76f4	-0.4657513
75	0x3e684898	0.22683942
76	0x3ed288aa	0.4111989
77	0xbe9bd56a	-0.3043626
78	0xbe9f86d2	-0.31157547
79	0xbe24f777	-0.16110025
80	0xbe959d41	-0.29221538
81	0xbeb1b417	-0.3470771
82	0xbf2c5f2f	-0.6733274
83	0xbf11c9af	-0.5694837
84	0x3d7ce4b3	0.061741542
85	0xbe8b46ab	-0.27202353
86	0xbe1015fc	-0.14070886
87	0xbda14562	-0.07874562
88	0x3cec87c1	0.028873326
89	0x3e8eeca6	0.27914923
90	0xbf000b96	-0.5001768
91	0xbec488e3	-0.38385686
92	0xbf09b8de	-0.5379771
93	0xbf1ef547	-0.62093014
94	0xbeb350fc	-0.35022724
95	0xbe8f55d7	-0.27995178
96	0xbd5ccc92	-0.05390603
97	0x3e3c3684	0.18380171
98	0xbe240a00	-0.1601944
99	0x3e97fe42	0.2968617
100	0xbec3c711	-0.38237813
101	0x3e2bc0e8	0.16772807
102	0xbe9bbd30	-0.30417776
103	0xbece5914	-0.40302336
104	0xbe33644f	-0.17518733
105	0xbf3cf081	-0.7380448
106	0xbeb1d9cf	-0.34736487
107	0xbd396d9c	-0.045270547
108	0xbe4ceade	-0.2001147
109	0xbeaf74d5	-0.34268823
110	0x3de06f4d	0.10958729
111	0x3e6db5ba	0.23213854
112	0xbe0ee713	-0.13955335
113	0xbe300372	-0.17188814
114	0xbf1d7c6d	-0.61517984
115	0x3e182bea	0.14860502
116	0x3ce34103	0.027740961
117	0xbe2caca8	-0.16862738
118	0xbe8419fb	-0.25801072
119	0xbd275b09	-0.040858302
120	0xbd0310b8	-0.031998366
121	0xbc96f1ae	-0.018425789
122	0xbf2b7343	-0.6697275
123	0xbea32084	-0.31860745
124	0xbdf694ed	-0.12040124
125	0xbe5b02ec	-0.21387833
126	0x3e466e0a	0.19377914
127	0x3d55495c	0.052071914
128	0x3e9faeaf	0.3118796
129	0xbcb68bf5	-0.022283534
130	0xbd988b3b	-0.07448431
131	0x3d605ab0	0.054773986
132	0xbdb39c23	-0.08770015
133	0x3e1d77ef	0.15377782
134	0xbea7a720	-0.32744694
135	0x3e538955	0.20657857
136	0x3e07f522	0.13277104
137	0xbd0ab0a5	-0.033859868
138	0x3dec091d	0.11525176
139	0xbd129fc5	-0.0357969
140	0x3dfe86e6	0.124280736
141	0x3c883219	0.01662545
142	0xbe03c38e	-0.12867567
143	0x3e1d754d	0.15376778
144	0xbe4b78e2	-0.19870332
145	0x3e064957	0.13113914
146	0xbe298352	-0.16554001
147	0x3ec52c7f	0.3851051
148	0xbe03d85a	-0.128755
149	0xbd93d1ec	-0.07217774
150	0xbdc5c1c5	-0.09656099
151	0x3de4df9c	0.111754626
152	0x3e581ac8	0.21103966
153	0xbe01bfa8	-0.12670767
154	0xbd814dd7	-0.06313675
155	0x3d93d976	0.07219212
156	0xbd0dad9b	-0.03458939
157	0x3dd25545	0.1027017
158	0xbdbb815b	-0.09155532
159	0xbd63bd70	-0.055600584
160	0x3e0cd52b	0.13753192
161	0x3e3b6f3f	0.18304156
162	0xbeacaa22	-0.3372355
163	0x3be9597b	0.0071212626
164	0x3da9d724	0.08292988
165	0xbdafe3c3	-0.08588364
166	0xbdb3589f	-0.087571375
167	0xbe38a2b0	-0.1803081
168	0x3d102ccc	0.03519897
169	0xbcf64f85	-0.030067215
170	0x3d3d1470	0.04616207
171	0x3e814a36	0.2525193
172	0xbd2923e8	-0.04129401
173	0xbdc5a524	-0.09650639
174	0xbdaa444f	-0.0831381
175	0xbe3427a6	-0.1759325
176	0x3e1dd217	0.15412174
177	0xbe0ae7c6	-0.13564977
178	0x3daaa577	0.08332341
179	0xbe42b793	-0.1901534
180	0xbe81a8aa	-0.25323993
181	0x3e0a6de2	0.1351848
182	0xbb895287	-0.004190746
183	0x3d1e1316	0.03859242
184	0xbd8a36ee	-0.06748758
185	0xbe881cdc	-0.26584518
186	0xbc1cfeb8	-0.009582214
187	0xbd197853	-0.037468266
188	0xbda22801	-0.079177864
189	0x3e2c2971	0.16812684
190	0x3df24c89	0.11831004
191	0x3d46045e	0.04834401
192	0xbe6df020	-0.23236132
193	0x3e840f28	0.25792813
194	0x3f2ee5cf	0.6831941
195	0xbe9b922d	-0.3038496
196	0xbf201998	-0.6253905
197	0xbf006cf9	-0.5016628
198	0x3c73ddd2	0.014884429
199	0xbe2e07f6	-0.16995224
200	0x3ddd69b8	0.1081118
201	0xbe308890	-0.17239594
202	0xbed03985	-0.40668884
203	0xbd6177a7	-0.05504575
204	0xbeb6840c	-0.3564762
205	0xbf26bba1	-0.6513005
206	0xbf03cc12	-0.5148326
207	0xbf1886f4	-0.5958092
208	0xbee87c72	-0.45407444
209	0xbe9d2ad6	-0.30696744
210	0xbe28c554	-0.16481525
211	0x3e5fcd93	0.21855764
212	0xbea3fe9a	-0.32030183
213	0xbede5aca	-0.43428642
214	0xbced70ba	-0.028984416
215	0xbe609d96	-0.21935114
216	0xbecc3924	-0.39887345
217	0xbf1f17b0	-0.6214552
218	0xbf3e6ca8	-0.74384546
219	0xbd8066f5	-0.062696375
220	0xbec04a52	-0.37556702
221	0xbe782d53	-0.2423604
222	0xbce4d30c	-0.027932666
223	0xbeb03803	-0.34417734
224	0xbea35027	-0.3189709
225	0xbc760eaf	-0.015018149
226	0xbe1a48c2	-0.15066817
227	0xbf3acc7c	-0.7296827
228	0xbe528dec	-0.20561951
229	0xbdcaa677	-0.09895032
230	0xbe77b7e0	-0.24191236
231	0xbee88115	-0.45410982
232	0xbeffd584	-0.49967587
233	0xbe9eecdf	-0.31040093
234	0xbe930ba1	-0.2871981
235	0xbe36d6fa	-0.17855445
236	0xbf206129	-0.62648255
237	0xbf04a9c0	-0.5182152
238	0xbec2b6dc	-0.38030136
239	0xbefa5a6b	-0.48897108
240	0x3df68004	0.12036136
241	0xbebe28ee	-0.37140602
242	0xbe87a4bf	-0.2649288
243	0xbeb43447	-0.35196134
244	0xbed83ae8	-0.42232442
245	0xbf0b838e	-0.5449761
246	0x3bbda542	0.0057875225
247	0xbe3b9b33	-0.18320923
248	0xbe91057f	-0.28324506
249	0xbdb3f2f2	-0.087865725
250	0xbeb9b7a0	-0.36272907
251	0xbd85b3b3	-0.065284155
252	0xbe42e854	-0.19033939
253	0xbec2d635	-0.38054052
254	0xbd9863b9	-0.074408956
255	0xbec3a824	-0.3821422

lstm.bias_hh_l0 f4 [256]
0	0xbea651bc	-0.32484233
1	0xbeae6f79	-0.34069422
2	0x3e683c82	0.22679332
3	0xbe9a3e69	-0.3012574
4	0xbf57422a	-0.84085333
5	0xbecc5729	-0.39910248
6	0xbf0fb462	-0.5613462
7	0x3da611ba	0.0810885
8	0xbe3f8ce8	-0.18706095
9	0xbe7420b3	-0.23840599
10	0xbf0bcf6d	-0.5461338
11	0xbed1eeb7	-0.41002437
12	0xbf207a0b	-0.6268622
13	0xbf0bbcf9	-0.54585224
14	0xbee6cd27	-0.45078394
15	0xbf2b0894	-0.66809964
16	0xbe794e69	-0.24346317
17	0xbec2a778	-0.38018394
18	0xbed55ec3	-0.4167386
19	0xbe81071f	-0.25200745
20	0xbf3ba17c	-0.7329328
21	0xbf075d3d	-0.52876645
22	0x3e38ace0	0.18034697
23	0xbe955ec6	-0.2917387
24	0xbec3a8d3	-0.3821474
25	0xbf454f40	-0.7707405
26	0xbf0c5a42	-0.5482522
27	0xbeb9b9ed	-0.36274663
28	0xbf10ab56	-0.5651144
29	0xbf10c0b5	-0.5654405
30	0x3ec09a55	0.37617746
31	0xbec851f3	-0.39125022
32	0xbf2d58be	-0.67713535
33	0xbf4c0801	-0.79699713
34	0x3d67b889	0.05657247
35	0xbf24f00e	-0.64428794
36	0xbe2ad433	-0.1668251
37	0xbf1291b4	-0.57253575
38	0xbeb33002	-0.34997565
39	0xbeeab787	-0.45843145
40	0xbf149210	-0.58035374
41	0xbe82b6d5	-0.25530115
42	0xbe98e44f	-0.29861686
43	0xbec1f0a5	-0.3787891
44	0xbef885c4	-0.48539555
45	0xbf57e01a	-0.84326327
46	0xbf2c68f4	-0.67347646
47	0xbed562d1	-0.41676953
48	0xbdfbc209	-0.12292869
49	0xbef417cb	-0.47674403
50	0xbe8aaa54	-0.27083075
51	0xbf0953b6	-0.5364336
52	0xbf0d76bf	-0.5525932
53	0xbf14a70c	-0.58067393
54	0xbee86702	-0.4539109
55	0xbf39b610	-0.7254343
56	0xbe806ede	-0.25084585
57	0xbeeb74bc	-0.459875
58	0xbf03a0ef	-0.5141744
59	0xbe38a05e	-0.18029925
60	0xbed8c625	-0.42338672
61	0xbf479d8d	-0.7797478
62	0xbf260532	-0.6485168
63	0xbeccd483	-0.40005884
64	0xbe19653a	-0.14980021
65	0xbe09bd5d	-0.13451143
66	0xbcce8f4d	-0.025214816
67	0xbec00e3d	-0.37510863
68	0xbf0a2d90	-0.5397577
69	0xbe6510f0	-0.22369742
70	0x3d63ff19	0.055663202
71	0xbe8acaea	-0.27107936
72	0xbe168197	-0.14697872
73	0xbe65ff09	-0.2246057
74	0xbecfd523	-0.40592298
75	0x3e713d7c	0.2355861
76	0x3ef88367	0.48537752
77	0xbe91ac0e	-0.2845158
78	0xbe33d46b	-0.175615
79	0xbdbfbd9c	-0.09362337
80	0xbe3b9709	-0.18319334
81	0xbeeb6584	-0.45975888
82	0xbf3a4dcf	-0.72774976
83	0xbf04ec87	-0.5192341
84	0x3de58342	0.11206676
85	0xbe89c8cc	-0.26911008
86	0xbd96f1d9	-0.073703475
87	0x3de28419	0.11060352
88	0x3ce463ca	0.027879614
89	0x3e76978c	0.24081248
90	0xbf1bc4f1	-0.60847384
91	0xbeb7d6fb	-0.35906205
92	0xbee4053e	-0.4453525
93	0xbf01e5dd	-0.5074137
94	0xbee76828	-0.45196652
95	0xbe78db17	-0.24302326
96	0xbd12912d	-0.03578298
97	0x3e3a7da8	0.18211997
98	0xbe22a34d	-0.15882607
99	0x3ea28aee	0.3174662
100	0xbeaf3fae	-0.3422827
101	0x3eb25e94	0.34837782
102	0xbee621d9	-0.449477
103	0xbedf6f27	-0.4363949
104	0xbebc3b0f	-0.36763808
105	0xbf171658	-0.5901847
106	0xbeb9b772	-0.3627277
107	0xbd3d8575	-0.046269853
108	0xbe260e61	-0.16216423
109	0xbe74d3af	-0.23908876
110	0x3e210fc7	0.15728675
111	0x3ea7126a	0.32631236
112	0xbe517866	-0.20456085
113	0xbe02335e	-0.12714908
114	0xbf3a0b49	-0.7267347
115	0x3d9e4bdd	0.077293135
116	0xbcc52d24	-0.024069376
117	0xbcaaaf5f	-0.020835577
118	0xbe8cd2a7	-0.27504465
119	0x3e040661	0.12893058
120	0xbdc5e42e	-0.096626624
121	0xbe00ff31	-0.12597348
122	0xbf2ef0d5	-0.6833623
123	0xbe5138db	-0.20431845
124	0xbd8b73b6	-0.068091795
125	0xbe53d93f	-0.20688342
126	0x3d71fee1	0.059080962
127	0x3e0e4d1c	0.13896602
128	0x3e2c5925	0.16830881
129	0xbdc6046c	-0.09668812
130	0x3c8a95d1	0.016917141
131	0x3c8d9378	0.017282233
132	0xbe0aa138	-0.13538063
133	0x3d3ca6cb	0.046057504
134	0xbe85641b	-0.26052937
135	0x3def76b9	0.116925664
136	0x3dccb727	0.09995871
137	0xbdd3ea81	-0.103474624
138	0x3daff978	0.08592504
139	0xbe5331ad	-0.20624419
140	0x3dc9ab61	0.09847141
141	0x3dbe0e20	0.09280038
142	0xbe85f847	-0.26165983
143	0xbc3a1d93	-0.01135959
144	0xbe02b836	-0.12765583
145	0x3d59b87d	0.053154457
146	0xbe501b80	-0.2032299
147	0x3e8fa29a	0.28053743
148	0xbe3c74b7	-0.18403898
149	0x3d5d4daf	0.054029163
150	0xbe0de8cb	-0.13858335
151	0x3dbe0945	0.09279112
152	0x3d7fc090	0.0624395
153	0xbdb06bec	-0.086143345
154	0x3cfd6dd0	0.030936152
155	0x3e08c926	0.13357982
156	0xbd08372c	-0.03325574
157	0x3d8db82e	0.06919895
158	0xbe32f72d	-0.17477103
159	0xbda1c847	-0.07899528
160	0xbb67933f	-0.0035335568
161	0x3e94cb44	0.2906133
162	0xbeaa7d99	-0.33298948
163	0x3be23fc1	0.0069045727
164	0xbd077702	-0.03307248
165	0xbe245d9c	-0.16051334
166	0xbd4af6ed	-0.049551893
167	0xbe5ea0a1	-0.21740963
168	0xbc994d8a	-0.018713731
169	0xbd6490e6	-0.05580225
170	0xbd12c192	-0.035829134
171	0x3e8e35c6	0.277754
172	0x3b2e99f6	0.002664206
173	0xb94b3064	-0.00019377616
174	0xbe4e9929	-0.20175613
175	0xbeaf4fed	-0.34240666
176	0xbd2e5da8	-0.042569786
177	0xbe830418	-0.2558906
178	0xbc6e8935	-0.01455908
179	0xbd88894b	-0.066668116
180	0xbe20196e	-0.156347
181	0x3e026b60	0.12736273
182	0xbd19f9de	-0.037591808
183	0x3de14aff	0.110006325
184	0xbe20e5a8	-0.15712607
185	0xbe356f6d	-0.17718287
186	0x3db88d28	0.090112984
187	0xbdbe7e1b	-0.093013965
188	0xbe4e3c83	-0.20140271
189	0x3d3473f1	0.044055883
190	0x3e4c50d4	0.19952708
191	0x3cd7e15d	0.026352579
192	0xbc9ed2ee	-0.019387688
193	0x3e3f48df	0.18680142
194	0x3f0fe520	0.5620899
195	0xbeaf14e7	-0.34195635
196	0xbf3f06c0	-0.74619675
197	0xbea9c35d	-0.33156863
198	0x3c34a501	0.011025668
199	0xbe868b9f	-0.26278397
200	0x3e8367f0	0.25665236
201	0xbe3d8666	-0.185083
202	0xbed1d029	-0.40979126
203	0xbdd32bb6	-0.103110716
204	0xbe267c79	-0.1625842
205	0xbf0d5b62	-0.55217564
206	0xbea67dc5	-0.3251783
207	0xbf2aae7a	-0.6667248
208	0xbef0dc6a	-0.47043163
209	0xbe927cd2	-0.28610855
210	0xbe3e2a99	-0.18570937
211	0x3cfa264b	0.030535838
212	0xbeb1747d	-0.34659186
213	0xbee640b6	-0.44971246
214	0xbda8e131	-0.08246077
215	0xbee28e25	-0.44249073
216	0xbf047ed5	-0.5175603
217	0xbf1fcd17	-0.6242232
218	0xbf462ad5	-0.77409106
219	0x3c239aab	0.009985606
220	0xbe9d26bc	-0.30693614
221	0xbe639c4f	-0.22227596
222	0x3cc7c0e4	0.02438397
223	0xbe97f44a	-0.29678565
224	0xbeb6e029	-0.35717896
225	0xbe66e670	-0.22548842
226	0xbe5b616c	-0.21423882
227	0xbf3bbffa	-0.7333981
228	0xbe508140	-0.20361805
229	0xbe21dcb1	-0.15806843
230	0xbe8af8f0	-0.2714305
231	0xbef31af2	-0.47481495
232	0xbf029420	-0.5100727
233	0xbeb9c2f2	-0.36281544
234	0xbe0f54c6	-0.13997182
235	0xbdc4b4df	-0.09604811
236	0xbf1dfe11	-0.617158
237	0xbf071a13	-0.5277416
238	0xbe6cbbdb	-0.23118536
239	0xbee031af	-0.43787906
240	0x3d443943	0.04790617
241	0xbec36cbc	-0.38168895
242	0xbe3dfa9d	-0.18552633
243	0xbec87621	-0.39152625
244	0xbe697049	-0.2279674
245	0xbefd7bee	-0.49508613
246	0xbc2b5eb1	-0.010459588
247	0xbe296e7c	-0.16546053
248	0xbeaf0a2d	-0.3418745
249	0xbe73ff41	-0.2382784
250	0xbeeeaf05	-0.46617904
251	0x3de59e2a	0.11211808
252	0xbdfb8fbe	-0.12283276
253	0xbee0dfaf	-0.43920657
254	0xbe1b4ffe	-0.15167233
255	0xbf19cc89	-0.6007772

lstm.weight_ih_l1 f4 [256, 64]
0	0x3bf320ba	0.007419673
1	0xbe50799c	-0.2035889
2	0xbf792da8	-0.9733529
3	0xbf299b09	-0.6625219
4	0x3e3e7cea	0.18602338
5	0xbe81e3a0	-0.25368977
6	0x3e3570e6	0.17718849
7	0x3ecc71dd	0.3993062
8	0x3f5f62f3	0.8726036
9	0xbf2e8e3c	-0.6818578
10	0xbd9dee79	-0.07711501
11	0x3cb15999	0.021649169
12	0x3dc79b46	0.09746413
13	0xbebb3f67	-0.3657181
14	0xbe987b6f	-0.29781672
15	0xbd887b8b	-0.06664189
16	0xbc75a140	-0.014992058
17	0x3e11f9aa	0.14255396
18	0xbf1b49dc	-0.60659575
19	0x3fd34328	1.650487
20	0xbd2ed7af	-0.04268616
21	0x3f5a147e	0.8518752
22	0xbf948bfb	-1.1605219
23	0xbe4bbbba	-0.19895831
24	0xbd9c7e85	-0.07641319
25	0x3f2e3534	0.6804993
26	0x3e870055	0.2636744
27	0x3f51a378	0.8189006
28	0x3e8d4367	0.27590486
29	0xbda2c7e6	-0.07948284
30	0xbef9dee2	-0.4880286
31	0xbf35659d	-0.70858175
32	0xbe70c8b8	-0.23514068
33	0xbb02e5cc	-0.0019973395
34	0x3de437cf	0.11143457
35	0xbe36e1cc	-0.17859572
36	0x3f430cb4	0.7619126
37	0xbc8cdb87	-0.017194523
38	0xbd5a9b72	-0.0533709
39	0x3dd855b3	0.10563221
40	0xbf1c8d13	-0.6115276
41	0x3ea2956c	0.31754625
42	0xbe485335	-0.19562991
43	0x3ec6b2dd	0.38808337
44	0xbe362a7e	-0.17789647
45	0x3c9ef322	0.019403044
46	0x3f27b514	0.6551068
47	0xbe95186b	-0.29120192
48	0x3f9aeef3	1.2104172
49	0x3e9344a7	0.28763315
50	0x3f0ddb9e	0.55413234
51	0xbec4159f	-0.38297746
52	0x3f2cf7e1	0.67565733
53	0x3f83977b	1.0280603
54	0xbf071d97	-0.52779526
55	0x3f5548a6	0.8331398
56	0x3d65fcfb	0.056149464
57	0x3ec838a4	0.39105713
58	0xbf40e2e9	-0.7534624
59	0x3f4303c5	0.76177627
60	0x3e0c5040	0.13702488
61	0x3d874f6c	0.066069454
62	0xbb2d0e1d	-0.0026406117
63	0x3e4177cf	0.1889336
64	0xbea1148c	-0.3146099
65	0xbe69f343	-0.22846703
66	0xbed71657	-0.4200923
67	0x3f341b2e	0.7035397
68	0x3e54b625	0.20772608
69	0xbf056d57	-0.52119964
70	0x3eb60cfa	0.35556775
71	0x3d1063bc	0.035251364
72	0x3f057a65	0.52139884
73	0xbf30749f	-0.6892795
74	0x3ecb5060	0.3970976
75	0x3befe668	0.0073211677
76	0xbda1a5df	-0.078929655
77	0xbf54fa6e	-0.83194625
78	0xbf219aef	-0.63127035
79	0x3ec2dddb	0.38059887
80	0x3e991b23	0.29903516
81	0x3eac94e1	0.33707336
82	0xbeee2b89	-0.4651759
83	0x3ca9c094	0.020721711
84	0xbe569c17	-0.20957981
85	0x3cfaaca2	0.030599896
86	0x3ce59bc3	0.028028375
87	0x3db2f606	0.087383315
88	0x3df3f200	0.11911392
89	0x3f012684	0.50449395
90	0xbf63b883	-0.8895342
91	0x3e4dd306	0.2010003
92	0xbdfda0b3	-0.123841666
93	0x3edaade5	0.42710796
94	0x3cbb51e1	0.022866191
95	0xbdccb6a8	-0.099957764
96	0x3e27b56f	0.16377805
97	0xbf1b7863	-0.6073057
98	0x3b5207a3	0.003204801
99	0xbd26cd56	-0.040723167
100	0x3f3bda6a	0.7338015
101	0x3e780b17	0.2422298
102	0x3f1de3ec	0.61675906
103	0x3f0a384e	0.53992164
104	0x3e856539	0.2605379
105	0x3dd3484d	0.10316525
106	0x3e707ae0	0.23484373
107	0xbd39f660	-0.045400977
108	0x3e5b3b08	0.21409237
109	0x3e834891	0.256413
110	0x3ecaf212	0.3963781
111	0x3f0f1388	0.5588918
112	0x3cd9a682	0.026568655
113	0x3dde4a62	0.10854031
114	0xbf7313f8	-0.94952345
115	0xbbbfcece	-0.0058535105
116	0x3f02f589	0.51155907
117	0xbc8332d3	-0.016015446
118	0x3e74c920	0.23904848
119	0xbcbfad22	-0.023397986
120	0x3e2a1648	0.16610062
121	0x3e9bdd7e	0.30442423
122	0x3f15b32c	0.5847652
123	0x3d899fcb	0.06719931
124	0x3d040880	0.03223467
125	0x3d988415	0.07447068
126	0xbe2327c6	-0.15933141
127	0xbe91937c	-0.28432834
128	0x3e43954e	0.19099924
129	0x3f6d108c	0.92603374
130	0x3eb58831	0.35455468
131	0x3ea1d4bc	0.31607616
132	0xbdf5f611	-0.12009824
133	0xbe2992bb	-0.1655988
134	0x3db7ee22	0.08980967
135	0xbf0c9b32	-0.5492431
136	0xbf5542ee	-0.8330525
137	0x3efe7fbd	0.49706832
138	0x3eec74f7	0.46182987
139	0x3f1e41b9	0.61819035
140	0xbdd869f8	-0.10567087
141	0x3e9c79a6	0.3056156
142	0x3f023663	0.5086424
143	0xbf96c6d5	-1.1779429
144	0x3d9ebb01	0.07750512
145	0xbed852a9	-0.42250565
146	0x3da3211c	0.079652995
147	0xbe0fb706	-0.14034662
148	0xbe795054	-0.24347049
149	0xbe55b4ae	-0.20869705
150	0xbc1156df	-0.008870809
151	0x3dc05041	0.09390307
152	0xbdfcd6b2	-0.123456374
153	0xbc1cd210	-0.009571567
154	0xbf1d5e59	-0.6147209
155	0xbdf8f9b2	-0.121570006
156	0xbec0df9a	-0.37670594
157	0xbf4b31ac	-0.7937267
158	0x3f0aca39	0.5421482
159	0x3e93fd18	0.28904033
160	0x3e219c98	0.15782392
161	0x3f3aba4d	0.7294052
162	0xbdc9ec2a	-0.09859498
163	0x3cc81ddf	0.024428306
164	0xbf2dd9c2	-0.679104
165	0x3e9b633d	0.3034915
166	0xbf9130ce	-1.1343019
167	0xbde3205f	-0.11090159
168	0x3de0b87b	0.10972687
169	0x3e881869	0.26581123
170	0xbb53bd2c	-0.00323088
171	0x3eba58a3	0.3639575
172	0x3e1f9421	0.1558385
173	0x3e501cb9	0.20323457
174	0xbe870082	-0.26367575
175	0x3e1dbe14	0.1540454
176	0xbf1f28df	-0.6217174
177	0xbecb1bd2	-0.39669663
178	0xbf295ebf	-0.66160196
179	0x3f27ff18	0.6562362
180	0x3eb67acd	0.35640565
181	0x3e9b7df1	0.30369523
182	0x3e8269a4	0.25471222
183	0xbfa0b3da	-1.2554886
184	0xbedfbcd8	-0.43698764
185	0xbea30c97	-0.31845543
186	0x3e7ec1e6	0.24878654
187	0x3efe5e25	0.49681202
188	0xbd83a054	-0.064270645
189	0x3e886386	0.2663843
190	0x3d99c6e5	0.07508639
191	0xbf4a7f0a	-0.79100096
192	0xbdb1fda9	-0.0869096
193	0x3ea3ce9c	0.31993568
194	0xbd76d1c1	-0.06025863
195	0x3e5bac95	0.21452554
196	0xbda60cf5	-0.0810794
197	0x3e3c647f	0.18397711
198	0x3e2aa116	0.16663012
199	0x3c9dcd74	0.019263007
200	0xbe4a6f23	-0.19768958
201	0xbe5bfa29	-0.21482147
202	0xbf2273cd	-0.6345795
203	0x3e7d6b91	0.24748065
204	0xbdd69031	-0.10476721
205	0x3dfdde9b	0.12395974
206	0x3f032965	0.5123504
207	0xbf5cecd1	-0.86298853
208	0x3dcc6a99	0.099812694
209	0x3f044f98	0.5168395
210	0xbe672d1b	-0.225758
211	0x3e6acbf2	0.22929361
212	0xbf0eaca9	-0.5573221
213	0x3f477490	0.77912235
214	0xbf3fe1d2	-0.7495395
215	0xbe53bb6d	-0.20676966
216	0xbd9e915c	-0.07742569
217	0x3ed80c01	0.42196658
218	0x3cd652ed	0.026162589
219	0x3e17c4e7	0.14821206
220	0xbfcc7122	-1.5972025
221	0x3f16ca62	0.5890256
222	0xbf625ba1	-0.88421065
223	0x3e2e05bf	0.1699438
224	0xbd1ca183	-0.038239967
225	0xbf1a9711	-0.6038676
226	0x3e951dc6	0.29124278
227	0x3e6cf7f3	0.2314146
228	0xbf0bb9a5	-0.54580146
229	0xbca204fa	-0.019777764
230	0xbe764cc7	-0.24052726
231	0x3e1e29e2	0.15445665
232	0x3e73a57d	0.23793598
233	0xbd87dee8	-0.06634313
234	0xbeef1344	-0.46694386
235	0xbeaeed56	-0.34165448
236	0x3e0e82b1	0.13917042
237	0x3e9f951a	0.31168443
238	0x3f54f36f	0.8318395
239	0xbf5f5f0d	-0.8725441
240	0xbf9d3703	-1.2282413
241	0x3de38c34	0.11110726
242	0x3c84498d	0.016148353
243	0xbe85cd54	-0.26133215
244	0xbd906779	-0.07050986
245	0xbecca317	-0.39968178
246	0xbde51c7a	-0.11187072
247	0x3eebb2e2	0.46034914
248	0x3e603058	0.21893442
249	0x3e52634b	0.2054569
250	0x3f888f21	1.066868
251	0x3e4d34b3	0.20039634
252	0x3da24410	0.07923138
253	0xbf36433a	-0.7119633
254	0x3ed95e08	0.42454553
255	0x3dc59893	0.09648242

lstm.weight_hh_l1 f4 [256, 64]
0	0xbc51c704	-0.012803797
1	0xbdbb02ab	-0.09131368
2	0x3eff9452	0.49917847
3	0xbf7ba020	-0.98291206
4	0x3e121c3f	0.14268588
5	0x3df4f686	0.11961083
6	0x3e1aa024	0.15100151
7	0x3ea8acb6	0.32944268
8	0xbe546a03	-0.20743565
9	0xbf0ee75b	-0.5582177
10	0xbe6db662	-0.23214105
11	0x3ebff0ca	0.37488395
12	0x3da5cfeb	0.08096298
13	0x3e61775b	0.22018187
14	0x3e117590	0.14205003
15	0x3e72e626	0.23720607
16	0xbf2bc92d	-0.67103845
17	0x3e9581b2	0.29200512
18	0x3e9a6437	0.30154583
19	0x3d935451	0.071938165
20	0x3e9c2ebe	0.3050441
21	0x3ecbbe80	0.39793777
22	0x3e137321	0.14399387
23	0x3d9d8d92	0.07693018
24	0x3f691759	0.9105125
25	0xbec8363d	-0.3910388
26	0x3d198694	0.03748186
27	0x3e38539c	0.18000644
28	0xbd888a90	-0.06667054
29	0x3cea3048	0.028587475
30	0xbf40d544	-0.7532542
31	0x3f189036	0.5959505
32	0x3e923caa	0.28561908
33	0x3f268190	0.65041447
34	0xbd3a6eeb	-0.045515936
35	0x3f17f406	0.59356725
36	0x3ed73a4d	0.42036667
37	0x3dfdd569	0.123942204
38	0x3ea3c5dc	0.31986892
39	0x3ea36d3b	0.31919274
40	0x3e243f0c	0.16039675
41	0x3f2454d1	0.6419192
42	0x3e8ab92a	0.27094394
43	0x3eb477b8	0.35247588
44	0xbc9052d2	-0.017617617
45	0x3f137713	0.5760357
46	0xbeeb82e7	-0.45998308
47	0xbe54743c	-0.20747465
48	0xbdc7d729	-0.097578354
49	0x3de6805b	0.112549506
50	0x3d34a1ac	0.044099495
51	0x3eb92262	0.36159045
52	0x3cf65343	0.030069
53	0xbe838581	-0.25687793
54	0x3e4f8d0b	0.20268647
55	0xbeda98e0	-0.4269476
56	0xbd114803	-0.035469066
57	0xbf16cbaf	-0.58904546
58	0x3ea0845c	0.31350982
59	0x3e5a22d3	0.21302347
60	0x3dd507cd	0.104018785
61	0xbe09c53a	-0.13454142
62	0xbf2ebab5	-0.6825364
63	0xbe9602c3	-0.29298982
64	0x3ebb0b89	0.36532238
65	0x3e1523cf	0.14564441
66	0x3e296266	0.16541442
67	0x3ec479bd	0.3837413
68	0x3dbe2fc3	0.092864536
69	0x3ed5024f	0.41603324
70	0x3e18066f	0.14846204
71	0xbdb87dbf	-0.09008359
72	0x3e9053f1	0.28189042
73	0x3f146ecc	0.5798156
74	0xbe2ab957	-0.16672264
75	0xbdc167bd	-0.09443615
76	0x3ea4bd68	0.32175756
77	0x3e19b79b	0.15011446
78	0xbc215485	-0.009846811
79	0x3c2b3804	0.010450367
80	0x3df5112c	0.11966166
81	0x3e39ee93	0.18157415
82	0xbe30ed89	-0.17278112
83	0xbd8e690e	-0.06953631
84	0xbf2f9801	-0.68591315
85	0x3c084435	0.008317043
86	0x3dfceefc	0.1235027
87	0x3db7a37b	0.08966728
88	0x3f40309f	0.7507419
89	0x3de0afc0	0.10971022
90	0xbe711728	-0.2354399
91	0x3ea36e04	0.31919873
92	0x3db2031c	0.08691999
93	0xbcaf20c0	-0.021377921
94	0xbdf92099	-0.12164421
95	0x3e0a4118	0.13501394
96	0xbed1f420	-0.41006565
97	0x3ed4e95d	0.41584292
98	0xbe85f0ed	-0.26160374
99	0x3e61e359	0.22059382
100	0x3cf371cf	0.029717354
101	0x3edc3b76	0.43014115
102	0xbe9eeb64	-0.31038964
103	0xbe8ef0f2	-0.27918202
104	0x3da6ee4c	0.0815092
105	0x3e5dbcc9	0.21654047
106	0x3e093234	0.13398057
107	0xbe8c6d6c	-0.27427232
108	0xbf277af6	-0.65422
109	0x3e8b0758	0.2715404
110	0xbee94171	-0.4555774
111	0xbea6dff1	-0.3259273
112	0xbe56f129	-0.20990433
113	0x3d40fcec	0.047116205
114	0x3eef8837	0.4678361
115	0x3f0d7436	0.5525545
116	0xbdefd285	-0.11710075
117	0x3c8c31f5	0.017113665
118	0x3dac63a3	0.08417442
119	0x3d1591eb	0.03651611
120	0x3c9108d6	0.017704409
121	0x3f344fb5	0.70434123
122	0x3daac23e	0.0833783
123	0x3d64a1cf	0.055818375
124	0xbe0ac4e2	-0.13551667
125	0xbd0e750e	-0.0347796
126	0x3eac486c	0.33649004
127	0xbead603d	-0.33862486
128	0x3dc5a5dc	0.09650776
129	0xbdf5f13f	-0.12008905
130	0x3f277f23	0.6542837
131	0x3ea6efb5	0.32604757
132	0x3f381d68	0.7191987
133	0xbee50dc0	-0.44737053
134	0x3e8a05dc	0.26957595
135	0xbe8a05ca	-0.26957542
136	0x3f78f25e	0.9724482
137	0xbeb5d5d6	-0.35514706
138	0x3eed49dc	0.46345413
139	0xbeab6cf2	-0.33481556
140	0x3f24d1b2	0.6438247
141	0xbedce98d	-0.43146935
142	0xbe86dc22	-0.26339823
143	0x3fa8eee2	1.3197901
144	0x3eb13c98	0.34616542
145	0xbf2f9916	-0.68592966
146	0x3eb0f1a3	0.34559354
147	0xbef363f8	-0.47537208
148	0x3d13464a	0.035955705
149	0x3f069f7f	0.5258712
150	0x3dbf9d31	0.09356154
151	0xbdc39448	-0.09549767
152	0x3e9b0a0f	0.30281112
153	0x3e8befe1	0.2733145
154	0x3f43517d	0.76296216
155	0xbf3fa477	-0.7486033
156	0xbdb62ee9	-0.08895666
157	0x3f2fe6c4	0.68711495
158	0xbf100314	-0.56254697
159	0x3ea0ec1b	0.31430134
160	0x3f7ad4ac	0.9798076
161	0xbe4e77c8	-0.2016288
162	0xbc15e1c7	-0.009148068
163	0xbf1c03be	-0.6094321
164	0x3f072635	0.52792674
165	0xbecd58ef	-0.40106913
166	0x3e636096	0.22204813
167	0xbc411224	-0.01178411
168	0x3e358470	0.17726302
169	0xbd87c573	-0.06629457
170	0xbe4b95c8	-0.19881356
171	0x3e00dff8	0.12585437
172	0xbe9f23fe	-0.31082147
173	0xbeeb4e4d	-0.45958176
174	0xbed4d0ba	-0.41565496
175	0x3f49c6c4	0.7881892
176	0xbd57dc9a	-0.052700616
177	0x3ed6438a	0.41848403
178	0xbeb7a414	-0.3586737
179	0xbf06e9a7	-0.52700275
180	0x3f1c1892	0.6097499
181	0x3e3cb9d6	0.18430266
182	0xbf17b37a	-0.59258235
183	0x3e53a9c6	0.20670232
184	0xbea6cbe5	-0.32577434
185	0x3f75df38	0.9604373
186	0xbeefa507	-0.46805593
187	0xbf12343e	-0.57110965
188	0x3e724d1e	0.2366223
189	0x3e43e274	0.19129354
190	0x3e785641	0.24251653
191	0x3eca72bb	0.39540657
192	0xbef50bf3	-0.4786068
193	0x3e83fd49	0.2577918
194	0x3ed43953	0.41449985
195	0x3e82f04f	0.25573966
196	0xbeb0643c	-0.34451473
197	0x3e097dc6	0.13426885
198	0x3e48787b	0.1957721
199	0x3d4209eb	0.04737274
200	0x3de35e68	0.11101991
201	0xbe1435fb	-0.14473717
202	0x3cd9799a	0.026547242
203	0xbc1f067a	-0.009706134
204	0xbbdbfa57	-0.0067131924
205	0xbe0d9eaa	-0.13830057
206	0x3f0cbce1	0.54975706
207	0xbd1ccfe5	-0.0382842
208	0xbe8fd626	-0.2809307
209	0x3db74f09	0.08950622
210	0x3e806444	0.25076497
211	0x3d20afa1	0.039229993
212	0x3dffb6fd	0.12486074
213	0xbf16e391	-0.5894099
214	0x3e0dbb3d	0.13840957
215	0x3d6b4401	0.0574379
216	0x3e6cbf9a	0.23119965
217	0x3e1322d0	0.14368749
218	0xbbfe9685	-0.007769408
219	0x3e4c9004	0.19976813
220	0xbecf3836	-0.40472573
221	0xbd77ffa8	-0.060546547
222	0x3e53f517	0.20698963
223	0xbf2cb838	-0.67468596
224	0xbe79ccae	-0.24394485
225	0x3daf4d3f	0.085596554
226	0xbd70812e	-0.058716945
227	0xbd011f53	-0.031524014
228	0xbe6ce1a0	-0.23132944
229	0x3e9c5eeb	0.30541167
230	0x3f199b10	0.6000223
231	0xbf168db5	-0.5880998
232	0xbe4317ee	-0.19052097
233	0xbe18fe79	-0.14940824
234	0xba79ce20	-0.0009529311
235	0xbda5b64a	-0.080914095
236	0x3ee1f6ea	0.44133693
237	0x3e8f79ec	0.28022707
238	0xbcb9c6be	-0.022677775
239	0xbe809404	-0.25112927
240	0xbe19a11d	-0.15002866
241	0x3e9a8a0b	0.30183443
242	0x3e9374ac	0.2879995
243	0x3eaf21f8	0.34205604
244	0x3b036bae	0.0020053196
245	0x3dd8e46a	0.105904415
246	0x3e33602c	0.17517155
247	0x3decdba8	0.115653336
248	0xbf406c59	-0.75165325
249	0xbd9970c1	-0.07492209
250	0x3e308a0e	0.17240164
251	0x3ceb1f88	0.028701559
252	0xbde4107c	-0.11135957
253	0xbe1e99f6	-0.15488419
254	0x3ee4e93f	0.44709203
255	0xbe996c92	-0.29965645

lstm.bias_ih_l1 f4 [256]
0	0xbf28f813	-0.6600353
1	0xbf33fbc5	-0.70306045
2	0xbf233ce4	-0.63764787
3	0xbeb04a23	-0.34431562
4	0xbfcf7603	-1.6207889
5	0xbfac722d	-1.3472344
6	0xbe83a139	-0.2570894
7	0xc003cf52	-2.0595288
8	0xbf96a538	-1.1769171
9	0xbf9715fe	-1.1803586
10	0xbd1860cf	-0.0372017
11	0xbf17282e	-0.59045684
12	0xbfbd871b	-1.4806856
13	0xbe9c2a7b	-0.3050116
14	0xbda6fcfc	-0.08153722
15	0xbf47ac04	-0.7799685
16	0xbf037173	-0.51344985
17	0xbeb2eae2	-0.34944826
18	0xbf997ff0	-1.1992168
19	0xbf81efe8	-1.0151339
20	0xbf8075b8	-1.0035925
21	0xbf78e269	-0.97220474
22	0xc009c6e6	-2.1527648
23	0xbf2be838	-0.6715121
24	0xbf56f6e9	-0.83970505
25	0xbeed4c2e	-0.46347183
26	0xbf90249e	-1.1261175
27	0xbf90c9eb	-1.131162
28	0xbf708a65	-0.93961173
29	0xbfee5ee8	-1.8622713
30	0xbf74ef1a	-0.9567734
31	0xbf839305	-1.0279242
32	0xbf8ec442	-1.1153643
33	0xbeb6b0ac	-0.35681665
34	0xbf9dfd44	-1.2342916
35	0xbf5a5568	-0.8528657
36	0xbf9f44e0	-1.2442894
37	0xbf7cea34	-0.98794866
38	0xbf88f18c	-1.0698714
39	0xbee058d9	-0.43817785
40	0xbf2c4011	-0.6728526
41	0xbe81991b	-0.25312123
42	0xbe866f95	-0.26257005
43	0xbf694306	-0.91117895
44	0xbf53c008	-0.8271489
45	0xbf6a1089	-0.9143148
46	0xbf69ab32	-0.9127685
47	0xbfb82df9	-1.438903
48	0xbfd60bad	-1.6722313
49	0xbf85b965	-1.0447203
50	0xbfa910b8	-1.3208227
51	0xbf9a9378	-1.2076254
52	0xbfdfb81c	-1.7478061
53	0xbe46a5f4	-0.19399244
54	0xbf936e37	-1.151801
55	0xbf46af9e	-0.7761172
56	0xbf81203e	-1.0087965
57	0xbf6cf59e	-0.9256228
58	0xbebb9824	-0.36639512
59	0xbd826778	-0.06367391
60	0xbfeebbd1	-1.8651067
61	0xbf8a7b17	-1.0818814
62	0xbed5a456	-0.4172694
63	0xbf3f756b	-0.7478854
64	0xbe198338	-0.14991462
65	0xbd4a034b	-0.049319547
66	0xbf5763f4	-0.8413689
67	0xbe5f445f	-0.21803425
68	0xbfb5b7ff	-1.4196776
69	0xbf54c8c9	-0.83118874
70	0xbd67d6c1	-0.05660129
71	0xbf94bb49	-1.1619655
72	0xbfa4d472	-1.2877333
73	0xbf10cbda	-0.5656105
74	0x3e2f61cb	0.17127149
75	0xbe27b1c2	-0.16376403
76	0xbf980625	-1.1876875
77	0xbcbb6840	-0.022876859
78	0xbe1ff648	-0.15621293
79	0xbf203378	-0.62578535
80	0xbf192d49	-0.59834725
81	0x3e9d0547	0.3066809
82	0xbf5d9f1c	-0.86570907
83	0xbe0e2e1c	-0.13884777
84	0xbf557f89	-0.8339773
85	0xbf24bf94	-0.64354825
86	0xbf847c46	-1.0350425
87	0xbf0c5fa9	-0.54833466
88	0xbf2af85b	-0.6678521
89	0x3d0806ff	0.033209797
90	0xbe36deac	-0.1785838
91	0xbf7334e8	-0.95002604
92	0x3d136e13	0.035993647
93	0xbfb7262f	-1.4308528
94	0x3f2e6795	0.68126804
95	0xbf54bae6	-0.83097684
96	0xbf0bfc23	-0.54681605
97	0x3e1736f2	0.14767054
98	0xbf97b997	-1.1853513
99	0xbc7f3aea	-0.015578011
100	0xbf003c51	-0.50092036
101	0xbe650995	-0.22366937
102	0xbf05daaa	-0.5228678
103	0x3ef8c6ca	0.48589164
104	0xbe05bbd5	-0.13059933
105	0x3e109814	0.14120513
106	0x3eca9963	0.3957015
107	0xbf2f945b	-0.6858575
108	0xbf13d56a	-0.5774752
109	0xbee6de3e	-0.45091432
110	0xbf74fdcb	-0.9569976
111	0xbeeec8c1	-0.46637538
112	0xbf81ce4e	-1.0141084
113	0xbf441ac6	-0.76603353
114	0xbf6ab1ad	-0.9167736
115	0xbf4eabdc	-0.80730987
116	0xbfa6add7	-1.3021802
117	0xbcbd82ff	-0.023133753
118	0xbea32fcd	-0.31872407
119	0x3de38899	0.11110038
120	0xbf02add1	-0.5104647
121	0xbf787c4f	-0.9706468
122	0xbd264399	-0.04059181
123	0x3d38bddf	0.04510295
124	0xbf6e8461	-0.93170744
125	0xbf083bbc	-0.5321615
126	0xbedcd391	-0.43130162
127	0x3e33005e	0.17480609
128	0xbe4c1013	-0.19928007
129	0xbdc51d8b	-0.096247755
130	0x3d09c94d	0.03363924
131	0x3c95496f	0.018223492
132	0x3e036e9e	0.12835166
133	0x3d64f9dc	0.055902347
134	0xbd6908b8	-0.05689308
135	0xbe090104	-0.13379294
136	0x3cc06d91	0.023489745
137	0xbd637ea4	-0.055540696
138	0xbbcf22f6	-0.0063213063
139	0x3c0683b4	0.008210111
140	0x3cb0753f	0.021540282
141	0xbd6212a3	-0.055193555
142	0xbe37e8b1	-0.17959858
143	0xbd35093e	-0.044198267
144	0xbd9f339c	-0.077735156
145	0x3ce8fc5e	0.02844065
146	0x3d56390e	0.052300505
147	0xbca0ff71	-0.019653054
148	0xbcbdd2f2	-0.023171876
149	0x3d703b3d	0.058650244
150	0xbd7fba73	-0.06243367
151	0xbd8fc082	-0.0701914
152	0x3d113e7f	0.03545999
153	0xbdaeb09a	-0.08529778
154	0x3d2cbe2e	0.042173557
155	0xbd56c542	-0.052434213
156	0x3d5cd91a	0.05391798
157	0xbd37cbbf	-0.04487204
158	0xbd09f7d2	-0.033683605
159	0x3ddbb9a1	0.10728765
160	0x3dfca622	0.12336375
161	0x3d01e9fb	0.03171728
162	0x3b897a23	0.004195468
163	0x3d222d5c	0.03959404
164	0x3df6ad0d	0.120447256
165	0xbd4477ec	-0.04796593
166	0x3d845f42	0.064634815
167	0xbc51591b	-0.012777592
168	0xbc891cff	-0.01673746
169	0x3d3df1c4	0.046373144
170	0xbe017f55	-0.1264623
171	0x3e86ec8f	0.26352355
172	0xbdf995bb	-0.12186762
173	0xbd3685f8	-0.044561356
174	0xbccf7838	-0.02532588
175	0x3d9a5598	0.07535857
176	0xbd250067	-0.040283587
177	0x3dbb766e	0.09153448
178	0x3a3612ca	0.0006945549
179	0x3da3a6b5	0.07990781
180	0xbd960759	-0.0732562
181	0x3cfab2d7	0.030602856
182	0xbda8790f	-0.08226215
183	0xbdedf0d8	-0.11618203
184	0xbdc315fb	-0.09525677
185	0xbda42a0b	-0.080158316
186	0x3d2d5d82	0.042325504
187	0xbd81236a	-0.06305583
188	0x3cf2be4d	0.029631758
189	0x3de7aa17	0.11311739
190	0xbdf8da01	-0.12150956
191	0xbdb4ff35	-0.088377394
192	0xbf211103	-0.6291658
193	0xbee23933	-0.44184265
194	0xbf3eb29e	-0.744913
195	0xbeeeaa05	-0.4661409
196	0xbfcc7322	-1.5972636
197	0xbfb64cf9	-1.424224
198	0xbdd22300	-0.10260582
199	0xbffc26bb	-1.969932
200	0xbf9266a6	-1.1437576
201	0xbf9c72ee	-1.2222574
202	0x3d3c5244	0.045976892
203	0xbf14489b	-0.5792329
204	0xbfbd258b	-1.4777082
205	0xbe897aba	-0.26851445
206	0x3e8b4584	0.27201474
207	0xbf3123e3	-0.69195384
208	0xbead406c	-0.33838212
209	0x3de0dde5	0.10979823
210	0xbf91062e	-1.1330011
211	0xbf88ea22	-1.0696452
212	0xbf7843d6	-0.9697851
213	0xbf889d5e	-1.0673025
214	0xc00531d1	-2.0811656
215	0xbf25eace	-0.6481141
216	0xbf322a18	-0.6959548
217	0xbee6ce88	-0.45079446
218	0xbf7990c3	-0.97486514
219	0xbfac5851	-1.3464452
220	0xbf0230ca	-0.50855696
221	0xbfeedb1c	-1.8660617
222	0xbf0323b8	-0.5122638
223	0xbf8030f0	-1.0014935
224	0xbf7f89de	-0.99819744
225	0xbd1c249a	-0.038120843
226	0xbf96287a	-1.1731102
227	0xbf2fd0e9	-0.68678147
228	0xbf920d98	-1.1410398
229	0xbf7c6109	-0.98585564
230	0xbf91f73d	-1.1403576
231	0xbd8944cd	-0.06702576
232	0xbf439447	-0.7639813
233	0x3e641e00	0.22277069
234	0xbcafacb8	-0.021444663
235	0xbf8b3f7d	-1.087875
236	0xbf46cfea	-0.77661
237	0xbf42b8ea	-0.76063406
238	0xbf8be9ca	-1.0930722
239	0xbf9fd4de	-1.2486837
240	0xbfe1a2c2	-1.7627795
241	0xbf80336e	-1.0015695
242	0xbfa3ee52	-1.2807105
243	0xbf8b0ce7	-1.0863312
244	0xbfd8a301	-1.6924745
245	0x3e334567	0.17506944
246	0xbf79d823	-0.97595423
247	0xbf04cb09	-0.5187231
248	0xbf9637e4	-1.1735806
249	0xbf4d0859	-0.8009086
250	0xbe9b75ea	-0.303634
251	0xbe4ee4b4	-0.20204431
252	0xbff8fb72	-1.9451735
253	0xbf3045e9	-0.68856674
254	0xbf276103	-0.65382403
255	0xbf49dfd7	-0.7885718
