backend/Model_Pytorch/RNN_Model_our_data/output/checkpoints/latest_checkpoint.pth (torch, 677989 bytes, 30 tensors)

lstm.weight_ih_l0 f4 [256, 15]
-1.0227523 0.4780988 0.04836797 0.03683922 0.21621315 -0.3813988 0.8166749 -0.26918027
0.20699234 -0.22540194 -0.030467022 -0.14423668 0.120870754 0.168524 0.043962333 0.017364964
-0.113407955 0.21211773 0.08092948 0.07750208 0.1050081 -0.21614331 0.28645134 -0.7597038
-0.32973993 0.2118952 0.34308442 0.11612423 0.23863773 -0.03414168 0.50017923 -0.5500902
-0.035263874 0.020360194 0.13729234 1.3013521 -0.11690495 -0.10321751 0.22165836 -0.42163005
-0.19737639 -0.8479978 0.6937646 -0.3423075 -0.14381102 1.8044978 -0.088976 -0.010102555
0.12377663 -0.0556736 -0.041872423 0.4074596 0.09823658 -0.19466619 0.53807586 -0.27676564
-0.36464602 -0.18314035 -0.34291887 0.08351385 -0.054325353 -0.10814667 -0.087073736 -0.06934692
0.051779862 -0.19441245 0.20899884 0.45897344 -0.4384747 0.07312856 0.31295523 -0.47626388
-0.23086005 -0.090031974 -0.36106563 -0.3130861 -0.6164062 0.21437989 0.25198856 0.29085663
0.9100168 1.1471009 0.17708464 0.08782168 -0.27996477 -0.58585155 -0.06429322 0.0065278816
0.09060233 -0.07253896 -0.0664257 0.23566382 -0.28292447 -0.20134875 -0.27201286 -0.10830581
0.5916148 -0.2695879 0.38657543 -0.4023462 0.19258045 0.4373502 0.09398616 -0.12983488
0.23473008 0.06909096 -0.21164343 -0.097085126 -0.17106579 -0.11202592 0.8407868 0.28614977
-0.7579931 -0.041703187 -0.36787513 -0.5089983 0.5187606 -0.07607207 0.50777316 -0.16638404
0.270472 -0.26431718 -0.09112872 -0.09268983 -0.17262156 -0.12417925 -0.39168462 -0.18117413
-0.3658252 -0.3741142 -0.096418135 1.7262003 0.005445064 0.30278403 0.039693363 -0.39163107
-0.23324396 -0.30537462 -0.35225722 -0.20574377 -0.1957323 -0.5374671 -0.09993286 0.31538776
-0.2996062 0.024745656 -0.5291847 -0.18566383 -0.11860246 -0.26401553 -0.6039471 -0.25416467
-0.09230481 -0.24226014 -0.04047542 0.050747037 0.103357 0.36663455 0.39731458 0.31599227
-0.4917167 -0.2057073 0.016931418 0.34919107 -0.1015167 0.31552535 -0.10888169 0.1695836
0.21769 0.14945844 0.8324095 -0.03065629 -0.48049682 -0.83360136 0.108747244 -0.35594988
0.2697753 0.30012292 0.005400106 0.06837091 0.45769474 -0.43862295 -0.08888886 0.017329892
0.06019468 -0.40993333 -0.32147974 0.069426306 -0.4907671 -0.24303156 -0.1422995 -0.30219996
0.10799407 -0.38469544 0.01898952 0.3082642 -0.28442818 0.15700988 0.03331558 0.11090451
0.16589758 -0.56072277 -0.3312588 -0.08606939 -0.23642176 0.12129756 -0.0814201 -0.46844137
-0.07811053 0.20289776 -0.25674385 0.14488986 0.24622224 0.1325048 0.20400089 0.15798011
0.18935125 0.17674398 -0.08766264 -0.4337233 0.46935943 -0.06810711 -0.49647576 -0.06173266
-0.40953755 0.10547073 0.094518684 0.5739865 0.47920024 0.4535524 0.7671454 -0.2902691
-0.14292994 0.04576431 0.095767364 0.30615652 -0.32936195 -0.37353018 -0.7729456 -0.12760317
-0.027181912 0.13896513 -0.37773877 -0.36344817 -0.30177262 0.15328059 -0.18957052 0.13106665
0.19848676 -0.035247315 -0.12494517 0.71563303 0.19881853 0.76871073 0.037159506 -0.35759756
00000000: 8ce9 82bf 5ec9 f43e 7e1d 463d b9e4 163d
00000010: fb66 5d3e b446 c3be 9b11 513f ffd1 89be
00000020: cdf5 533e c4cf 66be fa95 f9bc c8b2 13be
00000030: 168b f73d 8e91 2c3e d911 343d f840 8e3c
00000040: 6e42 e8bd 6435 593e 5bbe a53d 69b9 9e3d
00000050: 7d0e d73d ac54 5dbe c0a9 923e f37b 42bf
00000060: acd3 a8be 0efb 583e c3a8 af3e 8ad2 ed3d
00000070: 735d 743e 25d8 0bbd bf0b 003f b6d2 0cbf
00000080: da70 10bd 6cca a63c 5d96 0c3e b592 a63f
00000090: dd6b efbd b463 d3bd 69fa 623e e5df d7be
000000a0: 091d 4abe 6216 59bf 8f9a 313f ee42 afbe
000000b0: 3243 13be c9f9 e63f 0d39 b6bd 3085 25bc
000000c0: 9a7e fd3d 000a 64bd 6b82 2bbd 8b9e d03e
000000d0: 4330 c93d 9356 47be 57bf 093f 3ab4 8dbe
000000e0: e2b2 babe 2589 3bbe 1093 afbe 4f09 ab3d
000000f0: 4384 5ebd 007c ddbd b753 b2bd c205 8ebd
00000100: 1f17 543d 0f14 47be cb03 563e 91fe ea3e
00000110: c27f e0be 6dc4 953d ab3b a03e dcd8 f3be
00000120: 9466 6cbe af62 b8bd 98dd b8be d24c a0be
00000130: cccc 1dbf 6786 5b3e a504 813e 29eb 943e
00000140: dcf6 683f 34d4 923f ad55 353e dadb b33d
00000150: 8b57 8fbe 5efa 15bf 2aac 83bd d7e7 d53b
00000160: b78d b93d 4e8f 94bd 330a 88bd db51 713e
00000170: 7adb 90be 5e2e 4ebe 4545 8bbe 70cf ddbd
00000180: 1174 173f 6d07 8abe 37ed c53e 5200 cebe
00000190: cf33 453e 5eec df3e d17b c03d 6ff3 04be
000001a0: 155d 703e 907f 8d3d 0eb9 58be 91d4 c6bd
000001b0: df2b 2fbe d86d e5bd ce3d 573f 3982 923e
000001c0: d60b 42bf f6d0 2abd 215a bcbe b64d 02bf
000001d0: 7fcd 043f accb 9bbd 6cfd 013f 9460 2abe
000001e0: 4e7b 8a3e 9554 87be b2a1 babd 2ad4 bdbd
000001f0: b5c3 30be b151 febd e38a c8be b685 39be
00000200: 714d bbbe e58b bfbe df76 c5bd 22f4 dc3f
00000210: 826c b23b 8206 9b3e 8295 223d de83 c8be
00000220: 81d7 6ebe 105a 9cbe 0f5b b4be 7fae 52be
00000230: 0c6e 48be 7297 09bf 99a9 ccbd 817a a13e
00000240: fc65 99be 67b7 ca3c a678 07bf a91e 3ebe
00000250: d9e5 f2bd 0b2d 87be 479c 1abf df21 82be
00000260: 4e0a bdbd 0b13 78be 8ec9 25bd 20dc 4f3d
00000270: d6ac d33d 86b7 bb3e d16c cb3e bdc9 a13e
00000280: 4bc2 fbbe efa4 52be c2b3 8a3c 2cc9 b23e
00000290: fde7 cfbd 8a8c a13e 5dfd debd 53a7 2d3e
000002a0: 21ea 5e3e a20b 193e ca18 553f e622 fbbc
000002b0: ae03 f6be e666 55bf e0b6 de3d 103f b6be
000002c0: fd1f 8a3e b6a9 993e 5ff3 b03b 0c06 8c3d
000002d0: f756 ea3e 3093 e0be 5d0b b6bd 6bf7 8d3c
000002e0: b28e 763d c8e2 d1be fe98 a4be 612f 8e3d
000002f0: d345 fbbe 44dd 78be f6b6 11be f4b9 9abe
00000300: ff2b dd3d cdf6 c4be e98f 9b3c ced4 9d3e
00000310: 92a0 91be 33c7 203e eb75 083d e721 e33d
00000320: 0ee1 293e 878b 0fbf c19a a9be 2645 b0bd
00000330: 8c18 72be db6a f83d 95bf a6bd 8cd7 efbe
00000340: 6af8 9fbd 6ec4 4f3e ee73 83be 025e 143e
00000350: af21 7c3e 57af 073e 9ce5 503e 8ac5 213e
00000360: 4be5 413e 60fc 343e 7888 b3bd fb10 debe
00000370: e14f f03e be7b 8bbd 1232 febe 63db 7cbd
00000380: e8ae d1be 0a01 d83d 0393 c13d c7f0 123f
00000390: bc59 f53e 0538 e83e a463 443f 279e 94be
000003a0: 3a5c 12be 5b73 3b3d ae21 c43d 8cc0 9c3e
000003b0: 21a2 a8be 593f bfbe c3df 45bf 68aa 02be
000003c0: 9aac debc e04c 0e3e fa66 c1be e115 babe
000003d0: f181 9abe 96f5 1c3e c61e 42be 5636 063e
000003e0: 1d40 4b3e 7d5f 10bd 41e3 ffbd ba33 373f
000003f0: 1697 4b3e 3aca 443f 9134 183d 0717 b7be

lstm.weight_hh_l0 f4 [256, 64]
-0.30331466 0.81791246 0.074193634 -0.27399686 0.047029737 -0.13761556 0.07982926 0.7775755
0.4112435 -0.04072789 -0.41719642 -0.8839246 0.26476556 -0.13338701 -0.4402943 0.5747146
0.1404375 0.462914 -0.54758406 -0.20933105 0.3328681 -0.28530985 -0.1176706 -0.5514607
0.8108351 0.109624796 -0.66676265 -0.44659954 -0.13997726 -0.61301273 -0.5008362 0.12480442
-0.30612797 -0.051912237 0.24443917 0.33688945 0.16778089 -0.18864892 -0.04405021 -0.32200816
0.38686725 0.13940194 -0.39353606 0.29696155 0.26273865 -0.25759384 -0.123248935 -0.85153925
-0.67303747 0.09048829 -0.4853434 0.09169269 -0.54319227 0.38789958 0.040290277 -0.25342518
1.1467919 1.0745037 -0.11491875 0.2692529 -0.37276226 -0.46495292 -0.26603162 -0.22110005
-0.3187741 0.47131842 -0.65557 -0.10289586 -0.5875441 0.4267154 0.1897562 0.038627375
0.7604508 -0.34341893 -0.2467585 0.42598346 0.23142383 0.23770486 -0.47832 -0.6831079
0.3977807 -0.079953976 -0.24539775 0.037084702 -0.5386945 -0.41039628 0.338851 -0.23293729
0.36059815 0.429921 -0.2411072 1.2368572 -0.03827654 0.30519655 0.16460949 -0.6653348
0.08684728 -0.9323071 -0.08992124 0.2246499 0.46325418 -0.5484875 0.79996073 -0.025299475
-0.101034254 0.26859435 0.349206 0.33849907 -0.03567816 0.76328903 -0.6313694 0.34659687
0.21286641 0.18262966 0.4282805 -0.22090203 -0.67664003 0.251809 0.027325338 0.15763623
0.41141835 0.30784404 0.4013476 -0.11555542 -0.14805055 -0.48042122 0.44665423 -0.6439705
0.2981218 0.67493343 -0.67037565 1.0278195 -0.72394794 -0.2576528 0.6207499 -0.298209
-0.2887439 0.7683748 0.2692416 -0.5724615 0.43664292 0.94110525 -0.3676577 0.09828049
-0.3306003 0.25127938 -0.59021 -0.16029456 -0.1800651 -0.7812073 -0.07264836 0.44892558
-0.6838902 0.29932573 0.53752077 0.1089979 0.5022944 0.09491882 0.19251366 -0.20064075
-0.106831715 0.15602551 0.42542863 -0.15773362 -0.23888184 -0.5081637 0.43552586 0.15651217
0.21772662 0.46071124 0.10270409 0.414257 0.36961544 -0.46762577 -0.38849717 0.5140183
-0.05200673 0.09550554 -0.050191935 -0.36280462 -0.6225834 0.7015048 1.5445617 0.3020049
-0.54504234 -0.060256783 0.12077047 -0.30792353 0.23770508 -0.099311315 0.18184975 0.73729825
0.5758448 -0.10659967 0.032298982 -0.13139704 0.013394799 0.25850803 -0.13484433 -0.056572337
-0.47787815 0.55600166 0.31024852 -0.36236274 -0.6265561 0.14299212 0.55600065 -0.6625422
0.1992359 0.40467614 -0.111343995 -0.46588647 -0.7209976 0.13281004 -0.329318 -0.4835585
0.17431356 -0.24398845 0.02665172 -0.15269987 -0.042048436 -0.14762428 -0.051398367 0.40769008
0.5249852 0.930325 0.2419828 -0.50190586 -0.104351394 -0.5558144 -0.7382276 0.05114001
0.36148608 0.15142299 0.14557716 -0.110736124 0.98698205 0.33950436 0.8105734 -0.4274398
-1.0812694 -0.43515536 0.059188697 0.66973084 -0.029122349 -0.45947137 0.12730804 -0.4616669
0.19707224 0.22451547 0.41664758 0.30348378 0.21895549 0.3158268 -0.24231635 0.066710114
00000000: 0f4c 9bbe b662 513f d5f2 973d 5149 8cbe
00000010: 41a2 403d 18eb 0cbe 867d a33d 300f 473f
00000020: 828e d23e 4ad2 26bd c59a d5be e248 62bf
00000030: 5a8f 873e 9b96 08be 416e e1be 7f20 133f
00000040: d9ce 0f3e 1003 ed3e 782e 0cbf e15a 56be
00000050: b06d aa3e 2214 92be 49fd f0bd 872c 0dbf
00000060: e492 4f3f f782 e03d f5b0 2abf b2a8 e4be
00000070: 3356 0fbe 67ee 1cbf cd36 00bf 7699 ff3d
00000080: cebc 9cbe eda1 54bd 434e 7a3e c67c ac3e
00000090: c1ce 2b3e 2f2d 41be fe6d 34bd 41de a4be
000000a0: 7713 c63e 62bf 0e3e 8f7d c9be 580b 983e
000000b0: ae85 863e 57e3 83be f069 fcbd 7afe 59bf
000000c0: 2f4c 2cbf ed51 b93d ee7e f8be 61c9 bb3d
000000d0: a60e 0bbf c69a c63e 6b07 253d f2c0 81be
000000e0: 14ca 923f 5689 893f 865a ebbd 84db 893e
000000f0: b2da bebe 4f0e eebe 4c35 88be 0d68 62be
00000100: 5c36 a3be a650 f13e 6fd3 27bf 11bb d2bd
00000110: 4a69 16bf 717a da3e 734f 423e bd37 1e3d
00000120: e7ac 423f 9bd4 afbe 43ae 7cbe 811a da3e
00000130: 5efa 6c3e e768 733e 5ce6 f4be 29e0 2ebf
00000140: e9a9 cb3e e9be a3bd 8c49 7bbe 21e6 173d
00000150: e2e7 09bf 761f d2be e17d ad3e 1d87 6ebe
00000160: 52a0 b83e 9b1e dc3e cee4 76be 5651 9e3f
00000170: dcc7 1cbd b942 9c3e 648f 283e 6253 2abf
00000180: fddc b13d aeab 6ebf a128 b8bd a00a 663e
00000190: a72f ed3e ad69 0cbf 3aca 4c3f d840 cfbc
000001a0: 0ceb cebd 3385 893e 21cb b23e c04f ad3e
000001b0: 4323 12bd e966 433f 6da1 21bf 2575 b13e
000001c0: a7f9 593e 4503 3b3e 9547 db3e 2434 62be
000001d0: 4838 2dbf 1ced 803e 63d9 df3c 646b 213e
000001e0: 6da5 d23e bc9d 9d3e 6f7d cd3e 52a8 ecbd
000001f0: 909a 17be c5f9 f5be ddaf e43e 40db 24bf
00000200: 6ca3 983e 70c8 2c3f bd9d 2bbf 978f 833f
00000210: a754 39bf 11eb 83be 77e9 1e3f daae 98be
00000220: 3ed6 93be 36b4 443f 09da 893e d68c 12bf
00000230: a98f df3e 46ec 703f a13d bcbe 4847 c93d
00000240: 7144 a9be b1a7 803e 0118 17bf 4224 24be
00000250: fc62 38be 34fd 47bf aac8 94bd 93d9 e53e
00000260: 6e13 2fbf 3941 993e f69a 093f 4a3a df3d
00000270: 5e96 003f cc64 c23d 4d22 453e c574 4dbe
00000280: 96ca dabd 27c5 1f3e c8d1 d93e ec84 21be
00000290: 719d 74be 0417 02bf 3ffd de3e ba44 203e
000002a0: baf3 5e3e 58e2 eb3e 8656 d23d 7e19 d43e
000002b0: 3c3e bd3e a56c efbe 1ae9 c6be b496 033f
000002c0: 0205 55bd 6998 c33d 0f96 4dbd 87c1 b9be
000002d0: a061 1fbf d295 333f 33b4 c53f 63a0 9a3e
000002e0: e587 0bbf d1cf 76bd 8256 f73d 27a8 9dbe
000002f0: f668 733e bb63 cbbd d236 3a3e 94bf 3c3f
00000300: 916a 133f ee50 dabd f04b 043d f28c 06be
00000310: dc75 5b3c 2a5b 843e a214 0abe 65b8 67bd
00000320: 72ac f4be 2056 0e3f e5d8 9e3e 9c87 b9be
00000330: fb65 20bf 876c 123e 0f56 0e3f 5e9c 29bf
00000340: 7f04 4c3e b631 cf3e 5208 e4bd ac88 eebe
00000350: 4c93 38bf 5bff 073e 5e9c a8be fb94 f7be
00000360: 417f 323e 1cd8 79be b554 da3c 5b5d 1cbe
00000370: fb3a 2cbd d22a 17be 1887 52bd c1bc d03e
00000380: 6e65 063f c729 6e3f 57ca 773e e77c 00bf
00000390: 2fb6 d5bd da49 0ebf 7cfc 3cbf 3078 513d
000003a0: b414 b93e a10e 1b3e 2e12 153e 9fc9 e2bd
000003b0: dbaa 7c3f 84d3 ad3e bd81 4f3f 64d9 dabe
000003c0: 0967 8abf afcc debe d96f 723d 7b73 2b3f
000003d0: fe91 eebc d53f ebbe 0a5d 023e 9b5f ecbe
000003e0: 4ecd 493e 62e7 653e d552 d53e 3a62 9b3e
000003f0: de35 603e 0db4 a13e c721 78be 509f 883d

lstm.bias_ih_l0 f4 [256]
-0.45288023 -0.25666854 -0.23634098 -0.48649865 -0.48250112 -0.110269666 -0.30090174 -0.1261568
-0.57307005 -0.024928488 -0.39576203 -0.11299097 0.011070777 0.1452021 -0.09772012 -0.52299744
-0.41278198 -0.34245455 -0.34481418 -0.35642934 -0.281709 -0.36803085 0.09047908 0.39345023
-0.37325245 0.049100373 -0.38589713 -0.25516233 -0.16798267 -0.07574626 -0.050067335 0.13850144
-0.41161868 -0.29820794 -0.04635589 0.066513196 -0.14375001 -0.2913504 -0.46676737 -0.49574777
-0.112426616 -0.35186297 0.24794911 -0.16647284 -0.20876026 -0.46681753 -0.2672294 -0.31897384
-0.50163716 -0.20152065 -0.15547267 1.199128 -0.12917472 -0.4271475 -0.4224204 -0.39247242
-0.25454396 -0.4679147 -0.18267688 -0.20824264 -0.31713095 -0.20447165 -0.555005 0.43525448
-0.04427933 0.02076008 0.024156287 -0.0402782 -0.09849523 -0.20537594 -0.39181957 -0.15573692
-0.41338915 -0.23956521 -0.110990494 0.072729856 -0.09565802 -0.2669823 0.06989533 -0.09310712
0.2143299 -0.052604917 -0.06997062 0.19819821 0.36655998 0.23615393 -0.09418391 -0.45327067
0.54790485 0.038056437 0.09326107 -0.008929132 -0.08711558 0.35124028 0.20813076 -0.38973048
-0.096567534 0.17682725 -0.2472177 0.29272965 0.13568237 -0.077004254 0.27343628 -0.19693625
-0.08254411 0.0319412 -0.62460554 -0.47536343 -0.1660379 0.14120981 0.30113605 0.3377458
0.38820058 -0.19730803 0.4666418 -0.7501124 0.15133119 -0.009601042 0.13789833 0.20045449
-0.3382126 -0.12861651 0.20852305 0.066405855 -0.25371972 -0.15031607 0.41077977 -0.12029176
-0.003076017 0.20225438 0.24207446 0.11316345 -0.1318362 0.31987277 -0.29449573 -0.093520276
-0.10572724 -0.29452455 -0.22385977 0.10502842 -0.14619754 0.12174456 -0.08085644 -0.022466907
0.1582708 -0.10657052 0.15885274 0.030687587 0.122416265 -0.07725178 -0.121947415 0.09881093
-0.18918215 -0.03920342 -0.089351095 0.03627835 -0.07769701 0.023495821 0.1575221 -0.1642729
0.05224208 -0.30999386 0.35041463 0.03681889 -0.016155211 0.24064541 -0.1477785 -0.2327605
-0.05839936 0.04630621 -0.03201765 -0.1914099 -0.085250854 0.019375859 -0.113919415 -0.11999941
0.10450506 0.09081442 0.0033256444 0.05971694 0.117792815 -0.21503763 -0.25089076 -0.17682765
-0.22366102 -0.08899392 -0.13651575 -0.123660356 0.027636636 0.094100006 -0.10955221 0.0472891
-0.04358042 -0.09794207 0.13025807 -0.51243377 -0.26820987 -0.16335508 -0.037442144 0.23979306
-0.06066808 0.1582492 -0.074088745 0.06792859 0.062379275 0.34481874 0.060546443 -0.29797804
0.080874614 0.23867294 -0.4025794 -0.11388125 0.019022534 0.41630566 -0.15527451 0.60898834
0.50544107 -0.035170514 -0.109097876 0.14742896 0.19670172 0.19790871 0.19466104 0.22341864
0.06597412 -0.17812406 0.17288195 0.26530826 -0.17615306 -0.15257743 -0.18503238 -0.11496107
-0.15913472 -0.17600161 0.88955516 0.074418634 -0.14665875 0.10273349 0.18837783 -0.110557154
-0.19709665 -0.017717326 -0.24359255 0.8934643 -0.14167832 -0.24664253 -0.25519535 0.05216039
0.24403016 -0.021547705 0.105158955 0.05904195 -0.16080676 -0.11176753 0.14806093 0.086311854
00000000: ebdf e7be 0f6a 83be 5f03 72be 5a16 f9be
00000010: 630a f7be 10d5 e1bd cb0f 9abe 402f 01be
00000020: b8b4 12bf d436 ccbc 52a1 cabe cf67 e7bd
00000030: 3462 353c dcaf 143e 7c21 c8bd 29e3 05bf
00000040: 2958 d3be 3456 afbe 7c8b b0be e87d b6be
00000050: 293c 90be 8a6e bcbe 194d b93d 4f72 c93e
00000060: f21a bfbe 791d 493d 4f94 c5be a3a4 82be
00000070: a603 2cbe db20 9bbd 6813 4dbd 52d3 0d3e
00000080: afbf d2be b6ae 98be acdf 3dbd 1238 883d
00000090: 3433 13be e12b 95be 22fc eebe a7d2 fdbe
000000a0: ed3f e6bd 6227 b4be 5fe6 7d3e db77 2abe
000000b0: 40c5 55be b502 efbe 4bd2 88be 8a50 a3be
000000c0: 4b6b 00bf 6e5b 4ebe 3a34 1fbe 077d 993f
000000d0: 6146 04be 14b3 dabe 7d47 d8be 25f2 c8be
000000e0: 9653 82be 8492 efbe a60f 3bbe 8f3d 55be
000000f0: fd5e a2be 0461 51be cf14 0ebf add9 de3e
00000100: 3e5e 35bd 0b11 aa3c 68e3 c53c c1fa 24bd
00000110: deb7 c9bd 124e 52be 939c c8be 8079 1fbe
00000120: bea7 d3be 9550 75be fc4e e3bd 64f3 943d
00000130: 5ae8 c3bd e7b1 88be 4825 8f3d f2ae bebd
00000140: 4c79 5b3e 4178 57bd c24c 8fbd 79f4 4a3e
00000150: c0ad bb3e 56d2 713e 7ee3 c0bd 1813 e8be
00000160: 7e43 0c3f 11e1 1b3d a9ff be3d 7e4b 12bc
00000170: a769 b2bd c4d5 b33e 3b20 553e c18a c7be
00000180: 33c5 c5bd 3412 353e a326 7dbe a9e0 953e
00000190: 52f0 0a3e 68b4 9dbd d7ff 8b3e a8a9 49be
000001a0: e30c a9bd c7d4 023d 26e6 1fbf d662 f3be
000001b0: d705 2abe 4e99 103e 812e 9a3e 04ed ac3e
000001c0: 3ac2 c63e 1e0b 4abe adeb ee3e 5e07 40bf
000001d0: 90f6 1a3e b04d 1dbc 3835 0d3e f143 4d3e
000001e0: 342a adbe 0cb4 03be 1187 553e cbff 873d
000001f0: 8de7 81be 75ec 19be ba51 d23e 875b f6bd
00000200: 0097 49bb c61b 4f3e 5ee2 773e 3dc2 e73d
00000210: 1200 07be 5dc6 a33e 25c8 96be 8f87 bfbd
00000220: 8687 d8bd eccb 96be 7f3b 65be 2419 d73d
00000230: cfb4 15be 3655 f93d 1098 a5bd 850c b8bc
00000240: be11 223e a541 dabd 4baa 223e 8964 fb3c
00000250: 61b5 fa3d 2e36 9ebd 91bf f9bd 635d ca3d
00000260: f7b8 41be c493 20bd b5fd b6bd 9b98 143d
00000270: 9c1f 9fbd 4f7a c03c 794d 213e 2837 28be
00000280: cbfb 553d 84b7 9ebe 8c69 b33e 68cf 163d
00000290: ef57 84bc c06b 763e 3f53 17be c558 6ebe
000002a0: 2b34 6fbd 95ab 3d3d f024 03bd f500 44be
000002b0: 0098 aebd 1fba 9e3c 954e e9bd 40c2 f5bd
000002c0: c006 d63d e9fc b93d 0ef3 593b c099 743d
000002d0: 5c3d f13d d332 5cbe c174 80be 4f12 35be
000002e0: 6507 65be 7242 b6bd c9ca 0bbe a441 fdbd
000002f0: 3a66 e23c 81b7 c03d e95c e0bd 37b2 413d
00000300: 6281 32bd da95 c8bd 5f62 053e dc2e 03bf
00000310: ce52 89be 8e46 27be ef5c 19bd 508c 753e
00000320: 187f 78bd 140c 223e d7bb 97bd 251e 8b3d
00000330: 6981 7f3d 158c b03e 8cff 773d 9490 98be
00000340: 97a1 a53d ae66 743e e31e cebe 933a e9bd
00000350: 25d5 9b3c 0426 d53e 4800 1fbe a9e6 1b3f
00000360: 9664 013f f50e 10bd b56e dfbd 9ef7 163e
00000370: 2d6c 493e 95a8 4a3e 3955 473e dbc7 643e
00000380: 701d 873d 2766 36be f707 313e 7cd6 873e
00000390: 7861 34be 423d 1cbe 2179 3dbe b670 ebbd
000003a0: 36f4 22be c439 34be e3b9 633f cc68 983d
000003b0: b62d 16be f065 d23d 1ee6 403e ca6b e2bd
000003c0: b4d3 49be ed23 91bc 5370 79be 14ba 643f
000003d0: 1f14 11be dc8f 7cbe f7a8 82be 22a6 553d
000003e0: 0be3 793e d084 b0bc 945d d73d f9d5 713d
000003f0: 87aa 24be 60e6 e4bd 499d 173e 45c4 b03d

lstm.bias_hh_l0 f4 [256]
-0.38367844 -0.16109374 -0.10128333 -0.6617244 -0.581003 -0.13119194 -0.38178205 -0.15909445
-0.6488065 -0.22944683 -0.35180476 0.043343835 -0.20080806 -0.024612123 -0.022379361 -0.5792498
-0.45599166 -0.47551242 -0.27853593 -0.42495215 -0.25690237 -0.516823 0.089776486 0.24208717
-0.49133497 0.07809996 -0.4433147 -0.32758588 -0.05609478 0.004245238 -0.16812384 0.034491412
-0.49265003 -0.25060564 0.10384934 0.1530854 -0.26558754 -0.40242577 -0.5610841 -0.5346264
-0.22877504 -0.40925965 0.3871331 -0.02140139 -0.41297215 -0.39666831 -0.29019886 -0.4852465
-0.3817976 -0.28281567 -0.31212053 1.0119265 -0.30199853 -0.30715454 -0.41442406 -0.29881212
-0.34637466 -0.5026135 -0.11191552 -0.3234438 -0.14361098 -0.2913532 -0.69008994 0.45610255
0.07180673 0.08436145 -0.1181167 -0.24912298 -0.028015852 -0.08162956 -0.4244307 -0.26306227
-0.2492229 -0.13239382 0.02978901 0.06165809 -0.25799844 -0.19358411 0.049548317 -0.0022779722
0.16194703 0.13504754 -0.089618444 0.2786388 0.3078643 0.055520806 -0.09583672 -0.45130494
0.5388401 -0.16612256 0.049126226 -0.08844165 -0.10911782 0.41337544 0.23409308 -0.47885212
0.081613585 0.29327446 -0.14134099 0.11118587 0.17036194 -0.2370592 0.31511322 -0.20444183
-0.08177355 0.0693919 -0.55992067 -0.41127282 -0.19220822 0.042307835 0.44328052 0.2926266
0.24511343 -0.11812721 0.4471255 -0.66483337 0.25100812 -0.11774384 0.1655551 0.19363734
-0.21042651 -0.22835627 0.15722105 0.08486741 -0.24762307 -0.08400428 0.35340765 -0.1251056
-0.13811228 0.010337996 0.058380984 -0.062843174 -0.05900146 0.19478317 -0.13922241 -0.0311797
-0.050597787 -0.19314869 -0.08393928 0.20300885 -0.2490394 0.14298612 -0.13364862 -0.047973547
0.31382078 -0.13793805 0.101174586 -0.091028914 0.11494278 -0.17599276 -0.037528846 0.17896548
-0.13761088 -0.23825224 -0.024336686 0.23652142 0.10448505 0.024362411 0.12888023 -0.038672045
0.12286118 -0.38760132 0.34210855 -0.095178075 -0.21265759 0.34462342 -0.12196371 -0.14042169
0.033022277 -0.13599402 0.070869796 -0.1551421 -0.22296324 0.030593479 -0.004662498 -0.29167002
-0.037522674 0.2204535 -0.11289583 0.06727431 0.24462683 -0.3286884 -0.05518918 0.019540181
-0.13209353 0.022601571 -0.101844706 0.017457355 0.14274544 0.02912794 0.043067954 -0.07294565
-0.0713661 -0.05641774 0.25147894 -0.6383071 -0.13517763 -0.0058224704 0.0770153 0.32951307
0.007228365 0.056218237 -0.0064701517 0.30818713 -0.14191876 0.3954303 0.0884147 -0.35209855
0.2312589 0.18671362 -0.41812202 -0.11094471 -0.13365772 0.31467366 -0.07550883 0.4828394
0.44447643 0.019438613 -0.09127012 0.1819248 0.10023632 0.23055518 0.21065098 0.15925671
0.05383334 -0.16985615 0.042517032 0.16879945 -0.0881705 -0.099524364 -0.24555983 -0.14779745
-0.049201697 -0.09964351 0.8286267 0.0011818632 -0.18413594 0.20371862 0.32057875 -0.17164457
-0.090289325 0.0563482 -0.15726195 1.1013714 -0.14339633 -0.17959379 -0.34691468 0.20781377
0.21003753 -0.09998665 0.06987395 0.104206115 -0.10724298 -0.10370731 -0.044754736 0.061215244
00000000: 8071 c4be c2f5 24be a26d cfbd c566 29bf
00000010: 9dbc 14bf 2e57 06be f078 c3be a8e9 22be
00000020: 2f18 26bf 1cf4 6abe c11f b4be 4e89 313d
00000030: a1a0 4dbe 5d9f c9bc ec54 b7bc b749 14bf
00000040: bd77 e9be 5d76 f3be 439c 8ebe 5493 d9be
00000050: b588 83be 834e 04bf bcdc b73d b3e5 773e
00000060: 4290 fbbe dff2 9f3d 25fa e2be 56b9 a7be
00000070: a4c3 65bd a31b 8b3b a828 2cbe de46 0d3d
00000080: a03c fcbe 624f 80be f6ae d43d 6bc2 1c3e
00000090: 17fb 87be c00a cebe 35a3 0fbf 47dd 08bf
000000a0: 0144 6abe 7b8a d1be 4f36 c63e f851 afbc
000000b0: 1671 d3be 1c18 cbbe f294 94be 3b72 f8be
000000c0: fa7a c3be 37cd 90be 43ce 9fbe cf86 813f
000000d0: 8d9f 9abe 5c43 9dbe 642f d4be e7fd 98be
000000e0: 0558 b1be 47ab 00bf f733 e5bd 6d9a a5be
000000f0: c20e 13be 3f2c 95be bca9 30bf 4686 e93e
00000100: 680f 933d b2c5 ac3d 2be7 f1bd 181a 7fbe
00000110: 8081 e5bc 662d a7bd fb4e d9be 19b0 86be
00000120: 4a34 7fbe 3f92 07be 1508 f43c 328d 7c3d
00000130: 5f18 84be ea3a 46be 2df3 4a3d 084a 15bb
00000140: 71d5 253e e749 0a3e e089 b7bd bfa9 8e3e
00000150: 64a0 9d3e c969 633d 0b46 c4bd 7111 e7be
00000160: 6df1 093f 081c 2abe 9538 493d e520 b5bd
00000170: 2a79 dfbd f2a5 d33e 19b6 6f3e 1b2c f5be
00000180: 0625 a73d 1228 963e b1bb 10be 6bb5 e33d
00000190: 5c73 2e3e a6bf 72be 8556 a13e 3359 51be
000001a0: e478 a7bd 571d 8e3d f656 0fbf 5a92 d2be
000001b0: 3bd2 44be fb4a 2d3d aaf5 e23e 27d3 953e
000001c0: 04ff 7a3e aeec f1bd a2ed e43e 8532 2abf
000001d0: 2384 803e af23 f1bd 4787 293e de48 463e
000001e0: 0c7a 57be 3ad6 69be 8efe 203e f7ce ad3d
000001f0: e790 7dbe 700a acbd d9f1 b43e af1b 00be
00000200: 4e6d 0dbe b360 293c e620 6f3d ecb3 80bd
00000210: 84ab 71bd 3d75 473e 5290 0ebe 926c ffbc
00000220: a03f 4fbd c5c8 45be 5be8 abbd 8de1 4f3e
00000230: 2f04 7fbe f46a 123e 2fdb 08be e97f 44bd
00000240: 1ead a03e a23f 0dbe 9f34 cf3d 5e6d babd
00000250: 1f67 eb3d 7237 34be d9b7 19bd ba42 373e
00000260: dee9 0cbe 65f8 73be bb5d c7bc ac32 723e
00000270: 42fc d53d ae93 c73c 2ef9 033e 9466 1ebd
00000280: a49e fb3d ae73 c6be da28 af3e b9ec c2bd
00000290: e9c2 59be 7b72 b03e 1cc8 f9bd b4ca 0fbe
000002a0: 5e42 073d 0442 0bbe 2f24 913d 92dd 1ebe
000002b0: 7a50 64be 2d9f fa3c dec7 98bb c655 95be
000002c0: 60b1 19bd 90be 613e ee35 e7bd 1dc7 893d
000002d0: 757f 7a3e d949 a8be 0d0e 62bd bb12 a03c
000002e0: 8743 07be ee26 b93c f593 d0bd ba02 8f3c
000002f0: dc2b 123e b89d ee3c 0668 303d 8764 95bd
00000300: 6428 92bd 4a16 67bd d9c1 803e 1868 23bf
00000310: 016c 0abe 6cca bebb 33ba 9d3d f0b5 a83e
00000320: ecdb ec3b 1845 663d 9103 d4bb b4ca 9d3e
00000330: 2753 11be d775 ca3e c412 b53d 4346 b4be
00000340: 22cf 6c3e db31 3f3e 1714 d6be fb36 e3bd
00000350: 92dd 08be e81c a13e 60a4 9abd ba36 f73e
00000360: 6a92 e33e ba3d 9f3c d4eb babd 7f4a 3a3e
00000370: b348 cd3d a816 6c3e e4b4 573e 3114 233e
00000380: 5980 5c3d c5ee 2dbe 5726 2e3d c3d9 2c3e
00000390: bc92 b4bd 6ed3 cbbd 0974 7bbe 3758 17be
000003a0: b887 49bd e611 ccbd e120 543f c0e8 9a3a
000003b0: 228e 3cbe 9d9b 503e e622 a43e 98c3 2fbe
000003c0: 9ce9 b8bd 5fcd 663d 4709 21be bdf9 8c3f
000003d0: 7dd6 12be 6fe7 37be cd9e b1be 22cd 543e
000003e0: 1414 573e cdc5 ccbd 131a 8f3d 046a d53d
000003f0: 35a2 dbbd 8064 d4bd be50 37bd d6bc 7a3d

lstm.weight_ih_l1 f4 [256, 64]
0.24185315 -0.070211396 -0.480929 -0.07970167 0.14914288 0.40155786 -0.37967825 -0.81038624
0.27312016 0.17152655 0.09714363 0.4592776 0.3189136 -0.51297253 -0.08337619 -0.439656
0.40099278 0.2581852 0.2351189 -0.31446764 -0.19379862 -0.07074765 -0.04184508 -0.26626036
0.39492613 0.31427294 -0.47036892 0.23638313 -0.61961204 0.43363342 -0.46580714 1.0589241
-0.02528327 0.21068211 1.0029242 -0.084869295 0.54329616 0.20939566 0.032314565 -0.35972232
0.8822863 0.21166338 -0.47402427 -0.18133654 0.7851568 0.4499251 0.49741864 -0.46900955
-0.15979208 -0.17349716 0.067200385 -0.4944443 0.44601467 -0.26946503 -0.5026689 -0.44069535
-0.5005827 -0.21451658 0.37283105 0.18396084 0.1923585 0.19776076 -0.103960216 -0.7011947
0.14865097 0.047943372 -0.4063568 -0.44165283 0.29134548 -0.30121118 0.027528267 0.5121217
-0.49077588 0.6473773 0.31644872 0.39856106 -0.5151807 0.012806319 0.32679704 -0.11489532
0.020893784 -0.16306666 -0.10071264 -0.2401363 -0.05024452 -0.5585486 -0.1380148 0.13820179
0.08191733 -0.76764584 -0.024986004 0.30558056 0.5160858 0.13528797 -0.33478057 1.3026686
0.37400883 0.22196098 0.35195675 0.51288855 -0.25462395 0.5364979 -0.36251563 1.0055238
0.28803846 0.7683359 -0.07503834 0.27489278 -0.6467204 0.023344802 -0.07842428 0.57574654
0.18827218 0.23745722 -0.29176196 0.027006196 -0.21008882 -0.04743993 -0.6034219 0.21198042
-0.8610468 -0.38426954 0.08088145 0.012312217 -0.13972853 0.29804036 -0.18625017 0.0103993425
0.14468256 -0.34512484 0.47292507 -0.6001983 -0.33214247 -0.5217851 -0.2087032 0.30650982
-0.3206719 -0.18870713 0.34101695 -0.7028654 0.72370744 -0.41876584 0.053876612 0.38695437
-0.5702621 -0.40714014 -0.25905964 -0.29127064 0.047849778 0.911974 0.085017614 0.3875759
-0.014441029 0.15991251 -0.3116781 -0.26243404 -0.5245013 0.47464433 0.3249196 0.03257958
-0.49952585 -0.023209509 0.095887475 0.6138872 -0.15896747 0.41127163 -0.5516751 0.44388536
0.36005566 -0.09046338 0.03144471 -0.30229786 -0.1172633 0.0481681 0.44339478 -0.14566286
0.11952894 -0.12160133 -0.020328172 -0.24162295 -0.3954803 0.13826583 -0.46880302 -0.39601287
0.3792979 -0.43127975 0.61209863 -0.260372 0.67538404 0.40241224 -0.060316253 0.11598011
0.16898613 -0.9152796 0.19783436 0.02343791 -0.17910853 0.39938173 -0.35769436 0.12748945
0.4267912 -0.15319747 -0.37069145 -0.7680725 0.103880845 -0.15783313 -0.13035308 -0.7088685
-0.20367269 0.004293304 -0.3880841 -0.17206112 0.035494223 0.2923042 0.23792872 0.16618045
0.22387297 0.2634591 -0.11270966 -0.53875643 -0.092522755 -0.04512854 0.15842423 0.47752538
-0.11412171 0.018459084 -0.24186489 0.4115753 -0.40385938 0.1792365 -0.25867826 0.10410414
-0.25165018 0.32870048 -1.2075245 0.23196444 -0.08489475 0.33625445 -0.45905387 0.4993552
0.53093296 -0.25707856 0.18420817 -0.57648534 0.28529972 0.3072356 0.34323603 0.3642307
0.33952445 0.10063843 0.20564283 0.8898147 -0.01745138 -0.34769115 0.6602062 0.13714352
00000000: 5aa8 773e feca 8fbd 533c f6be a13a a3bd
00000010: e9b8 183e fe98 cd3e 3065 c2be 7975 4fbf
00000020: 68d6 8b3e a8a4 2f3e 3df3 c63d 6f26 eb3e
00000030: a548 a33e 2b52 03bf 23c1 aabd 971a e1be
00000040: ed4e cd3e da30 843e 02c3 703e e701 a1be
00000050: 2573 46be 25e4 90bd bf65 2bbd 4753 88be
00000060: c233 ca3e 62e8 a03e 32d4 f0be 6b0e 723e
00000070: e59e 1ebf 3305 de3e 467e eebe d38a 873f
00000080: dc1e cfbc 0dbd 573e d25f 803f f4cf adbd
00000090: 7515 0b3f d16b 563e 475c 043d 862d b8be
000000a0: 84dd 613f 49be 583e 4fb3 f2be 49b0 39be
000000b0: 0900 493f 955c e63e a8ad fe3e 0522 f0be
000000c0: 89a0 23be 3da9 31be 5ba0 893d ce27 fdbe
000000d0: 095c e43e 52f7 89be e9ae 00bf d2a2 e1be
000000e0: 3026 00bf 3caa 5bbe b6e3 be3e 3b60 3c3e
000000f0: a0f9 443e cc81 4a3e 18e9 d4bd 7f81 33bf
00000100: f637 183e 4560 443d 000e d0be 5220 e2be
00000110: 3c2b 953e 5a38 9abe f682 e13c 681a 033f
00000120: fa46 fbbe 85ba 253f 9105 a23e 3210 cc3e
00000130: e2e2 03bf 98d1 513c f151 a73e 3d4e ebbd
00000140: 7129 ab3c f2fa 26be 6e42 cebd 4ae6 75be
00000150: 33cd 4dbd 0bfd 0ebf c053 0dbe c584 0d3e
00000160: 46c4 a73d 7084 44bf 73af ccbc 0e75 9c3e
00000170: 331e 043f ee88 0a3e 5c68 abbe d8bd a63f
00000180: 167e bf3e bd49 633e ad33 b43e aa4c 033f
00000190: 125e 82be ed57 093f a69b b9be 01b5 803f
000001a0: c779 933e a9b1 443f b4ad 99bd bfbe 8c3e
000001b0: 788f 25bf 993d bf3c e99c a0bd 2064 133f
000001c0: 6cca 403e fc27 733e d361 95be 193c dd3c
000001d0: 8621 57be 5f50 42bd dc79 1abf 6511 593e
000001e0: 906d 5cbf fabe c4be 2ca5 a53d 2eb9 493c
000001f0: ff14 0fbe bf98 983e 5db8 3ebe 0162 2a3c
00000200: aa27 143e 34b4 b0be 3c23 f23e 99a6 19bf
00000210: 940e aabe b593 05bf 4bb6 55be dbee 9c3e
00000220: 1b2f a4be 713c 41be c699 ae3e fdee 33bf
00000230: e444 393f 7a68 d6be b9ad 5c3d e21e c63e
00000240: b2fc 11bf ac74 d0be 77a3 84be 6d21 95be
00000250: 21fe 433d 2177 693f b71d ae3d 5970 c63e
00000260: 119a 6cbc 1bc0 233e 4694 9fbe c15d 86be
00000270: b845 06bf 9504 f33e dd5b a63e 2a72 053d
00000280: dac1 ffbe de21 bebc a760 c43d b627 1d3f
00000290: 5ec8 22be 3292 d23e 943a 0dbf f144 e33e
000002a0: 3759 b83e dd44 b9bd 2bcc 003d c9c6 9abe
000002b0: be27 f0bd ea4b 453d a404 e33e a528 15be
000002c0: 97cb f43d 1e0a f9bd 4487 a6bc 026c 77be
000002d0: 657c cabe 8f95 0d3e f306 f0be 33c2 cabe
000002e0: 5633 c23e b3d0 dcbe 7fb2 1c3f 7b4f 85be
000002f0: f8e5 2c3f fa08 ce3e 2d0e 77bd fb86 ed3d
00000300: b30a 2d3e c44f 6abf 1795 4a3e dc00 c03c
00000310: 3a68 37be c37b cc3e b723 b7be 988c 023e
00000320: 6084 da3e ccdf 1cbe 45cb bdbe 66a0 44bf
00000330: 7bbf d43d 029f 21be 477b 05be 6878 35bf
00000340: 938f 50be d8ae 8c3b f6b2 c6be ca30 30be
00000350: 6462 113d e5a8 953e 96a3 733e 352b 2a3e
00000360: f53e 653e 1ce4 863e 52d4 e6bd f1eb 09bf
00000370: 927c bdbd b4d8 38bd f639 223e 357e f43e
00000380: a5b8 e9bd 8137 973c 6eab 77be ffb9 d23e
00000390: a8c6 cebe c689 373e 7a71 84be 8d34 d53d
000003a0: 4bd8 80be 6e4b a83e 2a90 9abf 1688 6d3e
000003b0: 4cdd adbd 8b29 ac3e 1c09 ebbe 7cab ff3e
000003c0: 39eb 073f cd9f 83be 11a1 3c3e 8b94 13bf
000003d0: ce12 923e fc4d 9d3e a2bc af3e 727c ba3e
000003e0: 26d6 ad3e 851b ce3d 0994 523e e5ca 633f
000003f0: 32f6 8ebc 9304 b2be 4603 293f 5a6f 0c3e

lstm.weight_hh_l1 f4 [256, 64]
-0.047332764 -0.65208894 -0.28455886 1.0367423 0.23968804 -0.82319075 0.027271193 0.15122774
-0.1910719 0.29053375 0.45368963 0.39930356 -0.0726597 -0.08791345 0.568352 -0.36244082
-0.1919935 -0.2674179 0.6413234 -0.15279263 0.08939769 -0.16663787 0.15632012 0.18643384
0.105679624 0.12425151 -0.42934072 0.6293033 0.071947135 -0.6686942 -0.38012013 0.077453926
0.27238104 0.059086952 0.27930188 0.14414865 0.32872662 0.05378169 -0.14887697 -0.4832134
0.14078249 -0.48790893 0.008883985 0.34655163 0.26835808 -0.4690661 -0.23619126 -0.69014454
0.46342188 0.123753496 -0.738243 -0.48184142 0.7006671 -0.07792629 -0.7516876 0.44223675
-7.928749e-05 -0.029186826 0.35478538 -0.21011856 -1.0199946 0.23947117 0.4011314 -0.23068462
0.33242497 -0.105645604 -0.46208024 0.30090928 0.15723085 0.10905031 0.0593583 0.06744915
0.057182312 0.22157803 -0.43085888 0.42191938 -0.09206121 0.13754967 -0.18585542 0.21764669
-0.09343215 0.2945879 0.2633552 0.2881953 -0.07054665 0.61261195 0.21919893 -1.0978589
0.08959364 0.45160204 -0.12686731 -0.3456401 1.0513105 0.28042907 -0.14440659 -0.07430533
0.41549134 0.31780618 0.3023488 -0.6782466 -0.9057419 -0.20807633 0.6053984 0.24825689
-0.2837781 0.20396176 0.49386936 -0.4864705 -0.28390846 -0.89150935 -0.52356297 0.04604318
-0.08331837 0.96072775 -0.16265316 0.23654328 1.2176272 -0.4049569 -0.6618213 0.5167641
0.21016301 -0.30048344 0.14366917 0.44052678 -0.20724502 0.0521941 0.10185158 -0.30539343
-0.22721292 -0.73506564 -0.40540823 0.8134906 -0.19737744 -1.0857654 -0.046905167 -0.32811558
0.08097285 -0.4910895 0.44095558 0.07138377 0.19013941 0.15271768 0.078074396 0.29625577
0.53395903 0.4903997 0.42196438 0.5125606 -0.2197228 -0.0037231373 0.008561747 -0.33730438
-0.62511647 0.23478551 -0.7615156 0.10140048 -0.27269545 0.531959 0.32607508 0.87938243
-0.7128882 -0.401142 0.36149275 -0.25431716 0.24715117 -0.48186842 -0.019584619 -0.8798212
-0.07340931 0.109998405 0.43784186 0.082460105 -0.7219463 -0.05217733 -0.23147361 -0.1548101
-0.3840747 0.99377966 -0.14788467 -0.56728333 0.3381123 0.12673293 0.68796265 0.26925305
0.47149733 -0.1273433 0.67166036 0.060599927 0.38073242 0.15942356 0.045635317 0.20017092
0.055101614 -0.0003342853 0.124803066 0.1058387 -0.33028385 -0.26055214 -0.011619211 0.13848692
0.08952074 0.15804914 0.68391967 -0.40969384 -0.94653606 0.12758756 0.70772135 -0.44288224
-0.22161555 0.20863055 -0.051748704 -0.7627119 0.008248123 -0.30962017 -0.025779163 -0.7353939
0.2076594 -0.02944182 -0.95159113 0.24036029 0.5549369 0.00034490708 0.3926595 -0.0069987327
-0.20707098 -0.16700266 -0.25737765 -0.56515265 -0.27769038 -0.6212182 -0.2850425 -0.3721578
-0.37685332 -0.4844752 -0.1358412 -0.32930708 0.47159696 -0.501727 -0.94135034 -0.40558136
3.7978356e-05 0.5770446 -0.21987808 -0.38691273 -0.18282543 -0.5481105 -0.24171874 0.082973756
0.0535865 -0.9734952 -0.670639 -0.055032395 -0.46968687 0.6292343 0.30682042 0.43428215
00000000: 00e0 41bd 4def 26bf b3b1 91be f9b3 843f
00000010: c870 753e a1bc 52bf d667 df3c 72db 1a3e
00000020: 5aa8 43be d7c0 943e 024a e83e 8471 cc3e
00000030: 9cce 94bd f80b b4bd 847f 113f d891 b9be
00000040: f299 44be 00eb 88be c52d 243f ac75 1cbe
00000050: 2316 b73d 1ea3 2abe 6212 203e 83e8 3e3e
00000060: 8f6e d83d 9377 fe3d 8cd2 dbbe 051a 213f
00000070: 0559 933d 8b2f 2bbf 1b9f c2be 2aa0 9e3d
00000080: 8775 8b3e 2905 723d a800 8f3e b49b 133e
00000090: db4e a83e 304a 5c3d 3473 18be bf67 f7be
000000a0: 4929 103e 33cf f9be 228e 113c 376f b13e
000000b0: 3b66 893e 6f29 f0be 1fdc 71be 50ad 30bf
000000c0: a245 ed3e 7972 fd3d 7efd 3cbf ebb3 f6be
000000d0: eb5e 333f d297 9fbd 996e 40bf db6c e23e
000000e0: 2647 a6b8 3619 efbc 6ea6 b53e 5229 57be
000000f0: 2f8f 82bf ee37 753e 1861 cd3e 9738 6cbe
00000100: 9b33 aa3e b95c d8bd c895 ecbe c810 9a3e
00000110: 2001 213e c555 df3d b021 733d c822 8a3d
00000120: 0038 6a3d 5ae5 623e 8999 dcbe d105 d83e
00000130: 968a bcbd d2d9 0c3e e250 3ebe c6de 5e3e
00000140: 5b59 bfbd 3ad4 963e 7ed6 863e 568e 933e
00000150: c37a 90bd 23d4 1c3f af75 603e a486 8cbf
00000160: df7c b73d 6238 e73e 81e9 01be bdf7 b0be
00000170: 5891 863f 6694 8f3e 52df 13be 652d 98bd
00000180: 48bb d43e 7eb7 a23e 76cd 9a3e 92a1 2dbf
00000190: b3de 67bf f611 55be 64fb 1a3f 0e37 7e3e
000001a0: 5d4b 91be 5adb 503e 72dc fc3e a912 f9be
000001b0: 735c 91be f539 64bf 3908 06bf c697 3c3d
000001c0: d2a2 aabd 41f2 753f 8d8e 26be 6738 723e
000001d0: 35db 9b3f 8356 cfbe 1f6d 29bf a74a 043f
000001e0: f934 573e f7d8 99be 031e 133e ba8c e13e
000001f0: 0a38 54be 7bc9 553d 9097 d03d 875c 9cbe
00000200: 81aa 68be 432d 3cbf ab91 cfbe ec40 503f
00000210: 501d 4abe 5cfa 8abf a21f 40bd c4fe a7be
00000220: 18d5 a53d 1570 fbbe eec4 e13e a731 923d
00000230: e8b3 423e 0662 1c3e 78e5 9f3d d6ae 973e
00000240: 8ab1 083f ab15 fb3e b70b d83e 2c37 033f
00000250: 04ff 60be e1ff 73bb 9246 0c3c 29b3 acbe
00000260: a207 20bf 9d6b 703e b0f2 42bf 0eab cf3d
00000270: bd9e 8bbe 772e 083f 50f3 a63e 351f 613f
00000280: d77f 36bf 7c62 cdbe 9415 b93e dc35 82be
00000290: 3215 7d3e 75b7 f6be ec6f a0bc f63b 61bf
000002a0: 9f57 96bd d846 e13d cf2c e03e d8e0 a83d
000002b0: 79d1 38bf e5b7 55bd 6b07 6dbe 8a86 1ebe
000002c0: 70a5 c4be 5868 7e3f 146f 17be 7b39 11bf
000002d0: 0e1d ad3e 47c6 013e 521e 303f 89db 893e
000002e0: 1968 f13e 4866 02be eff1 2b3f a137 783d
000002f0: 5cef c23e ee3f 233e 19ec 3a3d 9bf9 4c3e
00000300: 3bb2 613d 0343 afb9 c098 ff3d f6c1 d83d
00000310: f71a a9be 1767 85be 815e 3ebc 84cf 0d3e
00000320: a656 b73d a2d7 213e 5c15 2f3f 64c3 d1be
00000330: 3050 72bf 50a6 023e 3a2d 353f 76c1 e2be
00000340: 30ef 62be 3fa3 553e 73f6 53bd 1641 43bf
00000350: 2323 073c 8986 9ebe d32e d3bc c642 3cbf
00000360: aaa4 543e f92f f1bc 7a9b 73bf 0221 763e
00000370: 5810 0e3f a5d4 b439 aa0a c93e a055 e5bb
00000380: 6a0a 54be bf02 2bbe 01c7 83be d8ad 10bf
00000390: 6f2d 8ebe 2808 1fbf 17f1 91be 788b bebe
000003a0: ebf2 c0be 220d f8be f519 0bbe f09a a8be
000003b0: 2875 f13e 2e71 00bf 56fc 70bf 5ca8 cfbe
000003c0: f34a 1f38 32b9 133f b827 61be 6d19 c6be
000003d0: 9736 3bbe f850 0cbf 1e85 77be 25ee a93d
000003e0: 857d 5b3d fb36 79bf ffae 2bbf a669 61bd
000003f0: cc7a f0be 8015 213f 9117 9d3e 3b5a de3e

lstm.bias_ih_l1 f4 [256]
-0.4831069 -0.28306088 -0.49356747 -0.50639224 -0.8106585 0.06091097 -0.64984864 -0.22546218
-0.66556585 -0.4920582 -0.40787038 -0.19355802 0.07311737 -0.9906506 -0.5887541 -0.6858178
-0.3820267 -0.39868852 -0.5227081 -0.3515747 -0.373192 -1.2130129 -0.004533497 -0.4223929
-0.49721265 0.067351915 -0.28330183 -0.6867884 -0.2542356 -0.47838074 -0.42329994 -0.51610035
0.3227143 -0.46897537 0.08251654 -0.8278128 -0.51395136 0.073695116 -0.6819541 -0.26268077
-0.47817 -0.61057746 -0.5632466 -0.2440542 -0.57770246 0.0008492301 -0.44619226 0.06872216
-0.08738284 -0.44052356 -0.44720274 -0.41857296 0.05285647 -0.814491 -0.92028546 -0.49672553
-0.55845284 -0.13951495 -0.36745042 -0.4367977 0.034106072 -0.047559425 -0.37111267 0.05213328
-0.13301812 0.23594847 0.40223718 0.23327397 0.31444955 -0.15817411 0.4545437 0.31219682
0.7744934 -0.22884062 0.31006062 0.22215627 -0.22835965 1.120365 0.52186376 0.54238766
-0.0072624823 0.3174553 0.23183607 -0.028736915 0.3563008 1.0613803 0.024895277 0.2599591
-0.09278972 -0.045757152 0.22847098 0.4338847 -0.3547163 0.020423148 0.17066583 -0.16626297
-0.4295549 0.38026527 0.034471754 0.8212384 0.089462504 0.17837757 0.6120495 0.12779754
0.36786973 0.38088858 0.27890828 -0.43216148 0.06765259 -0.040596895 0.08406427 -0.03935205
-0.07722455 0.46966738 -0.11550738 0.32899898 -0.23574972 0.6139365 0.5914288 0.30117086
0.60777366 0.13923948 -0.08044535 0.39882576 -0.17379792 -0.086140834 0.5657421 -0.026095694
-0.03990726 -0.17200579 0.06842356 0.086002104 -0.11585284 0.00379412 0.08111351 -0.0913453
0.33223027 -0.034201756 -0.14347796 0.0209197 0.059024803 -0.0548913 0.08229062 0.054084994
-0.00431733 0.12293549 0.14284274 -0.17245562 -0.10187624 0.20227279 -0.012245681 0.3083564
-0.001826185 0.058591418 0.02418423 0.1848627 0.13168603 -0.13706492 -0.11588721 -0.10678261
-0.34050536 0.019220503 0.06767691 0.106738225 0.012942632 -0.104623266 -0.041881576 0.20402104
-0.07699981 -0.09543607 -0.024700997 0.21874376 -0.23011187 0.23644443 0.0978104 0.08891976
-0.16094044 -0.21790081 0.06416096 -0.1172309 -0.045750406 -0.0071040615 0.08395825 -0.04591301
-0.10323416 0.20970578 0.057687674 -0.16729163 0.17873198 -0.15874827 0.17469592 0.2310609
-0.20540996 -0.118972145 -0.22000085 -0.28129718 -0.24518937 -0.03470337 -0.343047 -0.16903205
0.2830828 -0.25844833 -0.57713056 -0.15703931 0.041858565 0.7268497 -0.1569115 0.053955197
0.04937088 -0.10613201 -0.23373365 -0.06757194 0.53696907 0.8592268 0.34664467 0.020156035
-0.19559512 0.14568986 -0.19574912 0.16386144 -0.050544526 -0.12666512 -0.12338608 -0.19551569
0.06463526 0.41128755 0.0825362 0.11554407 -0.35558057 -0.17478804 0.04631074 0.25764778
-0.21880369 -0.097876176 0.060837045 -0.22440279 -0.32020143 0.17037798 -0.09903939 0.0137575865
-0.021468524 -0.26420105 -0.32935923 -0.36937624 -0.13251199 -0.17326349 -0.092451476 -0.19619903
-0.17625844 0.08714731 0.16412264 -0.11741432 0.4129372 0.21105681 0.07025146 -0.09951533
00000000: ca59 f7be 5bed 90be e0b4 fcbe eca2 01bf
00000010: 5187 4fbf c87d 793d 7b5c 26bf 8fdf 66be
00000020: 8662 2abf 0def fbbe 63d4 d0be 1334 46be
00000030: 8fbe 953d 479b 7dbf 97b8 16bf c191 2fbf
00000040: 0199 c3be e720 ccbe 33d0 05bf 9901 b4be
00000050: 0613 bfbe 0244 9bbf bb8d 94bb e243 d8be
00000060: a892 febe cdef 893d f00c 91be 5dd1 2fbf
00000070: 2b2b 82be 52ee f4be c5ba d8be 271f 04bf
00000080: cf3a a53e 8a1d f0be 6ffe a83d 8aeb 53bf
00000090: 5192 03bf 77ed 963d 8b94 2ebf 187e 86be
000000a0: b3d2 f4be ce4e 1cbf ee30 10bf 58e9 79be
000000b0: 4fe4 13bf de9e 5e3a 5073 e4be 34be 8c3d
000000c0: c6f5 b2bd 4e8c e1be c2f7 e4be 324f d6be
000000d0: 0780 583d 7b82 50bf d497 6bbf cf52 febe
000000e0: c4f6 0ebf 02dd 0ebe 7622 bcbe f3a3 dfbe
000000f0: cfb2 0b3d accd 42bd 7b02 bebe b589 553d
00000100: e735 08be 7a9c 713e 08f2 cd3e 5fdf 6e3e
00000110: 88ff a03e 65f8 21be f4b9 e83e 43d8 9f3e
00000120: 3345 463f 3255 6abe 44c0 9e3e ef7c 633e
00000130: 1dd7 69be 1f68 8f3f dd98 053f ebd9 0a3f
00000140: 1efa edbb 8089 a23e 6f66 6d3e ae69 ebbc
00000150: 0f6d b63e 4fdb 873f 2ef1 cb3c 5c19 853e
00000160: 8908 bebd da6b 3bbd 4cf4 693e 2326 de3e
00000170: 609d b5be 724e a73c 06c3 2e3e d740 2abe
00000180: 9fee dbbe 21b2 c23e 4132 0d3d ae3c 523f
00000190: 1e38 b73d 9ca8 363e 47af 1c3f 5cdd 023e
000001a0: 6c59 bc3e d403 c33e 11cd 8e3e 4544 ddbe
000001b0: 718d 8a3d ee48 26bd e329 ac3d 9d2f 21bd
000001c0: e827 9ebd 3e78 f03e 228f ecbd 8e72 a83e
000001d0: 6068 71be f12a 1d3f e167 173f 1133 9a3e
000001e0: 0e97 1b3f cb94 0e3e 88c0 a4bd e432 cc3e
000001f0: 15f8 31be 9b6a b0bd 79d4 103f a3c6 d5bc
00000200: cc75 23bd 4922 30be a721 8c3d df21 b03d
00000210: 4144 edbd c5a6 783b d71e a63d 3f13 bbbd
00000220: 161a aa3e 2417 0cbd e3eb 12be ca5f ab3c
00000230: fec3 713d b3d5 60bd fc87 a83d 3a88 5d3d
00000240: 6478 8dbb 9ac5 fb3d 5e45 123e 3598 30be
00000250: 7da4 d0bd 9920 4f3e 1ca2 48bc e4e0 9d3e
00000260: 9a5c efba 8efd 6f3d 021e c63c a64c 3d3e
00000270: b4d8 063e bf5a 0cbe 4656 edbd d7b0 dabd
00000280: b856 aebe 5174 9d3c 319a 8a3d 9299 da3d
00000290: 550d 543c b944 d6bd 048c 2bbd e4ea 503e
000002a0: 14b2 9dbd fc73 c3bd bf59 cabc 5dfe 5f3e
000002b0: 72a2 6bbe 7d1e 723e d250 c83d 901b b63d
000002c0: 92cd 24be 6421 5fbe d266 833d c116 f0bd
000002d0: c764 3bbd 30c9 e8bb 4ef2 ab3d 480f 3cbd
000002e0: 6e6c d3bd 1dbd 563e e949 6c3d 7f4e 2bbe
000002f0: 8405 373e e88e 22be 7de3 323e 3b9b 6c3e
00000300: fd56 52be aba7 f3bd e747 61be 2f06 90be
00000310: ec12 7bbe 1f25 0ebd dba3 afbe bd16 2dbe
00000320: 3bf0 903e 5753 84be d4be 13bf eace 20be
00000330: e373 2b3d d212 3a3f 69ad 20be 2000 5d3d
00000340: 1f39 4a3d bd5b d9bd e057 6fbe 2863 8abd
00000350: ce76 093f 4af6 5b3f 697b b13e 451e a53c
00000360: 164a 48be b92f 153e 7572 48be 4bcb 273e
00000370: c707 4fbd 80b4 01be d7b1 fcbd 4435 48be
00000380: 7e5f 843d 4894 d23e bd08 a93d 5fa2 ec3d
00000390: a80e b6be a3fb 32be 55b0 3d3d 69ea 833e
000003a0: 130e 60be 4e73 c8bd 4430 793d d8c9 65be
000003b0: 71f1 a3be 9177 2e3e 2ad5 cabd 8067 613c
000003c0: c2de afbc 5c45 87be c6a1 a8be e21e bdbe
000003d0: 39b1 07be fc6b 31be 3357 bdbd 66e8 48be
000003e0: 187d 34be 4a7a b23d c40f 283e eb76 f0bd
000003f0: 816c d33e 471f 583e ffdf 8f3d b1ce cbbd

lstm.bias_hh_l1 f4 [256]
-0.4602406 -0.35899305 -0.4930677 -0.41053626 -0.66211444 -0.037377033 -0.49292484 -0.1447263
-0.6907903 -0.599605 -0.5294278 -0.136305 0.18961608 -1.0303091 -0.5694367 -0.6622046
-0.274941 -0.55262506 -0.5682904 -0.3300403 -0.3607212 -1.2611288 0.22045238 -0.61025476
-0.3717469 0.020897478 -0.2505072 -0.5123894 -0.083909504 -0.44306657 -0.37154984 -0.49558622
0.29512766 -0.39564657 0.0045975167 -0.9814644 -0.59256774 0.018114861 -0.46614885 -0.30695656
-0.32012603 -0.5953365 -0.3823024 -0.26791 -0.59206337 -0.0031363731 -0.60497946 0.08658767
-0.096747845 -0.6418423 -0.40592214 -0.43448028 -0.059187267 -0.877357 -0.9963242 -0.51557857
-0.5461285 -0.33201683 -0.33710283 -0.44331673 0.07398995 -0.13201712 -0.49711972 0.13743383
-0.05664557 0.33412322 0.51028365 0.25456116 0.3258852 -0.118606135 0.47848228 0.31584188
0.7255165 -0.25547725 0.3326368 0.32003334 -0.11726601 0.9445826 0.36686227 0.48290196
0.11866065 0.28533864 0.28896594 -0.16764635 0.5219836 1.1746075 -0.004410198 0.26397982
-0.1623949 0.01775243 0.23104945 0.39556578 -0.3758016 0.16705094 0.15683675 -0.21513845
-0.3907576 0.3877829 0.1564548 0.82711077 0.11664716 0.05425243 0.64972687 0.2136037
0.44744128 0.35091275 0.25612497 -0.38622698 0.09361593 -0.16900456 0.0007445993 0.045925938
-0.19109328 0.3051945 -0.008181841 0.4143427 -0.057189677 0.46895382 0.59297884 0.18953644
0.47690833 0.34106418 -0.09872622 0.29723543 0.01868002 -0.21468715 0.35091567 0.010771637
-0.06151185 -0.26962122 0.029055929 0.13396187 -0.077570364 0.06599853 0.21308705 -0.16447195
0.243048 -0.201094 0.030201884 -0.047869492 -0.11343081 -0.061910275 0.28941745 0.17109111
0.1530879 0.06881079 -0.065687925 -0.18167421 0.13481523 0.08019307 0.14413497 0.15412769
0.02497557 -0.15018335 0.23353305 0.17530566 0.15575384 -0.2554284 -0.09700373 -0.00272158
-0.35522884 0.03259809 0.2000792 0.19772637 0.11794903 -0.052411906 0.035938423 0.25844324
0.06262178 -0.048502244 -0.1646348 0.028110811 -0.08096669 0.051177856 0.14078629 -0.026615271
-0.19374107 -0.24489708 0.15066397 -0.10963467 -0.10662754 -0.078910574 0.23729467 -0.004424727
-0.23981333 0.091067195 -0.006213296 -0.3757997 0.071579866 -0.13673204 0.37636897 0.16957027
-0.2405786 -0.15534158 -0.19599403 -0.33292523 -0.2578501 -0.05097119 -0.27872226 -0.3641569
0.37864044 -0.17879286 -0.6734197 -0.25138536 0.21844426 0.77381814 -0.09346252 -0.09054899
0.13970605 -0.20229709 -0.13710316 -0.19249377 0.3405629 0.8629717 0.1983351 0.16413331
-0.26570925 0.32249674 -0.1765864 0.11907113 0.10479113 -0.14682215 -0.05227478 -0.09214981
0.2838726 0.5187243 -0.09807319 0.22678164 -0.5139019 -0.30121884 -0.020570302 0.08411072
-0.2424353 -0.05146783 0.26432008 -0.043638278 -0.16860221 0.12414526 0.001776322 -0.000951001
-0.0043188133 -0.20040151 -0.19284901 -0.33832154 0.021199923 -0.2052828 -0.03759925 -0.1590301
-0.11797386 -0.012084191 0.23427625 -0.14862679 0.43457657 0.24560887 0.17841361 -0.012293414
00000000: a8a4 ebbe f0cd b7be 5f73 fcbe cf31 d2be
00000010: 5580 29bf a918 19bd a560 fcbe 2233 14be
00000020: a2d7 30bf b77f 19bf 9588 07bf 8a93 0bbe
00000030: b82a 423e 2be1 83bf 9bc6 11bf 3e86 29bf
00000040: 11c5 8cbe d678 0dbf 7b7b 11bf 0bfb a8be
00000050: 73b0 b8be ab6c a1bf 45be 613e a839 1cbf
00000060: 9c55 bebe 3031 ab3c 7b42 80be f42b 03bf
00000070: bfd8 abbd 9fd9 e2be c83b bebe 7abd fdbe
00000080: f91a 973e 3092 cabe c4a6 963b 4041 7bbf
00000090: 85b2 17bf 9e65 943c 10ab eebe 6929 9dbe
000000a0: 8fe7 a3be f967 18bf 24bd c3be 802b 89be
000000b0: 7791 17bf 9c8b 4dbb efdf 1abf e054 b13d
000000c0: bc23 c6bd c74f 24bf 07d5 cfbe 3374 debe
000000d0: 596e 72bd 789a 60bf 1a0f 7fbf f5fc 03bf
000000e0: 14cf 0bbf 1cfe a9be be98 acbe 69fa e2be
000000f0: 0b88 973d 7f2f 07be 7a86 febe 74bb 0c3e
00000100: 2f05 68bd 3312 ab3e f3a1 023f d755 823e
00000110: 6dda a63e c6e7 f2bd a1fb f43e 07b6 a13e
00000120: 73bb 393f eacd 82be 5f4f aa3e 69db a33e
00000130: 2929 f0bd 2ad0 713f 5fd5 bb3e ed3e f73e
00000140: 5b04 f33d e817 923e 58f3 933e 7cab 2bbe
00000150: b8a0 053f 8a59 963f 6c83 90bb 5d28 873e
00000160: d94a 26be 8b6d 913c 3a98 6c3e 9987 ca3e
00000170: 1169 c0be 670f 2b3e d099 203e 414d 5cbe
00000180: 6111 c8be 7b8b c63e b035 203e 88bd 533f
00000190: b5e4 ee3d cc37 5e3d 8054 263f eeba 5a3e
000001a0: 0617 e53e d6aa b33e d022 833e 8bbf c5be
000001b0: b5b9 bf3d 880f 2dbe 3731 433a d61c 3c3d
000001c0: f5ad 43be 7442 9c3e 210d 06bc ba24 d43e
000001d0: b93f 6abd b71a f03e 76cd 173f d715 423e
000001e0: 542d f43e f79f ae3e f930 cabd 3e2f 983e
000001f0: d706 993c f3d6 5bbe 38ab b33e 857b 303c
00000200: daf3 7bbd cb0b 8abe b306 ee3c 4d2d 093e
00000210: 36dd 9ebd 3d2a 873d 7e33 5a3e 566b 28be
00000220: 93e1 783e 96eb 4dbe f169 f73c cd12 44bd
00000230: 6a4e e8bd a195 7dbd 862e 943e 8232 2f3e
00000240: 13c3 1c3e acec 8c3d 6487 86bd ce08 3abe
00000250: 010d 0a3e 443c a43d 1e98 133e a6d3 1d3e
00000260: 9199 cc3c aac9 19be 4a23 6f3e 5483 333e
00000270: ef7d 1f3e 83c7 82be e4a9 c6bd 895c 32bb
00000280: 8ee0 b5be 9385 053d 90e1 4c3e c878 4a3e
00000290: 438f f13d dead 56bd 2b34 133d ac52 843e
000002a0: d93f 803d 4aaa 46bd 0696 28be a548 e63c
000002b0: ddd1 a5bd df9f 513d 482a 103e 4508 dabc
000002c0: 0f64 46be 4dc6 7abe a847 1a3e 2488 e0bd
000002d0: 8a5f dabd de9b a1bd 60fd 723e 4dfd 90bb
000002e0: a091 75be 7081 ba3d e898 cbbb d168 c0be
000002f0: 7798 923d 7c03 0cbe 6fb3 c03e d4a3 2d3e
00000300: 3d5a 76be dd11 1fbe a9b2 48be 2d75 aabe
00000310: ee04 84be 2bc7 50bd afb4 8ebe c672 babe
00000320: 29dd c13e 7a15 37be 3c65 2cbf 95b5 80be
00000330: daaf 5f3e f218 463f 4769 bfbd c071 b9bd
00000340: 1a0f 0f3e f826 4fbe c564 0cbe 161d 45be
00000350: 435e ae3e b7eb 5c3f 5b18 4b3e 9012 283e
00000360: 0b0b 88be 4b1e a53e 11d3 34be 91db f33d
00000370: bb9c d63d 8c58 16be 141e 56bd 0ab9 bcbd
00000380: c057 913e 1ecb 043f 99da c8bd 7239 683e
00000390: 138f 03bf 5b39 9abe 0d83 a8bc 3e42 ac3d
000003a0: f640 78be eecf 52bd f654 873e 0dbe 32bd
000003b0: 0fa6 2cbe df3f fe3d 7ad3 e83a 994c 79ba
000003c0: d584 8dbb 0e36 4dbe 367a 45be 7b38 adbe
000003d0: 76ab ad3c a835 52be ac01 1abd c9d8 22be
000003e0: 479c f1bd c5fc 45bc 1de6 6f3e 9f31 18be
000003f0: d280 de3e e480 7b3e 0fb2 363e 516a 49bc
