backend/Model_Pytorch/RNN_Model_our_data/output/checkpoints/latest_checkpoint.pth (torch, 668581 bytes, 30 tensors)

lstm.weight_ih_l0 f4 [256, 15]
00000000: 31c9 033d 377b 3bbd 1fd4 9ebd 25e2 8bbd
00000010: a962 22be ffc6 17be 7fde 833c 9b11 df3c
00000020: 53c7 e03d 2818 3ebb eac9 b5ba 69d9 1ebd
00000030: 334a 59bd 010a 68bd 1284 873d 06d5 07be
00000040: f017 c2bd cec1 d0bd 74c6 e23a ea8b c13d
00000050: 6adb 7ebd 2859 e93b 0255 d3bc c35d f43d
00000060: d98f 6dbc d7d2 c6bd 00a7 1a3e 161e 38bd
00000070: c2e0 423d 0aab a0bd 7b36 053d 66db cdbd
00000080: a376 ebbd 469c 19be 0d45 96bb 82c3 e53d
00000090: 85d2 52bd c20c 983d 790c 063e 473e 653d
000000a0: bd9a 19bc 141a 0ebd 42ae cbbd 6c08 efbc
000000b0: 12cf f33c cdd0 81bd 9318 26bc 3d8f 733d
000000c0: e401 193b e20c a03c 9847 82bd 21a0 57bd
000000d0: b1b3 603d 475b 8ebd 2e41 d43d edc1 babd
000000e0: 240a 013e 9e97 083e 33b3 153d 4a90 2abc
000000f0: e2c1 47bd e393 9a3d 1257 3a3d 440f afbd
00000100: ca04 af3d 85c5 abbd 9dbf 083d 99ce 3abe
00000110: c54b e6bd d969 da3d 4a4f c6bd 9477 c23d
00000120: 1ceb c0bd 1e10 a53d 6c80 c4bd 835b d5bc
00000130: 077a e6bd 1663 a93d 7d15 d3bd 8749 1bbc
00000140: a953 f7bc ee90 873d 9f07 eabd c4e3 9b3d
00000150: 0114 b83d 28fb dd3c b22a 1d3e 0585 3f3d
00000160: 71db 14bd 732a 9a3d 2acb 01be a890 c73d
00000170: 49e6 493d 7ca8 ffbd 0f63 26be ee31 12be
00000180: c010 2ebd a332 133e e05a 183e e93b 533c
00000190: 466f fcbd 7d29 36bc 11f9 a7bd 4ea5 23bd
000001a0: b350 eb3c 5e8e bb3c d0b4 41bd cfa3 0e3d
000001b0: 0751 7dbd b613 843d 1808 f5bd 307f bbbd
000001c0: b21e 973c 978c be3d d368 fd3d 26cb 623d
000001d0: 52dd 123e 8b41 933d 2c94 bb3d e106 713c
000001e0: 54af 9a3d 8d07 ce3d da24 f13d 044f fb3b
000001f0: c893 f43d 58a9 5a3c 9eb4 193d 2bc3 06be
00000200: 647d 3fbb bdbb 2a3d 1ca0 35bb 69a3 a4bd
00000210: 8355 3a3d b3ea 063d 5c12 b6bd ed70 7c3b
00000220: 7516 0cbd 04c4 fa3c 86f3 79bd 404c 023d
00000230: 7cb8 173e c3ca c43d 04bd da3d 570b 93bd
00000240: b392 433d 199f 3bbd 4031 3a3c 79e2 03be
00000250: 3cc6 173d 058d c5bd 9d6d cabd d4df 803d
00000260: de0b b4bd 6f8b ae3c b2c9 3b3c 16c3 af3d
00000270: db6c a63d c313 01be 24ec 883d ae47 98bd
00000280: b548 4f3c 4686 c03d 16bf 1c3e fd58 1fbe
00000290: 0449 833d bbb0 0bbc 002a 1bbd 720c 2dbe
000002a0: 250d 35be 5b02 b83b 3256 05b8 0da9 ab3c
000002b0: 7b18 343d 1d20 a03d 8bf7 f13d 5c2b 78bd
000002c0: 7ad9 9cbb 3915 193e 103e 923b d673 923d
000002d0: 74dd 13be 7cde de3d 6348 133d b7b7 ebbc
000002e0: 9a7a 843d 5cea 48bc 6ef4 d63d bcea 4dbd
000002f0: 7384 08bd 2de1 c9bd c385 19bd a22a efbb
00000300: e15c 8fbd 3e2d 613d 93a8 b3bd d4d7 58bd
00000310: 9594 f9bd 9db6 3e3e 4aa2 a63d 6656 66bd
00000320: 7691 0b3d fc62 9c3d e890 f1bd 5fc5 08be
00000330: d8fb bebc 1f7d 9d3c aa4a 2abd 190e 09be
00000340: 3fc1 643d 1d3c 493d 94b0 e73b fcb0 80bd
00000350: 4867 b1bd 6003 ce3d 1050 9cbb 2d51 b6bc
00000360: 9684 95bc e316 c03d c76b e13b d172 02be
00000370: 54df 203d ac46 813b 4123 4dbd 632a dabd
00000380: 4a37 ecbd 118b 36be d84d 92bc 42fe 603d
00000390: 5571 ec3d 7c33 953d ffe0 2e3a 6dd1 26bd
000003a0: 9a2d 57bd 5c69 9abd 97dd 99bd caf8 bdbd
000003b0: cb08 783d e535 8e3d 319a ad3c 1683 bb3d
000003c0: fafa 063d 78f0 54bd c061 d2bd 0ba7 ab3d
000003d0: 86b4 40bd e721 cc3a 5dcb 11bc c05b 7c3d
000003e0: a203 f03d 2b14 c43c 4943 743d 5aa5 cebd
000003f0: d5d8 16bd 684d a7bd b0db 3a3b d495 053e
0.032174293 -0.045771804 -0.07755303 -0.06830243 -0.15857948 -0.14822005 0.016097305 0.027230075
0.10975518 -0.0029006097 -0.0013869379 -0.038781557 -0.053049278 -0.056650165 0.06616987 -0.13264856
-0.09477222 -0.10193215 0.0017301575 0.094505146 -0.06222097 0.007121224 -0.02579737 0.11931946
-0.014499628 -0.09708183 0.15102768 -0.044950567 0.047577627 -0.07845123 0.03252266 -0.100516126
-0.114972375 -0.1500102 -0.004585868 0.11218931 -0.0514703 0.07424308 0.13090695 0.055967595
-0.009375271 -0.03469284 -0.099453464 -0.02917882 0.029761825 -0.06338654 -0.010137695 0.059462775
0.0023347074 0.019537393 -0.06361312 -0.052642945 0.054858867 -0.069510035 0.103639945 -0.0911902
0.12601525 0.13339087 0.03654785 -0.010410378 -0.048768885 0.075477384 0.045493193 -0.085478336
0.08545835 -0.08387283 0.03338586 -0.18242873 -0.11244921 0.1066472 -0.09683092 0.09495464
-0.094198436 0.08059715 -0.09594807 -0.026044613 -0.112537436 0.08270852 -0.10306833 -0.0094779795
-0.03019126 0.0661944 -0.11427235 0.07611802 0.089881904 0.0270973 0.15348318 0.046757717
-0.036342088 0.07527628 -0.12675157 0.09744388 0.049291883 -0.12483308 -0.16248725 -0.14276859
-0.042496443 0.14374785 0.14878416 0.012892702 -0.12325911 -0.01111829 -0.082018025 -0.03995257
0.028725004 0.022895034 -0.047291577 0.03482419 -0.06184485 0.06449072 -0.119644344 -0.091551185
0.018447254 0.09304159 0.12373509 0.05536952 0.1434224 0.07190236 0.09159121 0.014711113
0.075529724 0.10060034 0.11774607 0.0076693315 0.119422495 0.013346039 0.037525766 -0.13160388
-0.0029219026 0.041682947 -0.002771384 -0.080389805 0.045491707 0.03293867 -0.088902205 0.0038519457
-0.034201104 0.030611046 -0.061023258 0.031811 0.14816469 0.09608986 0.10680583 -0.07179897
0.047747325 -0.045806024 0.011364281 -0.12879361 0.037054285 -0.09646038 -0.09884188 0.06292692
-0.08791326 0.021306721 0.011461662 0.085821316 0.08126231 -0.12605195 0.06685665 -0.07435547
0.012651612 0.094006106 0.15307269 -0.1556129 0.06410411 -0.008526023 -0.03788185 -0.16899279
-0.17680795 0.005615515 -3.1789947e-05 0.020954633 0.04396866 0.07818625 0.11814793 -0.060588226
-0.0047866674 0.14949502 0.004462965 0.07151 -0.14439946 0.10882279 0.035957705 -0.028774126
0.06468697 -0.012262907 0.1049584 -0.05027269 -0.03332944 -0.09857402 -0.03748108 -0.0072987834
-0.07000137 0.054974787 -0.08772387 -0.052940205 -0.12186543 0.18624349 0.08136423 -0.05623474
0.03407427 0.07636067 -0.11795217 -0.13356541 -0.023313448 0.019224701 -0.04157511 -0.13384284
0.055848356 0.049129594 0.0070706103 -0.06283757 -0.086622775 0.100592375 -0.0047702864 -0.022255505
-0.018251698 0.09379365 0.006879303 -0.12739111 0.039275482 0.0039451923 -0.05008245 -0.10652616
-0.11533983 -0.17826487 -0.017859384 0.05492998 0.11545054 0.072852105 0.00066711 -0.040727068
-0.052533723 -0.07539627 -0.07512968 -0.092759684 0.06055526 0.06943873 0.021191688 0.09155862
0.032954194 -0.05198714 -0.102725506 0.0838147 -0.04704716 0.0015574069 -0.008898583 0.061610937
0.11719443 0.023935398 0.05963448 -0.10090132 -0.03682788 -0.08169061 0.0028512292 0.13045436

lstm.weight_hh_l0 f4 [256, 64]
00000000: 9d27 3b3e bb28 04bd 11a6 eebb cc0f 5fbd
00000010: 03ac 3a3e 0379 8cbc 718f c53d a636 ee3d
00000020: d994 3abd ff64 12bb 01c8 ea3d 9998 e83d
00000030: 4cc1 54bd f782 93bd 72c0 d6bc 3d05 943d
00000040: 6bc8 62bd 833f 113e fd5c a4bd 7a7f 293e
00000050: 3621 d4bd 48ff 6d3d 34ec 863d 265c de3c
00000060: d5f9 793d 6327 3fbc e1ed a9bd a14c 6c3b
00000070: 4094 8dbd 0cfe dd3d c997 46bd eecd 973d
00000080: e8a5 82bd 78ba f6bd 2f75 2c3d debb cf3b
00000090: bdaa 2d3d 7d18 3fbd acb6 983d 56d9 093d
000000a0: b610 d9bd a8f1 8239 b989 bebd 612c e0bd
000000b0: 548a 3fbd 173f 53bd 3ffa 10bd dffe c43c
000000c0: 2059 cabd 2afb babd d3a6 16bd 61e9 76bc
000000d0: b256 b9bd 08c3 143e eaf1 b13d a713 a2bd
000000e0: 0344 90bd 5e95 04bd 18c0 493d 8432 edbc
000000f0: 217e aeba b7f3 093e 3c85 c8bb 51f8 21bc
00000100: f83b 90bd bc12 553d ba71 08bd 8793 c73d
00000110: 44b0 d03d 5fa0 933d 8c2f 7a3d eb58 a33d
00000120: 69e6 c03d ee35 26be 7a63 20bb dbf9 d63c
00000130: 2b45 5b3d 6d14 933d b5c5 e33d 8c64 f0bd
00000140: bdf9 103d ffbf c4bc c64f 8c3d 8642 babd
00000150: f9d3 73bd 023c 3b3d f67d 9a3d 6df8 06bd
00000160: bf81 6abd 7fbb ce3c 9abd d23d 53b1 b4bd
00000170: 488c 903d af69 04be 8c1c 05bc 3b95 613d
00000180: 33d1 8abd bf27 623d e0df d4bd abae 11be
00000190: f729 933d 39fd c03d 71d5 1abc 006a 833d
000001a0: 77ec 3b3d 0249 c7bd 250c 36bb b68d f5bd
000001b0: dc4e 493d 4808 653d 160e 6dbd 1854 973d
000001c0: a0dc dabb 6572 c13d fb35 02be 08fe 553d
000001d0: 8581 583d 1a46 efbc 2aa0 2f3d a1fe 2c3c
000001e0: fea2 11bc 1d31 373d 147b 1c3e fde7 ba3c
000001f0: 69ee 893c a9ee 7f3d e2f7 55bd 3839 29bd
00000200: b21c 85bd 07b1 b93d 3979 aa3d e57e c63d
00000210: 0df5 1a3e 5764 20be 1b5a 333c 1ff7 c93d
00000220: 8c61 22bc e409 a9bc 3473 de3d 266c 7abd
00000230: d556 2cbd 90ca f33d fbba 0d3e ef80 06be
00000240: 96b2 cdbc bb24 a0bd 0fd0 193d 8ead 92bc
00000250: 3ed5 d3bd 1872 89bd e6a9 de3d d741 02bd
00000260: cf79 883b 3ca5 043e ddaa 47bd 5f4f 1c3d
00000270: e8ee 173d 163b d6bb 664e e5bd e63a 69bd
00000280: 316c 00be cf2a fcbd cb08 9ebd 2cec 0bbc
00000290: fc21 dfbc 6d79 8cbd 855f 57bd d240 06bd
000002a0: 0425 e13c 06fc 913d d616 6c3a d099 c0bd
000002b0: 98b5 733d 6d9a 1bbd f6af bb3d 1700 debd
000002c0: 8df5 7dbd c3e7 6fbd ca09 09be bba1 b5bd
000002d0: 6a51 423c a420 3bbd 7090 83bd d1e2 0d3d
000002e0: 9c44 88bd 34b5 f13d fefa e83d 5cab b6bc
000002f0: 460e fbbd 7737 f3bc 90ec 52bd b6a2 4c3d
00000300: 9241 0b3e f396 293d 60da af3d 8ede b6bd
00000310: 5641 e33d 560c eebd 7515 ea3c 22f3 37bd
00000320: b744 f7bc 4857 933c 97ad b9bd aacc bf3c
00000330: 3642 f03c db59 c63b 542e c73d 0d5f 173d
00000340: ff21 b5bd f9d5 e93d 24d5 e83d bef8 55bb
00000350: f2af aabd 3343 b33d 2987 163d 3536 8cbc
00000360: b395 a7bc 67aa 32bc 4c6a 7d3d 6aed 213d
00000370: dd25 8fbd 6c9f 993d c68c 48bd 1d90 413d
00000380: 714a 04bc 3331 d43c 42f7 99bd 15ce 20bd
00000390: f8dc b13c f742 0c3c 5d8f 87bb 9f99 6dbc
000003a0: 4f64 243d 660f ca3d 2edc 573d 60c0 e3bd
000003b0: 2a03 94bd 4299 4d38 f31e f6bd abf0 e6bc
000003c0: ddf7 afbd 0c03 0bbd a495 73bd a43b 613d
000003d0: e319 113e 2179 fbbd b6e2 a2bd 031e 943d
000003e0: dab9 16be d3d1 c93d 45a1 c8bd b924 52bd
000003f0: 8835 bc3d 6e76 d8bd c8ea b63d 2f01 a3bd
0.1827683 -0.032265406 -0.0072829803 -0.054458424 0.1822968 -0.017147547 0.096465 0.11631517
-0.04555211 -0.002233803 0.11463929 0.11357231 -0.051942155 -0.07202714 -0.026214812 0.072275616
-0.055366915 0.14184384 -0.080255486 0.16552535 -0.10357897 0.058104783 0.06588021 0.02714355
0.061029274 -0.011667105 -0.08297325 0.0036056417 -0.06913042 0.10839471 -0.048484597 0.07412325
-0.063793 -0.12047285 0.042103942 0.006339534 0.042399157 -0.046654213 0.07456717 0.033654533
-0.105988905 0.0002497558 -0.09303612 -0.109459646 -0.04676278 -0.05157384 -0.035394903 0.024047313
-0.098802805 -0.09129937 -0.03678019 -0.01507029 -0.09049739 0.14527524 0.086887196 -0.07913905
-0.07044222 -0.03236901 0.04925546 -0.028954752 -0.0013312736 0.13471876 -0.0061193984 -0.009885863
-0.07042688 0.05201982 -0.033311583 0.097449355 0.1018987 0.07208323 0.0610805 0.07975944
0.09418947 -0.1623151 -0.0024473355 0.026242187 0.05353276 0.0718163 0.11121694 -0.11737928
0.03539442 -0.024017332 0.06851153 -0.090947196 -0.059528325 0.045711525 0.075435564 -0.03295176
-0.05725264 0.02523589 0.1029007 -0.088228844 0.070580065 -0.1293094 -0.008124482 0.055073958
-0.06778183 0.055213686 -0.10394263 -0.14226787 0.071857385 0.094232984 -0.009450302 0.06416702
0.045879807 -0.09730722 -0.0027778235 -0.1198992 0.04914747 0.0559161 -0.05787476 0.073890865
-0.0066791326 0.09445647 -0.12715904 0.052244216 0.052857894 -0.029208232 0.042877354 0.010558755
-0.008888958 0.044724572 0.15281326 0.022815699 0.016837316 0.062483463 -0.052238353 -0.041314334
-0.06499614 0.090669684 0.08323903 0.09692172 0.15132542 -0.15663277 0.010946776 0.09861588
-0.009910952 -0.020634599 0.10861817 -0.061138295 -0.042074997 0.1190387 0.13840859 -0.13135122
-0.02510957 -0.07819506 0.037551936 -0.017905023 -0.10343407 -0.06711215 0.10872249 -0.03180107
0.0041649113 0.12953657 -0.048746932 0.03816163 0.037093073 -0.0065378053 -0.11196594 -0.056940936
-0.12541272 -0.123128526 -0.07716521 -0.0085401945 -0.027237885 -0.06859098 -0.05258133 -0.03277666
0.02748347 0.07128148 0.00090060884 -0.094043374 0.059499353 -0.03798907 0.09164421 -0.10839861
-0.062001754 -0.058570635 -0.1338264 -0.08868738 0.011860231 -0.045685425 -0.06424034 0.034640137
-0.06653711 0.1180214 0.11375998 -0.022298507 -0.12258582 -0.029689534 -0.051495135 0.04995986
0.13599232 0.041403722 0.085865736 -0.08929168 0.11096446 -0.11623447 0.028574685 -0.044909604
-0.030184133 0.017985955 -0.09066313 0.023413021 0.029328447 0.006053192 0.09725633 0.036955882
-0.08844375 0.11417765 0.11368778 -0.0032649483 -0.0833434 0.087530516 0.036749993 -0.017115692
-0.020457124 -0.010904885 0.06186895 0.039533056 -0.06989644 0.075011104 -0.048962377 0.047256578
-0.008074389 0.025902366 -0.07517864 -0.039259035 0.021711811 0.008560888 -0.0041369633 -0.014501958
0.040134724 0.09866218 0.052700214 -0.11120677 -0.07227166 4.901854e-05 -0.12017622 -0.028190931
-0.08592198 -0.033938453 -0.05946888 0.05498852 0.14170031 -0.12278963 -0.07953398 0.07232287
-0.14719334 0.09854474 -0.09796385 -0.051304553 0.09189898 -0.10569464 0.089315 -0.0795921

lstm.bias_ih_l0 f4 [256]
00000000: 0135 4cbc 9259 62bc b8da 973d fc0a bebd
00000010: 221b 3cbc ac80 bbbc a691 133d cbf7 a0bc
00000020: c6a8 e23c 4ece a13b fb91 0b3e 8b2e 4039
00000030: 834c fa3d 2a06 babd 5b06 fc3d 3154 71bd
00000040: d102 7abd 6699 de3d f233 24bd 0acb 863d
00000050: 7fbd 903c 4d25 cc3c 2b70 d9bd 6ea9 913d
00000060: 8183 183e 927c 923d 7ea0 51bb aa57 4bbc
00000070: c384 1b3e 7ac6 4b3d e6f3 c3bc bac1 e5bc
00000080: e8d4 36bc 2c38 fe3d 6321 763d b60b 953d
00000090: dd47 9bbd b312 473b 96ad 353e c3eb b6bb
000000a0: 9dce 1b3e 9957 cb3d 6ac9 37b9 087f 9cbc
000000b0: e09e 2e3c 23e6 5abd c4f8 0f3e bfbf e03d
000000c0: e96c 84bd 46a0 e53d b0b2 f33d 8934 de3d
000000d0: 447f a1bd dd9a 10bc 6910 ac3d c686 d43d
000000e0: 4e5f 06bd 43cc 6dbc 2e50 b33d 9f87 a53d
000000f0: 11af 71bd 6577 463d 6a00 a2bc 1688 6f3d
00000100: b1af 6fbd c27d 62bd f813 5b3c ac91 c93a
00000110: 9ee9 d6bc 8da2 093e cbfa dd3d 4927 493d
00000120: 588a 7bbb bd55 cb3d e27a b63c 7e06 f6bc
00000130: c66e 74bd dd8c 89bc c3dd 15bd e2af d5bc
00000140: 04b6 cf3d aaf9 2cbc 273b 58bd b61d 6d3b
00000150: c2e1 0cbd 4faf 0e3d cd83 b03d b61e 86bd
00000160: eb83 9dbd cc21 0b3e 3a5d c53c 7a56 8bbd
00000170: 0989 033e a164 59bd 9cfb 0fbd acda bbbd
00000180: 1188 76bd c3a5 2a3e ff11 ccbd 9141 ee3d
00000190: ba50 643c b259 5abd e564 17bd f6ec fe3d
000001a0: a2f7 923d 518b 46bd 16d3 8abd 3a18 b43d
000001b0: 0c88 d73c 771d 9dbc ec9a 2d3e c597 5a3c
000001c0: f2cf 163d 9187 8a3d dcbb 0e3e 7cb1 a83d
000001d0: aeb3 babd 9432 2cbd 0cc9 b93d 87e4 333d
000001e0: 872f b93c 67fc 57bb 6d9d c5bd f322 c23b
000001f0: 91cb f3bb 6bec ad3d aeb8 3c3d 0207 a5bc
00000200: fa50 8c3d 714d 833d b60c d83c a6e7 c73d
00000210: 345a 9b3d aa44 52bd 710f 87bd c299 4b3d
00000220: 136f 9a3d cc31 0ebd 80f5 a83c 96f3 ab3d
00000230: 2aeb e33c 63e4 873b 80e5 cfbc 6fed 14be
00000240: 100c a6bd 700b a93d 4db7 433c 726b 093d
00000250: 95c4 ae3d 83ad 8bbc 085b 3f3d 1a35 a5bd
00000260: 0242 133b 77a2 4e3d a5d6 e4bc 186f 963d
00000270: 3451 a8bc c3ff 873d 1bed 893c 48c2 ef3d
00000280: 4305 07bd 9b89 e4bd 3251 453d 0e9a e4bd
00000290: fc1d 81bd 6fe5 c6bd f576 b5bd 24ce ae3c
000002a0: c1f7 eb3d 7887 e23d c92c bbbd 59f0 bebd
000002b0: e7f0 fc3d 2ce9 3f3c dd4a c4bd 2ee0 aebd
000002c0: 94e6 02be c2f7 1abd 85f5 4ebd 2d1e 063c
000002d0: f7e9 a93d 0144 90bd 4c01 dbbd 9a64 7f3c
000002e0: 50ad 01be 70de 923c 557d 253d 50e3 d23c
000002f0: 7a5a 203d 8fcb 40bd 7200 bdbd 957b 84bd
00000300: 9e1e 113c 512d 5d3d 7f12 113d f218 01bd
00000310: 6a6b eb3d ec33 203d cdca 1d3e f49f 153e
00000320: 14ff d53d e6bc 94bd ccbc 173c f594 023e
00000330: c54e a73a d7c8 51bd 7388 be3d 8748 48bd
00000340: 0dde e43d 5c03 c33d fea3 733d 5a2a 9b3d
00000350: a205 0e3c e35c 8c3b 8518 87bd 6556 9b3d
00000360: 5beb fabc dc64 bfbd a12d 123e 9709 c9bc
00000370: e0d8 19bd e328 0a3e bd30 653d bd01 093c
00000380: f327 b63d 494c e63d ed89 573c 7f3f e23d
00000390: 93ae a43c b56c c73d 6662 f03d cef6 b13d
000003a0: a2ad 123e c8e1 61bd cd25 853b 1a14 633d
000003b0: 85f5 f33d 93c8 97bd b85f b53d 33f8 9dbd
000003c0: afae a53c f5c6 3f3e 2d7b 903c 3857 96bd
000003d0: f00c 823c b422 58bd 700f dcbc b9ef edbb
000003e0: ce1c a93c 06f6 d23d 30ac 2e3e ad8e 88bd
000003f0: 5a1e 923d 04ed 5e3c 279c 273e 4d3c 083e
-0.012463809 -0.013815301 0.07414764 -0.09279439 -0.011481078 -0.022888504 0.036027573 -0.019649407
0.027668368 0.0049379235 0.13629906 0.00018327885 0.12221625 -0.09083207 0.123059 -0.05891818
-0.061037842 0.10869102 -0.0400886 0.065816954 0.017668484 0.02492013 -0.106170975 0.07112394
0.14893915 0.07152666 -0.003198653 -0.012411037 0.15187363 0.04974983 -0.02392001 -0.028046478
-0.011159159 0.12413058 0.060090434 0.07277624 -0.07582066 0.0030376136 0.17741999 -0.005582304
0.15215535 0.09928817 -0.00017527273 -0.019103542 0.010657996 -0.05344213 0.1405974 0.10974073
-0.064660855 0.1121221 0.11899316 0.10849864 -0.07885602 -0.008825985 0.084015675 0.103772685
-0.032805733 -0.014514032 0.087555274 0.08082508 -0.059004847 0.048453707 -0.019775588 0.05847939
-0.05851716 -0.055295713 0.01337146 0.0015378497 -0.026234444 0.13440914 0.108388506 0.04910973
-0.003838202 0.09928463 0.022275392 -0.030032393 -0.059675954 -0.016790802 -0.03658844 -0.026084844
0.101421386 -0.010557571 -0.052790787 0.003618104 -0.034394987 0.034835156 0.08618889 -0.065488264
-0.07691177 0.13587111 0.024092305 -0.068036035 0.12845244 -0.053074483 -0.035152063 -0.09172568
-0.060188357 0.16664796 -0.0996437 0.116335995 0.013935262 -0.053308196 -0.036961455 0.124475405
0.071761385 -0.048472706 -0.06778543 0.08793683 0.02630999 -0.019179089 0.1695363 0.013341849
0.036819406 0.067641385 0.1393885 0.082369775 -0.091163024 -0.042040423 0.0907155 0.043919113
0.02260567 -0.003295684 -0.09649167 0.0059245764 -0.0074400385 0.08492359 0.04607456 -0.020144943
0.068513826 0.06411255 0.026373249 0.0976098 0.07585564 -0.051335014 -0.06594742 0.04970718
0.07540717 -0.03471546 0.020624876 0.0839607 0.027822096 0.004147099 -0.025377989 -0.14543699
-0.081077695 0.08254135 0.011945558 0.033549733 0.08533589 -0.01705051 0.046717674 -0.08066769
0.0022469764 0.050447907 -0.027934382 0.07345408 -0.020546533 0.066405796 0.016836694 0.11706978
-0.032964002 -0.11159059 0.048173137 -0.11162196 -0.06304547 -0.0971173 -0.0886058 0.02133853
0.11521865 0.11060995 -0.091394015 -0.093231864 0.12350636 0.011713307 -0.095845915 -0.08538853
-0.12783271 -0.037833937 -0.050527114 0.008185905 0.082965784 -0.07044221 -0.10693607 0.01558795
-0.1266377 0.017928332 0.04040273 0.025743157 0.039148785 -0.04706913 -0.092286006 -0.06468884
0.008857397 0.053998295 0.03541803 -0.03151793 0.11495097 0.039112017 0.15409394 0.14611799
0.10449043 -0.07262592 0.009261321 0.12752135 0.0012764564 -0.051216926 0.093033694 -0.048897292
0.11175165 0.09522125 0.059482567 0.07576437 0.008668335 0.004283534 -0.065964736 0.07584838
-0.030629804 -0.09345409 0.14275219 -0.024540706 -0.037560344 0.1349216 0.055954684 0.008362231
0.088943385 0.11245019 0.013155443 0.11047267 0.020102775 0.09737531 0.11737518 0.086896524
0.14324048 -0.055146962 0.004063344 0.055439092 0.119120635 -0.07411303 0.088561475 -0.07713356
0.020224897 0.1872824 0.01763686 -0.073408544 0.01587531 -0.05276747 -0.02686283 -0.007261243
0.020643618 0.103008315 0.17057872 -0.06667838 0.07134695 0.013606314 0.16368161 0.13304253

lstm.bias_hh_l0 f4 [256]
00000000: 95cf 09bd ea72 8ebc bc2a f3bc 3a3b 1a3d
00000010: 90b1 b53d c734 233d 4a47 733c 000f 0e3e
00000020: 39e0 db3c 64af 103e 1075 803d 667d 503d
00000030: 01b4 173e f8e4 fe3c c850 343c cd38 013e
00000040: f2fc 083e 6a17 af3d 064d e6bc fc77 56bd
00000050: 73ad 073e c2bd 15bd 3ce6 043d 23c4 353d
00000060: 9087 353d e76b ea3d 5111 d63c 7e39 973d
00000070: d32f 133e 1e80 bf3d ea3c b5bd 323a 74bd
00000080: 40d4 c63d 11c2 e53d c04f b83d adab c33d
00000090: bb6f 873d a3da a93d c709 103e 0573 c4bd
000000a0: 9ac4 b4bd 57ed 1f3e de87 0e3e d2a7 d8bc
000000b0: d7fc 343d 25ba e8bc 472f 943d 4ccd de3d
000000c0: d032 9ebb a98e 313e e418 7abd d8b5 d8bc
000000d0: 0f9a 3cbd e62c 36bd 7967 86bd 0c04 ce3d
000000e0: fcf6 23bc 76df 8cbd 7fad 213e bb6f 63bd
000000f0: 1f33 1b3e 8144 a23b 4ad5 283e 2b05 a53d
00000100: bbe3 84bd 37a5 ac3c a289 183e 7c79 eb3d
00000110: 5d9a 1a3e dfb1 b23d 6e80 073d 0558 193e
00000120: 4aab 6a3d 3aaa 043e d6c7 c2bc 49eb 1c3d
00000130: 9187 c83d 2a8c 193d 5f38 70bd e641 3fbd
00000140: e2a4 6f3d bfde b13d f191 32bd 94f8 063e
00000150: 5103 23bc 0030 2b3d 8cce 5cbd b47d c73c
00000160: efb0 b0bc da32 8ebd 84a2 653d 4ed4 843d
00000170: 3d72 b7bd e7dc 873d 58ca e6bc 3245 923b
00000180: db98 2e3d 7f69 24bd 7a3f 70bd 494f 0f3e
00000190: 30f8 29bd 8019 5dbc 0416 1a3e 9400 9fbd
000001a0: 9a7a 083e e42a 763c 3b49 163e 9ab7 fc3d
000001b0: fa82 0c3c 393a f83d 5c2c 30bd 10c2 133e
000001c0: 8648 de3d e6ae 5fbc c0b8 ccbc 3673 073e
000001d0: 69f0 453d 4506 c93d c127 453d 6353 97bd
000001e0: 9f50 fabb b898 d03d 44e2 713d 1511 fd3d
000001f0: c9b6 1e3e 6503 f23d 04b2 903d 1a9d 073e
00000200: f571 0d3d 4890 083d f927 e3bd 7676 babd
00000210: 141b cfbb bd70 8a3d 901b c6bb ba00 32bd
00000220: 5186 87bc 04e0 3cbd da91 533d a254 1bbd
00000230: c232 e13c ed83 963d d6ac 7b3d e5f9 16be
00000240: 73b3 0d3d d8ae 80bd 897d d83d bbb2 a63c
00000250: 0a4d 0abe c3a5 f3bc 5fe3 9c3d e62c b4bd
00000260: bb7e 3fbc 563b a33d 6310 02be f094 f9bd
00000270: b46a d1bd 38f5 6e3a fb16 403d 20ef 303d
00000280: 4f5a aebd 9c58 dabd 5f42 6abd fe9d d5bd
00000290: 708e 93bc 63c2 efbd dfeb 823d 3b5f d0bd
000002a0: cba6 cdbd b3b2 2abd aa1e 13be 23cc 21bc
000002b0: faa6 223d e93d e3bc 14d1 1dbd 2c30 993d
000002c0: 08d9 bfbb 85cb 133b 52e5 8f3d 8add bbbd
000002d0: d796 943d 3c8f 85bd 2e07 ef3d 68fb 13be
000002e0: 1130 18be 7417 51bc 4282 c3bb 1f52 5d3d
000002f0: eba3 e0bd 809d ffbd 3aa6 ff3d b210 c53c
00000300: ee76 873c 9fe4 9c3d 851d d53d f108 2dbd
00000310: ff68 333e 813b d5bc 9272 a63d a395 383e
00000320: 6419 36bd 7cd8 953c 81a8 113e 6355 b73d
00000330: 01c3 ac3c ad02 4b3d f11a 513d c8aa 813d
00000340: 5d3a 5abd 28a8 9fbb d72e f83c 7dd1 8d3d
00000350: 1a5e 443d 5464 2e3e 092a 99bd 7369 143e
00000360: 4555 4b3c a825 073d ef65 97bd 8f70 323d
00000370: 1ba3 4e3d 7d13 323e 651a 6a3d 8427 0d3e
00000380: 80b0 26bd 1676 a1bc 87f0 9cbd fb42 d93d
00000390: 2d47 ac3d fece a73d 5e42 443e 0324 003d
000003a0: 024f ad3d 8a33 c83d 6192 473d 0fda 983d
000003b0: bda9 e83d 51b0 013e 8d22 a0bc bfec 863d
000003c0: 3631 103e d85d 9d3c 2c81 913d 6259 82bd
000003d0: 241d 38bd c28d 003d 569d ee3d fae0 fd3d
000003e0: e4ce 9a3d 4cd4 5cbd b4c3 333e cb78 9b3d
000003f0: ded6 8d3d b283 283d 576f 2d3d ecc0 18bd
-0.03364523 -0.01738878 -0.029683463 0.03765414 0.08871758 0.039845254 0.01484854 0.1387291
0.026840316 0.14129406 0.06272328 0.05090084 0.1481476 0.03111504 0.011005588 0.12619324
0.13377741 0.08549388 -0.0281129 -0.05236052 0.1324976 -0.03655792 0.03244613 0.044376504
0.044318736 0.11446362 0.026131304 0.07384013 0.14373712 0.09350608 -0.08849509 -0.059625812
0.09708452 0.11218656 0.08999586 0.09554229 0.06613108 0.08293655 0.1406623 -0.09592251
-0.08826561 0.15617882 0.13919017 -0.02644721 0.04418644 -0.028409073 0.0723558 0.10879001
-0.0048278347 0.17339577 -0.061058894 -0.026453897 -0.04604536 -0.044476412 -0.065627046 0.10059366
-0.010007616 -0.06878559 0.1578884 -0.055526476 0.1515622 0.004952014 0.16487613 0.08057626
-0.06488749 0.021074874 0.14896253 0.11497781 0.15097947 0.087253325 0.033081464 0.14974983
0.05729226 0.12955561 -0.02377693 0.038310323 0.09791482 0.037487186 -0.05864751 -0.046693705
0.058506854 0.086850636 -0.04359621 0.13180763 -0.009949521 0.041793823 -0.053907916 0.024351932
-0.021568744 -0.06943293 0.05606319 0.064858064 -0.08957336 0.06633931 -0.028172657 0.004463815
0.042626243 -0.04013967 -0.058654286 0.13995089 -0.041496456 -0.013494849 0.15047461 -0.07763782
0.13328019 0.015024874 0.14676373 0.12339707 0.008576149 0.1212048 -0.043011054 0.14429498
0.108536765 -0.013652539 -0.02499044 0.13227543 0.048324976 0.09815649 0.048133615 -0.07388952
-0.0076390053 0.10185379 0.059053674 0.12356774 0.15499415 0.11817054 0.07065204 0.13243523
0.034532506 0.033340722 -0.110916086 -0.09104626 -0.0063203666 0.06759784 -0.006045766 -0.043457724
-0.01654354 -0.046112075 0.051652767 -0.03792251 0.027490024 0.073493816 0.061444126 -0.14743765
0.034594964 -0.06283349 0.10570819 0.020348897 -0.1350595 -0.029742127 0.07660555 -0.08797626
-0.01168793 0.07970302 -0.12701564 -0.12186611 -0.1022543 0.000911552 0.046896916 0.043196797
-0.08513319 -0.10661432 -0.057192203 -0.10430525 -0.018012255 -0.11706998 0.06392645 -0.10174414
-0.10041579 -0.041674327 -0.14367166 -0.00987533 0.039710023 -0.027739482 -0.03852947 0.07479891
-0.0058547296 0.0022551727 0.07026161 -0.091731146 0.07255333 -0.065214604 0.11671291 -0.14451373
-0.14862086 -0.012761939 -0.0059664557 0.054033395 -0.10968765 -0.124812126 0.12482877 0.024055813
0.016536202 0.076607935 0.10406021 -0.042244855 0.17520522 -0.02602935 0.08127321 0.18025832
-0.044457808 0.018291704 0.14224435 0.08951833 0.021089079 0.0495631 0.051051084 0.06331402
-0.053278316 -0.0048723407 0.030295772 0.06924722 0.047941305 0.1703046 -0.07478721 0.1449335
0.012410467 0.032994896 -0.07392489 0.043564375 0.05044852 0.17390247 0.057154078 0.13784605
-0.040695667 -0.019709628 -0.076630645 0.10608479 0.08412013 0.081937775 0.19165942 0.031284343
0.08462335 0.09775455 0.048723582 0.074634664 0.113605 0.12664916 -0.019547725 0.065881245
0.14081272 0.019209787 0.07104716 -0.06364705 -0.044949666 0.03138519 0.11651103 0.123964265
0.075589925 -0.0539134 0.17555124 0.07591399 0.06925748 0.04114122 0.04234251 -0.03729336

lstm.weight_ih_l1 f4 [256, 64]
00000000: 1b45 8f3c 7d3a d6bc febb 453c cd44 9abd
00000010: 2bc7 a3bc 2b62 debc 2665 6a3d cfca eabd
00000020: adb1 8bbd 9371 b53d 18ac 8f3d ee30 edbc
00000030: 93a7 223e e84f d3bd 7369 88bd a264 e83d
00000040: 999f 513d 44dd 0bbd e2dc 4ebd a82c a3bd
00000050: a299 6dbd f016 03bd eb3d c4bd 6551 e8bd
00000060: 392d 983d 4416 9ebd 2fef 523d 6dd5 743d
00000070: 12a1 1dbe 7160 bbbd 43b7 82bd 9c76 9d3d
00000080: a63d 4dbe 780b b6bd 7e15 8c3d 5ea7 d0bd
00000090: 1704 cebb bfe8 02bd 2e3b 913c 9435 923c
000000a0: 9f07 1a3d b6e3 2f3d 2e8d c1bc 5543 a23d
000000b0: e246 a83d b81e 53bd 4adc 233e c0d5 bfbd
000000c0: 861d d8bc 4926 d5bd eb3e 113d ed55 9bbd
000000d0: 0372 0e3e 1646 873d c0a6 b1bc f5d4 bfbd
000000e0: ffa8 37be 4d6c adbd cb71 443d e656 d1bd
000000f0: 06d4 11bd cc48 bdbd 7175 94ba 7c17 19bd
00000100: acf2 cdb9 0f27 ff3d 1b59 ef3d eb1d b13d
00000110: d7da e93d b105 3abd f987 61bd a4f7 8cbd
00000120: 5e78 ad3d 95da 8abc 8d75 d93d a61d 0d3d
00000130: 7019 7d3c be8a fdbb c7cd e23c dcaa 86bd
00000140: c0ce c93c 17f9 d43d d370 debd d100 0d3e
00000150: 38ad a0bd 2b41 eabd b32e aabc 31b2 4cbe
00000160: c4b7 4d3d 17be 433c 2684 0cbd 994d 49be
00000170: 8b24 d4bd 7530 633d 62ca 423d b0e7 cc3d
00000180: 4db5 18be a43e c7bd d061 15be 0caf 60bd
00000190: dec3 1fbd 2301 10be 4891 3d3e f89c b23b
000001a0: b396 703d 6a3c 7d3d 0e13 493d 5782 debd
000001b0: b57f 14bd 7065 083e ad2a 093e 4530 9ebd
000001c0: 2006 18be af9c 9c3d 72da 00bd b68f 1e3e
000001d0: 893e c9bc 9ffc 83bd a661 bd3d 607f 403d
000001e0: 1107 33be eff9 9e3b 7075 103e 4d27 873d
000001f0: 2443 453d 3121 c13b bd5c 493d 81b0 8f3d
00000200: 9a58 133d 2a61 f33d b46c 8bbd 5c10 f73d
00000210: b8fb 3e3d 5dbb ba3d 0d07 74bd 26c0 adbd
00000220: e4c0 e2bd 0644 73bd 5077 8e3d 51c5 423d
00000230: ed01 9bbd 5520 0e3e 69ff f83c d1e1 bfbc
00000240: 590e db3c 5f29 d93c 0304 08be 8b2e a3bd
00000250: dc76 b63c d9f4 05bd 02aa 803d 516e ac3d
00000260: b118 5a3d 379e c63c 97d2 9e3c 87ff d83c
00000270: 68b2 2dbe 9405 843b 1195 3d3d aba7 86bd
00000280: 53e7 b83c eda4 d4bd dff5 8f3d f88c bcbd
00000290: 7a59 c1bd c5ac b7bc 6d9b 793d 97d8 44bd
000002a0: 9cd0 5fbb 15e8 483c ec8a 77bd 00cf a63c
000002b0: 5e7f b53d 51d6 413d bc2a e93d a8f7 733d
000002c0: d3d6 81bd 6e3a 803d f04e b0bd a95c 953c
000002d0: eeff b8bd 5228 6c3d 379c 95bd 40d0 3abc
000002e0: dff6 1bbe 28e7 90bc 2b63 05bd 158a b1bd
000002f0: 7897 9a3d 98bc 033c 1bd5 01be 9598 febd
00000300: b0fe 9f39 5239 103c 6d17 be3c 40d2 05be
00000310: 671d b2bd ac72 2cbe 3c18 36be aebe 27be
00000320: 4de8 7d3d 374a 90bd a73a d13d 23ae 43bd
00000330: 1f36 023e 2593 373b b14c e03d 6573 2fbe
00000340: 27a4 4d3b a442 4abd 4387 513d 9ed6 86bd
00000350: bf7c 08be d3fd 9939 8fce 013e f712 083d
00000360: 958b 1a3d 02f7 343d 7cb2 e3bd 1e5f 30be
00000370: fa5a 49bc f355 183d e39a af3c fb34 2d3d
00000380: 1d0e cebd b73f 01be 4803 df3d 5014 d3bd
00000390: a0b8 e03d d874 53be 7f7e 553d c4fb be3c
000003a0: b249 713b 6767 97bd 2ff7 2e3d ea91 da3a
000003b0: 5d4c ab3b 0f6c 233e 0d47 333d 1952 21be
000003c0: a5a6 bfbd 9e2d c8bd 2d0a 033d c586 823d
000003d0: bfde 5d3d 4ef3 9abd f02c 403d c321 d3bd
000003e0: 7283 b13c e59f 95bd 6dc0 11bd 574c 093d
000003f0: 834c 2bbe b434 d93c 5630 463d 4130 473c
0.017489007 -0.026150936 0.012068747 -0.07532654 -0.019992432 -0.02714642 0.05722537 -0.11464464
-0.06820998 0.08859553 0.07015246 -0.028953996 0.15884237 -0.10317975 -0.06660738 0.11347319
0.051177595 -0.034146562 -0.05050362 -0.07967502 -0.058007844 -0.032004297 -0.095821224 -0.1134365
0.074305005 -0.077190906 0.051497635 0.05977385 -0.15393475 -0.09149254 -0.06382611 0.076886386
-0.20043048 -0.08888906 0.06840037 -0.10188173 -0.0062871086 -0.031960245 0.017728414 0.017847814
0.037604924 0.04294177 -0.02362689 0.07922999 0.08216645 -0.051542968 0.16002002 -0.093669415
-0.026381265 -0.10407693 0.035460394 -0.075847484 0.1391068 0.06605165 -0.021685958 -0.0936679
-0.1793556 -0.08467922 0.047960084 -0.10221653 -0.035602592 -0.092424005 -0.0011326504 -0.037375912
-0.00039281452 0.12458622 0.116869174 0.086482845 0.114186935 -0.045415584 -0.055061314 -0.06883171
0.08470224 -0.016949931 0.10618124 0.034452103 0.015447959 -0.0077374866 0.027686013 -0.065755576
0.024634719 0.103990726 -0.10861363 0.13769843 -0.07845539 -0.11438211 -0.020774221 -0.1998985
0.05022408 0.011947176 -0.034305714 -0.19658507 -0.103585325 0.055466134 0.04755629 0.100051284
-0.14912911 -0.097287446 -0.14588094 -0.054854438 -0.039005153 -0.14062934 0.18512452 0.005450841
0.058737468 0.061825193 0.049090438 -0.10864704 -0.036254603 0.13319945 0.13395186 -0.077240504
-0.14846087 0.076470725 -0.031458326 0.15484509 -0.024565952 -0.06444668 0.092471406 0.046996474
-0.17483164 0.0048515717 0.14107299 0.06599293 0.048159733 0.0058938493 0.049160708 0.07016087
0.03597317 0.11883767 -0.06807843 0.12063667 0.046626776 0.09117768 -0.059577037 -0.08483915
-0.11071947 -0.059391044 0.06956351 0.047551457 -0.07568727 0.13879521 0.030395227 -0.023423107
0.02674024 0.026508985 -0.1328278 -0.07967862 0.022273473 -0.032704208 0.062824264 0.08419479
0.053246204 0.024245365 0.019387526 0.026489032 -0.16962588 0.0040289853 0.04628474 -0.06574949
0.022571241 -0.103830196 0.07029318 -0.09206575 -0.094408944 -0.02242125 0.06093924 -0.04805812
-0.003415144 0.012262364 -0.06043522 0.020362377 0.08862184 0.04732353 0.11385104 0.059562355
-0.063398026 0.062611446 -0.08608806 0.01823266 -0.0903319 0.05765564 -0.07305186 -0.01140219
-0.15230893 -0.017688349 -0.032565277 -0.08668915 0.075484216 0.00804057 -0.1267895 -0.124314465
0.000305166 0.008802729 0.02320453 -0.13068485 -0.08697014 -0.16840619 -0.17782682 -0.16381332
0.061989117 -0.07045405 0.10216265 -0.04777349 0.12715958 0.002801129 0.10952128 -0.17133863
0.003137836 -0.04937996 0.051154386 -0.06583904 -0.13328837 0.00029371548 0.12676452 0.03322121
0.037730772 0.044180878 -0.111180276 -0.17223784 -0.012289757 0.037191343 0.02143616 0.042286854
-0.10061286 -0.12621962 0.10889298 -0.10306609 0.109727144 -0.20650041 0.05212259 0.02331341
0.0036817607 -0.07392769 0.0427162 0.0016675566 0.005227609 0.1595919 0.04376893 -0.15753974
-0.09357957 -0.09774326 0.031992126 0.063733615 0.054167505 -0.07565938 0.046917856 -0.10309174
0.021669123 -0.07305888 -0.035583902 0.03352007 -0.16728406 0.026514389 0.04838594 0.012157501

lstm.weight_hh_l1 f4 [256, 64]
00000000: 8083 a13d 0f49 1a3e 75a3 f2bd c1f7 bb3d
00000010: bf38 4f3c 5497 843d fb46 09bd d500 09be
00000020: 359b 2abd 9fff 87bd c6e2 d93d 73af 8f3b
00000030: 0715 af3c c7b9 5cbc 24e2 a13c d193 39bd
00000040: 6722 afbd d7a3 da3b 79a0 563d 5869 77bd
00000050: 8961 d4bd 1418 c4bd 4082 e5bd 170d a93d
00000060: 9b73 29bd 1f5a f83d 167b 333e 1cb7 cabd
00000070: e116 283d 1d93 b8bd 011a a43d 3bea 5cbd
00000080: d7d1 c83d ede0 383d 38f9 a8bd 26ef 1a3e
00000090: 7a99 26bd b897 d53d d1a2 f93d 97e6 de3d
000000a0: 7caa cb3d 59ed 27be 0454 de3d 5006 8e3b
000000b0: bb0c fdbd d4f2 b03d ded5 9bbd 3643 28bd
000000c0: 66d3 393e 3849 263e 91c6 5d3d 6826 043d
000000d0: fb84 223d 2bb6 0bbe 81fe 883d 2f4b acbd
000000e0: e136 d3bd f499 2ebe 225d a43a 9f06 043d
000000f0: 6445 0abe 38ca f83c 53d7 71bb a479 0e3e
00000100: d099 18bd f9a5 233e 8847 ddbc a243 1c3e
00000110: c043 e93d 2e94 01be 4661 83bd 22ec 5f3d
00000120: 2f12 973d 3f35 bcbd 84f4 90bb 1479 88bd
00000130: 2234 4e3e 1083 96bd 1c9a 00be 0ada 713d
00000140: c5e2 1a3e b77b 5a3d 149d 41bd 36a8 f2bd
00000150: 3359 61bd 3cff 55bb 9fe0 343e 596a ed3c
00000160: fb51 80bb a7be 763d 29ab 55bd 7327 9a3d
00000170: a1de 52bd 2c94 17be 707d 813d 2270 e5bd
00000180: 8137 1b3d 59f4 7abd ce18 463d d984 4ebd
00000190: 1761 ddbd 8dac cc3c 0a5a 0ebd d6f4 b23d
000001a0: 2705 053e ed08 2abe 3b1e 5b3d b8d0 f63d
000001b0: f802 97bd f7e1 58bd d880 a7bd c333 223c
000001c0: 147f c6bc cdbe b2bc 61ab d8bc 827f 09bd
000001d0: ef1b a43d b0f9 3fbd 86d1 433e 07f0 d53d
000001e0: b34b 383d 7ad7 523d c4a9 1d3c 42ce 023e
000001f0: 7162 1abe 7dd1 b9bd 675c 48bd d2dd c63d
00000200: d2ec d2bd 7031 af3d a261 abbd 6178 053d
00000210: ec05 89bd f5af 433d f16e bd3d aacf e03c
00000220: 6617 553d fb70 b03d c2a0 00bd 2d66 693c
00000230: 4eee 17bd a7dd ac3d c757 8bbd b7c1 3bbc
00000240: dd69 033e 910a 013e 805f 9c3c e36e 1fbe
00000250: f544 e9ba 6c79 5c3d e7b9 8b3d d053 073d
00000260: fbef 98bd 2365 93bd a350 673b 8ab5 03be
00000270: 0f97 343d ff80 bbbc 1b04 923d b89f a1bd
00000280: 22e8 4d3d 7c45 673d 5927 aa3d 6303 6d3d
00000290: 98e4 b2bd 4f9d 9fbd b291 1a3d 5fa4 e33d
000002a0: 7386 0dbc 14f3 9d3c 4a0e d3bd 9748 41bc
000002b0: dc72 183d 03c6 9a3d f141 bebd 73a8 873d
000002c0: 2925 b33d 01ab dd3d 5cda ef3c 5888 e93d
000002d0: 3604 95bd 1d03 bdbd 385d 23bd 4f3e a23d
000002e0: a1a9 31bc b8e5 03bd 6e51 47bc 15d2 a13d
000002f0: 6504 873d a07b 683c 5b5e 38bd 1b5b fbbd
00000300: ced8 f33c a134 3a3c 1c8c afbc fabc 38bd
00000310: 2443 d8bd fe2a c1bd 9be6 6dbc 9c03 4b3d
00000320: e733 d13b 5d77 6dbd 10ac f23d 13da d23d
00000330: dbf1 b9bd 336d d5bd b23e e4bd 70e2 983d
00000340: ace1 003d d23a 8dbc 9cf1 1abe 4568 8e3d
00000350: f9ea 65bd 07fe 87bd 547c 383d c81c ce3d
00000360: dc2f f7bc 1e53 aa3c ca2b b03d 417d e5bd
00000370: ee4b a33d e648 8bbd da93 7b3d cd69 b1bc
00000380: 17a9 e43d d4bc 9bbb a976 a1bc 0d6d bdbc
00000390: 0165 86bd 2cd7 713d 19c1 323e 8f53 113e
000003a0: fd90 afbc da1e 14be a965 973c 9dba 7bbd
000003b0: 0383 353c 0049 3a3d d00d 933c e85e 2c3d
000003c0: f1dc 8fbd 8ee7 dabb a94b 97bd 209e c9bc
000003d0: df15 11be 6f73 653c d970 b93d 4614 13be
000003e0: d741 cbbd f300 0ebe cc06 ee3d 036b 83bc
000003f0: d06c 07be a512 01bd 1ac6 25be 82f5 ce3d
0.0788641 0.15066932 -0.11847583 0.09178115 0.012647807 0.06474176 -0.033514958 -0.13379224
-0.041651923 -0.06640553 0.10638957 0.004384929 0.021372331 -0.013472027 0.019761153 -0.045306984
-0.085514836 0.0066723633 0.052399132 -0.060403198 -0.10370166 -0.09574905 -0.11206484 0.0825445
-0.041370016 0.12126564 0.17527422 -0.098982066 0.041037444 -0.09012435 0.08012772 -0.053934317
0.09805649 0.04513638 -0.0825066 0.1513029 -0.04067371 0.10429329 0.12189258 0.10883825
0.09944627 -0.16399135 0.108558685 0.0043342486 -0.12355944 0.08640066 -0.07609151 -0.041079722
0.18147048 0.16238868 0.054144446 0.03226319 0.0396776 -0.1364371 0.06689168 -0.08412778
-0.10313202 -0.17050916 0.0012539963 0.032232877 -0.13503033 0.030369863 -0.0036902025 0.1391359
-0.037256062 0.15981282 -0.027011648 0.15260175 0.113898754 -0.12654182 -0.06415038 0.054668553
0.07376515 -0.091898434 -0.00442368 -0.06663719 0.20137075 -0.07349217 -0.12558788 0.05904583
0.15125568 0.05334064 -0.047268942 -0.1184849 -0.055016708 -0.0032653352 0.17663811 0.028981375
-0.003916023 0.060240414 -0.052165184 0.075270556 -0.051481847 -0.14802617 0.063227534 -0.11203028
0.03789473 -0.061268184 0.0483635 -0.050419662 -0.10809534 0.024984622 -0.034753837 0.08738105
0.12990247 -0.16604967 0.053495627 0.12051529 -0.07373613 -0.052949872 -0.08178872 0.009900036
-0.024230517 -0.021819497 -0.026448907 -0.033568867 0.080131404 -0.04686898 0.19122896 0.10446172
0.044994067 0.051475026 0.009622995 0.12773994 -0.15076615 -0.0907316 -0.048916247 0.097102776
-0.10299076 0.08554351 -0.08368231 0.032585505 -0.06690583 0.047775228 0.09249676 0.027442772
0.052024268 0.08615299 -0.03140331 0.014245552 -0.0370925 0.08440714 -0.068038516 -0.011459759
0.12833352 0.12601687 0.019088507 -0.15569644 -0.001779704 0.053826734 0.068225674 0.033038914
-0.07467648 -0.07197025 0.0035295866 -0.1286222 0.044089373 -0.022888659 0.07129689 -0.07891792
0.050270207 0.05646275 0.08308286 0.057864558 -0.08735007 -0.07793676 0.037736602 0.11115336
-0.008638012 0.019280948 -0.1030546 -0.011797092 0.037218913 0.07557299 -0.09289921 0.06623926
0.08747322 0.10823632 0.029278927 0.11402959 -0.07276194 -0.092291094 -0.039883822 0.07922041
-0.010843665 -0.0322015 -0.01216541 0.07901398 0.06592635 0.014189631 -0.04501186 -0.12273236
0.029766466 0.011365087 -0.021429114 -0.045102097 -0.10559681 -0.09432028 -0.014520313 0.04956399
0.006384361 -0.05797516 0.118492246 0.102955006 -0.090793334 -0.10421219 -0.11144771 0.074650645
0.031465217 -0.017239962 -0.15131229 0.069534816 -0.05613229 -0.06640249 0.045040444 0.10064083
-0.030174188 0.020791586 0.08602102 -0.11205531 0.07973467 -0.06801014 0.0614203 -0.021656895
0.11165064 -0.0047527347 -0.019709902 -0.023123289 -0.06562234 0.059043095 0.17456473 0.14192031
-0.02143144 -0.14464894 0.018481093 -0.061457265 0.011078599 0.045479774 0.017950922 0.042082697
-0.07024563 -0.0066804355 -0.07387478 -0.024611533 -0.141685 0.014004572 0.09054727 -0.14363202
-0.09924667 -0.1386755 0.1162239 -0.016042238 -0.13225102 -0.03151192 -0.16188851 0.10105421

lstm.bias_ih_l1 f4 [256]
00000000: 786a 333e 7693 c93d 6f2d 28bd 254d cabc
00000010: 8056 013d e45c bf3d ded9 213e 6fbb dc3d
00000020: 26b8 4fbd 73d4 0d3e 9fa9 8b3c 903c 1d3d
00000030: 0af2 e43c bc04 183e 947a 923d 9f51 ad3c
00000040: 6efa 0e3e 1318 073c 9ece 083d 9371 573e
00000050: 1c42 63bb 5443 393d a858 08bd d3dc ae3d
00000060: abef 323d 22be 47bd 7742 1e3e c143 95bb
00000070: 949a e13d 74ca 233d 9b9d 073e e63a a53d
00000080: 31be 073e 9e79 833d d2cd 7d3d a31e e33d
00000090: 418e 0c3e a130 213e 2225 af3c 82a2 b4bd
000000a0: ed47 3fbd 6b7c 5bbd 7d81 66bd 564d 143d
000000b0: c863 42bd 9199 4fbd 12d6 77bd 8ce2 103e
000000c0: 796f f9bc f615 333e 7923 1ebd 8ace 28bc
000000d0: 69e7 963d 4dc1 a0bd efaa 60bd 761c eb3d
000000e0: 04a7 3f3d 6d9d e1bd 06b5 0cbd f6db e43c
000000f0: 3208 213e 779e 303e fdf1 d93d a992 cebd
00000100: 13fe 22bd 6b37 f83a 1d76 803c abea 5cbd
00000110: fce6 68bd c4f9 a63d bbd8 163e a581 8abb
00000120: 6c62 a63b c9d6 6ebc 088d c7bd e0da 043e
00000130: 26a9 d0bc 6380 7c3d df49 333d e06a 51bc
00000140: 61dd 233d efa9 6fbb b58c cbbd 34c5 f83c
00000150: 735f 2ebc 6f4f ea3d b7b6 883d db7f f9bc
00000160: 990b 7e3d 390d 993d 6db7 30bc 6cd7 0dbd
00000170: 6a0d 56bd bdd2 203e 52b0 f8bc e022 9d3b
00000180: c22d ff3d 592e e23d e041 96bd cbb8 033d
00000190: 00c9 a0bd d07a b6bd 651e 263c d610 cebd
000001a0: b370 09bd 6895 233d e7d6 c7bb 0545 cebd
000001b0: 1059 a7bd d835 acbd f5c2 40bd 920a fc3d
000001c0: 3c8e 18bd b5c5 143e 0eb2 083e 4658 0c3e
000001d0: f6df 473d 0d42 debd 2451 98bd dbc7 573c
000001e0: b5a5 d13d 7191 b93c a9aa 45bd 301d dd3c
000001f0: 94f1 4c3d 8107 bb3d 2d86 dabd de52 a1bd
00000200: e673 003e b06b ffbd 2b71 e8bd 851c 05be
00000210: 9412 9dbd 7986 09bd ef24 b03d 7e37 333d
00000220: c802 923d e79d 8cbd 376c a5bd d3cd d33d
00000230: 66a3 b33c faed 843d 14c0 b6bd 9031 8fbd
00000240: d8e5 fbbc 72f6 0c3c 7948 70bd aac5 33bd
00000250: 179d dd3d 5852 9c3d 2e5d 44bb 7088 ae3d
00000260: 2446 59bc ca78 a83d 86d0 0b3e d834 acbd
00000270: 8ad8 a33c 53a3 acbd 3a9a 41bc f56c 9fbc
00000280: 951b 00be 8858 ae3c 9430 e93d f0e6 113c
00000290: 1055 3f3d 0518 d03d d5fe b03d 90d8 1f3d
000002a0: 8e6d e33d 89b6 223d e43e 9dbd adb7 e63d
000002b0: 0927 b93a a447 7cbc 7340 04bd 7395 87bd
000002c0: b4f8 b93d 8c86 283e 2225 ba3d 5f01 893c
000002d0: 15a4 aabd 4885 5c3a 766c bb3d 4c43 adbd
000002e0: 7197 55bd 2467 50bc 10a0 8f3b e00b b3bd
000002f0: 330a 6dbd dd05 c13d ddc1 07bd 65f1 03bc
00000300: e3b3 ed3c 2aa1 853c 31e7 153e 68fd 423e
00000310: 2790 473e 698e c03d fdd5 9dbc 3a4e b1bd
00000320: 27f8 8abb 1332 c63d 6cf1 e13c 0c48 3cbc
00000330: 68f8 b63d ff8e d0bc f83e b3bc 5cdc 35bc
00000340: b93b 1c3e 81d5 b1bd 7211 253e bbf0 ec3d
00000350: 409d 373c 31e5 4e3e ebdb 6a3c 3b9c 103e
00000360: 455d ed3c 5503 68bd bdcd df3d 3140 8cbd
00000370: e7a6 39bc 6dba b63c fc27 85bb 570b 183e
00000380: 033e 023d b7d3 f93c 6bcc f23d 8d8c a0bc
00000390: 5086 873d 8dcd 33bc 5d20 593d 72c2 7dbc
000003a0: ca07 2a3e 7de0 293d 48fd 003e e3ef 1abc
000003b0: a168 a2bd c9fe 933d d695 0cbd 854a 773d
000003c0: 1772 71bd 2f96 f93d 2389 83bb 05dc 0e3d
000003d0: 7f50 743b b870 053e 8e6b 333c 9f9c 61bd
000003e0: 90d7 293e 2974 943d a6ae 143e d829 3abd
000003f0: 0a97 b83d 3924 2a3d c2c2 313b 4d6d 1c3e
0.17521083 0.09842579 -0.041058954 -0.024694989 0.031576633 0.09343889 0.15805766 0.107779376
-0.050712727 0.13850574 0.017048655 0.038387835 0.027947444 0.14845556 0.07152286 0.021157084
0.13962719 0.008245486 0.03340017 0.21039419 -0.0034676855 0.045230225 -0.033287674 0.085382126
0.043685596 -0.04876531 0.15455042 -0.004555196 0.110158116 0.039987996 0.13243715 0.080678746
0.13256146 0.06419681 0.061963864 0.11089828 0.1372614 0.15741207 0.021380011 -0.088200584
-0.046699453 -0.05358545 -0.056275833 0.036206566 -0.04745844 -0.05068356 -0.060506888 0.14148921
-0.030448662 0.17488846 -0.038608048 -0.010303149 0.07368357 -0.07849369 -0.054850515 0.11480038
0.046790138 -0.11016355 -0.034352325 0.027936917 0.15725783 0.1724795 0.10641859 -0.10086567
-0.039793085 0.0018937414 0.01568132 -0.053934734 -0.05686091 0.08153108 0.14731114 -0.0042268806
0.005077651 -0.014577576 -0.097436965 0.12974119 -0.025471281 0.061645877 0.04377162 -0.012781829
0.040006045 -0.0036569794 -0.09938947 0.030367471 -0.010642874 0.11440932 0.06675475 -0.030456474
0.06202278 0.07473225 -0.01078592 -0.03462927 -0.052258886 0.1570539 -0.030357514 0.004795417
0.124598995 0.11043996 -0.073367834 0.032158654 -0.07850838 -0.089101434 0.010139083 -0.10061805
-0.033554744 0.039937407 -0.0060986164 -0.10071758 -0.08171284 -0.084087074 -0.047060926 0.123067036
-0.03724502 0.14528544 0.13349172 0.13705549 0.04879757 -0.10852442 -0.07437351 0.013170208
0.10236684 0.02265236 -0.048258457 0.026991457 0.050035074 0.09132291 -0.10670123 -0.07877134
0.12544212 -0.12471712 -0.1134971 -0.1299916 -0.07669559 -0.03357551 0.086007945 0.043754093
0.07129437 -0.06866055 -0.08077281 0.10341992 0.0219285 0.06490703 -0.08923355 -0.06991875
-0.030749246 0.008603679 -0.058662865 -0.04388968 0.10820978 0.07632893 -0.0029962766 0.08522117
-0.013261352 0.08226164 0.13653764 -0.08408517 0.020000715 -0.08429589 -0.011816556 -0.019461134
-0.12510522 0.02128245 0.11386219 0.008905157 0.04671198 0.10160831 0.08642355 0.03902489
0.1110488 0.03972486 -0.07678011 0.11265502 0.0014126013 -0.01539794 -0.032288026 -0.06620302
0.090806395 0.16457576 0.09089114 0.016724287 -0.083320774 0.00084121944 0.09151547 -0.084601015
-0.05214638 -0.012719903 0.0043830946 -0.08742499 -0.057871055 0.094249465 -0.033143867 -0.008053158
0.02901644 0.0163122 0.14638974 0.1904198 0.19488584 0.094021626 -0.019267077 -0.08657499
-0.004241008 0.0967752 0.02758094 -0.011491787 0.089340985 -0.02545881 -0.021880612 -0.011099901
0.15257157 -0.08683301 0.16119936 0.11569353 0.011206925 0.20204617 0.014334659 0.14122097
0.028975138 -0.056643803 0.10927913 -0.06848181 -0.0113312965 0.022305692 -0.0040636044 0.14848076
0.03179742 0.030496461 0.11855396 -0.01959827 0.06617415 -0.0109743 0.05300938 -0.015488254
0.16604534 0.041473854 0.12596619 -0.0094566075 -0.07930113 0.07226331 -0.034322582 0.0603738
-0.058946695 0.12186848 -0.0040141507 0.034877796 0.0037279425 0.1303128 0.010950936 -0.055081006
0.16586137 0.07248718 0.14519748 -0.04545006 0.090131834 0.04153845 0.0027124141 0.1527607

lstm.bias_hh_l1 f4 [256]
00000000: 0df2 dcbc 4072 cfbc 7586 89bd 37a8 073d
00000010: 8a0d f93c df6d 93bd b58d 183e af29 2d3d
00000020: 9176 0e3e e51c d03d 4a13 4a3d 1911 91bd
00000030: d4e1 0b3e eb65 e33d ff45 6fbd c6d2 a3bd
00000040: 3081 d6bb 2302 493c 2c71 323b 3867 be3b
00000050: be81 e23c 7df7 183d ec22 91b9 0f4f 0b3e
00000060: 9a63 e73d 6584 91bd 00ef f43c 2a8e f03d
00000070: fc7a 173e 2c9e cfbc 5cc0 a53d fe2f 1a3d
00000080: a9a8 083e e797 a53d 540c 39bd 36e8 2abd
00000090: ce22 dc3d 839f 133e a980 243e 28b1 133a
000000a0: 9101 a9bc 6c8c df3d 5d9c bfbd 9edb 763d
000000b0: 52a4 82bd e5e5 743d 0547 d23c c23b b73d
000000c0: a48a 9cbd 13f6 b239 2d60 37bc 4fb1 a6bd
000000d0: 38dd 74bc 7c1b 123e eea2 de3c fbd2 c03b
000000e0: 9ca6 673d 07e8 f73d f138 45bd c9b2 d03d
000000f0: 6882 8f3b 03d1 eb3c 97e0 ba3d 3bcf c0bd
00000100: 148a 17bd 0e45 743d 186e c13d 4552 b83b
00000110: 1585 ed3d f804 f63d 2fc0 913d f054 c0bd
00000120: 9c7b ea3b 9ef6 c2ba c281 8dbd f736 a23b
00000130: fa2b 50bd ff11 133e 8401 f6bc 3f24 f63d
00000140: 2261 9dbb e0bd cfbd 6a73 34bd d165 70bc
00000150: 9b9d a93d e06a 1a3c 4042 b43d 64e0 2dbd
00000160: d947 d3bc c4ec c4bc 50ec 7e3c 816d bebd
00000170: b52e ccbc 5ab1 e53c af06 9dbc 7189 7dbd
00000180: 0bc9 11bd 4905 e43d 3aed 083e 8e74 d83d
00000190: 1ab4 a2bc 4ba9 063d 35f5 a1bc 750f 97bd
000001a0: 83fe 9abd 7beb 803c f697 543d 38e6 ea3d
000001b0: d3d5 683d 06c9 10bc 9f09 8639 b9bf 66bd
000001c0: cda9 81bd 0717 963c bcc6 bcbd 62c1 c13d
000001d0: 2f2d bdbd 6b8f b63d 47c5 103d 1c63 923d
000001e0: 5e77 0d3e 3c91 32bd 2aa0 e03c 25a6 873d
000001f0: a8f4 0d3e 339c 523c f223 fa3c 8239 b83d
00000200: bb7e 383c c337 b83c a13b 80bd cb27 c73d
00000210: 2646 fe3c cf2c 99bc 501b d1bb 9e13 e7bd
00000220: 493a b23d fc11 bcbd 533b 893d fcf8 b53d
00000230: 522f dc3d d49b d2bd fa1e 91bd 88bd bc3d
00000240: a1c8 01bd f903 f33c 36df ae3d 8d63 09bb
00000250: 931a 86bd 1920 d2bd 2bb8 0bbe 620d b03d
00000260: b65d ecbd 6708 d13b 808f bd3c 3659 f53d
00000270: 623c f73d 4f2d d8bd 957d a03c f2c4 8ebd
00000280: 5ffd f13d 2bea b7bc 31f5 2e3d c620 933d
00000290: d354 80bd 4b25 bc3d 71a4 cdbd db14 db3d
000002a0: 72f2 983d 3b54 d7bd 5869 e93d b90c c93d
000002b0: 5784 47bb d17c adbc ec0d ce3d d92f b1bc
000002c0: 59cf 183e ecaf 1b3e 86a8 57bd f7d1 c33d
000002d0: 578f 1dbd 73ba 38bc 84f2 d83d 6a41 0d3c
000002e0: 2798 aebb c0b8 eebd 6c22 1fbc 5ab1 103d
000002f0: 1f68 74bd 3a58 55bd b2ed aebc 61b1 f8bb
00000300: df31 9bbc d183 3d3e da09 253e b1fc 8dbc
00000310: 9782 0d3c 4047 543d 9ea2 cfbc d85b 6e3d
00000320: 9dde de3d bf30 1b3c 5f41 79bd b13a 7e3d
00000330: 78e6 143e 49be 943d 5841 513d 9b9f d8bc
00000340: 5d50 ccbc 0a6f 763d ac8b 103e 7d1b 263e
00000350: 21c0 073d 0987 fa3d 2e09 123d 8dde 2c3c
00000360: fbd0 083e 9045 e33d fddc bf3d 0010 e3bc
00000370: 5b01 423d 32c5 59bc d551 053d 1682 5ebc
00000380: 83c2 84bd 9567 dcbc e024 803d ccb1 fa3d
00000390: cc94 193e f73b 95bb c50a 84bd 996f d43c
000003a0: 8cc3 f03d 4dff f63d 7d61 243e e149 113c
000003b0: db83 783d bd39 043e 38bb 043e 4b18 873d
000003c0: 8e08 26bd abbf 473c 1475 da3c 8114 34bb
000003d0: 6546 2cbd 09a0 89bd fc88 35bd 8b3b 163e
000003e0: 497c 023e 23a0 3e3d 8944 1b3e cc52 6c3c
000003f0: b15d 7fbd af2f 153e 4986 cdbc b5f8 a63d
-0.026970888 -0.025323033 -0.06715099 0.033119407 0.030401964 -0.071986906 0.14897807 0.04227608
0.13912417 0.10161761 0.0493348 -0.07083339 0.13660365 0.11103424 -0.058416363 -0.07999186
-0.006546162 0.012268576 0.00272281 0.0058106445 0.027649757 0.0373454 -0.00027682574 0.13604377
0.11298294 -0.071053304 0.02989912 0.11745866 0.14793009 -0.025343977 0.0809333 0.037643425
0.13345589 0.08085614 -0.045177773 -0.04172536 0.10748826 0.14416318 0.16064705 0.00056340033
-0.02063063 0.10915455 -0.09355996 0.060268037 -0.06378998 0.059789557 0.02566863 0.08946945
-0.07643631 0.00034134145 -0.011192364 -0.08139288 -0.014945321 0.14268297 0.0271773 0.005884526
0.056555375 0.121048026 -0.048150007 0.101903506 0.0043795593 0.028786188 0.09124868 -0.09414526
-0.036996916 0.05963617 0.09444827 0.0056250417 0.11597649 0.120126665 0.07116734 -0.093912005
0.0071558487 -0.0014874523 -0.06909515 0.0049504 -0.05082319 0.14362334 -0.03003002 0.12018632
-0.004802839 -0.10143638 -0.04405538 -0.014672712 0.08282014 0.009424895 0.08801699 -0.042450324
-0.025791096 -0.02403868 0.015559271 -0.0929823 -0.024924615 0.02803867 -0.019168226 -0.061898652
-0.03559212 0.111338206 0.13371745 0.10569106 -0.01986127 0.032876294 -0.019770244 -0.07375995
-0.075680755 0.015737286 0.051902734 0.11469692 0.056844544 -0.00883699 0.0002556564 -0.056335185
-0.06331215 0.018321527 -0.09217593 0.09460713 -0.09237134 0.089140736 0.03534439 0.0714781
0.13815066 -0.043595538 0.027420122 0.066234864 0.1386286 0.012854624 0.030534718 0.08995344
0.011260684 0.022487527 -0.06261373 0.09724387 0.031039309 -0.018698124 -0.0063814297 -0.112830386
0.08702523 -0.09183118 0.06700768 0.088853806 0.10751213 -0.10283628 -0.070859864 0.09215838
-0.031685475 0.02966498 0.08538668 -0.0020963878 -0.065480374 -0.102600284 -0.13644473 0.085963026
-0.115413114 0.0063791755 0.023139715 0.11979906 0.12072064 -0.10555517 0.019591132 -0.06971158
0.11815905 -0.022450527 0.0427143 0.071839854 -0.06266179 0.091868006 -0.1004113 0.10697337
0.07468118 -0.105141126 0.11397046 0.0981688 -0.003044387 -0.021177681 0.10061249 -0.02162926
0.14922847 0.15203828 -0.05265095 0.09561532 -0.038466778 -0.011274922 0.10593131 0.008621553
-0.0053281966 -0.11656332 -0.009712797 0.035325386 -0.05966961 -0.052086093 -0.021353576 -0.0075895046
-0.018944679 0.18507315 0.1611704 -0.017332407 0.008637092 0.05182576 -0.025346097 0.058193058
0.10882304 0.009472071 -0.06085336 0.06206769 0.14541042 0.072628565 0.051087707 -0.026443293
-0.024940664 0.06016449 0.1411578 0.16221423 0.033142213 0.12232787 0.035653286 0.010551107
0.1336097 0.11097252 0.09368322 -0.02771759 0.047364574 -0.013291644 0.032548744 -0.01358082
-0.06482413 -0.02690486 0.06257033 0.12240943 0.14998168 -0.0045542675 -0.064473666 0.02593212
0.117560476 0.120604135 0.16052814 0.008867712 0.060672622 0.1291265 0.12962043 0.065964304
-0.040535502 0.012191693 0.026667155 -0.0027478042 -0.04205932 -0.067199774 -0.04432009 0.14671151
0.12742724 0.046539437 0.15162863 0.014424037 -0.06234521 0.14568971 -0.025088446 0.08152906
