backend/Model_Pytorch/RNN_Model_our_data/output/checkpoints/latest_checkpoint.pth (torch, 677989 bytes, 30 tensors)

lstm.weight_ih_l0 f4 [256, 15]
000000 80 cc 29 bd 60 c9 49 3d 47 a1 89 3e 61 c8 e8 3e
       -0.041454792 0.04926431 0.26880857 0.45465377
000010 ff 68 9a be 69 2c f6 3b 06 57 59 3c d1 1a 27 bd
       -0.3015823 0.0075126183 0.013265377 -0.04079706
000020 6e 53 99 bb 93 27 ab b8 74 47 0d 3d 46 f3 94 bc
       -0.004679135 -8.161287e-05 0.03449197 -0.018182408
000030 94 ae a9 3c db 4b d1 bc 6b 76 2b bd 77 42 05 bd
       0.020713128 -0.025548866 -0.04186098 -0.03253409
000040 95 78 64 bd 8c ad 40 bc be 4c b8 bd 18 54 04 3d
       -0.05577906 -0.011760127 -0.089990124 0.03230676
000050 f5 ae 65 bc e9 9a 27 bc 5a 12 46 be eb 23 32 3d
       -0.014018764 -0.010229805 -0.19342938 0.043491285
000060 a3 c2 99 bd c4 04 47 3d ee 0e 92 bc f0 65 af 3c
       -0.07507827 0.04858853 -0.017829385 0.021410912
000070 c6 82 fc 3c af 7c 8c bd f7 eb c0 ba 74 46 91 bb
       0.030824076 -0.06859719 -0.001471876 -0.0044334475
000080 f0 8e dc bd 2d 54 7d be 19 5d 84 be d6 56 44 3d
       -0.10769451 -0.24739142 -0.25852278 0.047934376
000090 7c de 38 bc 21 84 d2 be 7a ee 92 bd f3 2b 33 3e
       -0.011283513 -0.4111643 -0.07174392 0.17497234
0000a0 dd 43 30 3e d4 ae 75 bd 65 e3 03 bd 9a 63 83 bc
       0.17213388 -0.059981182 -0.032199282 -0.016038705
0000b0 f3 6f 46 bd 50 fd b7 be e7 d9 3b bd a4 c6 0d 3e
       -0.048446607 -0.3593545 -0.045862105 0.13845307
0000c0 b7 ec 7f 3e 4a 61 72 3e 6f d7 91 bd 6a 93 2c 3e
       0.24992643 0.23669925 -0.07121169 0.16853109
0000d0 07 41 12 3e 97 67 95 3d a0 0d 0e 3e e5 69 09 be
       0.14282618 0.07295149 0.13872385 -0.13419302
0000e0 8f 0a 3d bd f0 06 52 be 0a e1 88 bc 84 f3 51 be
       -0.046152648 -0.20510459 -0.01670887 -0.2050305
0000f0 e7 72 83 bd 1a 85 83 3c b6 03 8d 3d c8 49 cf bc
       -0.064184 0.016054679 0.068854734 -0.025303736
000100 f1 8d b9 bb 73 62 36 3d c5 d4 8c 3c 41 90 a4 3d
       -0.0056626727 0.044527482 0.0171913 0.08035327
000110 17 9c 0b 3e a8 38 0b be da c8 f6 bd a0 9e bd 3d
       0.13633762 -0.13595831 -0.12050028 0.09258771
000120 0d 2c 6f 3d 75 bb 30 bd aa 7c a2 bd b0 a1 d5 bd
       0.05839162 -0.043147523 -0.07933934 -0.1043123
000130 02 43 4e 3c d5 9f 92 3c 43 5c ce 3d 55 8f 00 3e
       0.012589218 0.01789848 0.10076191 0.12554677
000140 41 60 df 3c 31 13 ab 3d b6 5f 90 be 09 5f 5f be
       0.027267577 0.0835327 -0.28198022 -0.21813597
000150 fd 11 3a 3c b6 84 5c be fe 45 45 3e fd cd a0 3c
       0.011356828 -0.21535 0.19264981 0.019629473
000160 1a 80 5e 3d 48 76 1d be 44 05 2c be 41 1a 1c 3d
       0.054321386 -0.15377152 -0.16798884 0.038110975
000170 2b 9e 12 be 6b 9d 43 3d 98 2e 05 bc 27 9a 7c bd
       -0.14318149 0.047757547 -0.008128785 -0.06167045
000180 0f 72 5d 3b c2 ad 3c bd 29 92 2b 3e 9b 93 32 be
       0.0033789908 -0.046064146 0.16754974 -0.1743912
000190 28 44 cb be d1 67 31 bd 92 40 58 bd d3 cb 74 3c
       -0.39700437 -0.043311898 -0.052795954 0.014941174
0001a0 03 12 69 bd db 1d 78 be 0a d8 aa 3e 50 0c 54 3e
       -0.056901943 -0.24230139 0.3336795 0.20707822
0001b0 2a 33 16 3f 4a 62 14 be 0a 39 de be 62 11 76 3d
       0.5867182 -0.1449062 -0.43402892 0.06007517
0001c0 6b 6f 1f 3d 71 36 aa be c0 38 02 3e 76 af 1b 3f
       0.038924616 -0.3324466 0.12716961 0.6081461
0001d0 bf 72 13 3e 58 a0 1e be a7 3b 71 3d b7 1a 35 be
       0.14399241 -0.15490854 0.05889478 -0.17685972
0001e0 c6 27 04 bd aa 73 96 bd 12 5d 83 3e 48 90 04 3e
       -0.032264493 -0.0734628 0.25656945 0.12945664
0001f0 9b ad dc 3d 78 67 1f 3d 8f 51 8b bc 84 bb 3c be
       0.107753 0.038917035 -0.017006664 -0.18430907
000200 68 53 3f bd 99 ab e0 bc 80 95 80 3d eb e0 a2 3d
       -0.0467104 -0.027425574 0.06278515 0.07953056
000210 b2 3c 9e bc 6a b2 f5 3b f9 36 a3 3d 56 33 44 bc
       -0.019316051 0.0074980753 0.079694696 -0.01197513
000220 38 4d c7 3c c5 5a b7 3d 3a 58 a9 bd be 30 bb 3d
       0.024328813 0.0895286 -0.08268781 0.09140156
000230 1d ae d7 39 f7 9e a1 3a 29 fe 09 3d ec 14 13 be
       0.0004113772 0.00123307 0.03368965 -0.1436345
000240 a2 ee c5 3d 98 6e b0 3d 3c 91 17 3a d5 94 c3 3b
       0.09664656 0.08614844 0.00057818345 0.00596867
000250 79 aa 51 bb 70 c8 30 bc fb 16 9b bd 06 b9 ac 3e
       -0.0031992479 -0.0107899755 -0.075727426 0.33734912
000260 f9 61 2b 3d c7 3c 83 3e e2 68 71 bd 31 45 54 be
       0.04184148 0.25632307 -0.058937915 -0.2072952
000270 6f 17 c5 3d c2 99 80 bd 6c b8 c2 3e 0f d4 78 3d
       0.0962361 -0.06279327 0.38031328 0.06074911
000280 cf 4d b5 be 7a af 58 be 39 97 25 be 6d 9e 85 be
       -0.35410926 -0.21160689 -0.16170968 -0.26097432
000290 42 0f 11 bf f2 b0 9b bd eb c8 32 3e ad 62 ea bc
       -0.56663907 -0.07602109 0.17459457 -0.028611505
0002a0 05 7e 93 be 40 64 0b be 86 f6 17 bd 64 8c c3 3c
       -0.28807083 -0.13612461 -0.037100337 0.023870654
0002b0 7f ce 64 be c8 54 23 bd ad 9d bb 3d 23 41 c7 3b
       -0.22344397 -0.039875776 0.09160934 0.006080763
0002c0 7f 49 a2 bd 32 7a 47 bc 0c ac 5a 3d be 6e 9d bc
       -0.079241745 -0.01217513 0.053386733 -0.019217845
0002d0 dd 12 53 3e 61 4b e8 be bc f0 07 bf 6a 7d 0f bf
       0.20612665 -0.4537001 -0.53101707 -0.5605074
0002e0 3e 71 33 bf 75 4f 5f bd 26 a2 8e bd c5 41 43 3e
       -0.7009467 -0.054519136 -0.06964521 0.19068058
0002f0 bf 8d a5 bd 41 0c 11 bf 3d b0 27 bf 28 03 80 3e
       -0.080836765 -0.5665932 -0.65503293 0.25002408
000300 d6 b5 b9 3e e4 b9 c8 3e 72 55 ab 3e fa 22 b5 bd
       0.36271542 0.39204323 0.33463627 -0.08844562
000310 b7 63 dd bd d8 26 0b 3c f3 a6 f5 bd 0c 63 da bc
       -0.10810035 0.008493148 -0.11994734 -0.026658557
000320 2a 72 61 bd 0b 04 09 3d 62 af 1c 3e ba ca cd bd
       -0.055040516 0.03345112 0.15301278 -0.10048433
000330 ba 9b 7c bd b8 55 31 bd da c7 1b 3c 71 03 92 3d
       -0.06167195 -0.04329464 0.009508098 0.07129563
000340 55 18 dd 3c 69 f3 73 3d 44 6b c2 be 8d f2 28 3d
       0.026989141 0.059558306 -0.37972462 0.04124694
000350 6a 3d 5c be 60 1e e7 bd 38 85 11 be 9f b6 10 bd
       -0.21507803 -0.112850904 -0.14210975 -0.03533041
000360 eb 16 cd be 82 e6 32 3f f1 77 84 be 62 de 75 be
       -0.40056548 0.69882977 -0.25872758 -0.24010614
000370 ca 8d 8c be 4c 08 08 bc d0 3c 04 3e 6a ca 1e bd
       -0.27451926 -0.008302759 0.12913823 -0.038767256
000380 ae 77 79 3e f3 6f 4e bd 7d 73 85 3e c4 c6 3a 3e
       0.2436206 -0.05039973 0.26064673 0.18239886
000390 80 f4 7d 3e 45 8a e1 ba a3 e8 d6 bd 30 85 d8 be
       0.248003 -0.0017207345 -0.10493591 -0.42289114
0003a0 22 2b d6 3d 92 44 08 3e e0 6a 65 be da 6e 41 3e
       0.10457446 0.13307407 -0.22404051 0.18889943
0003b0 ae 9d 1b be 43 26 3a bd 6a 88 69 bd 3f 60 84 3d
       -0.15196869 -0.045446645 -0.05701486 0.0646367
0003c0 ff 2b 0c be af 2a ed 3c 3b 48 b4 bd 4a 2e 43 be
       -0.13688658 0.028951017 -0.08802839 -0.19060627
0003d0 b2 f7 9e bd e8 31 98 bc e2 02 13 bd 6b b6 8e 3c
       -0.07762088 -0.018578485 -0.03589142 0.017420968
0003e0 2f 31 85 bd af 13 50 be 80 c8 0d 3e 71 54 5b 3d
       -0.06503522 -0.20320009 0.13846016 0.053547326
0003f0 89 47 95 bd f8 8b 08 be f8 78 fb 3d e8 8e a8 3c
       -0.07289035 -0.13334644 0.12278932 0.020575956

lstm.weight_hh_l0 f4 [256, 64]
000000 cb 1e 87 3e 4e 59 89 be e4 3c b3 be e1 c7 02 3d
       0.2639068 -0.26825947 -0.35007393 0.0319289
000010 ac c0 46 3e 22 8a 08 3e 2b b2 71 bd 1f 9c c1 bb
       0.19409436 0.13333943 -0.059007805 -0.0059085037
000020 d1 68 23 3e 20 4f a4 bd d0 db 62 bd ef 86 5b be
       0.15957953 -0.080229044 -0.05538541 -0.21438192
000030 d7 4e dc 3d a0 7d 17 3e 9d 98 6a be 93 c7 8c be
       0.10757225 0.14794016 -0.2290978 -0.27496013
000040 1e 5a 83 3e 1c 5a 3e bf fa 4c 12 be 17 93 15 be
       0.2565469 -0.74356246 -0.14287177 -0.14606892
000050 f7 9e 1f be d0 20 df be 8b ec fa 3d 12 b9 b3 3e
       -0.15587984 -0.4357972 0.12252148 0.35102135
000060 cf eb 20 be 50 e1 80 bd 13 fd 5b be 50 66 56 bf
       -0.15714954 -0.06292975 -0.21483259 -0.83749866
000070 20 cf b9 3c 6c ae ae 3d 00 d7 8f 3d f6 f4 92 be
       0.022681773 0.08529362 0.0702343 -0.28702515
000080 18 5e 85 3e 42 38 b3 bd 38 f6 7f bd 85 93 3b be
       0.2604835 -0.08750965 -0.062490672 -0.18317993
000090 62 8c 4f 3e 8e 4c 85 3e 38 91 b8 bc 17 c0 b1 3e
       0.20268396 0.2603497 -0.022530183 0.34716865
0000a0 52 15 5c be 54 29 72 be 27 1e b1 3d d0 e5 7f bd
       -0.21492508 -0.23648578 0.08648329 -0.062475026
0000b0 05 35 47 3e b6 4b 6a 3e 5d d1 ae bb d0 42 e7 be
       0.19453819 0.22880444 -0.0053350166 -0.4516816
0000c0 40 ca f5 be f5 d6 55 be 96 af eb 3d d7 2d 6a 3e
       -0.48005867 -0.20882781 0.115081 0.22869049
0000d0 05 94 fe 3b 2e e1 89 3d 46 7c ce 3c f1 2d 5a 3f
       0.00776911 0.06732403 0.025205743 0.8522635
0000e0 e4 c3 18 3f 72 aa 23 be 52 f5 b2 bd 5e e1 23 3e
       0.59673905 -0.15982988 -0.087381974 0.1600394
0000f0 97 7c bb be 9e 6f cd 3d 0f 99 9c 3d c0 ec 3e be
       -0.36618492 0.10031055 0.07646381 -0.18645
000100 25 f3 a9 3e 4b 51 01 3e 9f 5b 1c 3e 18 1b db bc
       0.33193317 0.12628667 0.15269326 -0.026746318
000110 de ce 9c 3e 80 ea 24 be 32 74 db 3e 46 52 50 bd
       0.30626577 -0.1610508 0.42862087 -0.050859712
000120 dc 49 fd 3e 42 10 4a be f8 04 37 3e 7c 5d 6e 3e
       0.49470413 -0.19732764 0.17872989 0.23277849
000130 ae b0 7a be 8b 6b 6a be eb dd 3f bd 04 89 06 bf
       -0.2448146 -0.22892587 -0.046842497 -0.5255282
000140 a2 10 51 be ec 4c 01 be 93 d3 0d bf 74 ad 74 3e
       -0.20416501 -0.12627 -0.5540096 0.23894292
000150 fa a3 23 bf 61 d7 97 bd 12 9f 81 3b 7f eb 49 bc
       -0.63922083 -0.07414127 0.0039557302 -0.012324213
000160 d4 38 2d 3e f2 18 3f 3e 3e 96 a8 be 43 65 af bd
       0.1691621 0.1866186 -0.32927126 -0.08564236
000170 c8 49 b7 be 15 4e a1 3e 6e 16 a4 be ce f0 f0 be
       -0.35798478 0.31504884 -0.32048362 -0.4705872
000180 82 04 03 be 3b 4f 8d be bc e3 9b 3e fd 2f 4a 3e
       -0.12794688 -0.2759951 0.30447185 0.19744869
000190 c7 30 f2 bc 85 e0 a4 be cc ed 23 3e 33 70 59 bd
       -0.029564274 -0.32202545 0.16008681 -0.053085517
0001a0 2a a2 c4 3d da 69 79 be 0a 4e 8a 3e 45 85 80 3e
       0.09601243 -0.24356785 0.27012664 0.25101677
0001b0 1a 89 b6 bd 75 6b 20 3e 85 f9 dd 3d 97 7b 83 3d
       -0.08912869 0.15665992 0.10838608 0.06420057
0001c0 78 96 1d 3e 5a f7 34 be 1c dd 18 be 1c cf 5c be
       0.1538943 -0.17672482 -0.14928097 -0.21563381
0001d0 b7 70 1e bf ea 96 b7 be 02 a8 9c be 48 11 df 3d
       -0.6189074 -0.35857326 -0.3059693 0.10891968
0001e0 15 fe b6 be 12 99 fa bc 30 af 19 3e e6 18 a2 3d
       -0.35740724 -0.030590568 0.15008235 0.07914905
0001f0 19 8f 15 3c 82 a1 05 3e fd 40 26 3e 11 51 cf 3d
       0.009128355 0.13049892 0.16235729 0.10122884
000200 05 a9 9f 3e 37 37 fe 3e f7 9a 00 3f 10 e6 88 3e
       0.3118364 0.496515 0.5023646 0.26738024
000210 d8 5e 15 be 62 d8 8e 3d cd fe 38 3f 32 6e 19 3f
       -0.14586961 0.069748655 0.72263795 0.5993377
000220 38 4b a9 3f 21 fc b0 3e db bc 7f be ee 6d 4e be
       1.322608 0.3456736 -0.24974386 -0.20159122
000230 91 19 90 bf db cc f8 3e aa 07 ab be 8e d0 24 be
       -1.1257802 0.48593792 -0.33404285 -0.16095182
000240 ac 09 e5 3c ef d0 9d bf db 0d 23 bf c1 0d 09 3f
       0.027958713 -1.2329386 -0.63693017 0.5353661
000250 3b e3 cd be 4c 09 0c bd 35 90 1a 3f 5c 34 0a 3f
       -0.40212426 -0.034188554 0.6037629 0.53986144
000260 d2 97 4c 3e 5f a4 12 3e 14 bc 64 bf b8 53 27 bf
       0.1997979 0.14320515 -0.89349484 -0.6536212
000270 47 f5 e1 be d3 e1 f4 bd fc 0d cb bd 1b 66 97 bd
       -0.44132444 -0.11957135 -0.09914777 -0.07392522
000280 70 a0 20 3e 9d 0e 02 bf 8c 9f df 3d b9 33 30 3f
       0.15686202 -0.5080355 0.10919103 0.6882892
000290 44 12 fb 3e 4d 85 63 bf 9f 14 11 be e4 d4 96 3f
       0.49037373 -0.88875276 -0.14168023 1.1783719
0002a0 87 1a 3f 3f 16 1b 28 3e fe 97 66 be c2 85 5e 3e
       0.7464985 0.16416582 -0.22518918 0.21730712
0002b0 72 49 20 3f 8c b9 f9 3e d3 ed 34 3f e8 f5 c3 be
       0.6261207 0.48774374 0.7067539 -0.3827355
0002c0 37 35 c1 bc a6 a4 7f be bb 85 99 be 98 81 b3 be
       -0.023584945 -0.24965152 -0.2998484 -0.3505981
0002d0 59 37 f0 be e0 c5 ee be 25 60 ec 3e 31 26 01 3f
       -0.46917227 -0.46635342 0.46167102 0.504489
0002e0 d9 c1 4b 3e f6 5b 0a 3c 67 e7 a4 3e 79 6e d3 3d
       0.19898166 0.008444777 0.32207796 0.10323805
0002f0 d9 a8 af 3d b2 a7 3e be bd 21 c2 3e 20 d3 07 bd
       0.08577127 -0.18618658 0.37916365 -0.03316033
000300 49 a3 40 3e 85 0b dc 3e 79 5b dd 3e 71 fa f2 3c
       0.18812288 0.4297754 0.4323385 0.029660435
000310 ea a5 ee 3e cc 15 8e be 02 a4 93 3e 00 c4 df be
       0.46610957 -0.27751005 0.28836066 -0.43704224
000320 08 7c 8d bc f8 e5 e8 bd 32 a3 ff bd 7e 94 74 3d
       -0.017271057 -0.11371988 -0.12482299 0.059711926
000330 0b cd 04 bf 4c ef 05 be 3f 3c c4 3e 75 76 3e bd
       -0.5187537 -0.13079566 0.38327214 -0.04649969
000340 ac 14 e1 bd 6c 88 05 3e fd 3d 28 bf 0c 99 05 3f
       -0.10990271 0.13040322 -0.65719587 0.52186656
000350 df fe 1d bf f9 d2 32 be 31 21 c7 3e 20 61 b4 3e
       -0.6171703 -0.17463292 0.3889251 0.3523035
000360 19 bf ec 3e 47 d5 b8 3e a8 4b e9 bd 7c e9 3d be
       0.46239546 0.36100218 -0.113913834 -0.18546098
000370 02 b6 b3 be e6 c0 2b 3e ac 8d 89 be cd a3 20 3e
       -0.35099798 0.16772804 -0.268659 0.15687485
000380 38 49 4e 3e 2d ba 32 bf 70 9e e7 3e 20 0a 8e 3e
       0.20145118 -0.6981533 0.45238066 0.277421
000390 a8 76 5b bc 3d db ef bd 7d 18 a1 3e 0e 65 7b be
       -0.013394989 -0.11711738 0.31463996 -0.24550268
0003a0 47 6c f4 bd 27 d5 8c 3d 78 e1 b6 3d f9 e1 e3 3e
       -0.11934715 0.06876593 0.089297235 0.4450834
0003b0 7b 6d 6b 3e 0a e4 33 3f e4 10 1b 3f 1f 0a fa 3c
       0.22990982 0.70269835 0.6057265 0.030522404
0003c0 a6 85 8e be 4b 57 1c be 1d 84 05 bf c5 60 39 bf
       -0.2783634 -0.15267675 -0.52154714 -0.72413284
0003d0 30 f7 b8 be 13 55 a2 be ce 76 a3 be 8e 8d 66 be
       -0.3612609 -0.3170553 -0.31926578 -0.22514936
0003e0 46 0d 74 be 1a 6c a7 be 87 4a 1c 3f 77 b5 a6 bd
       -0.23833188 -0.32699662 0.6105122 -0.081400804
0003f0 95 37 c2 3d 75 26 33 bd 61 65 3d 3f 53 58 f9 3d
       0.09483258 -0.043737847 0.73982817 0.1217505

lstm.bias_ih_l0 f4 [256]
000000 e5 fe 8f be ab 6c c6 be 44 1a 1e bf 44 c5 59 bf
       -0.28124157 -0.38754782 -0.6175883 -0.8506663
000010 ac 23 14 bf e2 78 67 bf ed a3 79 bf 30 f0 03 bf
       -0.5786693 -0.9041883 -0.97515756 -0.5153837
000020 96 e0 01 bf 3a e9 db be 07 e6 42 bf f9 12 08 bf
       -0.50733316 -0.42951375 -0.76132244 -0.5315395
000030 4a db bf be ec db 90 be ca 19 fa be 8a 9b 24 bf
       -0.37471992 -0.28292787 -0.488478 -0.64299834
000040 98 03 36 bf a2 89 4e bf 1a 06 74 3a e5 09 07 bf
       -0.71099234 -0.8067876 0.00093087705 -0.5274947
000050 b0 35 9d be 3a 03 72 bf bf 15 ab be a2 1b eb be
       -0.30705023 -0.94536173 -0.33415028 -0.4591952
000060 3b 61 12 bf a7 f3 24 bf 33 5b c6 bc 79 e7 64 bf
       -0.5717961 -0.64434284 -0.024213409 -0.894157
000070 5e eb b4 be 6a a4 dc be f6 6f 42 bf d5 07 68 bf
       -0.3533582 -0.43094188 -0.7595209 -0.9063695
000080 7c 39 10 3f 87 57 0e bf 83 26 2b bf f7 b7 13 bf
       0.56337714 -0.55602306 -0.6685564 -0.57702583
000090 9d 2e 19 bf ae 18 61 bf 47 8d f2 be ed 20 a2 be
       -0.5983675 -0.87928283 -0.4737341 -0.31665745
0000a0 9c 94 83 bf c7 68 e5 be 2d 1e 0e bf ff 90 3e bf
       -1.0279727 -0.448065 -0.55514795 -0.74439996
0000b0 b8 a2 13 bf 48 19 17 bf d5 68 5a bf d4 8e 7d bf
       -0.57670164 -0.5902295 -0.8531621 -0.99046063
0000c0 45 ed 10 bf 5f 40 13 bf 0f 29 da be cf 77 21 3e
       -0.56612045 -0.575201 -0.4260945 0.1576836
0000d0 d0 b3 7b 3d a9 98 cb be c7 37 37 bf 22 30 d3 be
       0.06145078 -0.39764908 -0.71569484 -0.4124766
0000e0 24 32 35 bf 78 d5 73 bf 10 b0 a9 be f9 ae 87 bf
       -0.70779634 -0.952476 -0.33142138 -1.0600272
0000f0 7f 83 8a bf 21 22 54 bf bf 59 3e bf c5 fb 85 bf
       -1.082138 -0.82864577 -0.7435569 -1.0467459
000100 19 ca c5 be 58 11 1a 3e 0a cd af 3e 88 81 ac bd
       -0.3863075 0.15045679 0.3433612 -0.084231436
000110 53 b0 96 be 0c 27 06 be c3 a5 74 3e e7 2a 53 be
       -0.294314 -0.13100833 0.23891358 -0.20621835
000120 11 7a 2f bf 7d 24 84 3e 99 53 fa 3d 0d 4a 98 3d
       -0.68545634 0.25809088 0.12222976 0.07435999
000130 a2 21 17 bd 3c 07 2c bf b1 bc aa be 1e cc 5d be
       -0.03689731 -0.6719854 -0.33347085 -0.21659896
000140 fb 5a be be b3 59 87 be ac e0 67 bd 1c d3 2e 3e
       -0.37178788 -0.26435623 -0.05661075 0.1707272
000150 b8 38 11 3e c6 ec df be 8d 05 50 bf dd a1 13 bf
       0.14181793 -0.4373533 -0.8125847 -0.5766886
000160 06 fb a0 bd 93 5d b7 3e 52 53 c9 bd 45 27 d7 be
       -0.07860379 0.3581358 -0.09830345 -0.42022148
000170 5a 35 21 bd fe bb bf 3d f5 0f 8e 3c 82 97 05 bf
       -0.03935752 0.093620285 0.017341593 -0.5218431
000180 c1 82 98 bf d9 37 3b bf 6e f4 70 be 8f fd 99 be
       -1.1914903 -0.7313209 -0.23530743 -0.30076262
000190 62 8d 97 bf 4b 3c 97 3e db b3 72 be 1c cf 8b bd
       -1.1840022 0.29538187 -0.23701422 -0.06826612
0001a0 7b cb 03 bf f7 ce 5b 3d 11 f3 61 3e f8 28 56 3e
       -0.5148236 0.053664174 0.22065379 0.20914066
0001b0 56 d1 01 be d6 78 40 bd a6 52 c2 bd 6a 1a a1 bd
       -0.12677512 -0.046990238 -0.0948842 -0.07866366
0001c0 c4 7c ca be 00 fe 1c bf 2b 48 de bd 46 b8 e0 3c
       -0.39548314 -0.61325073 -0.10853609 0.027431618
0001d0 93 b7 a3 bd 64 4e 70 3e 9f f4 16 3e 68 40 40 be
       -0.079939984 0.23467404 0.14741753 -0.18774569
0001e0 09 14 bf bd d9 4f 17 bf 2e c7 b3 3e 3c 0b 3d bd
       -0.09329993 -0.5910621 0.351129 -0.046153292
0001f0 08 76 a4 3e b7 df cd 3d 20 c1 c7 3d 21 b5 a9 be
       0.321213 0.10052436 0.097536325 -0.33146003
000200 7c 89 89 bc 99 01 ec bc a7 32 b7 bd 70 84 52 3d
       -0.01678919 -0.028809356 -0.08945208 0.051395833
000210 43 4f 51 3c e3 07 40 bd af 12 cb bc f1 23 4f be
       0.012775245 -0.04688252 -0.024789182 -0.20228554
000220 13 71 4f 3d 9a 82 d0 3c 23 6e 0d 3d 23 cc 04 3d
       0.050644945 0.0254529 0.034528863 0.032421242
000230 0e c6 a5 bb 75 11 fd bd 40 8f 92 bc ff 45 f2 3d
       -0.0050590103 -0.12356845 -0.017890573 0.11829757
000240 fb 80 43 be e9 96 7b bd 9b af c6 3e 96 f7 db bc
       -0.19092171 -0.061423216 0.3880585 -0.026851457
000250 ad 77 89 3e b9 31 68 3d e4 62 7f be 32 92 8a be
       0.26849118 0.056688044 -0.24940068 -0.27064663
000260 6f d4 b9 3b 19 d1 85 be c9 d4 b0 3d c2 29 0b 3e
       0.005671076 -0.2613609 0.086343355 0.13590148
000270 9e 09 87 3d 9f 49 11 be ad 78 dc 3d a2 33 63 3c
       0.06593631 -0.1418824 0.107652046 0.013867291
000280 c8 49 b9 bb 68 2b 66 3e 28 ad 3f be 03 bf 85 bd
       -0.0056545474 0.22477496 -0.18718398 -0.06530573
000290 e9 45 f5 bc 55 b4 a8 bc c9 a6 0e be 07 cf 18 3d
       -0.029940562 -0.020593802 -0.13930811 0.03730681
0002a0 dd 7a 0b be f5 9c 7a 3d 92 7a 45 bd 1e b0 9c bd
       -0.13621087 0.061184842 -0.048212595 -0.07650779
0002b0 ee c0 a4 3d 82 25 44 be b2 d2 18 3d 90 49 1d be
       0.08044611 -0.19154933 0.03731031 -0.15360093
0002c0 c6 67 30 bd 7d 2e 5d 3e 21 5b 41 3c 28 21 52 3e
       -0.043067716 0.21599765 0.011801512 0.2052046
0002d0 87 6d 8d 3e ea 09 0c bd a9 81 83 3e fc 38 0c be
       0.27622625 -0.034189142 0.2568486 -0.13693613
0002e0 39 5d b1 3c a3 e1 0e bb 15 19 58 be 10 42 8c be
       0.021650897 -0.002180197 -0.21103318 -0.27394152
0002f0 bc e3 15 be 7d 90 86 3d c5 4c 5a 3d c5 e1 3f be
       -0.14637655 0.06570528 0.05329587 -0.18738468
000300 47 f2 1c be c0 ec 0e be 53 28 90 be 31 95 74 bf
       -0.15326796 -0.139575 -0.28155765 -0.9554015
000310 b7 57 11 bf 7d 0c 4a bf 53 19 1d bf 2f 0d 36 bf
       -0.5677447 -0.78925306 -0.61366767 -0.71113867
000320 0f b5 d7 be 0a cd 38 bd 23 75 3e bf d0 0d 07 bf
       -0.42130324 -0.045117415 -0.74397486 -0.5275545
000330 c7 9f 14 bf 3e e1 74 be 6e e6 46 bf 84 8a 29 bf
       -0.580563 -0.23914048 -0.7769536 -0.66226983
000340 04 ee 35 bf 73 c2 65 bf 71 c5 1b be c7 13 b0 be
       -0.7106631 -0.8974983 -0.15212037 -0.3439009
000350 34 e1 00 be 20 a0 60 bf cc 18 13 bf 27 88 e7 be
       -0.12585908 -0.8774433 -0.5745971 -0.45221063
000360 65 eb ac be ea 7e 98 be fa b6 0b bc 7a ec 73 bf
       -0.33773342 -0.29784328 -0.008527512 -0.9528271
000370 a7 9a 0b be cc 9f 16 bf 2e 34 19 bf 6b b9 66 bf
       -0.13633214 -0.5883758 -0.59845245 -0.90126675
000380 3f 73 86 3f af 77 0f bf 0d 65 3a bf 91 ac fb be
       1.050392 -0.56042 -0.7281044 -0.49155095
000390 42 99 18 bf 13 d1 40 bf e1 91 78 be 2f a0 a4 be
       -0.5960885 -0.7531902 -0.24274398 -0.3215346
0003a0 70 97 8a bf 95 a7 a1 be 84 6f 98 be 4c d3 18 bf
       -1.0827465 -0.31573167 -0.2977258 -0.59697413
0003b0 7c 19 19 bf 25 d5 08 bf c4 41 06 bf 02 62 64 bf
       -0.5980451 -0.5345023 -0.524441 -0.8921205
0003c0 06 ff 14 bf 9e 25 ef be 02 45 b7 be 6d 96 85 3e
       -0.58201635 -0.46708387 -0.35794836 0.26091328
0003d0 2e 7b 87 3c 02 4e 09 be 30 34 01 bf ff 1a 1c be
       0.016538229 -0.13408664 -0.50470257 -0.15244673
0003e0 a1 b2 9b be 83 7d 46 bf 62 69 5d be e3 23 47 bf
       -0.3040972 -0.77535266 -0.21622232 -0.77789134
0003f0 2a dc 9d bf 2d 9f 46 bf 79 fc 3d bf a1 5f 93 bf
       -1.2332814 -0.7758663 -0.7421337 -1.1513559

lstm.bias_hh_l0 f4 [256]
000000 f0 82 93 be 7e 49 af be 08 46 e1 be 62 5a 6c bf
       -0.28810835 -0.34235758 -0.43998742 -0.92325413
000010 e4 fc 36 bf cd c9 37 bf dd f9 5f bf 4f 12 da be
       -0.7147963 -0.717923 -0.87490636 -0.42592093
000020 4c 9d ed be 3e 4b b0 be eb d8 62 bf 88 68 07 bf
       -0.4640907 -0.34432405 -0.8861224 -0.5289388
000030 d7 37 b9 be 67 38 d8 be 68 d7 1c bf 84 66 4e bf
       -0.36175415 -0.42230532 -0.61266184 -0.80625176
000040 64 e9 f8 be 0d b8 5a bf ee 66 1f be de f7 02 bf
       -0.48615563 -0.8543709 -0.15566608 -0.51159465
000050 4d e5 e6 be 85 8c 64 bf 66 8c b9 be 03 ad fb be
       -0.45096818 -0.89276916 -0.36239928 -0.49155435
000060 30 9e 11 bf 83 de 24 bf e0 61 f2 bd 51 24 38 bf
       -0.56882 -0.64402026 -0.118350744 -0.71930414
000070 45 8f 9e be a1 63 0f bf eb dc 44 bf 1d 0c 5a bf
       -0.3096868 -0.56011397 -0.76899594 -0.85174733
000080 bf 9c 40 3f d2 12 1e bf 97 fd 41 bf fa 4e 2c bf
       0.75239176 -0.6174747 -0.7577757 -0.6730801
000090 b1 e6 43 bf d3 05 7d bf c9 97 12 bf 54 92 9b be
       -0.7652388 -0.9883701 -0.57262856 -0.30385077
0000a0 a3 91 95 bf 27 ff 0e bf 98 f9 d6 be 27 89 38 bf
       -1.168507 -0.5585808 -0.419873 -0.7208428
0000b0 fc 93 14 bf 51 a9 09 bf a0 a4 55 bf 0b 60 87 bf
       -0.58038306 -0.5377398 -0.8345432 -1.0576185
0000c0 f6 80 40 bf c2 1c 4b bf 16 c7 eb be c9 a4 38 3e
       -0.7519678 -0.79340756 -0.46050328 0.1803161
0000d0 93 d3 87 3d 47 89 dc be 50 b7 54 bf b5 ae 1b bf
       0.066321515 -0.43073484 -0.8309221 -0.60813457
0000e0 5a 1c 3e bf 7c 3d 80 bf 84 5a d3 be 09 81 59 bf
       -0.7426201 -1.0018764 -0.41279995 -0.8496252
0000f0 37 11 99 bf 43 c0 59 bf a8 c2 4f bf 14 20 98 bf
       -1.1958379 -0.85058993 -0.81156397 -1.188479
000100 e0 91 0d bf 2a 3d 59 bc fc 6a c0 3e f2 eb 60 be
       -0.5530071 -0.013259212 0.37581623 -0.21965006
000110 62 19 01 be 52 1b 7c bd 91 0e 6d 3e db 0c 91 be
       -0.12607339 -0.061549492 0.23150088 -0.2833012
000120 49 9a 26 bf 72 6d df 3d c8 89 23 3e 21 6c c0 3d
       -0.6507917 0.10909547 0.15970528 0.09395624
000130 88 39 31 bd fb 0c 54 bf a6 65 e8 be 47 4d 62 be
       -0.043267757 -0.82832307 -0.45390052 -0.22099791
000140 c3 9d a0 be e5 b7 a9 be a9 cc f0 bd b4 e9 94 3d
       -0.31370363 -0.33148113 -0.11757786 0.07271138
000150 bf d6 9f 3e 44 5c be be 9c c3 6a bf 24 10 14 bf
       0.31218526 -0.37179768 -0.91704726 -0.5783713
000160 69 17 f1 3c 10 ec 34 3e 0a ff 49 bc 23 6b 17 bf
       0.029430108 0.17668176 -0.012328872 -0.5914785
000170 96 8c 8b 3c 36 99 6f 3e 4c d2 69 bd aa f2 2c bf
       0.01703481 0.23398289 -0.05708532 -0.67557776
000180 e7 15 9f bf 01 9c 12 bf 5d 91 01 be 1a 66 c7 be
       -1.2428559 -0.57269293 -0.12653108 -0.38945085
000190 1a 96 78 bf 8e 44 87 3e 68 59 8c be a7 43 a1 3d
       -0.97104037 0.2641949 -0.27411962 0.07874232
0001a0 43 89 d0 be 1d fb e8 bb 53 8b e5 3d b6 34 bb 3d
       -0.40729722 -0.007110013 0.112082146 0.09140913
0001b0 6d c1 0b be 5e c3 df bd 96 37 78 be 74 c6 0d bd
       -0.13648005 -0.10925935 -0.24239954 -0.034613088
0001c0 fc 65 c6 be 76 4a 34 bf 17 3e 87 be a6 d7 4b 3d
       -0.38749683 -0.7042612 -0.26414558 0.049766205
0001d0 e2 70 dc bd 06 b1 2c 3e cf ab 5d 3e 4a ef ed bd
       -0.10763718 0.16864404 0.21647571 -0.116179064
0001e0 d7 a3 11 be 04 b6 12 bf 28 99 af 3e f2 6e 49 be
       -0.14222656 -0.57308984 0.34296536 -0.19671229
0001f0 bb f8 b5 3e 1a 96 53 3d e7 cc 49 3d 50 e2 d3 be
       0.3554133 0.05165682 0.049267676 -0.413836
000200 15 74 b1 bd ac e3 ac bc e8 b0 7e be 8f 4d 5b bd
       -0.08664719 -0.021104656 -0.24872172 -0.053540763
000210 88 60 30 3e e0 a7 16 3d 3d 3e a9 3d 72 cf ce bd
       0.17224324 0.03678119 0.08263824 -0.10098161
000220 f9 00 c0 bd d1 ae f7 3d 57 48 1a 3d d8 10 d3 3d
       -0.093751855 0.120938905 0.037666645 0.10305947
000230 6b bd 35 be 16 81 27 bd 28 ff 48 3e 0c 14 64 3e
       -0.17748038 -0.04089459 0.19628584 0.22273272
000240 e2 6c b6 bd 47 8e d0 3d 83 e4 c9 3e ea 03 d4 bd
       -0.089074865 0.10183387 0.39432153 -0.10352309
000250 78 74 6d 3e e1 85 4f 3e 26 3e 08 be 7e e5 36 be
       0.2318896 0.20265914 -0.13304958 -0.17860982
000260 84 bf bc 3d d7 60 5d bd 8d 0a 82 3d 1f 26 23 3e
       0.09216216 -0.05404743 0.06349669 0.15932511
000270 21 71 67 3e 8e d5 84 bd 4a b4 a0 bd 7b ee 30 3e
       0.22601749 -0.06486045 -0.078468874 0.17278473
000280 a5 24 c6 bd c7 12 80 3e a0 96 47 be fa 38 4a be
       -0.09674958 0.25014326 -0.19491053 -0.19748297
000290 bb 6a 4c bc 0f 2e 56 3c ff 1c 2b be d8 98 18 3d
       -0.012476618 0.013072505 -0.1671028 0.03725514
0002a0 dc 35 1b be 27 25 96 3d dc 62 18 3d 68 f2 d1 bc
       -0.15157264 0.07331305 0.037203655 -0.025628284
0002b0 d6 55 9e 3d a8 24 77 be a7 58 a9 bb 86 46 1a be
       0.07731216 -0.24135077 -0.005168039 -0.15065965
0002c0 a7 0b a0 bd 9b ae e4 3d a4 b6 c9 3d 01 cd 3a 3e
       -0.078147225 0.11166116 0.09849289 0.18242265
0002d0 37 fb 49 3e a5 cf 31 bd 22 ab 87 3d 64 b0 20 be
       0.19724737 -0.043410916 0.06624438 -0.15692288
0002e0 12 a3 24 bd dd fa e7 bd 9d 33 4c bb 1c d0 32 be
       -0.04019458 -0.11327145 -0.0031158694 -0.174622
0002f0 86 73 6d 3d 51 72 40 3c 23 0d 5e 3d dc 71 9c bd
       0.0579715 0.011746005 0.054211747 -0.076389045
000300 56 0c bc 3d 60 28 55 be 44 0d b9 be 7f 90 7c bf
       0.091820404 -0.20816183 -0.36142933 -0.98657984
000310 e6 7d 31 bf 2a e8 1f bf a9 28 e4 be 27 19 17 bf
       -0.6933273 -0.6246363 -0.4456227 -0.59022754
000320 41 4b c6 be 9e ac 57 be 9b a7 48 bf ea d9 13 bf
       -0.3872929 -0.21061942 -0.78380746 -0.57754385
000330 03 cb 15 bf f3 24 45 be 0b 2d 26 bf 00 d7 4a bf
       -0.58512896 -0.19252376 -0.6491248 -0.79234314
000340 d9 6b f9 be a0 08 38 bf d4 9a 3b be 59 86 79 be
       -0.48715094 -0.7188816 -0.18320781 -0.24367656
000350 a6 a2 95 bc d9 23 74 bf 08 e8 f0 be cd b7 b7 be
       -0.018266033 -0.953672 -0.47052026 -0.35882416
000360 b6 40 c4 be 2e 92 87 be 4b 28 1c be d3 73 60 bf
       -0.3833062 -0.26478714 -0.15249746 -0.87676734
000370 0a 29 4c be de 31 1d bf 13 f6 28 bf c8 a3 30 bf
       -0.1993753 -0.61404216 -0.6600048 -0.6899991
000380 c5 31 8a 3f a1 35 2b bf 24 41 38 bf 48 d2 fe be
       1.0796438 -0.66878706 -0.71974397 -0.49769807
000390 67 e1 43 bf f9 3a 3e bf fd fc 8d be be a6 ad be
       -0.7651581 -0.74308735 -0.27732077 -0.33916277
0003a0 7d 74 70 bf 73 b8 df be fc 38 82 be a0 64 1c bf
       -0.93927747 -0.4369541 -0.254341 -0.6109104
0003b0 c6 f3 26 bf 8f c1 c5 be ba 36 06 bf 83 5a 6a bf
       -0.6521572 -0.38624236 -0.52427256 -0.9154436
0003c0 42 bf 2e bf 9b 20 14 bf d3 7d 8a be 66 d5 bd 3d
       -0.68260586 -0.5786225 -0.2704912 0.09269218
0003d0 17 d5 be bb ae ee f4 bc 14 4c 2d bf ca 34 6e be
       -0.005823742 -0.029898968 -0.6769421 -0.23262325
0003e0 84 5b 96 be 4b 0a 1b bf ea 88 49 be 3c 06 48 bf
       -0.29366696 -0.6056258 -0.19681135 -0.7813451
0003f0 c0 ac 95 bf c9 78 39 bf 72 11 43 bf 4a 01 76 bf
       -1.1693344 -0.7244993 -0.76198494 -0.96095717

lstm.weight_ih_l1 f4 [256, 64]
000000 ca 0b 80 3e 1e 43 0d be 91 62 36 3d 28 a3 1c 3e
       0.25008994 -0.13795134 0.044527594 0.15296614
000010 d5 4c 34 3d 51 8d 54 be ae 86 df bd 28 98 21 3a
       0.044018585 -0.20757033 -0.1091436 0.00061643356
000020 f5 5f 7e 3e 78 56 eb 3b 98 3f b6 bd 32 74 93 bd
       0.24841292 0.0071819387 -0.08898848 -0.07199897
000030 79 ed 7d 3d a5 bb 23 bd 4b 40 13 bd dc 69 4d 3e
       0.06199405 -0.039973874 -0.035949986 0.20059913
000040 7b 64 a4 bd db b9 32 3e f5 02 51 3d 8f 56 3b be
       -0.08026978 0.1745371 0.05102821 -0.18294738
000050 54 2a 24 3e 04 2f 26 3d 22 04 49 bb 3d 52 84 bd
       0.16031772 0.04057218 -0.003067263 -0.06460998
000060 27 85 8a bc 12 ce 32 3e 8a 66 87 3d fa 8c 5a 3d
       -0.016909195 0.17461422 0.06611355 0.053357102
000070 1a 88 ef 3d 7f c5 34 be 33 85 d2 3b 35 67 14 bd
       0.11695881 -0.17653464 0.00642457 -0.03623124
000080 17 9a 1d bc 90 a4 52 3e 11 03 10 bd 34 d0 bf 3d
       -0.009619257 0.20570588 -0.035159174 0.093658835
000090 80 02 86 bd 0e 2a 36 3d 35 2e 65 bd 4f 4d 85 be
       -0.065434456 0.0444737 -0.05595227 -0.26035544
0000a0 81 af ff 3d a9 6e e3 3d 53 38 92 ba 40 8e 8f 3d
       0.124846466 0.11105091 -0.0011155702 0.07009554
0000b0 2a 31 05 be c1 59 66 be ca c7 be 3d c0 fb 06 3c
       -0.13007036 -0.22495176 0.093154505 0.008238733
0000c0 84 ef 20 3e f9 b7 8a 3d dc 53 6f bd a4 08 39 3d
       0.15716368 0.06773371 -0.058429584 0.045174256
0000d0 1f 73 6f 3e 34 3a 24 bd c4 13 79 3d 0b 41 e4 bd
       0.23383759 -0.04009457 0.060809866 -0.111452185
0000e0 9a 68 7f 3e 93 2a d8 3b f8 cd 12 be 12 af 8b bd
       0.24942246 0.006596872 -0.14336383 -0.068205014
0000f0 6b 0d 41 3e 43 95 c5 3c f8 95 3d be 17 24 cc bd
       0.18852775 0.024119025 -0.1851424 -0.09967821
000100 a7 53 74 bd 70 38 82 bd 81 82 b8 bd 1f d6 e9 bd
       -0.05965009 -0.06358421 -0.09009267 -0.114177935
000110 ec cf 1a 3b 89 91 a0 3d 64 16 d7 bb f5 6a 89 bd
       0.0023622466 0.07840259 -0.0065639485 -0.067098536
000120 a5 2c e0 bc 11 c5 6f 3c 48 f1 a1 bd bf bf 5c bc
       -0.027365038 0.014634387 -0.07907349 -0.01347345
000130 9e 86 c0 3c 93 32 93 3e 3b f7 84 bd dd 75 25 3d
       0.02350169 0.28749523 -0.06492468 0.040395606
000140 5f 1d f7 bd 88 dc 6c 3e 5d cb 1f 3e 54 27 50 3b
       -0.12066149 0.23131001 0.1560492 0.0031761723
000150 b6 3f 25 3e 2b c3 a1 3d 08 fc 9b 3d bc b3 92 bc
       0.16137585 0.078985535 0.076164305 -0.01790797
000160 78 ec e4 bd 30 15 18 3c 16 87 cb 3d f3 53 25 bd
       -0.11177915 0.009282395 0.09937875 -0.040363263
000170 41 c6 11 3d 97 41 b2 3c 9a 41 51 be 76 e6 e0 bd
       0.03558946 0.021759791 -0.20435181 -0.10981457
000180 ba 10 c3 3b bd 11 d1 3d 96 9e 00 be 81 cb 0d bd
       0.0059529217 0.102084614 -0.12560496 -0.034617905
000190 d5 33 27 be 1a b1 b2 3d 1d b2 a8 ba 37 d7 ad bc
       -0.16328366 0.08725186 -0.0012870465 -0.021220786
0001a0 89 55 0d 3e d0 91 83 bc 27 77 96 3c b4 17 fa bc
       0.1380216 -0.01606074 0.018367363 -0.03052888
0001b0 c7 fe d2 3d 83 ac 42 be 52 0d 87 3d 8d bd 63 be
       0.10302501 -0.1901112 0.065943375 -0.22240277
0001c0 0f 81 91 bd c7 1f 3f 3e b8 17 20 3e b5 24 3f 3e
       -0.07104694 0.18664466 0.15634048 0.18666346
0001d0 98 0d 04 3e a4 9d b3 3d 89 54 80 3e 13 a4 2e be
       0.1289581 0.08770302 0.25064495 -0.17054777
0001e0 3e 79 c4 3e ea 65 10 3e e2 c6 8e bd 2f 32 60 be
       0.3837375 0.14101377 -0.06971528 -0.21894144
0001f0 98 bf 5a bc 28 e1 6c 3e 34 89 ee bc 91 bf b3 bd
       -0.013351344 0.23132765 -0.029118158 -0.08776773
000200 de b6 a6 ba 97 ed 27 bd d4 17 05 3e ca 8d ac bd
       -0.0012719294 -0.040998068 0.12997371 -0.084254816
000210 3e d2 f5 3d 58 69 bf bc f8 df 25 be 88 db 11 3e
       0.12002991 -0.023365662 -0.16198719 0.14243901
000220 77 36 82 bc 2c da a7 bd ab fa b9 3d 15 38 5c 3c
       -0.015895111 -0.0819591 0.09081014 0.013441105
000230 89 1b de bd fc 1f 90 3c 89 b5 9d bd 88 31 07 be
       -0.10845096 0.017593376 -0.07700641 -0.13202488
000240 2c 84 95 3e c4 09 49 bd fb 1c 27 bd ab c9 aa 3d
       0.29202402 -0.04908158 -0.040799122 0.08339246
000250 93 9b 68 3c ec 03 ce bc 03 ca 35 bd a5 01 e7 3d
       0.014197248 -0.025148354 -0.044382107 0.112796105
000260 04 19 8c be 39 9b 8f 3e 9c 2b b1 3c b0 11 6e be
       -0.27362835 0.28048113 0.02162724 -0.23248935
000270 53 66 64 3c 16 38 45 3e e6 ce 19 bd 0a 32 0e be
       0.013940412 0.19259676 -0.03755083 -0.13886276
000280 b7 e7 5f 3d c7 e6 51 be 36 37 8c 3e 87 49 2e 3e
       0.05466434 -0.20498191 0.27385873 0.17020236
000290 ab a6 18 bd b4 42 f9 bd ec c6 4d bd a1 09 45 bd
       -0.037268322 -0.12170926 -0.050238535 -0.048104886
0002a0 c7 02 8e be be 8d d7 bd 9a 48 36 3d 32 9e 40 bd
       -0.27736494 -0.10525082 0.044502832 -0.047025867
0002b0 ef 03 39 bd 49 ba 8f 3d 6b 21 3c 3d 94 17 bd 3c
       -0.045169767 0.07017953 0.045930307 0.023082532
0002c0 c2 fb 23 3c bd 42 9e be 6d 7e bf 3d 0b 42 b0 bd
       0.010008754 -0.30910292 0.09350286 -0.08606347
0002d0 68 4d 20 be 3d 65 96 3d a3 ad 89 be 27 f0 51 3e
       -0.15654528 0.073435284 -0.26890287 0.20501767
0002e0 45 74 fe 3c 04 b1 a9 3d 46 12 6b 3e d3 af 70 bd
       0.031061301 0.08285716 0.2295619 -0.05876143
0002f0 de e2 9c 3d 15 1d 9d bc 89 52 d6 3b b9 59 39 be
       0.07660459 -0.019178906 0.0065406007 -0.18100633
000300 8a 89 02 be d4 77 93 bd b4 37 a7 bd e4 c8 05 3e
       -0.1274778 -0.0720059 -0.081649214 0.13064915
000310 16 5a 70 3e 16 0a 3b be 2a af 26 3d fb 06 7a 3d
       0.23471865 -0.18265566 0.040694393 0.061041813
000320 0a aa ed 3e b3 67 97 bd a6 4f bc bd 98 54 28 3d
       0.46418792 -0.07392826 -0.09194879 0.0410963
000330 ba b9 1c 3d a3 35 38 3a 60 b9 4c be 71 9e 8b be
       0.03826306 0.00070270355 -0.1999259 -0.2726932
000340 a7 63 4c be e0 1f 8f 3e 9a 1d 89 3e b1 ca a7 bc
       -0.1995989 0.27954006 0.26780397 -0.020482393
000350 05 af fc 3c 09 e8 d3 bd 3f 1b ed bd 6a df 97 3d
       0.030845175 -0.103469916 -0.115774624 0.0741566
000360 25 a2 1b be 5f 32 97 3d 09 54 3c 3e ff f3 ab be
       -0.15198572 0.073826544 0.18391432 -0.33584592
000370 53 d7 e1 ba ec 37 a5 bd d1 fc 62 bd 27 a2 e2 bd
       -0.0017230309 -0.08067307 -0.055416886 -0.11066084
000380 fb 4c 97 bd da bb d8 3e 0a 39 a6 3d 5e 0c 8a bd
       -0.0738773 0.4233082 0.08116348 -0.0674064
000390 0e 29 0d be 15 49 5c 3e 97 f4 85 3d 9a 9a bb 3d
       -0.13785192 0.21512254 0.065407924 0.09160347
0003a0 80 15 39 bd a5 1a 91 3c ac 3c a8 bd 44 38 b0 bd
       -0.04518652 0.0177129 -0.08214697 -0.08604482
0003b0 ce ce 6c 3e 42 ff fb 3c 62 33 d6 3b ab 5d c7 3e
       0.23125765 0.030761365 0.006536887 0.3893865
0003c0 78 ba f5 be 7f cb a0 3e ab a0 54 3e 67 7e 1d 3e
       -0.47993827 0.31405255 0.20764415 0.1538025
0003d0 aa b7 d0 3d 39 02 e0 bd 19 81 65 3e 2b 4e c4 3d
       0.10191281 -0.10937924 0.22412528 0.09585222
0003e0 f9 b8 fa 3e 6e d3 95 bd f2 21 f6 bc ac 57 dd 3d
       0.48969248 -0.07315718 -0.030045483 0.10807738
0003f0 24 62 d2 bd 17 ad 1d bd 85 16 46 be 4c ea 37 bd
       -0.10272625 -0.03849515 -0.19344528 -0.044901177

lstm.weight_hh_l1 f4 [256, 64]
000000 df 54 0c bd 9b 80 c4 3d c7 27 24 3e 75 e2 c8 bd
       -0.034260627 0.09594842 0.16030799 -0.09808818
000010 6e 7f 29 3d c0 cc 26 3d cf 29 e2 3d 4b 1b 91 3e
       0.041381292 0.04072261 0.110431306 0.28341135
000020 cc 8c 04 3e dd 94 af bd ab 9b cc bd e5 ef 1d be
       0.12944335 -0.08573315 -0.09990629 -0.15423544
000030 0c 13 4b 3e 7a 98 09 be 2f 9f 2c bd 04 63 88 3d
       0.19831485 -0.13437071 -0.042143997 0.06659511
000040 f2 e9 eb be d4 f8 ad 3e 10 86 19 bd 5a fc bf be
       -0.46076924 0.33978903 -0.037481368 -0.37497216
000050 f5 d3 01 3d 1f 1d 2a 3e b2 fc fd 3d b0 1c ce bc
       0.03169628 0.16612671 0.124017134 -0.025160164
000060 dc 88 c3 bf b7 16 8c 3d 9a 76 72 bd a2 a6 f0 bd
       -1.5276141 0.0684027 -0.05919514 -0.11750533
000070 a5 f9 bf 3c 50 44 89 3e 00 4c 10 3d 2f 7f 06 bd
       0.02343447 0.2680993 0.03522873 -0.032836135
000080 5b 40 0d be 3b 8d e2 be bf 8a f2 bd fb cc 16 3d
       -0.13794081 -0.44248375 -0.1184287 0.03681658
000090 19 1f fc bc 1d 98 d2 3d 09 86 c8 be 38 7b fd bc
       -0.030776547 0.102829196 -0.3916476 -0.030942544
0000a0 6b ab 4c 3e f9 5c 07 be c0 e9 79 bd bd 2a 3a 3d
       0.19987266 -0.1321906 -0.061013937 0.045450915
0000b0 c9 c4 88 3c a1 bd 01 3e 3b 30 24 3e 96 01 c9 3d
       0.016695397 0.12669994 0.16034023 0.098147556
0000c0 15 04 27 b9 6b 80 ca 3d 45 43 04 3e 5e 5f d7 3d
       -0.00015927882 0.09887775 0.12916286 0.10516237
0000d0 1b a2 be bd ea 82 25 be cf c9 51 be 03 af 9a 3d
       -0.09308263 -0.16163221 -0.2048714 0.07552912
0000e0 3e 24 9e be 6e 59 2c be 31 f4 1a 3e e9 c2 1f 3e
       -0.30887026 -0.1683099 0.15132214 0.15601696
0000f0 9a 46 37 bd 29 b3 7f 3c df 53 80 3c b2 b4 5b 3d
       -0.044745065 0.01560668 0.015664993 0.05363912
000100 22 26 13 be 55 c0 0f 3c 12 fc b4 bc 72 18 36 bc
       -0.14370015 0.008773883 -0.022092853 -0.011114227
000110 5c 94 bd 3d 72 e1 8e bb 12 1a 38 bd 94 dd c6 bd
       0.09256813 -0.0043603713 -0.044946738 -0.097102314
000120 15 bb 5a 3d 22 7f f7 3d af 38 d1 3d e9 d2 67 bc
       0.05340107 0.120847955 0.1021589 -0.014149406
000130 d7 e9 e5 3d 03 8f 9c 3c 94 78 49 3e ab a1 be 3c
       0.11226242 0.019111162 0.19674903 0.023270449
000140 e7 d1 dc bc 4b 83 06 3d 8b 0f ef 3d b2 29 97 bd
       -0.026955558 0.032840054 0.116728865 -0.073809996
000150 3f 76 55 be 3a bd a3 3e 92 c7 20 bc 70 5c 91 3d
       -0.20845889 0.31980306 -0.009813206 0.07097709
000160 ba c6 9d be 90 81 c1 3d a6 1e 39 bc 50 ab 17 3e
       -0.3081568 0.0944854 -0.011298811 0.14811444
000170 64 12 96 bc cd 9b b2 bd c0 8b bb 3d b6 62 18 bd
       -0.018319316 -0.08721123 0.091575146 -0.037203513
000180 20 f2 30 3d fe 46 af 3c a5 1b 61 bd cd 9b f0 3b
       0.04319966 0.021396156 -0.054958005 0.0073427917
000190 66 05 1c 3d f7 47 29 3c ce 9a 8b be ed 0e 8f bd
       0.038091086 0.010332099 -0.27266544 -0.06985269
0001a0 60 72 31 3e f6 13 39 bd 06 da e1 bd e9 95 3f bd
       0.17328787 -0.04518505 -0.11027913 -0.046773825
0001b0 b3 3c d6 bd d8 8c 3e ba 6f 21 00 3e 5f 03 6e 3d
       -0.10460796 -0.0007268912 0.12512754 0.058108684
0001c0 a5 98 dc bc d2 51 98 3e 94 e8 5f 3d ff 9b 2a 3d
       -0.026928255 0.29749924 0.054665163 0.041652676
0001d0 2c 35 40 bc 17 c8 77 be 54 91 36 bd 79 db b6 3d
       -0.011731427 -0.24197422 -0.04457219 0.0892858
0001e0 c2 ef 69 3c 93 31 f7 bb 5f 71 ff 3c 29 09 93 3d
       0.014278354 -0.0075437515 0.03118199 0.071794815
0001f0 25 48 0a be d5 ff 19 3d 6c db 85 3e e5 d2 06 bd
       -0.13504083 0.037597496 0.26143968 -0.03291597
000200 77 f4 48 3d 7f cb 32 bd 07 20 08 be 1e 1b d4 bd
       0.049061265 -0.0436511 -0.13293467 -0.10356735
000210 9f e8 14 be e4 94 bb 3c 64 4b 25 bd ad 2e 9c 3d
       -0.14541863 0.022898145 -0.0403551 0.0762609
000220 cd f4 ed 3c 59 72 d4 3d 1e f4 55 bc 58 c0 81 3c
       0.029047394 0.103733726 -0.01305869 0.015838787
000230 a3 e5 af 3b 28 6e 7e bd f7 1a 81 3e 3b b6 9d 3c
       0.005367951 -0.062116772 0.25215885 0.019251933
000240 0c 34 e9 bd 24 1f 97 be 81 4d 06 bd fd c0 a5 bd
       -0.1138688 -0.29515946 -0.032788757 -0.0809345
000250 e7 cd a0 3c 76 04 e8 bc 6a fb a6 3e 71 26 d4 bd
       0.019629432 -0.02832244 0.3261369 -0.103588946
000260 bc 63 cf 3d 14 3e 7f 3d 45 99 3e be cb 7d 1b 3e
       0.10126445 0.06231506 -0.18613155 0.15184705
000270 9e c0 52 bd 7e e1 8c 3e 10 e0 2f bd 02 00 80 3c
       -0.051453225 0.27515787 -0.042938292 0.015625004
000280 68 3b 4f bd 0c ed 5d 3e 78 b3 9b 3e 73 f1 f5 3c
       -0.050593764 0.21672457 0.3041036 0.030022359
000290 1a ed 67 3b 7f 5f 8f 3d 7d b2 47 3d 5e a7 7b bd
       0.0035389126 0.07000636 0.048754204 -0.06143891
0002a0 e7 0a 6f be be 43 b3 3c f9 98 07 3e ba 6e 83 bd
       -0.23344003 0.021882888 0.13241948 -0.06417604
0002b0 68 68 61 3d bb 10 c0 3d 0f f1 5e be 9e 1e b1 bd
       0.05503121 0.09378191 -0.21771644 -0.08648418
0002c0 1c ae 4c bd 40 ca 94 bd 6f 3e f0 bd 77 a4 2d bd
       -0.04997073 -0.072651386 -0.11730658 -0.042393174
0002d0 e9 97 d3 3d b3 b5 a3 3d f3 f3 ad 3c 65 73 68 bc
       0.10331709 0.07993641 0.021234488 -0.014187668
0002e0 d8 50 13 3e 08 14 fb bc 2f 05 86 3d 1b d2 0b 3e
       0.14386308 -0.0306492 0.065439574 0.13654368
0002f0 83 14 f1 3d 6a 3a cb 3d 97 f5 56 3d 85 9d ae 3d
       0.117714904 0.09923251 0.052480306 0.08526138
000300 2a bb bb 3d 62 ff 5b 3d e5 7a 68 3c 22 80 19 be
       0.09166558 0.05371035 0.014189457 -0.14990285
000310 a2 00 7d be 71 9b c9 3c 18 0d 5c bd 4c 19 07 3f
       -0.24707273 0.024610253 -0.053723425 0.52772975
000320 e0 00 02 be f4 24 c2 3d 30 a4 c0 bc c7 27 e0 bd
       -0.12695646 0.094797045 -0.02351579 -0.10945087
000330 ab a2 1c 3e a5 2b 96 bc f6 42 4f bd 8b e6 d9 3d
       0.15296428 -0.018331358 -0.05060097 0.10639676
000340 ff d8 01 bd a3 6d df bc 98 b2 d3 bd cf 2f 4d be
       -0.031701084 -0.027273959 -0.103367984 -0.20037769
000350 15 86 60 bd 0f 2d 3a 3d 33 da a3 bd f8 8f ef 3d
       -0.05481537 0.045453127 -0.080006026 0.11697382
000360 aa 55 81 3d 42 6d 14 3c 1c 9c 50 3e a0 9f b3 bd
       0.06315167 0.009059252 0.20372051 -0.087706804
000370 60 35 4e 3e a2 d8 50 be 0b 8d bc 3d 74 8f 40 bd
       0.20137548 -0.20395139 0.09206589 -0.047011808
000380 1b 28 95 3a dc b9 d1 be 0d 93 a3 3d 1e 30 3d 3d
       0.001137975 -0.40962112 0.07987032 0.046188466
000390 b2 ac 17 be 94 6e 9a 3d 0a 4b e1 bd ee c1 c5 bd
       -0.14811972 0.07540622 -0.11000641 -0.0965613
0003a0 0b 8e b5 3d 05 ab c2 bd 82 25 5b 3d bb 15 f4 bd
       0.08864983 -0.09505276 0.053502567 -0.11918207
0003b0 08 83 86 3e 65 c6 e5 bc fd c2 26 3e 24 d5 db 3d
       0.26271844 -0.028048703 0.1628532 0.10734013
0003c0 93 d9 56 3d a6 47 a1 3e c9 d0 81 3d 4d 0c c0 3d
       0.05245359 0.31499976 0.06338651 0.09377346
0003d0 21 4b 3c bc 0c 02 9c bd c8 a2 40 bd 3d 17 87 3d
       -0.0114925215 -0.07617578 -0.04703024 0.06596229
0003e0 1b 27 6d be 3c 27 ea 3b c0 81 42 be 29 38 33 3e
       -0.23159449 0.0071457904 -0.18994808 0.17501892
0003f0 c9 d8 a8 bc 92 0b 0c 3e a0 c1 66 3c bc 9f db bc
       -0.020611184 0.13676289 0.01408425 -0.026809566

lstm.bias_ih_l1 f4 [256]
000000 9a 9b 80 3e 72 00 95 3e 2a ab 41 be 07 f3 20 3e
       0.25118715 0.29101902 -0.1891295 0.15717708
000010 8c f0 51 be 68 f0 2c be b9 2b 82 3e 17 d4 72 bd
       -0.20501918 -0.16888583 0.25423983 -0.059284296
000020 f0 24 6d be 2f da c4 3e 2d 12 cd 3e fb 9a 9b be
       -0.23158622 0.3844771 0.4005293 -0.30391678
000030 3f 0f 82 be e9 88 28 3d 34 6e ac be 4d af 93 be
       -0.25402257 0.041146193 -0.33677828 -0.2884468
000040 13 52 75 bd 77 d1 52 be d5 77 a1 be 5a 27 0b be
       -0.059892725 -0.20587717 -0.31536737 -0.1358923
000050 c9 95 94 3d 06 f0 a8 3d b3 dd 91 be 7c 36 2c be
       0.07255132 0.08248906 -0.28489456 -0.16817659
000060 fe f8 03 bf 85 4d 93 bd d8 23 c4 3e 0b f8 69 3e
       -0.51551807 -0.0719252 0.38308597 0.22848527
000070 dd a6 a1 be ac b4 af bd 5f 82 5d be f5 ee 5a be
       -0.3157262 -0.08579382 -0.21631764 -0.21380217
000080 b0 69 58 be ea fe 26 be ec a8 a4 be 0b a2 df bd
       -0.21134067 -0.1630818 -0.32160127 -0.10919579
000090 70 32 6a 3e c0 88 f0 bd 3d e9 2a 3e 4e bd ba 3e
       0.22870803 -0.11744833 0.16690536 0.36472553
0000a0 e5 a7 6f bd 29 0a 8f bd 2a bf 30 be 09 96 6e 3e
       -0.058509726 -0.0698436 -0.17260423 0.23299421
0000b0 9d 17 a1 be e2 95 07 be 84 46 fa bd 4b ba 6a 3e
       -0.31463328 -0.1324077 -0.12220481 0.22922628
0000c0 38 fc 6d be b1 c7 09 3e b6 84 ea bd cd a8 56 be
       -0.23240745 0.13455082 -0.11451094 -0.2096283
0000d0 09 af b8 3c fa 68 c5 bd ef 5c 86 be 86 0b 79 be
       0.0225444 -0.09639163 -0.26242778 -0.24320802
0000e0 6a 3a d3 be 91 ca 37 be dc 76 31 be 1d ff 98 3e
       -0.41255504 -0.17948367 -0.17330498 0.29882136
0000f0 99 16 c5 bd 18 38 2e 3e ad d4 44 3e 8f 7f 9e be
       -0.09623451 0.17013586 0.19221754 -0.30956694
000100 cd b9 19 bd 3c e7 a4 bf af 5b b9 3e 36 01 79 bf
       -0.03753071 -1.2883067 0.36202762 -0.9726747
000110 24 b8 dc bd a8 cb a2 3e 3b 95 27 bf 6b c5 13 3e
       -0.107773095 0.31796002 -0.6546208 0.14430778
000120 bf 25 47 3e 3e a0 1d bf fa ce 14 be d6 a5 7f 3e
       0.19447993 -0.61572635 -0.1453208 0.24965605
000130 36 f9 a8 3e f6 34 30 3e b6 12 41 3e 74 f6 ad 3e
       0.33002633 0.17207703 0.18854794 0.3397709
000140 44 bc 87 bd 65 11 ba 3e fa 45 99 3e 59 7d 71 3e
       -0.06627706 0.36341396 0.299362 0.23582973
000150 12 89 fd be db 39 83 bf 7c d6 81 3e 0a fd 99 3e
       -0.4951864 -1.0252031 0.2535895 0.30075866
000160 a2 9a 83 3e a0 9c 62 3e 8b e9 56 bf 1a 25 9e bf
       0.25703913 0.2213006 -0.8395011 -1.2355072
000170 c8 05 97 3e a0 af 83 3e e1 cf d3 3e ba 26 08 3f
       0.29496598 0.2571993 0.41369537 0.5318409
000180 08 8d 1d 3e 23 1b 8b 3e 52 96 98 3e cb 93 95 3e
       0.1538583 0.2716914 0.29802185 0.2921432
000190 11 ed cb be ba 0d 48 3e a6 d2 f7 3d b8 00 4e be
       -0.39829305 0.19536486 0.12100725 -0.20117462
0001a0 dd d3 d7 3d 5e 84 a7 3e 19 81 58 3e e8 2b 7f bf
       0.105384566 0.32718176 0.21142997 -0.9967637
0001b0 4c 57 b1 3d d8 16 b1 3e fc 48 6a 3e a3 0b ae bf
       0.08659229 0.3458774 0.22879404 -1.3597301
0001c0 36 32 95 3e a2 a5 14 3d df fc 81 3e 5b 27 97 3e
       0.2913987 0.036290772 0.25388238 0.29522213
0001d0 84 8b 1e be f1 e9 29 3e e4 f7 4d 3e e0 8c 06 3f
       -0.15482908 0.16593148 0.20114094 0.5255871
0001e0 2f a9 c5 3e 3d 42 bf 3e 77 03 b6 3e a4 f2 00 be
       0.3860564 0.37355223 0.35549518 -0.1259256
0001f0 a4 2d 23 3e db 84 69 bf a6 f0 87 bf 10 0f 8a 3e
       0.1593538 -0.91218346 -1.0620315 0.26964617
000200 a6 26 34 bd 58 d7 0a bd ec f0 5b bd 29 5d 46 ba
       -0.04398217 -0.033896774 -0.053696558 -0.00075669825
000210 89 19 8b 3d 92 f6 04 3d cb 01 31 3d 18 f0 4e 3d
       0.0679198 0.03246171 0.0432146 0.05052194
000220 35 b0 32 3d cc 5d d4 3c a6 c9 27 3d 10 7f 7e bd
       0.043625075 0.025923632 0.04096379 -0.062132895
000230 c8 1b de bc ec 1f 99 3d 93 0c ab 3b 1e 5d d3 bd
       -0.027112857 0.07476792 0.005220005 -0.10320495
000240 c4 df 9f 3c 09 0a 14 3e 40 9e 02 be 2a 72 b1 3d
       0.01951588 0.14456953 -0.1275568 0.08664353
000250 1d 0d d4 bd 27 fd 11 3d 9c c4 40 bc ba 9b 63 3d
       -0.10354064 0.035641816 -0.011765625 0.055568434
000260 42 83 f3 bc a2 d0 cd 3d 0b e0 6b bb 1e 61 80 bd
       -0.029725675 0.10049559 -0.0035991694 -0.06268524
000270 47 21 ab 3d 62 47 0b be a9 73 45 3d eb d2 3f 3d
       0.083559565 -0.13601449 0.048206005 0.046832006
000280 99 f7 48 3d c3 d7 7c bd 2c 95 ed bc 06 eb ba 3d
       0.049064253 -0.061729204 -0.029001795 0.091268584
000290 59 b2 73 3d d4 c0 a5 3d 2a 93 ac be d7 b5 34 3a
       0.059496257 0.0809342 -0.33706027 0.00068935513
0002a0 bd 49 67 3d 63 51 11 be f3 99 55 bc 6a 70 c4 bc
       0.056466807 -0.14191203 -0.013037193 -0.023979384
0002b0 3b 5a 6a bd 2a ae 85 bd 87 b7 cd 3d 60 87 cb bb
       -0.057214957 -0.0652736 0.10044771 -0.0062112063
0002c0 2e 7f 2e 3d 4a 13 02 bb ce e6 ed 3d a8 22 48 bb
       0.042601757 -0.0019847923 0.11616288 -0.0030538235
0002d0 23 fd b4 bd 1b eb c3 bd b5 1f 45 3d 41 00 5b 3d
       -0.088373445 -0.09566327 0.04812594 0.05346704
0002e0 b1 4d 13 3c f1 8c a2 bc 06 d2 a3 bc b2 3d 56 3c
       0.008990691 -0.019842597 -0.019997608 0.013076233
0002f0 1f 23 b3 bd eb 6e da 3d 1a b3 ef 3c 10 44 de 3b
       -0.08746933 0.10665687 0.029260207 0.006783016
000300 bf b0 7e 3f ea b2 d6 3e 95 7e a2 3c dc a2 39 3f
       0.99488443 0.41933376 0.01983575 0.7251413
000310 3f 84 87 bd af 38 e1 3d 4a 3d 43 3f 17 0b a6 3d
       -0.06617021 0.1099714 0.76265395 0.08107584
000320 55 16 f8 bd 96 37 55 3f 4a cf 86 3f ea 86 18 bd
       -0.121136345 0.8328794 1.053201 -0.03723804
000330 3e 5d dd 3d af a3 37 3f d7 69 f1 bd a8 10 be ba
       0.108088 0.71734136 -0.117877655 -0.0014500814
000340 b0 09 d0 3d b7 61 59 3e e0 62 45 3d 5a b4 e0 3e
       0.10158098 0.21228682 0.048189998 0.43887597
000350 39 7e 75 bd bc c1 2a 3f 59 09 4f be b0 96 93 bd
       -0.05993483 0.66701865 -0.2021841 -0.07206476
000360 51 a7 7e be 68 f3 62 3e 2f 3c 40 3f fe 5e 21 3f
       -0.24868514 0.22163165 0.7509183 0.6303557
000370 68 95 c5 bd f2 9d 0d 3e b2 29 44 3c b3 be 0f 3e
       -0.096476376 0.13829783 0.011972832 0.1403759
000380 91 3c 00 3e 65 28 01 3e 2c 2f f8 bb d5 96 33 3d
       0.12523104 0.12613066 -0.0075739827 0.043845017
000390 1d 1d 78 3f 5f d6 04 3e ab 25 d6 bd 4e 84 68 3f
       0.96919423 0.12972401 -0.10456403 0.9082688
0003a0 91 8e a1 bd 87 b7 0c 3d 2e a2 9b bb bc e9 10 3f
       -0.078885205 0.034354713 -0.004749558 0.5660665
0003b0 17 57 88 bd 1f e9 4e 3e 46 29 54 3e 66 b5 0d 3f
       -0.06657236 0.20206116 0.2071887 0.5535492
0003c0 9f 05 69 bd 17 5d d5 3e 7a 4d b4 3d 75 d2 90 3d
       -0.056890126 0.41672584 0.0880384 0.070713915
0003d0 4d 00 9e 3e 2c 10 a5 bd 08 6d 2a bd f6 e4 3d bd
       0.30859604 -0.08059725 -0.041607887 -0.046360932
0003e0 98 e9 be bd c1 a3 12 3e 7d 35 eb 3d f6 3a 3b 3f
       -0.09321898 0.1432028 0.114848115 0.7313684
0003f0 d1 a8 a3 3d 4f b9 45 3f 72 14 3c 3f 40 17 58 bd
       0.079911835 0.77235883 0.734687 -0.052756548
