checkpoints/best_checkpoint.pth (torch, 673115 bytes, 30 tensors)

lstm.weight_ih_l0 f4 [256, 19]
00000000: 13d1 083e ad61 debd 8844 bbbd 53ff 58bd
00000010: f308 f9bd c259 843e b8d6 943d f32c f53c
00000020: 38d9 6b3e 6a01 063e 1311 fe3d e00c c03c
00000030: 955c 4d3c 08dd 793d 47d4 3cbe 268e 54be
00000040: ff35 f0bd 2fd5 6bbd d431 82be b5ad 913e
00000050: 075b 933d e185 083d 8ca8 cabd 95b4 57bc
00000060: 2b75 853d bcd6 003d 024c 203e d859 023e
00000070: 1b8f 233e eb3a 623d 6ffa 383d dd88 afbd
00000080: 3e8f 9abd dd9f 503c 84e3 053e 862c 173e
00000090: dc73 39bd ae69 ec3c fbed 5b3d d68c 42bd
000000a0: 43e1 103d 0d0f 653c 0b66 a03e b17e 8cbd
000000b0: d8fb a33e 1088 8ebe 9c10 353e 1352 813e
000000c0: 35bf 103e f328 0f3d 8c36 d5be c6b8 13be
000000d0: 53f6 1cbf 71e3 c0be 89e8 96be 4afb b73d
000000e0: 3f23 a3bd 0562 513c 9192 1fbe 7bed 25bb
000000f0: f4d1 8b3d 098c d13e 6459 263e 8244 ce3d
00000100: 306f a1bd 72f9 a23d 07c1 743e 7096 343c
00000110: 28fe 993d 3632 82bd d0ce 973c 3db9 0f3e
00000120: aa30 2a3e ffd2 2dbe f0bb 2b3e a224 54be
00000130: 9ba4 a53d 4406 89bd 3b38 9dbd 38b4 5dbd
00000140: 0ccf a93d 0b6b 093e 2372 e83d fb65 933e
00000150: 47cc fd3d 099e ae3c fdaf eb3d 7b10 9fbd
00000160: 1c64 5fbd c823 c43d cac3 9bbc fd52 8bbd
00000170: 1ce6 353e 4271 d23c c6dc 8c3c 3820 fdbe
00000180: 47aa 0fbe d421 a4bd d0e4 61bd c078 04be
00000190: e9d1 4f3d 87c4 083e 7bf3 253e 84a0 433e
000001a0: 5cd9 9a3b 2771 ebbd 6f07 82be 9cf2 893e
000001b0: af69 64bc db60 563e 9cc1 fe3e 2190 a33d
000001c0: 495b 5d3e d9a3 d73d acda 27be c727 5ebd
000001d0: 08da 94bd 4fe7 36be 0bc4 e2bd 0af1 1c3e
000001e0: 87ba b1bc 90a1 7c3e 3f03 213e e120 043e
000001f0: a1ec d23d 66b0 6a3c be26 19be 9ccb 333e
00000200: 4e0f 43be 10fd 893e 6b97 eabc e508 313e
00000210: 8453 5cbd 2b57 29be 57c6 473d e30b 933d
00000220: 3738 52bd 4966 a63d cd88 9ebc ef1c a13e
00000230: 9f4e 7cbd a682 cc3d ccf0 053e 0381 a13d
00000240: 62f8 60bd a6f8 1f3e 9ba4 9dbd 8657 c63d
00000250: c1ea 1f3d 0ad1 1dbe 015c 3cbe 2d63 9f3d
00000260: 9c71 0f3d 2ff1 5cbd 8422 4b3d e0ed 98bd
00000270: fadb 843b 0ec0 6b3e 0001 233d 01fb fe3d
00000280: 5ae0 3d3d e3f6 1dbd afbb 4c3e f63a a9bd
00000290: 40a2 103e ccac 993d a2b1 42be 3a89 413c
000002a0: 04af a23d ada6 293c 7bdc 193e 74d5 84bd
000002b0: 4e18 e3bc 60f8 60bd 3321 803b e9cb 67bd
000002c0: f11e 383e 5bd0 513e 60e9 313e 08c9 903d
000002d0: a6d6 f23d 87af 77bd b104 bd3e 52f7 88be
000002e0: 61ed 873e 513f 28bf b7a8 8bbe cd93 43be
000002f0: 6420 7e3e 82eb 04be db02 163e 7ca2 a1bd
00000300: 3ebb 1dbe ed77 f2bd 8003 c3bc 8732 293e
00000310: 830b 9b3d 6c56 8d3e 6a46 9e3d 97e1 803e
00000320: f6b1 0b3e cd6e 9e3c f2ec 3a3e 65a4 8abc
00000330: 8b9c 71be 5212 99be 65f3 a03e c805 6bbd
00000340: fb38 803e 6695 5fbe fc49 223d 9b66 f1bd
00000350: 20bc b8bd 15ba c73c 8443 c03d 750d dd3d
00000360: 152c a43e 1e29 99bc da3a 68bc 9953 b03d
00000370: f811 6abd 9398 853d f8be 83bd bec1 a4bd
00000380: b904 83bd ecf3 4abe 88d7 a6bd 8149 c4bd
00000390: 4dd3 acbe 0444 52be f5d0 593c 977c debd
000003a0: ee86 383e 06d3 83bc 2d1e b13d 8108 863e
000003b0: c0d2 bebb 48f0 8f3d 35a9 cfbb b115 89be
000003c0: 2e98 71bd ed1b 53bc cb98 60bd df13 3a3e
000003d0: 520b 44be 1c67 77be d889 8c3c e292 bbbd
000003e0: 4809 9a3d ecef 0c3d 3331 5fbc 1292 1c3c
000003f0: c809 3b3e 2c71 8c3d 2cd8 8d3e ed01 0e3e
0.13361005 -0.10858474 -0.09143931 -0.05297787 -0.1215991 0.2584973 0.07267517 0.02992866
0.23032081 0.13086477 0.124056004 0.02344364 0.01253428 0.061001807 -0.18440352 -0.2075735
-0.11729049 -0.057576355 -0.2542864 0.2845284 0.071950965 0.033330802 -0.09895429 -0.013165613
0.06516489 0.031454787 0.15653995 0.12729585 0.15972559 0.05523197 0.045160707 -0.085710265
-0.075468525 0.012733427 0.13075072 0.14763078 -0.045276508 0.028858986 0.053693753 -0.047497593
0.035371076 0.013980639 0.31327853 -0.06860102 0.3202808 -0.27838182 0.17682117 0.2525793
0.1413544 0.03495116 -0.41643178 -0.14425954 -0.6131336 -0.37673524 -0.29474285 0.089834765
-0.07965707 0.012779717 -0.15583254 -0.0025318551 0.06827155 0.4092715 0.16245037 0.100716606
-0.078825355 0.07957734 0.23901759 0.011022195 0.075191796 -0.06357233 0.018531233 0.14035507
0.16620126 -0.1697502 0.16770911 -0.207171 0.080880366 -0.06690648 -0.07676741 -0.054126948
0.08291444 0.1341974 0.11349895 0.28788742 0.123924784 0.021315591 0.115081765 -0.07766815
-0.05453883 0.09577137 -0.019014258 -0.06802938 0.17763561 0.025688771 0.017195117 -0.49438643
-0.140298 -0.08014265 -0.055149853 -0.12936687 0.050737295 0.13356219 0.16206162 0.191042
0.0047256183 -0.114961915 -0.25396296 0.2694291 -0.013941213 0.20935385 0.49757087 0.07986475
0.21616854 0.10529298 -0.1639201 -0.054237153 -0.07268149 -0.17861675 -0.110725485 0.15326324
-0.021695388 0.24671006 0.15723895 0.12903167 0.1029904 0.014324283 -0.14956185 0.1755814
-0.19048807 0.26950884 -0.028636655 0.17288549 -0.053790584 -0.16537158 0.048773136 0.071800016
-0.051323142 0.08124978 -0.019352341 0.31467387 -0.061598416 0.09985857 0.13080138 0.07885935
-0.054924376 0.15622196 -0.076974116 0.096846625 0.03904224 -0.15411773 -0.18394472 0.07782588
0.035020456 -0.053940948 0.049593464 -0.07467246 0.0040545436 0.23022482 0.039795876 0.12450219
0.046356536 -0.038565528 0.1999347 -0.08263199 0.14124393 0.075036615 -0.19013074 0.0118125025
0.07943538 0.01035468 0.15025513 -0.064860255 -0.02772155 -0.05492437 0.0039102077 -0.05659095
0.17980553 0.20489638 0.17374182 0.07069594 0.11857347 -0.06047013 0.36917642 -0.2675119
0.26548293 -0.65721613 -0.27277157 -0.1909935 0.24817044 -0.12980464 0.14649527 -0.078923196
-0.15403458 -0.1183928 -0.02380538 0.16523181 0.07570555 0.27604997 0.07728274 0.2517211
0.13642105 0.019339943 0.1825445 -0.016924093 -0.23594873 -0.2989679 0.31435695 -0.05737856
0.25043473 -0.21834335 0.03962134 -0.117871486 -0.09020257 0.024380723 0.093878776 0.10793582
0.32064882 -0.018696364 -0.014174188 0.08609695 -0.057146043 0.06523242 -0.06432909 -0.08044766
-0.06397385 -0.19819611 -0.08146578 -0.09584332 -0.3375496 -0.20533758 0.013294448 -0.108636074
0.18020222 -0.016091835 0.08648334 0.26178363 -0.005823463 0.07028252 -0.0063373097 -0.26774362
-0.05898302 -0.012885076 -0.054833215 0.18171643 -0.19144943 -0.24160427 0.017155573 -0.09158875
0.075213015 0.034408495 -0.01362257 0.00955631 0.1826545 0.06857523 0.2770399 0.13867922

lstm.weight_hh_l0 f4 [256, 64]
00000000: ea7b cebd bc0e d13c 3658 98be 6db5 cf3d
00000010: 326e 293d 0e50 153e 8368 f4bd e3ce c73d
00000020: 98c8 cc3d ba61 9f3e 971c bdbd 66ac 8dbd
00000030: d9b0 93bd a7e1 08be 5f7c 09be ef92 963d
00000040: d366 20be 5dba b2bd 1b89 babd 8e6c 10be
00000050: 33ed 2abd 55e5 933e 5c62 133d 05af 8d3d
00000060: eb4c 463d fca2 8f3e 6569 f33c 3edc 50bc
00000070: 3c45 52be 71b2 c73d 204f c93c 031b a4bd
00000080: 9174 5a3c 0ee5 403d 0fc8 e4be 5a4d 013e
00000090: 12b1 bb3d 9de6 cc3d e974 803d b6aa fa3c
000000a0: 5a24 f4bd e929 3d3e 2b73 833e 6df8 343e
000000b0: c9ca 333e 6ea2 a23a 4ddd 163e eac0 b7bd
000000c0: 12e9 f9bd 98de 843e 7fe7 01bd 70f4 84be
000000d0: ee19 0d3e 477d 9ebc a4a9 1b3b dd0e 983d
000000e0: 675e 96bd 2dc9 063d c2c7 b33d 9383 a63c
000000f0: 4d74 b1bd f465 d8be fad2 b0be 7f78 22be
00000100: 7a55 8cbe e800 f2bc 2ad5 083e f228 14be
00000110: 7f7f cd3d 5d4c 28bc a476 99bd d875 c6be
00000120: 7386 463e 86a2 9b3c 5fa9 523d d3f3 12bd
00000130: ba7e 733e bba2 6a3e d77e fa3d 5f0d 99be
00000140: 968b 73bd 96bc 123e c0a2 71be c094 5b3e
00000150: 0535 17be 073f 9e3d cc04 3b3e f01e ba3e
00000160: c3b2 72be 5f43 683e f699 593d d2ed 843c
00000170: fc04 12bd 7321 1e3e a1dd 823e 3f23 9abe
00000180: 73ea 0bbe 2340 dcbd ff64 3c3e c4e0 d1bd
00000190: 132b 793e 2063 8b3e 1c8c 14be bd5b 8b3e
000001a0: cff4 99be 6561 7fbe 2f15 183e 2168 643c
000001b0: be9b 813e e39c 42be 3ae4 153e 24c1 b7bd
000001c0: 17a2 8a3d 1076 ac3d 09ed 09be 758f efbd
000001d0: 8683 47be f49c 7f3e f2f5 863d ea28 a63d
000001e0: 69a3 c63d cb52 19be 130f 353e 801b 393e
000001f0: 07c0 d5bd 0d43 0bbc 32ce 57be 87d7 74be
00000200: e26a e9be 8a7e b13d 5714 5cbe 4b99 083f
00000210: 402d 213e 5846 a1be 7a3c 313e ca4e debe
00000220: e6e7 ad3d 10c8 633e 2883 b9be c72d 67be
00000230: 5b34 b9be 0e3f 0c3e 9c9d a03e 14e1 7ebe
00000240: 3205 bcbc 7120 7f3e 9f68 25be fbef 26bd
00000250: 410d b5be 2b67 653c 81f5 313e 48be cbbd
00000260: 7cdc 843d bba1 233c 0127 143e 167e 32be
00000270: 2c11 043c fcc0 933e 450d 653e 5b3f febd
00000280: 16a7 0ebc c972 86bd e1f6 eabd 5428 dabd
00000290: 18e2 4fbf 3a00 053e aebe edbe 4fe8 4f3e
000002a0: b608 dbbe 289c 43bf bf5e 863d 5ba6 acbc
000002b0: 0f4a 1c3f fc8d 0c3d 5361 4dbe 8bc2 b7be
000002c0: 22eb c0bd c3c7 d53e 68fa 1d3d b63e e1be
000002d0: c0bd 263d 14d8 613d 1bc3 3abd 4491 303e
000002e0: 2594 433e fee5 85be 87ed fa3e 5ffe 893e
000002f0: 4e30 d5bb 5bdb 113f b52c a53d eb6a c8bd
00000300: e189 a8bc 4202 47be 5211 ca3d 1583 2b3e
00000310: fa4a 12be f9b8 b83d b16a 0c3e a2cc 873e
00000320: faa0 01be 50cc 233c cb64 8a3e 33fc 843b
00000330: 1579 14be 86e9 cf3d f9ff 52be 9002 81be
00000340: aaa9 9dbd 4288 7cbd dc46 6c3e dbae 61be
00000350: d727 bdba 884a bdbd 810e 8abe 9d7f abba
00000360: b0fb 843c 2f3b eabd fce6 9a3c f650 ccbd
00000370: 7ed6 bb3b 2d51 c3bd a5f4 14be f694 78be
00000380: 9c6e 88bc 9b21 943e cde5 a0be 0ddd ac3e
00000390: be4d 5abe c864 e4bd 50fa 9abd d4da 5fbe
000003a0: 47d0 18be 42d8 31bf f59a 6cbe 5eab 663e
000003b0: c206 d6bd c90d 223d 4ba2 173e 6535 a4bd
000003c0: 568e 40bd 372e db3e 773c 08be 21cd 80be
000003d0: 84e7 85be 9caf b63d 3346 acbc 5cee af3b
000003e0: 7da9 25be 8d9c e2be 3f6c 4ebd c044 a43e
000003f0: 9198 673e 9077 503e 3d03 173e 0b40 32be
-0.100822285 0.025519721 -0.297548 0.10142026 0.041364856 0.1458132 -0.119339965 0.097562574
0.09999198 0.31129247 -0.09233969 -0.06917648 -0.072114654 -0.1336733 -0.1342635 0.07352244
-0.15664224 -0.08726952 -0.09108182 -0.1410391 -0.041730117 0.28885904 0.035982475 0.06918148
0.0484132 0.28054035 0.029713342 -0.012747822 -0.20534223 0.09750832 0.024573863 -0.080129646
0.013333456 0.047093444 -0.44683883 0.12627164 0.09164633 0.100049235 0.06272299 0.03059898
-0.11920996 0.18473019 0.25673804 0.17672892 0.17557825 0.0012408027 0.14732857 -0.08972342
-0.12202658 0.25951076 -0.031714913 -0.2596774 0.13779423 -0.019346846 0.0023752237 0.0742471
-0.073422246 0.0329067 0.08778335 0.020326411 -0.08664761 -0.42265284 -0.34535962 -0.15866278
-0.27408963 -0.029541448 0.13362566 -0.14468744 0.100340836 -0.010272113 -0.07493332 -0.38761783
0.19387226 0.018998396 0.051431056 -0.03587706 0.23778811 0.22913639 0.12231224 -0.29893014
-0.05945929 0.14329752 -0.2359724 0.21443462 -0.14766319 0.07726865 0.18263549 0.36351728
-0.23701005 0.2268195 0.053125344 0.016226683 -0.035649285 0.15442447 0.25559714 -0.30105016
-0.13663654 -0.107544206 0.18397902 -0.10247949 0.24332838 0.27224064 -0.14506572 0.27218428
-0.30069587 -0.24939497 0.14851831 0.013940842 0.25314134 -0.1900516 0.14637843 -0.089723855
0.067691974 0.08420956 -0.13469328 -0.11697284 -0.19483766 0.24962217 0.06589879 0.081132725
0.09699137 -0.1497299 0.17681532 0.18076897 -0.10437017 -0.008499873 -0.21074751 -0.23910342
-0.45589358 0.086667135 -0.21492134 0.53358907 0.15739918 -0.3149898 0.17308226 -0.43419486
0.08491497 0.22244287 -0.36232877 -0.22576056 -0.36172757 0.13695928 0.31370246 -0.24890548
-0.022951696 0.24914719 -0.16153191 -0.040756207 -0.35361674 0.014001648 0.17378809 -0.09948403
0.064873666 0.00998729 0.14468004 -0.1743091 0.008060735 0.28858173 0.22368343 -0.12414428
-0.008706829 -0.06564862 -0.1147287 -0.10652223 -0.81204367 0.12988368 -0.4643454 0.20303462
-0.42780083 -0.7641015 0.0656104 -0.021075418 0.61050504 0.034315094 -0.20056657 -0.35890612
-0.09419848 0.4175397 0.038568884 -0.43993157 0.040708303 0.05513771 -0.045596223 0.17242914
0.19099481 -0.26152033 0.49009344 0.26951882 -0.0065060025 0.56975335 0.08065168 -0.09786018
-0.020573558 -0.19434455 0.09866585 0.16749223 -0.14286414 0.09019656 0.13712575 0.2652331
-0.12659064 0.009997442 0.27030024 0.004058385 -0.14499314 0.10151963 -0.20605458 -0.25197268
-0.076983765 -0.061653383 0.23073906 -0.22039358 -0.0014431429 -0.09242731 -0.2696419 -0.0013084296
0.016233295 -0.114370696 0.01890897 -0.099763796 0.0057323566 -0.095369674 -0.1454645 -0.24275574
-0.016654305 0.2893189 -0.31425324 0.33762398 -0.21318719 -0.11152035 -0.075672746 -0.2186082
-0.14923202 -0.6947061 -0.23105986 0.22526309 -0.10450508 0.039563928 0.14808004 -0.08017997
-0.047010742 0.42808697 -0.13304316 -0.251565 -0.26153195 0.089202136 -0.021029567 0.005368991
-0.16177936 -0.44260064 -0.0503962 0.32083702 0.22616793 0.2035811 0.14747329 -0.17407243

lstm.bias_ih_l0 f4 [256]
00000000: cbcb a83d a836 3cbe ef39 b6be 8c5a 98be
00000010: 1dfa 92bd c9e1 0cbc d6d1 6fbe 94fa d4be
00000020: bfb1 94be 1a42 c3be b71d 31bf e5cf 0bbe
00000030: cdea 38be 9c88 6dbe 1da6 f6bd 50ab 45be
00000040: a6c5 22bc 3e85 74be e04d 41be b65d bdbe
00000050: 6d28 6bbe d8a1 c9be 7c5e 90bd bf21 3dbe
00000060: af3a 63be 35b3 4dbe 1c34 7fbd 6dae 1fbe
00000070: 50ef 43bd 186b b53d 8c46 34be de99 0bbf
00000080: 75fd 113d 3138 a8be c5cf 00be 65d6 e9be
00000090: 501b e2be c6ad 1dbe 2308 65be e2f8 ddbe
000000a0: fc85 8ebc 51f5 a7be c137 a1be 7676 0ebf
000000b0: f0fc 2dbe 4ff0 aebe a21d d4be cd5e 98be
000000c0: 66d6 483f 93a5 5a3e b7fc 02bf 40fc 9abd
000000d0: f9af babe ce3c f1bc 7470 65be 7076 50be
000000e0: 0539 b1be 64e1 a8be f55b aabe 8be0 0fbe
000000f0: b0b1 bfbd f318 22be 9496 0abe e019 05be
00000100: dc61 0b3e dc98 f03c 4b34 1cbf 3b3a dc3c
00000110: c15a 093e 12ba e9be 3efc b83c 46e8 e03d
00000120: b391 473e b751 4c3e 4c7c a8be 1023 8cbe
00000130: 6bbc d0be a551 7dbe b73e 45be 31dd ccbe
00000140: 3a22 61be b16f 2bbe 3eb9 42bd 1689 8fbe
00000150: 0df6 3abe 6926 d13d 97e4 0dbd 9efd 83be
00000160: 4e4b 34be 11a2 f13a 25f3 26be d876 87be
00000170: ac2f 4ebd 5df3 8fbe 911f c13d 5c7b d6bc
00000180: d18d f2bd 2e4b 6b3d 1e7d c9be 8601 6a3b
00000190: 9cdc 03bf 5af2 8fbd 3464 d6bb 2252 49bd
000001a0: 83ff 8f3d e418 b03d 084d 5fbd 307f 57be
000001b0: 708b 473e d309 d23d 2ba4 5ebe 2c5f 79bd
000001c0: 2ec9 0b3d 4185 dcbd 8dfe 91be 17c1 61be
000001d0: ea32 29be 191b 163c 6523 83be f82a 13be
000001e0: 0129 55be 9ada cdbe 65d6 903d 1dea 25be
000001f0: 7dba 25bd 54aa 0ebe 9e24 a53c e06d ce3d
00000200: 4144 66bd 4250 a33d b193 053d 76c7 9abd
00000210: 771b c13d f7fa f93d 835f 6d3c 93bc 243a
00000220: af93 5c3e d5fd d4bb c6dd 0c3e 7e93 963d
00000230: c3a9 de3d 4d39 4dbc 4ad1 333e dbf0 c23d
00000240: b601 28bd ec2b 24bc 4811 f63d 1d54 3f3d
00000250: c666 0cbe 867a 073e 7e50 043e 8552 803b
00000260: 4204 0bbe dfc7 5abd 37b4 a53d 6463 efbc
00000270: 97ec 483d e61a db3d cd65 8e3d 6b72 8e3d
00000280: 9ced ddbc 2f78 663d 2ef0 8dbb 8e71 adbd
00000290: 0ac8 633c 2f8e dbbc 3961 a53c 8558 2abd
000002a0: 4a04 843e e08d 5f3c 2fb7 46bd 4512 07bd
000002b0: 5da9 6bbe dc5d 5f3b 859d edbc 9738 143e
000002c0: 996c 113e c9bf 073d 3706 bc3d 8dd2 2abd
000002d0: 6c65 eebb e076 493c 825a 023e 0478 a73c
000002e0: 8fc9 f3bd d0b9 843d 2ff0 9c3c d852 f73c
000002f0: e51c 41bd f421 dbba 116c ee3d 6bb9 17bc
00000300: 2d66 3e3e bbc8 a6be 27ae 97be 8685 a4bc
00000310: f688 11bc e717 3ebe 9367 5bbe 9fb3 edbe
00000320: abd3 0d3d d8f6 d0bd af11 cfbe 0c16 26bc
00000330: a8e1 94be f09d efbe 65fd 89be a242 6abe
00000340: 708d 143e a5ea 3abe 5bfc 05be 40dc c1be
00000350: bc02 a9be 1c10 50be 030f 0fbe 3287 bcbd
00000360: 8d38 95be d434 b2be eba7 c6bd 259c d1be
00000370: 9089 fdbc 88b4 e23d 2105 643d 5e50 71be
00000380: ce3d 393d 7209 06be ddd8 22be 0bfb c2be
00000390: 77e4 a6be 3d2a a7bd 98a4 56be c39a d0be
000003a0: f1fe e5bd fd36 c3be 4771 bfbe 69b4 0ebf
000003b0: 6694 81bd 50bb 71be 7b58 03bf ad15 b0be
000003c0: bf3e 19bc bd70 813e 94d0 25bf ba3b e6bd
000003d0: 7810 8ebe f3b9 f43d d822 86bd ca57 9ebe
000003e0: 73d0 82be 3b0a 56be 11c0 08be 90a0 95be
000003f0: c30e 09be 2dc6 a0bd 20bc e1bc 2c71 18bd
0.082419954 -0.18380225 -0.35591075 -0.29756582 -0.071766116 -0.008598753 -0.2341989 -0.41597426
-0.2904186 -0.3813637 -0.69185966 -0.13653524 -0.1805832 -0.23196644 -0.12043402 -0.19303632
-0.009934818 -0.23878953 -0.18877363 -0.36985558 -0.2296464 -0.3938129 -0.070492715 -0.18469904
-0.22190355 -0.20087893 -0.062305555 -0.15593882 -0.047835648 0.08858317 -0.17605036 -0.5453166
0.035642106 -0.3285537 -0.12579258 -0.45671383 -0.44161463 -0.1539832 -0.22366385 -0.43353945
-0.017397873 -0.3280435 -0.3148785 -0.5564951 -0.16991019 -0.34167716 -0.41428858 -0.29759827
0.78452146 0.21352224 -0.5116686 -0.07567644 -0.3646238 -0.02944794 -0.22406179 -0.2035768
-0.34613815 -0.3298446 -0.33273283 -0.140505 -0.09360063 -0.1582983 -0.13534003 -0.12998152
0.13611549 0.029369764 -0.6101729 0.026883235 0.13413526 -0.45649773 0.022581216 0.10981803
0.19489174 0.19953047 -0.3290733 -0.273705 -0.40768752 -0.24738176 -0.19262205 -0.40012506
-0.21985713 -0.16741826 -0.047539942 -0.28034276 -0.18257923 0.10212404 -0.03464183 -0.25779432
-0.17606851 0.001843514 -0.1630369 -0.26457858 -0.050338432 -0.2811536 0.09429849 -0.02618187
-0.118434556 0.057444744 -0.3935327 0.0035706474 -0.515085 -0.07028647 -0.006542707 -0.049150594
0.07031157 0.085984975 -0.054516822 -0.21044612 0.19486785 0.1025578 -0.21742313 -0.06088178
0.034127407 -0.10767604 -0.2851452 -0.22046314 -0.16523328 0.009161734 -0.2561294 -0.1437186
-0.20816423 -0.40205842 0.070721425 -0.16202588 -0.040461052 -0.13932163 0.020159062 0.10079551
-0.056217436 0.07974292 0.032611553 -0.075575754 0.09429067 0.12206071 0.014488104 0.0006284203
0.21540712 -0.0064999857 0.13756475 0.07352351 0.10872223 -0.012525869 0.17560306 0.09518596
-0.041017257 -0.010020237 0.12015015 0.046711076 -0.1371108 0.13230333 0.1292133 0.003916087
-0.13575843 -0.05341327 0.08091014 -0.029222198 0.049053755 0.1069849 0.06953011 0.06955417
-0.02709084 0.05626696 -0.00433161 -0.084689245 0.0139026735 -0.026801197 0.020187961 -0.041588325
0.25784522 0.0136446655 -0.04851454 -0.032976408 -0.23013826 0.0034083044 -0.029005775 0.14474712
0.14201583 0.033141885 0.09180873 -0.041704703 -0.007275274 0.012296408 0.12729838 0.02044297
-0.119036786 0.064807534 0.019157497 0.03019087 -0.047146697 -0.0016718493 0.11641706 -0.009260516
0.18593664 -0.3257502 -0.29625055 -0.0200832 -0.008882752 -0.18563806 -0.21426229 -0.46426103
0.03462569 -0.10203332 -0.4044318 -0.010137092 -0.29078412 -0.46800184 -0.26951137 -0.22876981
0.14507079 -0.18253572 -0.13084547 -0.3786335 -0.330099 -0.20318645 -0.1397057 -0.09205474
-0.29144707 -0.3480593 -0.096999966 -0.4093944 -0.030949384 0.1106959 0.055668954 -0.23565814
0.045224957 -0.1308954 -0.1590304 -0.38082156 -0.3259618 -0.08162353 -0.20961225 -0.40743074
-0.11230267 -0.3812789 -0.3739111 -0.55744034 -0.06327133 -0.2360661 -0.51306885 -0.34391537
-0.009353339 0.25281325 -0.6477139 -0.11241861 -0.2774694 0.119495295 -0.06549615 -0.30926353
-0.2554966 -0.2090234 -0.13354518 -0.29224062 -0.13384537 -0.07850299 -0.027555525 -0.037217304

lstm.bias_hh_l0 f4 [256]
00000000: 23af f1bd e0dc 63be 14b5 8ebe bb12 9bbe
00000010: e2cd 9bbd c727 bdbd b3b7 50be 205e b4be
00000020: 75b3 9ebe e153 f1be 65e7 01bf 4bf1 9ebe
00000030: 401c aebe 27a5 d4be 25b9 2bbe 9e39 58be
00000040: bd5d e4bd 58c6 1ebe 4630 92be 62ec eebe
00000050: b2c4 3ebe a744 c3be b760 03be 2c3f 8ebd
00000060: cda0 83be c220 b9be db53 f7bd 5a3b 04be
00000070: 5ca8 c53d 5ef2 1abd 8967 13be 00d9 f5be
00000080: f654 c5bc a25b 8cbe e01c 39bd 2240 cdbe
00000090: f8fb 88be 0fe4 0abe cf76 0dbe 17b1 0bbf
000000a0: b814 34be da6c f2be 7a78 7bbe c7cc c2be
000000b0: c936 30be f52f 9bbe 9431 12bf 038b 94be
000000c0: 1009 3f3f 2643 043d c186 04bf caff 03be
000000d0: 3aed cfbe 0c7c d5bc d8c1 86be abd0 d5be
000000e0: 5d3e 86be 93ff 58be e8f2 15be b16f a8be
000000f0: e588 a1be c31a 8ebe c3b6 45be ea9e d9bd
00000100: 6edf 563d 3a58 f3bd 4f12 14bf 5241 1d3c
00000110: 8e06 113e f8f9 a3be dc3f 94bd c52d 0cbd
00000120: c9d2 ad3d fc23 2e3e bfb8 08be 3588 34be
00000130: 2013 d4be c189 28be 4730 b6bd 42d0 a8be
00000140: 4b8b b8bd 569d bebd 246b a7bd e24d 44be
00000150: 683a 91bb 4b76 46bd 348e 0dbe b4cd 80be
00000160: 6c27 c6bd cef7 0dbe 310f 9ebe 3d10 97be
00000170: e279 99bd 4160 6ebe 6bce 0ebd 7f84 dcbd
00000180: 1d3c efbd 7a3d b1bc 2816 15bf b884 a3bd
00000190: 604f c9be 0f08 ff3c aa5d a4bd 5129 ebbd
000001a0: b0cd 6fbd 1133 0ebd 8fc4 5bbe 205f 70be
000001b0: d2d7 6c3e 1cde 9c3d 5722 cbbe 9506 63be
000001c0: 658c fcbd fb64 31bd 7305 ebbe c15e 0abe
000001d0: 4079 0fbe e1d8 fdbd 3014 b6bc 3be3 19bd
000001e0: 2b70 e5bd 9f74 cbbe 3def 693c 78a9 8abe
000001f0: 6be3 06be 7ed1 3bbe 1435 4abe 530c 303c
00000200: e6ed 053e 1bd7 243d 2a51 893d 63d3 fc3c
00000210: 48ab 3cbd 666e adbc 9ff1 75bd d6df 6bbc
00000220: 70ff 8d3e f917 ad3c c171 513c 5838 a2bc
00000230: b442 953c 685e 963d 19c9 1d3e ef64 823d
00000240: d2ef ea3b 12a4 0dbc 6898 fc3c ec0e 96bc
00000250: ec17 8abd ee62 5d3e a26a 353d 47d4 f03c
00000260: 815e 92bc 29f5 55be 74ed 923d ea92 3cbd
00000270: d6fe 95bd e87f e9bd 7c71 98bd c694 b03c
00000280: bda7 8dbd d826 3c3e feb7 f6bb 29d3 cfbd
00000290: b415 ebbc 4e1a 31be 71ed 033e a4b1 d53d
000002a0: 777f 903d b172 5a3e 3d2f 2b3d 2096 25be
000002b0: 259d 7abe 389e 173e 801f 7ebd b9ca 6c3e
000002c0: 6cae 033e 5906 afbd 8ecd 463e 46f6 433e
000002d0: 40ce aabd 3215 f13c b7fb 46bb eed9 953d
000002e0: c56b b3bb 70d1 25bd a309 39bd ef5b 48bc
000002f0: 0576 a8bd 2dbb fcbd f849 9a3c d522 793c
00000300: fe2d 393e c3c0 56be 2eca 6cbe 2ed2 3cbe
00000310: 9a69 bc3c c265 84be a873 e0bd 4995 e0be
00000320: c732 113e 4a90 1f3d 0244 c4be 95b2 2cbc
00000330: 06b9 1cbe ed3a e5be a424 9ebe 1393 93be
00000340: 938e e83c a9f1 f53c b6d4 60be a4e5 e7be
00000350: 8b3b c6bd 897b a6be e0f0 8fbd e1f6 1dbe
00000360: d61c bdbe 4df8 50be bccc 43bd a4de a0be
00000370: 69b5 023d 804a a8bd edd2 a33d 28d6 a8be
00000380: 3513 043b 7f41 28be 1d9d 3ebe 3c1e b3be
00000390: a43c f4be c71f a4bd 0af1 64be 0b73 aebe
000003a0: bd72 643c 517f 29be bcb0 4ebe f278 2abf
000003b0: 9083 b83c 805d 56be 0a5b f6be ac3a 94be
000003c0: b3a3 923d c305 343e 9e80 4cbf f7df 883c
000003d0: a8c2 eebe c24c 35bd c32a 3cbe 73dd 02be
000003e0: aa86 39be 5b62 b3be 2f74 04be 376b 56be
000003f0: c279 edbd 448e 24be 5a2e e8bc b3d7 cd3d
-0.11800983 -0.22252226 -0.27872527 -0.30287728 -0.076076284 -0.092361026 -0.20382576 -0.35228062
-0.3099629 -0.47134307 -0.50743705 -0.31043467 -0.34005928 -0.4153225 -0.16769846 -0.21115729
-0.11150692 -0.1550535 -0.28552455 -0.4666472 -0.18629721 -0.38138315 -0.12829863 -0.06945643
-0.2570862 -0.36157805 -0.12076541 -0.12913266 0.096512526 -0.037828796 -0.14394964 -0.4801712
-0.024088364 -0.2741366 -0.045193553 -0.40087992 -0.26754737 -0.1356356 -0.13814853 -0.5456709
-0.17586029 -0.47348672 -0.24557677 -0.38046858 -0.17208399 -0.30310026 -0.571069 -0.29012308
0.74623203 0.0322906 -0.5176812 -0.12890545 -0.40610677 -0.026060127 -0.26319766 -0.41760764
-0.26219454 -0.21191244 -0.14643443 -0.32897714 -0.31549755 -0.27754793 -0.19308 -0.106260136
0.052459173 -0.11882062 -0.57840437 0.009598093 0.14162657 -0.3202665 -0.07238743 -0.034223337
0.0848747 0.17005914 -0.13351725 -0.17630084 -0.4142084 -0.16458799 -0.08895927 -0.32971388
-0.09010943 -0.09307353 -0.08174732 -0.19170335 -0.0044320114 -0.048452657 -0.13823777 -0.2515694
-0.09675488 -0.13864061 -0.30870965 -0.29504576 -0.074939504 -0.23278905 -0.034864824 -0.10767459
-0.116813876 -0.02163576 -0.5823693 -0.079842985 -0.3931837 0.031131772 -0.080256775 -0.1148249
-0.05854577 -0.03471667 -0.214617 -0.23473787 0.23129204 0.076595515 -0.39674637 -0.2217048
-0.12331466 -0.043309193 -0.45902595 -0.13512708 -0.14011097 -0.12394882 -0.022226423 -0.03757022
-0.11203035 -0.39737412 0.01427823 -0.2708242 -0.1317269 -0.18341634 -0.1974681 0.010745126
0.13079032 0.040244203 0.06704934 0.030862516 -0.046061784 -0.021170806 -0.06004488 -0.014396628
0.27733946 0.021129595 0.012783469 -0.019802257 0.018220283 0.07342225 0.15408744 0.06366908
0.007169702 -0.008645074 0.030834392 -0.018317662 -0.06742844 0.2161977 0.044291146 0.029398097
-0.017867329 -0.20894302 0.07174197 -0.046038546 -0.07323997 -0.11401349 -0.074435204 0.021555316
-0.06916759 0.18374193 -0.007529258 -0.101476975 -0.028696872 -0.1729519 0.12883545 0.10434273
0.07055562 0.21332814 0.041793097 -0.1617055 -0.24474008 0.1480645 -0.06204176 0.23124208
0.12859505 -0.085461326 0.1941435 0.19136915 -0.0834012 0.029429052 -0.0030362436 0.073169574
-0.0054754936 -0.04048294 -0.045175206 -0.01222895 -0.082256354 -0.123403884 0.0188341 0.0152060585
0.18083951 -0.2097197 -0.23124 -0.18439552 0.022999573 -0.25858885 -0.1095956 -0.43863896
0.14179526 0.038955964 -0.38333136 -0.010540624 -0.15304956 -0.4477152 -0.3088733 -0.28823146
0.028388297 0.03002246 -0.21956143 -0.4529239 -0.09679326 -0.32516125 -0.07028365 -0.15426208
-0.36936063 -0.20407219 -0.04780267 -0.3141986 0.031911287 -0.08217335 0.07999215 -0.32975888
0.002015305 -0.16431235 -0.18614621 -0.34984004 -0.47702515 -0.080138735 -0.22357574 -0.34072146
0.013943371 -0.16552474 -0.20184606 -0.665908 0.022523671 -0.20934105 -0.48116332 -0.28951013
0.071601294 0.17580323 -0.79883754 0.016708357 -0.46632886 -0.044262655 -0.18375687 -0.12779789
-0.18117777 -0.35035977 -0.12934946 -0.20939337 -0.11595489 -0.16069895 -0.028342415 0.10050907

lstm.weight_ih_l1 f4 [256, 64]
00000000: 096e 34be 90f6 e3be 715d e6bd 3a8b 2abf
00000010: f5a4 b1be 935d d43e 1ac6 11be 00a0 193d
00000020: c154 c83e c63b 2c3f 4378 2f3d 6344 0c3c
00000030: cbb4 90be 0025 d0bd bf88 1d3c b8bd 1dbe
00000040: 7c8c 293e b59f b3be 9e86 b03d 7b32 6f3d
00000050: 8f31 a6be 4ae4 77be 35aa 093e 536f 97be
00000060: 5025 8cbd f33b 39be 7e7b 03bd 045a 2bbf
00000070: 0181 ff3e e7aa ee3c 82ee 0dbe b09d 9a3e
00000080: 5ca2 983e 0a4d 2c3d 7420 653f ee62 a23d
00000090: f724 a23e dfa3 da3c 95e0 50be 3536 7dbe
000000a0: f217 ef3e 1793 233e de17 ca3e 5a82 33be
000000b0: 41ed ea3d ab1b 353e b72b 06be c1bf 0f3e
000000c0: a9df c43e d449 a5bd fef1 43bf 7f4b 29be
000000d0: b254 6cbe ed74 993e e9b1 d8bd 3d32 3e3e
000000e0: a358 ab39 b527 56be 9cf3 743d 0777 723e
000000f0: ac0b 91bd e156 c23e 1c58 0bbf aef5 633d
00000100: abcb fa3d b649 0cbe a04a 0f3d 7222 0a3e
00000110: 63b7 eabc 6703 d83d b35b e53c ef05 973b
00000120: 7293 88be 2d80 b23d ba4a 2fbe f78a 9f3d
00000130: 0d3b 8f3b 2ffe 6f3c 96a4 0cbe f8b1 afbd
00000140: ea5c 483d f50b 953b 7c6b 9bbd cb24 883d
00000150: d1f2 403c 0867 88bd b237 203d df0c d03d
00000160: aa2c 153e 5ce9 2ebb f92c b5bb 2e50 1dbe
00000170: ff04 94bd c0e8 883d 39f9 0bbe 1cd1 393b
00000180: f1fd a4bd e5f2 2cbe 3962 4b3d 32e8 bc3d
00000190: 31c7 e13d b27a 293e 3722 a13d 8ec5 053d
000001a0: a2cf 843d a0b4 a2bc 8add 44bc a650 9fbd
000001b0: 6715 413e 5123 a53d 3536 93bc f06b 6bbc
000001c0: d399 90bd b4a1 c13d c978 f9bd 2e4d eebd
000001d0: 6264 98bc 5e84 c43d 9905 003c 3582 533c
000001e0: 8aa9 1a3e 24a1 35be d8b5 59bd eb1d 82bd
000001f0: 6b43 8dbc 2be6 233e 5b35 933d 9d62 0abe
00000200: 5167 133e 0d4f 1a3e ef07 003d dcff dbbc
00000210: 7504 18be 1a1a 31bd 8f36 90bc 606b 90bd
00000220: bc9a 95be f896 233e 55c9 cb3d 3cf0 a53d
00000230: 5941 c93d 5ace e2bc 242c 77be 5a90 e73d
00000240: 37ea 8fbd 2603 233e 4cdb c8bd fa21 e33d
00000250: caeb 903e 9e88 9dbd 651a a7be 8a2f d43b
00000260: 6c17 29bd 7385 9f3d f36a 963c 33e7 29bd
00000270: e5dc 433d 658a 143d 5b93 113e 69c7 cb3b
00000280: 7e59 43bd 25a1 c0bd 4de6 043e 1e91 953d
00000290: 4c0d 4f3e 7087 e63d 64d1 c13c ec71 63bd
000002a0: e218 9fbd 1ef3 ce3e 5a87 80bd e03b 063d
000002b0: b785 1a3e f766 523b c365 be3d 2cbf 81bd
000002c0: e3c2 643d 5350 85bd aab6 cdbd 7c2b b0bd
000002d0: 72a2 393d 2e94 51bd 2a51 a5bd af17 d2bd
000002e0: c1a0 1fbd 6999 733e 65dd 1fbb 9c22 06be
000002f0: f6f7 2fbe 6870 08be 1b10 ee3d fcc7 aebc
00000300: 340d 9a3d 1d7c 093e 8c9d 68be 4587 fc3c
00000310: ce55 07be c4e9 443d 8dff f43d cf61 2a3e
00000320: dd65 113d 212e 933d 7376 42be 940f 4ebd
00000330: eb76 3cbe 3ed9 c5bd f500 b1bc 47e8 1b3e
00000340: 628e 713d 9e7a 3d3e 441a f9bc 2ecb a43c
00000350: 0a86 44bd f472 04be 0962 4c3e daf0 3f3e
00000360: c96b 2d3d 57f2 083e fe7f 003e 9d93 313e
00000370: 9275 e13d e6ff c63c 660e c33d d187 c93e
00000380: c193 c8bc 6db1 2cbc 7f53 92be 2612 853c
00000390: ced3 1cbe 51e2 0b3d 92a9 253e 507d e1bd
000003a0: d56c bfbd a750 cc3d 6579 8e3d a7e0 b63d
000003b0: 3915 c13d 7a73 47bd fcbe d53d c85f 6ebe
000003c0: 1786 803e 4497 12be fc79 b7bc 3be9 83bd
000003d0: 2b61 5c3e 9d2e 14bd 07b6 b2bd a710 043e
000003e0: d396 1bbe e086 7dbd 781d ef3d f186 12bd
000003f0: 11a8 2abc 5f2a 883e 8cc8 eabd 07fb 2d3e
-0.176201 -0.4452405 -0.11248291 -0.6661869 -0.34696165 0.4147764 -0.14235726 0.037506104
0.39127162 0.6727871 0.0428393 0.008561227 -0.28262934 -0.10163307 0.009615122 -0.15404403
0.16557497 -0.35082784 0.08619426 0.05839775 -0.32459685 -0.24208179 0.13443835 -0.2957712
-0.06843054 -0.18089275 -0.032100193 -0.6693423 0.4990311 0.029134227 -0.13860515 0.3019843
0.2981137 0.042065658 0.89502645 0.079290256 0.31668827 0.026689468 -0.20398171 -0.2472771
0.46697956 0.15974079 0.39471334 -0.17530194 0.11471034 0.17686336 -0.13102613 0.14037992
0.3845189 -0.08070722 -0.76541126 -0.16532706 -0.23079184 0.2997202 -0.10580809 0.18573852
0.000326817 -0.20913585 0.059802637 0.23678218 -0.07082304 0.37956908 -0.5443132 0.05565422
0.12245878 -0.13699993 0.034983277 0.13489702 -0.028651899 0.10547524 0.027997827 0.0046088616
-0.26674992 0.08715854 -0.1711835 0.07790177 0.004371053 0.014648004 -0.1373466 -0.08578867
0.048916735 0.0045485445 -0.075888604 0.06647643 0.011776642 -0.06660277 0.039115615 0.10158705
0.14567819 -0.0026689386 -0.005529043 -0.15362617 -0.072275154 0.066850185 -0.1366929 0.0028353399
-0.08056248 -0.16889532 0.04965422 0.09223975 0.11024321 0.16550711 0.07867854 0.032659106
0.06484915 -0.01986152 -0.01201571 -0.07779054 0.1885582 0.08063377 -0.017970184 -0.014368996
-0.0706059 0.094546705 -0.12181241 -0.116358146 -0.018602554 0.095955595 0.007813835 0.012909462
0.15103737 -0.17737252 -0.053151935 -0.06353363 -0.017244061 0.16005771 0.07187911 -0.1351418
0.14394881 0.15069218 0.031257566 -0.026855402 -0.1484545 -0.043237783 -0.01760414 -0.0705173
-0.29219615 0.15975559 0.099505104 0.08102462 0.09826917 -0.027686287 -0.24137932 0.1130683
-0.07027095 0.1591917 -0.098074526 0.11090465 0.28304893 -0.07692073 -0.32637325 0.0064753937
-0.041282102 0.07789125 0.018361544 -0.041480254 0.047818083 0.036264796 0.14216368 0.00621884
-0.04769277 -0.09405736 0.12978478 0.073030695 0.20219916 0.112563014 0.023659416 -0.055528566
-0.07768418 0.4041986 -0.06275816 0.032771945 0.1509007 0.003210483 0.09296753 -0.06335291
0.05584992 -0.06509461 -0.10044606 -0.08602044 0.045320936 -0.051166706 -0.080721214 -0.102584235
-0.038971666 0.2378899 -0.0024393436 -0.1309914 -0.17184433 -0.1332413 0.116241656 -0.021335594
0.075220495 0.13426252 -0.2271635 0.03082622 -0.13216326 0.0480745 0.11962805 0.16638874
0.035497535 0.07186533 -0.18990497 -0.050307825 -0.18404739 -0.09660576 -0.021606902 0.15225326
0.058973677 0.18503806 -0.030408032 0.020116415 -0.047979392 -0.12934476 0.19959272 0.18744221
0.04233912 0.13373695 0.12548825 0.17341466 0.11008753 0.024291944 0.09524231 0.39361432
-0.024484517 -0.0105403485 -0.28579327 0.016244005 -0.15315172 0.03415138 0.16177967 -0.110102296
-0.0934693 0.09976321 0.06956748 0.08929568 0.09427876 -0.04869411 0.10436818 -0.23278725
0.25102302 -0.14315516 -0.022397034 -0.064409696 0.21521442 -0.036177266 -0.08726125 0.12896977
-0.15194254 -0.061896205 0.116755426 -0.03577322 -0.010416047 0.26594827 -0.114640325 0.1699029

lstm.weight_hh_l1 f4 [256, 64]
00000000: c64a 4dbd 8e48 cebc a46d c23d 921a 26bd
00000010: 9444 c13c caab babd 3b4b b03d 1e59 a33d
00000020: bb1c 1f3e d007 eabd 637b ea3e acc5 c33d
00000030: ec18 a0be ef5f 853d 2656 a63c 5a6e 51be
00000040: ca07 73be 6e74 2c3e afc5 533e 27a7 dc3d
00000050: bab9 f83d f8a3 51bd cb4c 103c 82b2 95be
00000060: 5a78 b03e 24a2 273e 0b3b b53e 9417 6dbe
00000070: 2ec4 aabe 80ed b23d 23a3 983d e94b a3be
00000080: a63f 63bd 4c43 a73d ef6a e33e 918c 433e
00000090: b1fe a83c d944 1c3b bcec 6a3e 459a 03be
000000a0: 2f37 603e fdca d9be 4e74 653d db4e 193f
000000b0: f75f e03d 2334 183d 27df f4bd 4ccd 823d
000000c0: bdaa 833e 682c 0b3f 446e d4bd e143 de3c
000000d0: 7567 03be fe6c 87bd 53f6 cc3d 5225 33bd
000000e0: 411f 93be ff19 29be ab63 2fbe c85c 7ebe
000000f0: e805 87bd b333 243e 2fca 14bc 2a19 403e
00000100: 9c3e 32be d6c2 f1bb 72a6 05be ddfb 8d3d
00000110: 4b5b e1bd ba7e 41bc b77c 403d d56c 11be
00000120: fc92 e73d 2f88 42bd b16b b53d 6287 7d3d
00000130: 7c4f aabd 9b80 f83d a94b 2e3d a8ae 8abd
00000140: 8768 d23d 69fd a0bb 718c d93d c02d 15bd
00000150: 562f 29be b649 b6bd 3dce dc3c e420 b83c
00000160: 51d7 1e3e 4a5f 82bd bc98 4abd 9369 ea3c
00000170: fb9b e2bd 7d1e cc3d 814b 06bd 5201 38be
00000180: d104 25bd d1b8 683d 0f94 603e ffda 133e
00000190: c52a 4ebd 5429 b3bc d34d 033d 8cb0 b2bd
000001a0: 2a3d 24bd a9d9 adbe 1c63 863d 9070 a1bd
000001b0: 9f9f 8abd 9af9 87bc 4cf8 09be 7602 c2bd
000001c0: 50dc 483e f48b d33d bee1 3ebe d064 2f3d
000001d0: abde febd ee4d 0bbc 0b94 13be e91d 733d
000001e0: 1fa7 7d3d 1f26 ddbd 9dcd dcbd 0477 f6bc
000001f0: a404 713c 63eb b23c d3aa 893c faaa bbba
00000200: 9e61 133e c4d7 d13d 2bca b13c ec45 0ebc
00000210: 8b16 873d 28e2 9c3d 6ba3 2ebc 3403 c83d
00000220: 7b37 3a3c c7ac c3bd 6086 f4bc ee3c 25bc
00000230: 0d73 78bd b202 92bc aa80 543e 4a64 e8bd
00000240: a44c 463d 53a8 b0bc 16a5 073e fea4 75bd
00000250: 403e ebbc 53ef d93c 3420 d1bd f68f 87bc
00000260: 325a 2f3e 2b35 98bb 6b66 7b3d e3d3 e53d
00000270: ec70 053e 42e1 1cbe fcc3 2fbe e448 edbd
00000280: 0a93 693d 6bfd d33c a58d 4fbd 4959 5e3d
00000290: 0f98 a9bd 2393 b2bd a6c4 963d 8798 1c3c
000002a0: bc65 d2bd 3315 8ebe ec60 34be 1427 613e
000002b0: 8f69 153d f5b3 ef3c 9fff 7f3d 3da9 1b3d
000002c0: abfe 08bd c752 823c c51a 64bd a2ae 4a3d
000002d0: a89e 86bc 2a5b bcbd 2610 09bd 294a e3bd
000002e0: 1485 c03d 7f14 a43a fde0 97be ba6f 98bd
000002f0: 4efe bdbd f06e 833d 4f6d a03d 2f22 89ba
00000300: def8 653d cbc6 a43c 87bf a63d 2e6a 583d
00000310: a5e2 8ebc 99e5 9d3d 0cb8 1f3e b012 09be
00000320: 9c62 0e3d c2a6 2c3e 737a 0cbe 41e0 d03d
00000330: 348f 273e f0e3 01be 200b 3a3e 2e20 8a3d
00000340: cee1 92bd 6006 493c 98a1 f8bb 6a9e 28be
00000350: 4055 a23d 7d17 283d c30f c33d 90de 3138
00000360: 773c e9bd ca0f b73d 4aad 92be f185 cb3e
00000370: 4c70 403d 0eb4 0abe b2b6 acbc b446 50be
00000380: eaf1 81bd e2ba a13d bfc4 023e be7e 76bd
00000390: 9b6a 273d bb22 2abe 649e fabd ee3f 803d
000003a0: f3c2 09be 8993 f2bd a18b 0bbd 0148 89be
000003b0: 4254 70bd 1059 373e 4b47 883e b65f ce3d
000003c0: aa2f 85bd ce78 f9bd d0f7 1ebe 22e0 f4bd
000003d0: 865d 983d e4e9 13be c4ee d1bd d9f2 1abe
000003e0: e4b6 3fbd 87c0 483e e99e 08be 64b4 943d
000003f0: 1c07 81bd 93e7 ef3b b7ae b23d d0a9 8e3d
-0.050120138 -0.025181081 0.094935685 -0.040552683 0.02359227 -0.091147974 0.08608099 0.07975982
0.15538304 -0.11427271 0.45797262 0.09559187 -0.31269014 0.065124385 0.02030475 -0.20452252
-0.2373344 0.1684129 0.20680879 0.10774069 0.121447995 -0.051181763 0.008807371 -0.29237753
0.3446682 0.16370445 0.3539661 -0.23153526 -0.33352798 0.08736706 0.07452991 -0.31893852
-0.05548062 0.08167133 0.4441752 0.1909659 0.020629259 0.0023844747 0.2294187 -0.12851818
0.21896051 -0.4253768 0.05601912 0.5988595 0.10955804 0.037159096 -0.119566254 0.063868135
0.257162 0.54364634 -0.10372594 0.027131977 -0.12832434 -0.066125855 0.1000792 -0.043736763
-0.28734782 -0.16513823 -0.17127864 -0.2484008 -0.065929234 0.16035347 -0.009081407 0.187596
-0.17406696 -0.0073779626 -0.13051775 0.06932805 -0.11003741 -0.011809999 0.046993937 -0.14201672
0.11307332 -0.047493156 0.08858431 0.06189669 -0.08315942 0.121339045 0.042552624 -0.06771594
0.10273843 -0.0049130213 0.1062249 -0.036420584 -0.16521963 -0.08900778 0.02695381 0.022476621
0.15511824 -0.06365831 -0.049462065 0.028614795 -0.11064907 0.09966753 -0.03278685 -0.17969254
-0.040287796 0.05681688 0.2193148 0.14439009 -0.050333757 -0.021870293 0.03205664 -0.0872508
-0.040097393 -0.33955124 0.06561872 -0.07882798 -0.067687266 -0.016598511 -0.13473624 -0.09473126
0.19615293 0.10329428 -0.18640801 0.04282075 -0.12444814 -0.008502467 -0.14411943 0.059354696
0.061926957 -0.10798287 -0.10781405 -0.030086048 0.014710579 0.021840757 0.016805088 -0.0014317923
0.14392707 0.10246232 0.021702847 -0.008683663 0.065960966 0.076603234 -0.010659079 0.09766236
0.011365767 -0.09554439 -0.029849231 -0.010085328 -0.060656596 -0.01782355 0.20752206 -0.113472536
0.048412934 -0.021564638 0.13246569 -0.059971802 -0.028716207 0.026603376 -0.102112204 -0.016548138
0.1712425 -0.00464501 0.06137697 0.11222055 0.13031358 -0.15320304 -0.17164606 -0.115861684
0.057024993 0.025877675 -0.050672192 0.054284368 -0.08280956 -0.0871947 0.073617265 0.00955785
-0.102733105 -0.2775055 -0.17615098 0.21987563 0.03647762 0.029260615 0.06249964 0.038003195
-0.033445995 0.015908612 -0.055689592 0.04948295 -0.016433075 -0.09197076 -0.033462666 -0.11098129
0.09400383 0.0012518315 -0.2966384 -0.07443185 -0.092770204 0.06417644 0.07833349 -0.0010462458
0.05614554 0.020114323 0.08142 0.052835636 -0.017442057 0.07709808 0.15597552 -0.13386035
0.03476201 0.16860488 -0.13718586 0.10199023 0.16363221 -0.12684608 0.18168306 0.06744419
-0.07171975 0.012269586 -0.007587623 -0.1646668 0.079264164 0.041038025 0.09524491 4.2407366e-05
-0.11388486 0.089385584 -0.28647834 0.39750627 0.046982095 -0.13545248 -0.02108321 -0.20339471
-0.063449696 0.07896973 0.12770365 -0.060179465 0.04087315 -0.16614811 -0.12237242 0.062621936
-0.13453273 -0.11844546 -0.034068707 -0.26812747 -0.058674105 0.17905068 0.26616892 0.10076849
-0.06503232 -0.12181245 -0.1552422 -0.119568124 0.07439713 -0.14444691 -0.10250619 -0.15131702
-0.046805277 0.19604693 -0.1334187 0.07260969 -0.06300184 0.007321307 0.087247305 0.06965983

lstm.bias_ih_l1 f4 [256]
00000000: d1e9 23bf 52b5 02be e517 453e 61df cebe
00000010: e64a 98bd 9c8f 8d3c 4a75 36be fc17 13bf
00000020: ffcd 33bf 3153 053e 371e 3bbe a97d 313b
00000030: f740 04bf 8546 d9bd 4dbd b0bd cb1d 79bc
00000040: 2e24 f83c 7bb8 0dbe e677 3dbf abc5 90bf
00000050: 0b15 99be 52e7 a0bd 5c41 f4bd 4a25 9dbe
00000060: 26be 15be bf37 b0be de7c efbe 2de7 07be
00000070: 7356 1cbe 8c04 893e f871 c33d f1a0 d2be
00000080: 97b8 b93d 5904 adbe 9510 2dbe 073a 06bf
00000090: b928 34be ace2 bc3c 75b7 cdbe d9e3 62be
000000a0: 4284 08be 2313 49be 92d7 cc3c 37bc b5bd
000000b0: fb31 bc3b 225e 17bf 4e87 14bf 10e0 c4bd
000000c0: 093d 5bbd c4e9 f9be 8f6b cabe 0ec5 32bf
000000d0: 59d1 c9be 1a32 95bc fe4f 30be 358f a0be
000000e0: 72fe c3be 8845 21bf 3797 3c3d e8ed 0dbf
000000f0: 92ef cabe 46f5 27bf 4155 29bf fbc1 eebd
00000100: 3ed5 3dbf 4486 ad3d 99d4 f83c 0754 33be
00000110: 06a3 ec3b 05bd aebc 929f 37be 88d0 a73c
00000120: 8dd8 02bf 6109 8b3d 0ff7 b83c 56dc 01be
00000130: 72f5 dfbe d5f8 133d 09de e4be 3476 73bd
00000140: 07b2 52bd c47d 64bd 7aa1 31bf 701e 2ebf
00000150: ea71 8bbe 411e ccbc 5345 93be 18c8 38be
00000160: 7818 febd de72 73be 2f1e d1be 7593 f2bd
00000170: 858e b33d 0259 24bc 99a2 813d 4415 afbe
00000180: d418 4ebf 039f cd3c 79c9 28bc 3e80 9fbe
00000190: c63a 15bd c80b af3d 9f35 90be d660 cebe
000001a0: 730c 8fbe 7fed b5be 8212 613c e14c b1be
000001b0: 77ea 15bd ba1e 8cbe f294 01bf 6a63 b3bc
000001c0: 41c8 0fbe cbfd c2be 19ba 9ebd cdda f8be
000001d0: 794c 07be 6457 b4bd bcbe ea3d 3a30 90bd
000001e0: 5d07 d3be 93df 09bf 5876 dbbe 8cef 0fbd
000001f0: 63c3 133d 448e a3be 79b1 c6be 139d af3c
00000200: 0dfa f43c 0dad 4a3c d462 14bd 84bf 51bd
00000210: 79d5 a4bd 220f 5fbd d38e e8bd 73cf 5bbb
00000220: 6197 c73c 05d4 b0bd e5ad 803c da7b 57bd
00000230: 55ef 73bc a459 f93d 2fbb 873d 1389 d53c
00000240: ce9b 05be d0a0 d5ba 9640 dc3b 6ced c4bc
00000250: 6c58 093d a16e 9c3d 6d1c a0bd 8d2e e53d
00000260: 04eb 87bd b5b9 023d 86c3 943d 0c8b 34be
00000270: ed37 04bd 9cf6 aebd 4f0b f83b 3754 2d3c
00000280: 2b62 213d 4c70 7d3c bd33 dabc f949 483d
00000290: e347 6cbd a183 ecbc 4e17 2f3b 4d4b 1abe
000002a0: 43dc 90bc 5033 abbc 3172 273d 9bef 58bd
000002b0: 7ad1 9b3d 9d18 103d 41a5 533d 6cf0 5c3b
000002c0: 0dd5 23bd b069 ad3d 0391 b1bc 078a 1a3d
000002d0: 9632 66bd b19d 043c d1c1 d1bc 6d78 573d
000002e0: ca85 a43d 18ca d23d a58c 1fbd b873 9b3d
000002f0: b480 103b de33 10bd 2c4c 49bd 23a6 44bd
00000300: 2b7d ffbe 3974 61be 0e0f 4c3e 2784 54be
00000310: defb cb3d 07d7 5e3e 2310 c0bd 038e debe
00000320: 19b0 59bf 84b1 363e 049d bbbd a71d 4cbe
00000330: b82e 28bf d9f3 5b3d 9a3c 78be 4237 7a3d
00000340: 2cdc 28be d1b6 c3bd 706d 4bbf c56a 75bf
00000350: adc4 dfbe 26c7 c93d 7701 6fbe ba00 b6be
00000360: cc57 9ebe 9228 b8be 35d4 c2be 6c8c 9ebe
00000370: d5ea bdbd 686d 273e 6dae 40bb 8045 a0be
00000380: e84b 4dbd 79d1 80bd fd5d 49be 115c 12bf
00000390: 4981 8fbd 0ac5 04be 5738 edbe 55ad 83be
000003a0: c743 29be e5a0 fdbd 142c 2f3c 5a8b 88be
000003b0: d850 0fbe 87a6 06bf 07d1 1fbf bc95 50bd
000003c0: 983a 66be 3087 d7be 7d5c 99be 42a9 4dbf
000003d0: 7968 5bbe 02ff 0c3e a797 3abe 06df 7fbe
000003e0: ae2a d4be cde0 41bf 3e07 903d 3c27 d1be
000003f0: 3ead 96be 3eb4 dcbe d6e2 53bf c8c3 323d
-0.6402865 -0.1276448 0.19247396 -0.404048 -0.07436161 0.017280392 -0.1781818 -0.5745847
-0.702362 0.13020016 -0.18273245 0.0027082956 -0.5166163 -0.10609154 -0.08629856 -0.015204857
0.03029069 -0.13839905 -0.74011075 -1.1310323 -0.29898867 -0.07856621 -0.11926529 -0.30692512
-0.14623317 -0.3441753 -0.46774954 -0.1327178 -0.15267353 0.26761281 0.09543222 -0.41138414
0.09068411 -0.3379238 -0.16900857 -0.5243229 -0.1759366 0.023057304 -0.4017903 -0.2215723
-0.13331702 -0.19636206 0.025005136 -0.0887379 0.005743263 -0.5912801 -0.5801896 -0.09613049
-0.053525005 -0.48811162 -0.39535186 -0.6983193 -0.39417532 -0.018212367 -0.17218015 -0.31359258
-0.38280064 -0.6299672 0.046042647 -0.5544114 -0.39635903 -0.6560863 -0.6614571 -0.116580926
-0.74153507 0.08472875 0.030374812 -0.17512523 0.0072215823 -0.021330366 -0.17931965 0.020485178
-0.5111168 0.06788898 0.022578744 -0.12681708 -0.43741947 0.036125977 -0.4470065 -0.0594389
-0.05143931 -0.055784002 -0.6938702 -0.68015194 -0.27235347 -0.02491677 -0.28763828 -0.1804508
-0.12407011 -0.23774287 -0.4084334 -0.118445314 0.08767418 -0.010030987 0.06329841 -0.34195912
-0.80506635 0.025100237 -0.010301941 -0.3115253 -0.036433004 0.08547169 -0.2816591 -0.40308255
-0.27939186 -0.35532758 0.013737323 -0.34628966 -0.036600556 -0.27367193 -0.506179 -0.02189799
-0.14041235 -0.38084254 -0.07750339 -0.48604432 -0.13212766 -0.08805731 0.11462161 -0.070404485
-0.41216555 -0.5385677 -0.42863727 -0.03514056 0.036075007 -0.31944478 -0.38807276 0.021437204
0.02990439 0.01237036 -0.036227062 -0.051208034 -0.08048529 -0.05445779 -0.113553666 -0.0033540397
0.024364175 -0.086341895 0.01570792 -0.05260835 -0.014888604 0.12175301 0.06627499 0.026066339
-0.13047716 -0.0016298536 0.0067215664 -0.024038993 0.03353159 0.07638288 -0.07817922 0.111905195
-0.066366225 0.031915385 0.07263856 -0.17631167 -0.032279897 -0.08543131 0.0075697075 0.01057916
0.03940026 0.015468668 -0.026635999 0.04889867 -0.057685744 -0.02887136 0.0026716772 -0.15067787
-0.017683154 -0.020898491 0.040880386 -0.05296288 0.07608314 0.035179723 0.05167127 0.0033712639
-0.039998103 0.08467424 -0.021675592 0.03772929 -0.056200586 0.008094237 -0.025605114 0.05260508
0.08033331 0.102924526 -0.03895249 0.07590431 0.002204937 -0.035205714 -0.04914491 -0.048010003
-0.49900183 -0.22016992 0.19927618 -0.20753537 0.09960149 0.21761714 -0.09378078 -0.4346772
-0.8503433 0.17841154 -0.09160808 -0.19933186 -0.6569629 0.053699348 -0.24241868 0.061087854
-0.16490239 -0.09556354 -0.79463863 -0.9586604 -0.4370474 0.09852438 -0.23340403 -0.3554743
-0.3092636 -0.35968453 -0.38052526 -0.30966508 -0.09273306 0.16350329 -0.002940084 -0.31303024
-0.050121218 -0.06289954 -0.1966476 -0.5717173 -0.07007081 -0.1296579 -0.46332046 -0.2571818
-0.16529761 -0.12384204 0.010691661 -0.26668817 -0.13995683 -0.5259785 -0.62428325 -0.050924048
-0.22483289 -0.42095327 -0.29953375 -0.8033639 -0.21426572 0.13769153 -0.18221913 -0.2498742
-0.41438812 -0.75733644 0.07032631 -0.40850246 -0.29429048 -0.43106264 -0.82768 0.043643743

lstm.bias_hh_l1 f4 [256]
00000000: 043d 13bf 7738 f5bd 766c 1d3e 8ad4 97be
00000010: 9eb8 563d bc56 fa3d f8f4 3fbe 28af 05bf
00000020: 458e 4dbf 56c1 0c3d 6b63 01be 5152 21be
00000030: 8591 00bf b1ad 0fbe 4c39 273d e93f 1c3d
00000040: 93df 1c3c 109a 56be 0eed 2cbf ab6d 86bf
00000050: dc1f 91be 5338 adbc 1879 6ebe eded cabe
00000060: 40cd 18be c246 cfbe 6d83 ecbe d163 86bc
00000070: c9d9 78be 8a6a 653e 19e0 d43d 7064 12bf
00000080: 4b9b 9e3d db5d b7be b32b 20be 6765 0bbf
00000090: 2aa3 acbd 03a2 33bd be5c b8be 645b 9bbe
000000a0: a196 6abe c7f0 35be 78f5 20bd 2bc1 96be
000000b0: b7ea edbd 782e fdbe 2513 1abf 78e9 dd3d
000000c0: ac5d 0fbd 43ca d9be e126 c2be 5bf5 51bf
000000d0: 0e19 76be fc22 783d 31e8 d4bd b015 7fbe
000000e0: 05bf 55be 5e77 1bbf f2ad 0cbe de2e 0dbf
000000f0: 892f b4be 35a1 1fbf b864 59bf 178e fabd
00000100: df5f 3cbf baed b1bc 6384 3a3e fb30 e6bc
00000110: d498 083d 0f8d 80bc 8c39 e3bd 0547 313e
00000120: 97fd 24bf 785a c53d e1c3 6e3c 8b5d 40be
00000130: fbd0 82be 0e6f 7e3d d641 96be a7c1 c3bd
00000140: eeb3 25bd 4cf1 14bd 7c51 02bf 0767 32bf
00000150: e38c 38be 1bf3 b33d 7706 acbe abc6 95be
00000160: 5150 66be 4665 3abe 20b8 bcbe 996e a8bd
00000170: 1bfc 013c 065b 7cbc c71e b63c 3e65 71be
00000180: a50e 54bf 84d7 b0bc e627 d0bc 8321 bfbe
00000190: b455 0f3d 12af 93bc 8583 a5be a367 e1be
000001a0: 9c92 5fbe c670 d7be 3c93 423d 35f6 35be
000001b0: f9e8 fabc f4d5 42be 6062 c9be 9c14 90bc
000001c0: 6428 b4be a5fe a9be 8edd e63c 1f2b 35bf
000001d0: 844c 2bbd e03e 003d a750 a6bd d24f eabd
000001e0: 6545 afbe 1a4e e9be 31c0 83be e291 cdbb
000001f0: 0fce 843d a316 c4be ce31 dabe 533b 41bd
00000200: 4594 2cbc 6e6d 403d df29 883d eb84 9f3c
00000210: 2c46 903c 8cd4 783d f463 3e3d bd64 72bc
00000220: 9659 1e3c b884 1e3d 6e68 f6bc a142 2b3c
00000230: cce1 cf3c 29f7 8dbd 7357 a5bd 3cc4 15bc
00000240: 7821 b73d 0510 09bd 63a4 253d 90c7 27bc
00000250: 1e6d b9bc 1c98 bdbd 9da4 bf3c 7b26 c4bd
00000260: 833e cc3b fa9f b5bb 7a25 82bd 99a6 6abb
00000270: e693 f83b df08 5bbc b2cc 153e b022 adbc
00000280: af73 f4bd f29a c6bd 3401 563d 3dd8 7dbd
00000290: 13cc 843d 0819 c53c d235 68bc c89d 5c3d
000002a0: 9788 80bc 722f 4a3c 9367 d43d ddf8 a53d
000002b0: 9349 02bc b094 b5bd e765 573c 5770 9d3c
000002c0: dffa f7bc 448d 89bd 11c4 fd3c 3f57 313d
000002d0: 14df 1e3d 74c7 49bd c221 893d 64e7 ac3d
000002e0: 0929 45bd 60c8 b5bd 7376 283d 7d73 5ebd
000002f0: 6db3 8a3d 0617 883d 6014 b53d 5e22 f53d
00000300: 73bd 33bf a9c2 18be 8b3b 353e e034 abbe
00000310: 4df4 e43d 8415 883e 2a61 8ebe dfbf 0cbf
00000320: 986f 27bf 71ef 0c3e bffc 02be e428 07be
00000330: 9019 24bf 4891 99bd 0941 24be 8820 533d
00000340: 25fc bb3b ee5b 06be aefb 3bbf f1fa 6dbf
00000350: 1eee a9be f443 913d b70d d1bd 1510 6cbe
00000360: 6aa1 4ebe 4aef a1be 7c06 e0be 7848 aabe
00000370: 2479 41be ebef 843e a0f4 bd3d 2753 e2be
00000380: e12b 993c e29a 94be 842f 85be f6ed 05bf
00000390: 53b1 d23d 10ea 6ebd e1c5 b1be 9e71 66be
000003a0: 0eb9 43be 3690 1fbe 6ebc 08be 1f58 b4be
000003b0: 46df febc d381 14bf 7e8b 0bbf 2c44 b3bd
000003c0: 150f 66be e597 ddbe 331e 68be 14ee 3cbf
000003d0: 52a2 21be 2c44 163d 88a9 793b 3f04 bbbe
000003e0: 1bf3 dcbe b9dc 3abf 229a 34bd 6795 14bf
000003f0: 86ee 9cbe da00 d6be 01ef 22bf 7c1b c8bd
-0.5751498 -0.119736604 0.15373406 -0.29654342 0.05242216 0.122235745 -0.18745792 -0.5222039
-0.8029521 0.034364067 -0.12635581 -0.15754057 -0.50222045 -0.14031102 0.040826127 0.038146887
0.009574789 -0.20957208 -0.67549217 -1.0502218 -0.2834462 -0.021145022 -0.23288381 -0.39634648
-0.14922047 -0.4048367 -0.4619402 -0.016405018 -0.24301828 0.22403923 0.10394306 -0.57184505
0.077444635 -0.35813794 -0.1564167 -0.544516 -0.084295586 -0.04385568 -0.36008257 -0.30343163
-0.22909023 -0.1776763 -0.039296597 -0.2944425 -0.11617034 -0.49449515 -0.6018546 0.10835546
-0.03500144 -0.42537126 -0.37920287 -0.8201501 -0.24032995 0.06058024 -0.103958495 -0.24910617
-0.2087365 -0.60729015 -0.1373823 -0.5514964 -0.35192516 -0.6235536 -0.8491931 -0.12234133
-0.7358379 -0.021719802 0.18214564 -0.028099528 0.033348873 -0.015692262 -0.110949606 0.17312248
-0.6444945 0.09636396 0.014573068 -0.18785684 -0.25550064 0.06211763 -0.29347104 -0.09558421
-0.040454797 -0.03636293 -0.50905585 -0.6968846 -0.18022494 0.08786603 -0.33598682 -0.29253134
-0.22491576 -0.18202695 -0.36859226 -0.0822422 0.007933642 -0.015402561 0.022231473 -0.23573777
-0.82834846 -0.02158714 -0.02540965 -0.37330255 0.034993842 -0.018027816 -0.32326904 -0.4402438
-0.21833271 -0.42078227 0.047503695 -0.17769702 -0.030628668 -0.19026929 -0.39332867 -0.017587952
-0.35187066 -0.3320209 0.028181817 -0.7076892 -0.041821018 0.031309962 -0.08120852 -0.11441006
-0.3423263 -0.455674 -0.25732568 -0.006273494 0.06484615 -0.3829852 -0.42616123 -0.047175717
-0.010533397 0.04697936 0.06648611 0.01947256 0.017611586 0.060749575 0.04648204 -0.014794526
0.009664914 0.03870079 -0.030079093 0.010452897 0.025376223 -0.06931908 -0.0807332 -0.009141024
0.089419305 -0.033462543 0.040439975 -0.0102404505 -0.022635039 -0.09257528 0.023393923 -0.09577652
0.006233038 -0.0055427523 -0.06354804 -0.0035804866 0.0075859902 -0.013368814 0.14628866 -0.021134704
-0.119361274 -0.09697522 0.05224724 -0.0619738 0.064842366 0.024059787 -0.014172988 0.05386141
-0.015690131 0.012340413 0.10371318 0.081041075 -0.007952112 -0.088662505 0.013146854 0.019218607
-0.030270992 -0.067163974 0.03097728 0.043296095 0.038786963 -0.04926248 0.06695892 0.08442572
-0.048134837 -0.08876109 0.041128587 -0.054309357 0.06772504 0.06645016 0.08841777 0.11969446
-0.7021095 -0.14918007 0.17698495 -0.33438778 0.11179409 0.26578915 -0.27808505 -0.5498027
-0.65404654 0.13763215 -0.12791727 -0.13199192 -0.64101505 -0.07498413 -0.16040434 0.051544696
0.005736845 -0.13121006 -0.7343091 -0.9296103 -0.33189481 0.07093039 -0.10207694 -0.2305301
-0.20178762 -0.31627876 -0.43754947 -0.33258414 -0.18893868 0.25964293 0.09275174 -0.44204065
0.01869768 -0.29024416 -0.26012814 -0.52316225 0.10287728 -0.05832869 -0.34721282 -0.22504279
-0.19113562 -0.15582356 -0.1335313 -0.3522348 -0.031112324 -0.58010596 -0.54509723 -0.08753237
-0.22466691 -0.4327995 -0.2266777 -0.7380078 -0.15784577 0.036686108 0.0038095433 -0.36526677
-0.43154225 -0.72993046 -0.044092305 -0.5804047 -0.3065073 -0.41797525 -0.6364594 -0.09770867
