checkpoints/latest_checkpoint.pth (torch, 673189 bytes, 30 tensors)

lstm.weight_ih_l0 f4 [256, 19]
0	0x3e128040	0.14306736
1	0xbdeb8646	-0.1150022
2	0xbdc9c627	-0.09852248
3	0xbd6eea96	-0.058329187
4	0xbdf6ad9a	-0.120448306
5	0x3e82b060	0.25525188
6	0x3d8d1e52	0.06890549
7	0x3ce83d94	0.028349675
8	0x3e67e534	0.22646028
9	0x3e021d52	0.12706497
10	0x3e07de4f	0.13268398
11	0x3bf59223	0.0074942275
12	0xba2a7feb	-0.00065040466
13	0x3d4a710a	0.04942421
14	0xbe4f7e62	-0.20263055
15	0xbe5201bf	-0.20508479
16	0xbde124fa	-0.10993381
17	0xbd29942d	-0.041401077
18	0xbe851f70	-0.26000547
19	0x3e9d74ed	0.3075327
20	0x3d8474c5	0.064675845
21	0x3ccf329c	0.025292687
22	0xbdcffd81	-0.10155774
23	0x3b1232bf	0.002230808
24	0x3d7dcadf	0.06196105
25	0x3d013e0f	0.031553324
26	0x3e1b38ef	0.15158437
27	0x3e02404d	0.12719841
28	0x3e236b13	0.15958814
29	0x3d8485d8	0.06470841
30	0x3d4b223f	0.049593206
31	0xbd9e1b53	-0.077200554
32	0xbd8b88cf	-0.068132035
33	0x3c95a685	0.01826788
34	0x3e1a8aa4	0.1509195
35	0x3e205373	0.15656833
36	0xbd2db6ad	-0.04241054
37	0x3d2c40eb	0.042054098
38	0x3cfca566	0.030840587
39	0xbd3f566a	-0.04671327
40	0x3d1add4e	0.03780871
41	0x3c89bbe9	0.016813235
42	0x3ea6d55f	0.32584664
43	0xbd7e884e	-0.06214171
44	0x3ea66983	0.32502374
45	0xbe8b4ff0	-0.27209425
46	0x3e3a8306	0.18214044
47	0x3e84034b	0.25783762
48	0x3e0b7420	0.13618517
49	0x3d2e4284	0.042543903
50	0xbedabe30	-0.42723227
51	0xbe156bfc	-0.14591974
52	0xbf240404	-0.6406863
53	0xbec5c9e9	-0.38630608
54	0xbead743f	-0.3387775
55	0x3de5ca3c	0.11220214
56	0xbdaa4d50	-0.083155274
57	0x3cafbce4	0.021452375
58	0xbe2e4ed3	-0.17022257
59	0xbc8c4e21	-0.017127099
60	0x3d672191	0.056428496
61	0x3ed9d66b	0.425464
62	0x3e1c8d5d	0.15288301
63	0x3dc29f56	0.09503047
64	0xbdb96433	-0.090523146
65	0x3d96f95d	0.07371781
66	0x3e6ed458	0.2332319
67	0x3cd56a20	0.02605158
68	0x3d982040	0.07428026
69	0xbd54a56e	-0.05191558
70	0x3cd39458	0.025827572
71	0x3e1bae2b	0.15203159
72	0x3e2aec5e	0.1669173
73	0xbe49b86b	-0.19699256
74	0x3e1c0dd9	0.15239657
75	0xbe580bc3	-0.21098237
76	0x3dabea7b	0.08394333
77	0xbd8818cb	-0.06645354
78	0xbd9cb32e	-0.07651363
79	0xbd698659	-0.05701289
80	0x3da5df25	0.08099202
81	0x3e10969f	0.14119957
82	0x3df1a732	0.11799468
83	0x3e97643d	0.29568663
84	0x3e03445f	0.1281905
85	0x3cd130f9	0.025536047
86	0x3decd525	0.115640916
87	0xbdada376	-0.08478443
88	0xbd71aa37	-0.05900022
89	0x3dc09d99	0.09405059
90	0xbcafd9a9	-0.021466093
91	0xbd6f51a8	-0.058427483
92	0x3e34457f	0.17604636
93	0x3d70f490	0.058826983
94	0x3cce504d	0.025184775
95	0xbf00dfeb	-0.5034167
96	0xbe1d39ea	-0.15354124
97	0xbdbd20cc	-0.09234771
98	0xbd82175a	-0.0635211
99	0xbdfeddae	-0.12444626
100	0x3d300b83	0.04297973
101	0x3e05b58b	0.13057534
102	0x3e19e53e	0.15028855
103	0x3e40f5a6	0.18843707
104	0x3b09d3f1	0.0021030868
105	0xbdd6f75c	-0.10496399
106	0xbe6fd62a	-0.23421541
107	0x3e8e5b7e	0.27804178
108	0x3b12c6bf	0.0022396294
109	0x3e5a2d30	0.213063
110	0x3f04467b	0.51670045
111	0x3de9e800	0.114212036
112	0x3e5edbe1	0.21763565
113	0x3dfdbd33	0.123896025
114	0xbe3ba492	-0.18324497
115	0xbd68df86	-0.056853794
116	0xbd97779b	-0.0739586
117	0xbe32ee14	-0.17473632
118	0xbdb6099a	-0.0888855
119	0x3e220ce8	0.15825236
120	0xbc139b7c	-0.009009238
121	0x3e7a82f3	0.24464016
122	0x3e2e657a	0.17030898
123	0x3e117f2c	0.14208668
124	0x3dd0c4f2	0.10193814
125	0x3c13f583	0.0090307025
126	0xbe197c45	-0.14988811
127	0x3e35c278	0.17749965
128	0xbe4c89bf	-0.19974421
129	0x3e911848	0.28338838
130	0xbcba51bf	-0.022744058
131	0x3e2d2864	0.16909939
132	0xbd83f168	-0.06442529
133	0xbe1b13f8	-0.15144336
134	0x3d6cc0e1	0.05780113
135	0x3da2cf64	0.07949713
136	0xbd350728	-0.044196278
137	0x3d926dde	0.07149862
138	0xbb39edbc	-0.002837046
139	0x3eaafed5	0.33397546
140	0xbd552a92	-0.05204255
141	0x3df491d7	0.11941879
142	0x3e1a0315	0.15040238
143	0x3d9ba7e5	0.07600383
144	0xbd443311	-0.047900263
145	0x3e495da2	0.19664624
146	0xbd9cc3bc	-0.07654521
147	0x3e021b53	0.12705736
148	0x3d64226b	0.055696886
149	0xbe1c62c2	-0.15272048
150	0xbe41fcf6	-0.18944153
151	0x3d7a42cd	0.061098862
152	0x3cc1f6c4	0.023677237
153	0xbd54e4ba	-0.051975943
154	0x3d54a264	0.05191268
155	0xbd95ef2c	-0.07321009
156	0x3b493610	0.003070239
157	0x3e7267cd	0.2367241
158	0x3d41f82a	0.04735581
159	0x3e04dddc	0.12975258
160	0x3d5d3e27	0.05401435
161	0xbcfd9d50	-0.030958802
162	0x3e49a4c6	0.19691762
163	0xbdafa073	-0.08575525
164	0x3e05a0ea	0.13049665
165	0x3d9064cf	0.07050478
166	0xbe522636	-0.20522389
167	0x3c854a04	0.016270645
168	0x3d99856d	0.07496152
169	0xbbc31220	-0.0059530884
170	0x3e16effa	0.14739981
171	0xbd830880	-0.063981056
172	0xbc9c2bd5	-0.01906387
173	0xbd3d96aa	-0.046286263
174	0x3c58c8a2	0.013231428
175	0xbd63dad6	-0.05562862
176	0x3e3ea712	0.1861842
177	0x3e5efffa	0.21777335
178	0x3e2be990	0.16788316
179	0x3dab8010	0.08374035
180	0x3e06c459	0.13160838
181	0xbd8d3088	-0.06894022
182	0x3ec05adc	0.3756932
183	0xbe8065f0	-0.25077772
184	0x3e8860fa	0.26636487
185	0xbf28c55b	-0.6592614
186	0xbe910f92	-0.28332192
187	0xbe49cf7e	-0.19708058
188	0x3e878121	0.26465705
189	0xbe0f176f	-0.13973783
190	0x3e08896a	0.1333367
191	0xbda605d1	-0.08106578
192	0xbe1f03dd	-0.15528817
193	0xbdf381bb	-0.118899785
194	0xbc64c9a5	-0.013964091
195	0x3e2e8bc7	0.17045508
196	0x3dad0b91	0.08449472
197	0x3e8e4d5f	0.27793404
198	0x3db0b8ce	0.08628999
199	0x3e857ee1	0.26073363
200	0x3e0c33d1	0.13691641
201	0x3ccdc5df	0.025118766
202	0x3e46393a	0.19357768
203	0xbc3e1274	-0.011601079
204	0xbe6c37ec	-0.23068208
205	0xbea3d285	-0.3199655
206	0x3eaa5483	0.33267602
207	0xbd77603d	-0.060394514
208	0x3e843e78	0.2582891
209	0xbe5a75f3	-0.21334057
210	0x3d13c7fc	0.03607939
211	0xbdf8e253	-0.12152543
212	0xbdc9dd78	-0.09856695
213	0x3c99e507	0.018785967
214	0x3dc24af3	0.09486952
215	0x3dd7e1bc	0.10541102
216	0x3ea6295a	0.32453424
217	0xbcadf629	-0.021235542
218	0xbc882e2b	-0.016623577
219	0x3dba4877	0.09095853
220	0xbd355347	-0.044268873
221	0x3da02353	0.078192376
222	0xbd3a0b50	-0.045420945
223	0xbd8eff0f	-0.06982242
224	0xbd383a56	-0.04497751
225	0xbe4ea9e3	-0.20181994
226	0xbd8fde13	-0.07024779
227	0xbde6d83f	-0.112717144
228	0xbea84be9	-0.32870415
229	0xbe6709f5	-0.22562392
230	0xbbeaf1fd	-0.0071699605
231	0xbe082d8a	-0.13298622
232	0x3e4642d1	0.19361426
233	0xbce48f3c	-0.02790033
234	0x3d8bdc05	0.06829075
235	0x3e83437d	0.25637427
236	0xbcc3725a	-0.023858238
237	0x3d55732f	0.0521118
238	0x3c7ee116	0.015556594
239	0xbe8a3975	-0.2699696
240	0xbda6e197	-0.081484966
241	0xbc17de7d	-0.009269354
242	0xbd9d6aa4	-0.07686356
243	0x3e58ebf9	0.21183766
244	0xbe58fa64	-0.21189266
245	0xbe7a8d49	-0.24467959
246	0x3cadd00f	0.021217374
247	0xbdb373d8	-0.0876233
248	0x3d945bc7	0.07244068
249	0x3d018677	0.031622376
250	0xbca10b7e	-0.0196588
251	0x3c538307	0.012909657
252	0x3e41bca6	0.1891962
253	0x3d88ec8e	0.06685744
254	0x3e937f92	0.28808266
255	0x3e0c72de	0.13715693

lstm.weight_hh_l0 f4 [256, 64]
0	0xbdd699cd	-0.10478554
1	0x3cdb07de	0.02673715
2	0xbe9ee41d	-0.31033412
3	0x3e184f36	0.14873967
4	0x3d5a44e0	0.05328834
5	0x3e0d0068	0.13769686
6	0xbdf0b37c	-0.11752984
7	0x3dd683dc	0.10474369
8	0x3dde6ea5	0.108609475
9	0x3ea354ec	0.31900728
10	0xbdd5b02c	-0.10433993
11	0xbdad5431	-0.08463324
12	0xbda262e0	-0.07929015
13	0xbe1025b1	-0.14076878
14	0xbe0ebf6a	-0.13940206
15	0x3dd38285	0.10327629
16	0xbe2fc403	-0.17164616
17	0xbd95362b	-0.07285722
18	0xbdc5927f	-0.096470825
19	0xbe19028a	-0.14942375
20	0xbd26c6e7	-0.04071703
21	0x3e9659d3	0.29365405
22	0x3d12088c	0.035652682
23	0x3d9c3d24	0.07628849
24	0x3cfffe1e	0.031249102
25	0x3e94fe2c	0.29100168
26	0x3d79917e	0.060929768
27	0xbb85794c	-0.0040732976
28	0xbe5b4853	-0.21414308
29	0x3dd8bd99	0.10583038
30	0x3d178fd3	0.037002396
31	0xbd808d71	-0.06276978
32	0x3bd3fe76	0.006469543
33	0x3d76df39	0.060271475
34	0xbeffea4e	-0.49983448
35	0x3defdb86	0.11711793
36	0x3d752a52	0.059854813
37	0x3de62854	0.11238161
38	0x3d883abb	0.06651827
39	0x3ced7414	0.028986014
40	0xbe16a10e	-0.14709875
41	0x3e2c26ce	0.16811678
42	0x3e8ae3f6	0.27127045
43	0x3e41879a	0.18899384
44	0x3e237180	0.15961266
45	0xbafb9438	-0.0019193953
46	0x3e183849	0.14865221
47	0xbdac4f82	-0.084136024
48	0xbdf5258c	-0.11970052
49	0x3e863520	0.26212406
50	0xbc9a3ae3	-0.018826908
51	0xbe8e3091	-0.27771428
52	0x3e073ac0	0.13206005
53	0x3b7dd981	0.0038734379
54	0x3b073bf7	0.0020635107
55	0x3da513b9	0.080604024
56	0xbd7b9e13	-0.06143005
57	0x3d198c80	0.037487507
58	0x3daa1cf4	0.083063036
59	0x3ce1b45c	0.027551822
60	0xbdadb8b7	-0.08482497
61	0xbed4ec77	-0.41586658
62	0xbeb81109	-0.35950497
63	0xbe1a652c	-0.15077657
64	0xbe954aa2	-0.29158503
65	0xbd05b6b3	-0.03264494
66	0x3e19abad	0.15006895
67	0xbe1a094d	-0.1504261
68	0x3dda4879	0.10658354
69	0xbcbc9ce6	-0.023024034
70	0xbdb3c958	-0.08778638
71	0xbed21fc8	-0.41039872
72	0x3e52f0b7	0.20599638
73	0x3c23bb52	0.009993391
74	0x3d73a60c	0.059484527
75	0xbd3a7747	-0.045523908
76	0x3e89fac0	0.2694912
77	0x3e788530	0.24269557
78	0x3e0cf08e	0.1376364
79	0xbea5d40e	-0.32388347
80	0xbd516d19	-0.051129434
81	0x3e1b4eeb	0.15166824
82	0xbe793350	-0.2433598
83	0x3e6e45b4	0.23268777
84	0xbe242ae0	-0.1603198
85	0x3d9ac541	0.075571544
86	0x3e47298c	0.19449443
87	0x3eca3a33	0.39497527
88	0xbe871a84	-0.26387417
89	0x3e7711a9	0.2412783
90	0x3d512ae0	0.05106628
91	0x3ce66cca	0.028128047
92	0xbd11bfd3	-0.03558333
93	0x3e308e96	0.17241892
94	0x3e8d447e	0.27591318
95	0xbea4ec61	-0.32211593
96	0xbe196f85	-0.14983948
97	0xbde56df7	-0.11202615
98	0x3e435e07	0.19078837
99	0xbdd943ac	-0.106086105
100	0x3e7a6758	0.24453485
101	0x3e917235	0.28407446
102	0xbe2a2913	-0.16617231
103	0x3e8dbfc6	0.27685374
104	0xbea9a95d	-0.33137026
105	0xbe8b7800	-0.2723999
106	0x3e25c119	0.16186942
107	0x3cdf7330	0.027276605
108	0x3e8b58e9	0.2721627
109	0xbe54d4bb	-0.20784275
110	0x3e289603	0.16463475
111	0xbdc5472f	-0.09632718
112	0x3d9db051	0.07699645
113	0x3db5f6e5	0.08884982
114	0xbe076602	-0.13222507
115	0xbe054a50	-0.13016629
116	0xbe525cfd	-0.20543285
117	0x3e83ccc9	0.25742176
118	0x3da121a5	0.07867745
119	0x3dce5500	0.10074806
120	0x3dcb3a76	0.0992326
121	0xbe1ffb63	-0.1562324
122	0x3e4754bf	0.19465922
123	0x3e2722de	0.16321895
124	0xbdfb3635	-0.122661985
125	0xbae858e4	-0.0017726687
126	0xbe69c526	-0.22829112
127	0xbe783f43	-0.24242882
128	0xbeeaf9f9	-0.4589384
129	0x3dff28db	0.124589644
130	0xbe649890	-0.22323823
131	0x3f0995e4	0.5374434
132	0x3e1b7c0c	0.15184039
133	0xbe8f7846	-0.2802145
134	0x3e513f1f	0.20434235
135	0xbee9e50d	-0.45682564
136	0x3d9cd8e0	0.07658553
137	0x3e738b46	0.23783597
138	0xbeca180c	-0.3947147
139	0xbe58452c	-0.21120137
140	0xbec4984b	-0.3839744
141	0x3dfd0d6f	0.12356078
142	0x3e9ceab3	0.3064781
143	0xbe9068ad	-0.2820486
144	0xbca7f3b2	-0.020501945
145	0x3e83c9a3	0.25739774
146	0xbe31ede1	-0.173759
147	0xbd685b27	-0.056727555
148	0xbeb441bf	-0.3520641
149	0xbc70b289	-0.014691004
150	0x3e297f7c	0.16552538
151	0xbdc3269e	-0.0952885
152	0x3d960e30	0.07326925
153	0x3cbdeb0d	0.02318337
154	0x3e180f28	0.14849532
155	0xbe28b4b4	-0.16475183
156	0x3c133f0a	0.008987198
157	0x3e90e0a4	0.28296387
158	0x3e5ed81c	0.21762127
159	0xbe0da499	-0.1383232
160	0x3c45fcf7	0.012084237
161	0xbdd09500	-0.101846695
162	0xbdbe624f	-0.092960946
163	0xbdbb9133	-0.09158554
164	0xbf553513	-0.8328411
165	0x3e14686e	0.14492962
166	0xbeeb0c8e	-0.45908016
167	0x3e5ecd31	0.21757962
168	0xbee66f55	-0.45006815
169	0xbf42b734	-0.76060796
170	0x3d77d7f9	0.060508702
171	0xbb14c9ce	-0.0022703293
172	0x3f21d0c8	0.632092
173	0x3d001089	0.03126577
174	0xbe5aec45	-0.21379192
175	0xbec1e904	-0.3787309
176	0xbe0400bc	-0.12890905
177	0x3ed6902f	0.41906878
178	0x3d077790	0.033073008
179	0xbeec5ee9	-0.4616616
180	0x3d88870c	0.06666383
181	0x3d28e65e	0.04123532
182	0xbd657315	-0.056017954
183	0x3e1e257e	0.1544399
184	0x3e49186f	0.19638227
185	0xbe81fd3e	-0.2538852
186	0x3f02b521	0.5105763
187	0x3e7ff083	0.24994092
188	0xbb9d0599	-0.004791927
189	0x3f1e6dd5	0.6188634
190	0x3d84d3ba	0.06485696
191	0xbda88a1a	-0.08229466
192	0xbcf38371	-0.029725762
193	0xbe520139	-0.20508279
194	0x3dae1f09	0.08502013
195	0x3e37f45e	0.17964312
196	0xbe065f6f	-0.13122343
197	0x3e08405c	0.13305801
198	0x3dfc6eae	0.12325798
199	0x3e88f060	0.26745892
200	0xbe0fca82	-0.14042094
201	0x3ccd7ab3	0.025082922
202	0x3e8f8ef5	0.28038755
203	0xbcadb226	-0.021203112
204	0xbe1b62df	-0.15174435
205	0x3e0eb8a8	0.13937628
206	0xbe53d5ac	-0.20686978
207	0xbe914edc	-0.28380477
208	0xbdc41322	-0.09573962
209	0xbd7fad23	-0.062420975
210	0x3e6895a7	0.22713338
211	0xbe65993f	-0.2242174
212	0x3c8a95d0	0.01691714
213	0xbd91f082	-0.07125951
214	0xbe8d39ab	-0.2758306
215	0x3b495af3	0.0030724376
216	0x3ca897a2	0.020580117
217	0xbdecf5f7	-0.115703516
218	0x3c0bdee5	0.008537029
219	0xbdeb477b	-0.11488243
220	0xbbbea063	-0.0058174594
221	0xbdccdef6	-0.10003464
222	0xbe1255e2	-0.14290574
223	0xbe944bf5	-0.289642
224	0xbd016c07	-0.031597164
225	0x3e8f6a54	0.2801081
226	0xbeada7fc	-0.33917224
227	0x3eb3b47f	0.35098645
228	0xbe6c5c42	-0.23082069
229	0xbde19198	-0.11014098
230	0xbd824aeb	-0.06361946
231	0xbe4abb82	-0.19798091
232	0xbe22cb61	-0.15897895
233	0xbf369141	-0.7131539
234	0xbe60c44d	-0.21949883
235	0x3e63fffb	0.22265618
236	0xbdb50485	-0.08838753
237	0x3c533e69	0.012893298
238	0x3e1f68dd	0.15567346
239	0xbda39e20	-0.07989144
240	0xbd797863	-0.060905825
241	0x3eeac9d2	0.45857102
242	0xbe078c67	-0.13237153
243	0xbe8df52d	-0.27726117
244	0xbe87727b	-0.2645453
245	0x3deb5502	0.11490823
246	0xbb6e44b7	-0.0036356875
247	0x3c658db0	0.014010832
248	0xbe0fbcf3	-0.14036922
249	0xbeecbc7f	-0.4623756
250	0xbd4f553d	-0.0506184
251	0x3eb8b68d	0.36076775
252	0x3e643cf5	0.22288878
253	0x3e6f6675	0.23378928
254	0x3e1aa511	0.1510203
255	0xbe52ac86	-0.20573625

lstm.bias_ih_l0 f4 [256]
0	0x3dac79be	0.08421658
1	0xbe459082	-0.19293407
2	0xbebbbb55	-0.3666636
3	0xbe9fb844	-0.3119527
4	0xbdab30f4	-0.083589464
5	0xbc9e1b01	-0.019299986
6	0xbe8b92a5	-0.27260318
7	0xbee2fe95	-0.44334856
8	0xbe97bf67	-0.29638216
9	0xbec7a208	-0.38990808
10	0xbf369930	-0.71327496
11	0xbe0eb3f4	-0.13935834
12	0xbe3c5b6c	-0.1839425
13	0xbe7af624	-0.24507958
14	0xbde8becb	-0.11364516
15	0xbe46d2d8	-0.19416368
16	0xbc4c42f3	-0.012467134
17	0xbe7c0a4f	-0.24613307
18	0xbe5047de	-0.20339915
19	0xbecb0158	-0.39649463
20	0xbe6f414c	-0.23364753
21	0xbed1c1e7	-0.40968248
22	0xbd92139d	-0.07132647
23	0xbe3f55ef	-0.18685125
24	0xbe647d87	-0.2231351
25	0xbe56359a	-0.20918885
26	0xbd4fa0d1	-0.050690476
27	0xbe289b44	-0.16465479
28	0xbd427580	-0.047475338
29	0x3d9e3eee	0.07726847
30	0xbe4cb19b	-0.19989626
31	0xbf0e6d07	-0.5563511
32	0x3cc1070b	0.023562929
33	0xbeb01189	-0.34388378
34	0xbdd48652	-0.10377182
35	0xbeeda0f7	-0.4641187
36	0xbed96aba	-0.42464238
37	0xbe23a6d2	-0.15981606
38	0xbe6f6517	-0.23378406
39	0xbeeafcd8	-0.4589603
40	0xbcbe55a4	-0.023234196
41	0xbea73456	-0.32657117
42	0xbeac74a5	-0.33682743
43	0xbf117839	-0.5682407
44	0xbe3a7e5b	-0.18212263
45	0xbeb724e2	-0.35770327
46	0xbede1ff8	-0.43383765
47	0xbea687ce	-0.32525486
48	0x3f4964e3	0.78669566
49	0x3e5e207e	0.21692082
50	0xbf04afd2	-0.5183078
51	0xbd87de19	-0.06634159
52	0xbec53b30	-0.3852172
53	0xbd0ed17c	-0.03486775
54	0xbe7645d9	-0.24050082
55	0xbe60e630	-0.2196281
56	0xbebc0f10	-0.36730242
57	0xbea7ea0e	-0.32795757
58	0xbeaab9bc	-0.3334483
59	0xbe122cf9	-0.14274968
60	0xbdeca133	-0.11554184
61	0xbe2cf044	-0.16888529
62	0xbe129dd2	-0.14318016
63	0xbe0dd816	-0.13851961
64	0x3e0f077a	0.13967696
65	0x3cb86d0c	0.022512935
66	0xbf1e21e8	-0.61770487
67	0x3ce30af3	0.027715182
68	0x3e13bc5c	0.14427322
69	0xbeeeb153	-0.46619663
70	0xbb7abc45	-0.003825919
71	0x3dd39d61	0.10332752
72	0x3e54c553	0.20778398
73	0x3e4d2011	0.20031764
74	0xbea9fa61	-0.33198836
75	0xbe8f5330	-0.27993155
76	0xbed1e7bd	-0.40997115
77	0xbe808c0d	-0.2510685
78	0xbe3f8a70	-0.18705153
79	0xbed73664	-0.42033684
80	0xbe6aa3cd	-0.22914048
81	0xbe303b34	-0.17210084
82	0xbd62c24b	-0.055361073
83	0xbe98f94b	-0.29877695
84	0xbe312a67	-0.17301331
85	0x3e027c7e	0.12742803
86	0xbcc74406	-0.024324428
87	0xbe82cb37	-0.25545666
88	0xbe33c048	-0.17553818
89	0x3b0b8461	0.002128862
90	0xbe33ca4a	-0.17557636
91	0xbe8855e6	-0.26628035
92	0xbd63767f	-0.05553293
93	0xbe96b3d5	-0.29434076
94	0x3db9f016	0.09078996
95	0xbcbf7f21	-0.02337605
96	0xbe041fa5	-0.12902696
97	0x3da6652f	0.08124768
98	0xbed92f89	-0.4241908
99	0xba106ec8	-0.0005509672
100	0xbf06a98a	-0.52602446
101	0xbd9298fd	-0.071580864
102	0xbc0dfaf0	-0.008665785
103	0xbd477717	-0.048697557
104	0x3d8aa462	0.06769635
105	0x3db2c76d	0.08729444
106	0xbd3c3613	-0.045950007
107	0xbe6c4041	-0.23071386
108	0x3e39ca76	0.18143639
109	0x3dde8afc	0.10866353
110	0xbe84a380	-0.2590599
111	0xbd94cb19	-0.072653
112	0x3ce4a217	0.027909322
113	0xbddd4bc4	-0.10805467
114	0xbe9ab0da	-0.30213052
115	0xbe7e1776	-0.24813637
116	0xbe2dd41e	-0.16975448
117	0xbb5c242e	-0.00335909
118	0xbe82b87b	-0.25531372
119	0xbe16b9a0	-0.14719248
120	0xbe614dcd	-0.22002335
121	0xbed008ee	-0.40631813
122	0x3d922c32	0.07137336
123	0xbe1d9616	-0.15389284
124	0xbd501ae1	-0.050806884
125	0xbe14f06b	-0.14544837
126	0xbb3bc078	-0.0028648656
127	0x3dd2dc14	0.10295883
128	0xbd52cc38	-0.05146429
129	0x3da0113c	0.07815787
130	0x3d084943	0.033272993
131	0xbdab4a2a	-0.08363755
132	0x3dc1965c	0.09452507
133	0x3e09bc8f	0.13450836
134	0x3c714b51	0.0147274295
135	0x3b14b3dd	0.0022690215
136	0x3e66b8b4	0.22531396
137	0x3b931bf7	0.0044894177
138	0x3e0ba313	0.13636427
139	0x3d9191e8	0.071079075
140	0x3dd8e48a	0.10590465
141	0xbc570e28	-0.013125934
142	0x3e2d2fe7	0.16912805
143	0x3db29d7c	0.08721444
144	0xbd1f81aa	-0.038942017
145	0xbc67b030	-0.0141411275
146	0x3e0448df	0.12918423
147	0x3d41ea72	0.047342725
148	0xbe164508	-0.14674771
149	0x3e16d674	0.14730245
150	0x3e0bfc47	0.13670455
151	0x3acc4308	0.0015583942
152	0xbe0f4218	-0.13990057
153	0xbd524ee2	-0.05134476
154	0x3d9724c1	0.07380057
155	0xbcb72202	-0.022355083
156	0x3d4f3b65	0.050593752
157	0x3de0da36	0.109791204
158	0x3d839f0c	0.0642682
159	0x3d92e9dc	0.071735114
160	0xbcda0975	-0.026615838
161	0x3d90c7f8	0.07069391
162	0xba84301b	-0.0010085137
163	0xbdc934c7	-0.098245196
164	0x3cd46515	0.025927106
165	0xbd104bdb	-0.03522859
166	0x3cb4889f	0.022037802
167	0xbd18a260	-0.037264228
168	0x3e870bc1	0.26376155
169	0x3c1a7401	0.009427072
170	0xbd51e5be	-0.05124449
171	0xbd7a2021	-0.061065797
172	0xbe67e4d7	-0.22645889
173	0x3c263707	0.0101449555
174	0xbc3efca8	-0.011656918
175	0x3e1c88a8	0.15286505
176	0x3e12371f	0.1427884
177	0x3cff7183	0.031182056
178	0x3dac8d92	0.0842544
179	0xbd203555	-0.03911336
180	0xbc75067a	-0.014955157
181	0x3c117c8d	0.008879793
182	0x3e0ba2d2	0.1363633
183	0x3cba58db	0.022747448
184	0xbdf04b64	-0.117331296
185	0x3d870e51	0.065945275
186	0x3cc86b59	0.02446525
187	0x3c996bc8	0.018728152
188	0xbd2a2c2b	-0.041546028
189	0xbc4c999a	-0.012487793
190	0x3dddcf99	0.10830612
191	0xbc1165f6	-0.008874407
192	0x3e438393	0.1909316
193	0xbea5f0aa	-0.32410175
194	0xbe9d47a3	-0.30718717
195	0xbcfe5cdd	-0.03105014
196	0xbc94390e	-0.018093612
197	0xbe324b58	-0.17411554
198	0xbe80ab10	-0.2513051
199	0xbef1f28d	-0.47255364
200	0x3d2ea098	0.042633623
201	0xbdd7ee98	-0.10543555
202	0xbed495f8	-0.41520667
203	0xbbc6427f	-0.0060504074
204	0xbe92a008	-0.2863772
205	0xbef622e6	-0.480735
206	0xbe8b05b7	-0.27152798
207	0xbe76ddad	-0.24108
208	0x3e13a101	0.14416887
209	0xbe4144ef	-0.18873952
210	0xbe1031c1	-0.1408148
211	0xbecde921	-0.40216926
212	0xbea9bc00	-0.33151245
213	0xbe2b0fdf	-0.16705273
214	0xbe10630c	-0.14100283
215	0xbdbd769e	-0.0925114
216	0xbe97b762	-0.29632097
217	0xbeb5864c	-0.35454023
218	0xbdc94e5a	-0.098293975
219	0xbedaa556	-0.42704266
220	0xbce9cec2	-0.028540973
221	0x3dd6bdc2	0.10485412
222	0x3d40cf76	0.04707285
223	0xbe69675d	-0.22793336
224	0x3d228090	0.039673388
225	0xbe10664f	-0.14101528
226	0xbe0dd1bd	-0.1384954
227	0xbec7ffe5	-0.3906242
228	0xbea46e03	-0.32115182
229	0xbdbda1aa	-0.092593506
230	0xbe58663c	-0.2113275
231	0xbed5bd47	-0.4174597
232	0xbdda05c3	-0.1064563
233	0xbec4d396	-0.38442677
234	0xbecc073b	-0.39849266
235	0xbf150109	-0.58204705
236	0xbd7ad06e	-0.06123393
237	0xbe7359b8	-0.23764694
238	0xbf0ca5b7	-0.5494036
239	0xbeb65f97	-0.35619804
240	0xbc878f0d	-0.016547704
241	0x3e85f8df	0.26166436
242	0xbf288584	-0.6582873
243	0xbdc6a200	-0.09698868
244	0xbe9e3033	-0.30896148
245	0x3df55753	0.119795464
246	0xbd8feb39	-0.07027287
247	0xbea47a67	-0.32124636
248	0xbe8e7854	-0.27826178
249	0xbe5ca345	-0.21546657
250	0xbe05814c	-0.13037604
251	0xbea023d9	-0.3127735
252	0xbe1cd70b	-0.15316407
253	0xbdbbf86c	-0.09178242
254	0xbce2da6d	-0.027692044
255	0xbd19915b	-0.037492137

lstm.bias_hh_l0 f4 [256]
0	0xbdee012d	-0.11621318
1	0xbe6d36ba	-0.23165408
2	0xbe94367a	-0.28947812
3	0xbea27073	-0.31726417
4	0xbdb404b9	-0.08789963
5	0xbdd3123b	-0.103062116
6	0xbe780b41	-0.24223043
7	0xbec26221	-0.3796549
8	0xbea1c11d	-0.31592646
9	0xbef5b3cf	-0.47988746
10	0xbf0762de	-0.52885234
11	0xbea06343	-0.3132573
12	0xbeafd485	-0.34341827
13	0xbedb5bea	-0.42843562
14	0xbe24c592	-0.16090992
15	0xbe596126	-0.21228465
16	0xbde98d6e	-0.11403929
17	0xbe264b66	-0.162397
18	0xbe99ad32	-0.3001495
19	0xbefc9004	-0.49328625
20	0xbe42dd91	-0.19029833
21	0xbecb64b6	-0.39725274
22	0xbe043b49	-0.1291324
23	0xbd92a78e	-0.07160865
24	0xbe844239	-0.25831774
25	0xbebd61e6	-0.36988753
26	0xbddf8a62	-0.10915066
27	0xbe0d2831	-0.13784863
28	0x3dc6653e	0.09687279
29	0xbd494af4	-0.049143746
30	0xbe2bd298	-0.16779554
31	0xbefb7f21	-0.4912043
32	0xbd142467	-0.03616753
33	0xbe9434fa	-0.28946668
34	0xbcbdd4bd	-0.02317273
35	0xbed10ab4	-0.40828478
36	0xbe804b60	-0.25057507
37	0xbe10dd1b	-0.14146845
38	0xbe17d3b9	-0.1482686
39	0xbf12330b	-0.57109135
40	0xbe3a0ea3	-0.18169646
41	0xbef1abdf	-0.4720144
42	0xbe88f91d	-0.26752558
43	0xbec8d02c	-0.39221323
44	0xbe3cb834	-0.18429643
45	0xbea36488	-0.31912637
46	0xbf1732b0	-0.5906172
47	0xbea2b404	-0.31777966
48	0x3f3f978d	0.74840623
49	0x3d122eee	0.035689287
50	0xbf0639de	-0.5243205
51	0xbdf4e16c	-0.11957058
52	0xbeda7871	-0.42670015
53	0xbd00f118	-0.031479925
54	0xbe8f2c93	-0.27963695
55	0xbede089e	-0.4336595
56	0xbe911468	-0.2833588
57	0xbe5710db	-0.21002524
58	0xbe16ae61	-0.14714958
59	0xbea995ee	-0.331222
60	0xbeacc4da	-0.33743936
61	0xbe938676	-0.28813523
62	0xbe4dbe03	-0.20092015
63	0xbdeb1b5f	-0.1147983
64	0x3d6575dd	0.056020606
65	0xbe00b19a	-0.1256775
66	0xbf15ffec	-0.5859363
67	0x3c2ae2e7	0.010430074
68	0x3e1b6829	0.15176453
69	0xbea8f139	-0.32996538
70	0xbdca54c6	-0.098794505
71	0xbd26c374	-0.040713742
72	0x3dc839e6	0.09776668
73	0x3e2ef256	0.17084631
74	0xbe0bb4eb	-0.13643233
75	0xbe3ae85b	-0.18252699
76	0xbed53e72	-0.41649204
77	0xbe2c5031	-0.16827466
78	0xbdaac77f	-0.08338832
79	0xbeb32975	-0.34992567
80	0xbdcb8e4d	-0.09939251
81	0xbdc83437	-0.09775584
82	0xbdb76fb4	-0.089568526
83	0xbe572e24	-0.21013695
84	0x3ba83a92	0.0051339353
85	0xbcbda234	-0.023148634
86	0xbe02fd6b	-0.12791984
87	0xbe7f367b	-0.24923126
88	0xbdc5114d	-0.096224405
89	0xbe0dad03	-0.1383553
90	0xbea47ad3	-0.32124957
91	0xbe97ef4b	-0.29674754
92	0xbda41d64	-0.08013418
93	0xbe7be14b	-0.24597661
94	0xbd1d2d79	-0.038373444
95	0xbdd6c560	-0.10486865
96	0xbe0276cf	-0.12740634
97	0x3b0e0552	0.0021670652
98	0xbf1cef42	-0.6130258
99	0xbdabf595	-0.083964504
100	0xbecee95f	-0.40412423
101	0x3cf46d69	0.029837327
102	0xbda8b6d2	-0.08237995
103	0xbdea3bbb	-0.11437174
104	0xbd7a83fc	-0.061161026
105	0xbd08d60e	-0.033407263
106	0xbe52fec7	-0.20605002
107	0xbe829019	-0.25500563
108	0x3e5f16d8	0.21786058
109	0x3da95f45	0.08270124
110	0xbee073d8	-0.43838382
111	0xbe6f144b	-0.23347585
112	0xbe04a437	-0.12953268
113	0xbd32f1e6	-0.043687724
114	0xbef3b7c0	-0.47601128
115	0xbe26b51e	-0.16280028
116	0xbe141a74	-0.14463216
117	0xbe0bbebe	-0.13646981
118	0xbcaf6480	-0.021410227
119	0xbd281e0e	-0.041044287
120	0xbdfdb9ac	-0.1238893
121	0xbecda2f3	-0.40163383
122	0x3c749e00	0.014930248
123	0xbe867f6f	-0.262691
124	0xbe117b96	-0.142073
125	0xbe42179f	-0.18954323
126	0xbe61c8ae	-0.2204921
127	0x3c537d7c	0.012908336
128	0x3e0acbe1	0.13554336
129	0x3d1e592b	0.038659256
130	0x3d8aabf1	0.067710765
131	0x3cbac8a2	0.022800747
132	0xbd3bb57b	-0.04582737
133	0xbc0eebad	-0.008723182
134	0xbd74f694	-0.059805468
135	0xbc50fe9c	-0.012756016
136	0x3e9311ff	0.28724667
137	0x3d038f37	0.032119002
138	0x3c3dc55a	0.011582697
139	0xbcb63ecf	-0.022246746
140	0x3c7c5ace	0.015402509
141	0x3d9523d4	0.07282224
142	0x3e1727b6	0.14761242
143	0x3d642321	0.055697564
144	0x3c177821	0.00924495
145	0xbc512857	-0.012765965
146	0x3d234d07	0.03986838
147	0xbc90e2a1	-0.01768619
148	0xbd9dd4a6	-0.07706575
149	0x3e6cbee4	0.23119694
150	0x3d5419cc	0.051782414
151	0x3cdd83de	0.027040418
152	0xbcb44d05	-0.022009382
153	0xbe53d6f4	-0.20687467
154	0x3d845dfd	0.06463239
155	0xbd20725e	-0.03917157
156	0xbd92d75c	-0.07169983
157	0xbde3c098	-0.11120719
158	0xbda3383b	-0.079697095
159	0x3cc27293	0.023736274
160	0xbd8caeb2	-0.06869258
161	0x3e4aecb4	0.19816858
162	0xbb89d3ea	-0.0042061703
163	0xbdeb9662	-0.115032926
164	0xbc88947b	-0.016672364
165	0xbe39bb7b	-0.18137924
166	0x3e05d25d	0.13068528
167	0x3dde8cd1	0.10866702
168	0x3d9c9d0d	0.076471426
169	0x3e56211f	0.20911072
170	0x3d2000b1	0.03906316
171	0xbe42599b	-0.18979494
172	0xbe76d89f	-0.24106072
173	0x3e1e843a	0.15480128
174	0xbd370fd3	-0.044692826
175	0x3e751aca	0.23936
176	0x3e0478f4	0.12936765
177	0xbdb309d4	-0.08742109
178	0x3e3f1147	0.18658935
179	0x3e469d8c	0.19396037
180	0xbdba88ab	-0.091080986
181	0x3cd51807	0.026012434
182	0x3bc58d03	0.006028773
183	0x3d9a9228	0.07547408
184	0xbb77129d	-0.0037700303
185	0xbd21288a	-0.0393453
186	0xbd234bf8	-0.03986737
187	0xbcc21506	-0.023691665
188	0xbd9cfdbf	-0.07665586
189	0xbe0970f3	-0.13421993
190	0x3c2fafbb	0.01072305
191	0x3c7f7639	0.015592151
192	0x3e3e4b64	0.18583447
193	0xbe5510c2	-0.20807174
194	0xbe77fd1f	-0.24217652
195	0xbe480d17	-0.19536243
196	0x3c61ea12	0.013788717
197	0xbe7cff0e	-0.2470667
198	0xbe16285d	-0.14663835
199	0xbee4d437	-0.44693157
200	0x3e196600	0.14980316
201	0x3d11a0f5	0.03555389
202	0xbec9c84b	-0.39410624
203	0xbbd37b94	-0.0064539406
204	0xbe1835b2	-0.14864233
205	0xbeebbfe3	-0.46044835
206	0xbe9f2cf6	-0.3108899
207	0xbe99e09d	-0.3005418
208	0x3ce12aad	0.02748617
209	0x3cc31f75	0.02381871
210	0xbe6b0a1c	-0.22953075
211	0xbef3f285	-0.47645965
212	0xbdc920a3	-0.09820678
213	0xbe93fb6c	-0.28902757
214	0xbd9298f8	-0.07158083
215	0xbe1e6e80	-0.1547184
216	0xbebf9bab	-0.37423453
217	0xbe579b5b	-0.21055357
218	0xbd49198d	-0.049096633
219	0xbea9e7d5	-0.33184686
220	0x3d0c92ac	0.034319565
221	0xbdb44146	-0.088015124
222	0x3d92382e	0.07139622
223	0xbea4e1a2	-0.32203394
224	0xbb67c1b9	-0.003536327
225	0xbe329e5c	-0.17443222
226	0xbe2995fc	-0.16561121
227	0xbeb82316	-0.35964268
228	0xbef1c62d	-0.4722151
229	0xbdba9734	-0.09110871
230	0xbe66b2ae	-0.22529098
231	0xbeb3958f	-0.35075042
232	0x3ca21deb	0.019789657
233	0xbe2cb8ab	-0.1686732
234	0xbe67dca6	-0.22642764
235	0xbf30c592	-0.6905147
236	0x3cc9345d	0.024561102
237	0xbe57fbeb	-0.21092193
238	0xbf047ace	-0.51749885
239	0xbe9a8496	-0.3017928
240	0x3d83e7bb	0.064406835
241	0x3e3d15c5	0.18465336
242	0xbf4f358e	-0.8094109
243	0x3d03a374	0.032138303
244	0xbefee263	-0.49782094
245	0xbd3411f7	-0.043962445
246	0xbe410eec	-0.18853348
247	0xbe0f22c0	-0.139781
248	0xbe50d662	-0.2039428
249	0xbeb6aed7	-0.35680267
250	0xbe013562	-0.1261802
251	0xbe6b71de	-0.22992656
252	0xbe0a852a	-0.1352736
253	0xbe322776	-0.17397866
254	0xbce94ca6	-0.028478932
255	0x3dcd4793	0.10023417

lstm.weight_ih_l1 f4 [256, 64]
0	0xbe2c29a8	-0.16812766
1	0xbef7361d	-0.48283473
2	0xbde93777	-0.11387532
3	0xbf3970b3	-0.7243759
4	0xbebbc157	-0.36670944
5	0x3ef75369	0.48305824
6	0xbe1fa984	-0.15592009
7	0x3d92a3b4	0.0716013
8	0x3ed4b793	0.41546306
9	0x3f334fb4	0.7004349
10	0x3d63f37e	0.055652134
11	0x3be18f37	0.0068835276
12	0xbe992eb6	-0.2991845
13	0xbdf23307	-0.11826139
14	0xbc41bcd3	-0.011824804
15	0xbdf29327	-0.11844473
16	0x3e22c37d	0.15894885
17	0xbecf8d5f	-0.40537545
18	0x3e08a8d1	0.13345648
19	0x3d74d06b	0.059769075
20	0xbeb8eccc	-0.36118162
21	0xbea1f6a1	-0.31633475
22	0x3e1888d4	0.14895946
23	0xbeaa3c10	-0.3324895
24	0xbcc3f17e	-0.023918863
25	0xbe5bba4c	-0.21457785
26	0xbd98aea5	-0.07455186
27	0xbf36a5df	-0.7134685
28	0x3f0930f5	0.5359033
29	0x3d00132e	0.03126829
30	0xbe1eb8b2	-0.15500143
31	0x3eb8f674	0.3612553
32	0x3ea13a83	0.31489953
33	0x3d729330	0.0592224
34	0x3f6b1a9e	0.9183749
35	0x3d670e54	0.05641015
36	0x3eb8a8c6	0.36066264
37	0x3cfe2d4a	0.031027455
38	0xbe307afb	-0.17234413
39	0xbe89d005	-0.2691652
40	0x3f051acc	0.51994014
41	0x3e661414	0.22468597
42	0x3ebaec00	0.3650818
43	0xbe53bd54	-0.20677692
44	0x3d8d18d9	0.06889505
45	0x3e5c6d00	0.21525955
46	0xbe22fbd6	-0.1591638
47	0x3e102774	0.1407755
48	0x3ec05bfd	0.3757018
49	0xbd60b695	-0.054861624
50	0xbf56da14	-0.8392651
51	0xbe085ead	-0.13317366
52	0xbe8c71c7	-0.27430555
53	0x3e8b41fa	0.27198774
54	0xbe0566c8	-0.13027489
55	0x3e336d78	0.17522228
56	0xbc1a7fb4	-0.009429861
57	0xbe7c45ee	-0.24636051
58	0x3d7c6608	0.061620742
59	0x3ea022ab	0.3127645
60	0xbd903cc9	-0.07042844
61	0x3ee0148f	0.43765685
62	0xbf0fda7f	-0.56192774
63	0x3d408295	0.046999533
64	0x3df9ec9f	0.12203335
65	0xbe13a264	-0.14417416
66	0x3cd44b92	0.025914941
67	0x3e07bb30	0.13255
68	0xbcdb469d	-0.02676707
69	0x3de2ddbe	0.1107745
70	0x3cb088eb	0.021549663
71	0x3be5053f	0.006989151
72	0xbe8beab7	-0.2732751
73	0x3db7be84	0.08971885
74	0xbe360ddf	-0.17778729
75	0x3da451a6	0.08023386
76	0x3c4425dd	0.011971918
77	0x3c6459da	0.013937438
78	0xbe0cf784	-0.13766295
79	0xbdc4d0f0	-0.09610164
80	0x3d4379e2	0.04772366
81	0x39e75d21	0.0004412914
82	0xbd94858d	-0.07252035
83	0x3d8fd370	0.070227504
84	0x3c256a2e	0.010096116
85	0xbda7ad24	-0.08187321
86	0x3d3279b7	0.043573108
87	0x3dd00564	0.10157278
88	0x3e13aa4f	0.14420436
89	0xbc813cf6	-0.015776139
90	0x3bb33bbe	0.0054697683
91	0xbe26637a	-0.16248885
92	0xbd94dbf0	-0.07268512
93	0x3d8690bd	0.065705754
94	0xbe115620	-0.1419301
95	0xbab8a983	-0.0014088604
96	0xbda58c2b	-0.080833755
97	0xbe2d3c32	-0.16917494
98	0x3d2abb8f	0.041682776
99	0x3dcee5e9	0.10102446
100	0x3df4380d	0.11924753
101	0x3e26fe24	0.16307884
102	0x3da4c9fd	0.08046339
103	0x3cc3bf1b	0.023894837
104	0x3d92a108	0.071596205
105	0xbcf0b1f8	-0.029381737
106	0xbc02cdc6	-0.0079836305
107	0xbd90b178	-0.070650995
108	0x3e4372eb	0.19086806
109	0x3dadacee	0.08480249
110	0xbca739a0	-0.02041322
111	0xbcb051bf	-0.021523355
112	0xbd7525f8	-0.059850663
113	0x3dd41733	0.103559874
114	0xbdeefafc	-0.11668965
115	0xbddb1714	-0.10697761
116	0xbcb3e1d2	-0.021958265
117	0x3dcc2a1c	0.09968969
118	0x3bb57db3	0.005538666
119	0x3c83a5c3	0.016070252
120	0x3e1f517d	0.15558429
121	0xbe441772	-0.19149569
122	0xbd83fe3d	-0.064449765
123	0xbd50e63f	-0.05100083
124	0xbc5c15a6	-0.013432896
125	0x3e219417	0.15779148
126	0x3d88a2a1	0.06671644
127	0xbe0d8c5f	-0.13823079
128	0x3e1ae279	0.15125455
129	0x3e136732	0.14394835
130	0x3c9f26dd	0.019427711
131	0xbc90140c	-0.017587684
132	0xbe1818c9	-0.14853205
133	0xbd2b9ca2	-0.041897424
134	0xbc870fde	-0.016487058
135	0xbd706d14	-0.058697775
136	0xbe9d13cb	-0.30679163
137	0x3e183cc7	0.14866935
138	0x3db3bb61	0.08775974
139	0x3daa743c	0.08322951
140	0x3dd24254	0.10266557
141	0xbcd61005	-0.026130686
142	0xbe8068b8	-0.25079894
143	0x3de418cd	0.11137543
144	0xbd816f40	-0.063200474
145	0x3e246ec0	0.16057873
146	0xbdd6a504	-0.10480693
147	0x3ddd9955	0.108202614
148	0x3e969cd5	0.29416528
149	0xbd9282e1	-0.071538694
150	0xbead52e5	-0.33852306
151	0xbac89cc0	-0.0015305504
152	0xbd3c376a	-0.045951284
153	0x3d89b80a	0.06724556
154	0x3d213642	0.039358385
155	0xbd18947a	-0.037250973
156	0x3d3f0017	0.046630945
157	0x3d0cfa54	0.03441842
158	0x3e13a067	0.14416657
159	0x3c923f5c	0.017852478
160	0xbd3d47f9	-0.046211217
161	0xbdbd66f8	-0.09248155
162	0x3de219f6	0.11040108
163	0x3da29ab5	0.07939664
164	0x3e42f665	0.19039305
165	0x3de7db44	0.113211185
166	0x3cb1ea75	0.021718243
167	0xbd5eb77a	-0.054374196
168	0xbdabc630	-0.08387411
169	0x3ecee7fb	0.40411362
170	0xbd56a225	-0.052400727
171	0x3d0d13fa	0.03444288
172	0x3e227d99	0.15868224
173	0x3c45f908	0.012083299
174	0x3daf060b	0.085460745
175	0xbd62b523	-0.055348527
176	0x3d61c57b	0.055119973
177	0xbd87afd5	-0.06625334
178	0xbda8f3e3	-0.08249643
179	0xbdb110c0	-0.08645773
180	0x3d4bea7a	0.04978416
181	0xbd42d480	-0.047565937
182	0xbdb07246	-0.08615546
183	0xbddca052	-0.10772766
184	0xbcbe5219	-0.023232507
185	0x3e83d998	0.25751948
186	0xbc842616	-0.016131442
187	0xbde3cef7	-0.1112346
188	0xbe2ec3c6	-0.17066869
189	0xbe045f9a	-0.12927094
190	0x3dee2537	0.11628192
191	0xbc8c54fb	-0.017130366
192	0x3d78ec7e	0.06077241
193	0x3e06bfc1	0.13159086
194	0xbe7cc997	-0.24686275
195	0x3d21713a	0.039414622
196	0xbe0cfc3c	-0.13768095
197	0x3d030586	0.03198769
198	0x3e077442	0.13227943
199	0x3e36c82e	0.178498
200	0x3d4620c4	0.04837109
201	0x3cf6a430	0.030107588
202	0xbe51a157	-0.20471703
203	0xbd2f2758	-0.04276213
204	0xbe435363	-0.19074778
205	0xbdbef849	-0.093247004
206	0x3c1427fd	0.009042737
207	0x3e530d4c	0.20610541
208	0x3db5dd7a	0.08880134
209	0x3e50dadc	0.20395988
210	0xbb386bad	-0.0028140352
211	0x3ce39db2	0.027785156
212	0xbd8ee113	-0.06976523
213	0xbdde4553	-0.10853066
214	0x3e65153f	0.22371386
215	0x3e566401	0.20936586
216	0x3d01a046	0.03164699
217	0x3e189440	0.14900303
218	0x3e1cea4f	0.15323757
219	0x3e4c89dd	0.19974466
220	0x3de9f058	0.11422795
221	0x3ca542a8	0.020173386
222	0x3da4110f	0.08011066
223	0x3ec16085	0.3776895
224	0xbc66df4d	-0.014091325
225	0x3c2910e4	0.010318968
226	0xbe849687	-0.25896093
227	0x3c93835a	0.01800697
228	0xbe0ff6c0	-0.14058971
229	0x3ca5accd	0.020224
230	0x3e308eee	0.17242023
231	0xbe06009c	-0.1308617
232	0xbdae3336	-0.085058615
233	0x3da6572b	0.08122095
234	0x3d92299b	0.07136842
235	0x3daa7913	0.08323874
236	0x3dbe8087	0.093018584
237	0xbdaad3df	-0.083411925
238	0x3df31fa5	0.1187127
239	0xbe5ec429	-0.21754517
240	0x3e8394a5	0.25699344
241	0xbe1b3c1f	-0.15159653
242	0xbcfdcc63	-0.030981248
243	0xbd8e6901	-0.06953622
244	0x3e5c2597	0.21498714
245	0xbc9f3e43	-0.019438868
246	0xbda8aefc	-0.082365006
247	0x3e16b6dd	0.14718194
248	0xbe0d2eff	-0.13787459
249	0xbd65a4ea	-0.056065477
250	0x3de9d0c4	0.11416772
251	0xbd8c4f49	-0.0685106
252	0x3b79bd49	0.0038107208
253	0x3ea6327f	0.324604
254	0xbe118fb8	-0.1421498
255	0x3e3084ad	0.17238112

lstm.weight_hh_l1 f4 [256, 64]
0	0xbd224e6d	-0.039625574
1	0xbaae6cad	-0.0013307534
2	0x3d938730	0.07203519
3	0xbd1ddd91	-0.03854138
4	0xbb8836cf	-0.0041569243
5	0xbdcba037	-0.09942668
6	0x3d5ed980	0.054406643
7	0x3d5b1559	0.053487156
8	0x3e1c6c5e	0.15275714
9	0xbe1589c3	-0.14603333
10	0x3edc3b54	0.43014014
11	0x3d066cd5	0.032818634
12	0xbea9b78d	-0.3314785
13	0x3db55aa0	0.08855176
14	0x3d0fbe51	0.03509361
15	0xbe596479	-0.21229734
16	0xbe642d0f	-0.22282813
17	0x3e0c492a	0.13699785
18	0x3e42dc89	0.1902944
19	0x3ddc740f	0.10764324
20	0x3e11055f	0.14162205
21	0xbcf0978c	-0.029369138
22	0xbcea8ea1	-0.028632464
23	0xbe970ce2	-0.29502016
24	0x3e9dad96	0.30796498
25	0x3dfa7c0f	0.122306935
26	0x3ed9176b	0.4240068
27	0xbe554e3e	-0.20830628
28	0xbeb20264	-0.3476745
29	0x3de6a563	0.11262014
30	0x3ddfd8b4	0.10930005
31	0xbea97e98	-0.33104396
32	0xbd5658a7	-0.05233064
33	0x3d94df87	0.07269197
34	0x3f04d522	0.51887715
35	0x3e6a6504	0.22890097
36	0xbbeb58ce	-0.007182217
37	0x3d271a12	0.040796347
38	0x3e53f387	0.20698367
39	0xbe0ec376	-0.1394175
40	0x3e74359c	0.23848575
41	0xbeea936b	-0.45815596
42	0x3d84890b	0.06471451
43	0x3f23168f	0.63706297
44	0x3e0780a9	0.13232674
45	0x3d8a21b8	0.067447126
46	0xbdee8968	-0.11647302
47	0x3d41e6d6	0.047339283
48	0x3e97e42b	0.29666266
49	0x3f145de2	0.57955754
50	0xbdc78e23	-0.09743907
51	0x3c49d630	0.012319133
52	0xbe0a6d86	-0.13518342
53	0xbd861e5f	-0.065487616
54	0x3de759ba	0.11296411
55	0xbce16274	-0.027512766
56	0xbe9becd3	-0.3045412
57	0xbe2b48c0	-0.1672697
58	0xbe08e047	-0.13366805
59	0xbe92c376	-0.2866475
60	0xbd2ff383	-0.04295684
61	0x3e04c43c	0.12965482
62	0xbd3facbf	-0.046795603
63	0x3e4c220c	0.19934863
64	0xbe27ca9b	-0.16385882
65	0xbb71fa85	-0.0036923003
66	0xbe08c2c2	-0.13355544
67	0x3d7e86f7	0.06214043
68	0xbde7c7ca	-0.113174036
69	0xbc665465	-0.014058207
70	0x3d3dcd52	0.046338387
71	0xbe1ddfb0	-0.15417361
72	0x3ddf8c48	0.109154284
73	0xbd4ee6eb	-0.05051319
74	0x3dcebf0e	0.100950345
75	0x3d829c40	0.063774586
76	0xbd9f9ff1	-0.07794178
77	0x3e00d58f	0.12581466
78	0x3d847021	0.064666994
79	0xbd89f153	-0.06735482
80	0x3dd91d04	0.106012374
81	0xbb8c56eb	-0.0042828224
82	0x3da9c51d	0.082895495
83	0xbd45e93a	-0.048318125
84	0xbe33c419	-0.17555274
85	0xbdb60cab	-0.08889135
86	0x3b41c3ec	0.0029566241
87	0x3ba7683e	0.005108862
88	0x3e2dbed8	0.16967332
89	0xbd5e6af7	-0.05430123
90	0xbd510315	-0.05102833
91	0x3d2d40e4	0.042298213
92	0xbde72000	-0.112854004
93	0x3ddf165f	0.10892939
94	0xbcf9f691	-0.03051308
95	0xbe3f4ef7	-0.18682466
96	0xbd011609	-0.031515155
97	0x3d6a70db	0.057236534
98	0x3e72ced6	0.23711714
99	0x3e19c877	0.15017878
100	0xbd4ddc43	-0.050258886
101	0xbc94c299	-0.018159198
102	0x3ccdfb61	0.02514428
103	0xbdbaaf7e	-0.09115504
104	0xbd0e04f4	-0.034672692
105	0xbeb253be	-0.34829515
106	0x3d8b45da	0.068004325
107	0xbdb09c35	-0.08623544
108	0xbd84ddb1	-0.06487597
109	0xbd1ef560	-0.038808227
110	0xbdf19d1f	-0.117975466
111	0xbdcd8d29	-0.1003669
112	0x3e4fedb2	0.20305517
113	0x3ddabf82	0.106810585
114	0xbe446390	-0.19178605
115	0x3d6d7576	0.057973348
116	0xbe06a70f	-0.13149665
117	0xbbe7b732	-0.007071399
118	0xbe0ed17b	-0.13947098
119	0x3d666890	0.056252062
120	0x3d854c2a	0.06508668
121	0xbdbac1d1	-0.09118999
122	0xbde27890	-0.11058152
123	0xbc9b937c	-0.018991224
124	0x3bd37a9d	0.0064538256
125	0x3d0611d0	0.03273183
126	0x3ca163d0	0.019700915
127	0x3ab61ef2	0.001389472
128	0x3e1c5903	0.1526833
129	0x3de3c0ee	0.11120783
130	0x3c9c6d6f	0.01909515
131	0xba6cc087	-0.00090313744
132	0x3d7ea192	0.062165804
133	0x3da1536c	0.078772396
134	0xbc419220	-0.011814624
135	0x3d96b1c7	0.07358127
136	0xbcecec3c	-0.02892124
137	0xbdc6d254	-0.09708086
138	0xbd375582	-0.04475928
139	0xbc698be5	-0.014254545
140	0xbd53e70e	-0.051734023
141	0xbc9eadd8	-0.019370005
142	0x3e3eb212	0.18622616
143	0xbdc13694	-0.09434238
144	0x3d5d3144	0.05400206
145	0xbcdcd072	-0.026954863
146	0x3e07132b	0.13190906
147	0xbd7d832e	-0.06189268
148	0xbc64f098	-0.013973378
149	0x3d0b4a28	0.034006268
150	0xbdb3b006	-0.08773808
151	0xbd0212be	-0.031756155
152	0x3e2ace3f	0.16680239
153	0xbc9f76db	-0.019465854
154	0x3d674ca6	0.056469582
155	0x3dc80b41	0.097677715
156	0x3e05de2b	0.13073032
157	0xbe161c55	-0.14659245
158	0xbe2fccb9	-0.17167939
159	0xbdd7c242	-0.105350986
160	0x3d5fe5d4	0.05466254
161	0x3cdb8987	0.026798977
162	0xbd379468	-0.044819266
163	0x3cc61669	0.024180608
164	0xbdb7b94a	-0.08970888
165	0xbda99028	-0.08279449
166	0x3d73bd87	0.05950692
167	0x3cd8351c	0.026392512
168	0xbdcd7aaa	-0.10033162
169	0xbe827692	-0.25481087
170	0xbe3654e0	-0.17805815
171	0x3e540440	0.20704746
172	0x3d221442	0.0395701
173	0x3bcd825b	0.006271643
174	0x3d83355f	0.06406664
175	0x3d1371cd	0.0359972
176	0xbcc8ff42	-0.024535779
177	0x3c9f80e7	0.019470645
178	0xbd2c30fc	-0.042038903
179	0x3d826fb3	0.06368961
180	0xbb981436	-0.004641081
181	0xbdae45a1	-0.085093744
182	0xbcc960f7	-0.02458237
183	0xbde2ad9d	-0.1106827
184	0x3dbb246c	0.09137806
185	0x3ce74cb8	0.028234825
186	0xbe9273a7	-0.2860386
187	0xbd8f244e	-0.069893464
188	0xbdbd2542	-0.09235622
189	0x3d853b90	0.06505501
190	0x3da8b606	0.08237843
191	0x38ad5486	8.2650266e-05
192	0x3d6404a4	0.05566849
193	0x3c6e5899	0.0145474905
194	0x3dbbdb2d	0.09172664
195	0x3d7e9a2c	0.06215875
196	0xbb4bd012	-0.0031099361
197	0x3d95a48d	0.07306776
198	0x3e27dbda	0.1639246
199	0xbe2543ac	-0.16139096
200	0x3d17340c	0.03691487
201	0x3e3281ad	0.1743228
202	0xbe286f51	-0.16448714
203	0x3decd871	0.115647204
204	0x3e1e9549	0.15486635
205	0xbdf88df5	-0.12136451
206	0x3e26d369	0.16291584
207	0x3d98d68d	0.07462797
208	0xbdb89794	-0.09013286
209	0x3c7fc975	0.015611996
210	0x3ca83d01	0.020536901
211	0xbe2f7156	-0.17133078
212	0x3dd01d88	0.10161883
213	0x3d2dded1	0.042448822
214	0x3d9dc04b	0.077026926
215	0xbb50921e	-0.0031825374
216	0xbe1122ec	-0.14173478
217	0x3daeb6cd	0.0853096
218	0xbe8eb76b	-0.27874312
219	0x3ec130fb	0.37732682
220	0x3d282f67	0.04106083
221	0xbe12bfa8	-0.14330924
222	0xbcf43ebf	-0.029815076
223	0xbe67e6ef	-0.22646688
224	0xbd8ab997	-0.0677368
225	0x3dab9957	0.08378857
226	0x3e10e986	0.14151582
227	0xbd66cd32	-0.056348033
228	0x3d26dcf2	0.040738054
229	0xbe2b28a4	-0.16714722
230	0xbe0eb042	-0.13934425
231	0x3d7ea615	0.062170107
232	0xbe0def3f	-0.13860796
233	0xbe166a99	-0.14689101
234	0xbcfc0427	-0.030763699
235	0xbe982498	-0.2971542
236	0xbd6ca0d2	-0.057770558
237	0x3e3e3e73	0.1857851
238	0x3e84c9a4	0.2593509
239	0x3dd6e9d9	0.10493822
240	0xbd888dc1	-0.066676624
241	0xbdee4a17	-0.11635225
242	0xbe32b7c5	-0.17452915
243	0xbde72a1a	-0.11287327
244	0x3dc21aeb	0.094777904
245	0xbe0d6ae5	-0.13810308
246	0xbde960a7	-0.11395388
247	0xbe1f0945	-0.1553088
248	0xbd36a43d	-0.044590224
249	0x3e3bc1b7	0.18335615
250	0xbdd85d83	-0.10564711
251	0x3dddf096	0.10836904
252	0xbd67ccec	-0.056591913
253	0x3cd7e315	0.026353398
254	0x3db55dd3	0.08855786
255	0x3d9264fb	0.07148167

lstm.bias_ih_l1 f4 [256]
0	0xbf21e1d1	-0.63235193
1	0xbe18d79d	-0.14926
2	0x3e41b7b5	0.18917735
3	0xbee20e9b	-0.44151768
4	0xbd9b07af	-0.07569825
5	0x3c4e9c0c	0.012610447
6	0xbe5d4935	-0.21609958
7	0xbf1ccc64	-0.61249375
8	0xbf39409d	-0.7236422
9	0x3dfe45c9	0.12415654
10	0xbe4bcdc0	-0.19902706
11	0xbcf43840	-0.029811978
12	0xbf0acc0d	-0.54217607
13	0xbdf94d43	-0.1217294
14	0xbdaa7a15	-0.083240665
15	0xbca7e9fb	-0.020497313
16	0x3cd1579a	0.025554467
17	0xbe238345	-0.15968044
18	0xbf355b02	-0.7084199
19	0xbf934252	-1.1504614
20	0xbeb0dbbc	-0.34542644
21	0xbdb73a60	-0.08946681
22	0xbe15467d	-0.1457767
23	0xbeb0c164	-0.34522545
24	0xbe342fdd	-0.17596383
25	0xbebab525	-0.36466327
26	0xbee73a43	-0.45161638
27	0xbe0bff2d	-0.1367156
28	0xbe2b3008	-0.16717541
29	0x3e8a7bbb	0.27047524
30	0x3dbb7621	0.09153391
31	0xbedb7c0a	-0.42868072
32	0x3df4f6c3	0.119611286
33	0xbeb88b2a	-0.36043674
34	0xbe27f0ae	-0.16400406
35	0xbf0a3b6b	-0.53996915
36	0xbe416e79	-0.18889798
37	0x3c3aeb52	0.011408644
38	0xbee47e5b	-0.44627652
39	0xbe78fa49	-0.24314226
40	0xbe12bf90	-0.14330888
41	0xbe48f342	-0.19624045
42	0x3ca7dffb	0.020492544
43	0xbdcf16e5	-0.10111789
44	0xbbf5d03c	-0.00750163
45	0xbf241712	-0.640977
46	0xbf193915	-0.59852725
47	0xbdd29edd	-0.10284207
48	0xbd63c90e	-0.055611663
49	0xbeff08a7	-0.4981129
50	0xbedc005a	-0.42969018
51	0xbf3c5e34	-0.7358124
52	0xbedc515b	-0.4303082
53	0xbcc57161	-0.024101915
54	0xbe475759	-0.19466914
55	0xbea8a564	-0.32938683
56	0xbed7effb	-0.42175278
57	0xbf2a9284	-0.66629815
58	0x3cf77997	0.030209346
59	0xbf1a987e	-0.60388935
60	0xbee12947	-0.43976805
61	0xbf2f52c3	-0.6848566
62	0xbf33a589	-0.7017446
63	0xbe0af7df	-0.13571118
64	0xbf4be0e3	-0.79640025
65	0x3da75764	0.08170965
66	0x3d151f80	0.036406994
67	0xbe530888	-0.20608723
68	0x3c67a5e0	0.014138669
69	0xbcd74455	-0.0262777
70	0xbe45ddd9	-0.1932291
71	0x3c526d06	0.012843376
72	0xbf0ddf76	-0.554191
73	0x3d96d34b	0.0736452
74	0x39e7d523	0.00044218553
75	0xbe183614	-0.14864379
76	0xbeee1018	-0.46496654
77	0x3d019987	0.031640556
78	0xbee79f7f	-0.45238873
79	0xbd73fe4e	-0.059568696
80	0xbd3b083c	-0.04566215
81	0xbd627c43	-0.055294286
82	0xbf354da5	-0.708216
83	0xbf30890a	-0.68959105
84	0xbe934a73	-0.28767738
85	0xbcc40209	-0.023926752
86	0xbe93d63b	-0.28874382
87	0xbe50edf0	-0.20403266
88	0xbe041638	-0.12899101
89	0xbe65cfd6	-0.22442564
90	0xbef1ba84	-0.47212613
91	0xbe00eaf9	-0.12589635
92	0x3dc59915	0.09648339
93	0xbce90530	-0.028444856
94	0x3d917d99	0.07104034
95	0xbeb3d500	-0.35123444
96	0xbf55aa0e	-0.8346261
97	0x3cc54624	0.024081297
98	0xba62837b	-0.0008640808
99	0xbebd805e	-0.37012
100	0xbd0b5c14	-0.03402336
101	0x3da8cb1f	0.08241867
102	0xbea463f7	-0.32107517
103	0xbed09bfb	-0.40744004
104	0xbea0dea7	-0.3141987
105	0xbebec966	-0.3726303
106	0x3c9c551d	0.019083554
107	0xbeb23ff3	-0.34814414
108	0xbd2ba11f	-0.041901704
109	0xbea0832f	-0.31350085
110	0xbf102fc0	-0.5632286
111	0xbca5c251	-0.020234259
112	0xbe0f3bf3	-0.13987713
113	0xbec60cbe	-0.38681597
114	0xbdb6245b	-0.08893653
115	0xbf099a74	-0.537513
116	0xbe1edef4	-0.15514737
117	0xbdb40b01	-0.08791161
118	0x3ddd4c9c	0.10805628
119	0xbd9d4083	-0.0767832
120	0xbee67188	-0.45008492
121	0xbf117eae	-0.5683392
122	0xbedf2a29	-0.43586853
123	0xbd9ea28e	-0.077458486
124	0x3d06ac6d	0.03287928
125	0xbea8844a	-0.3291343
126	0xbeebfa15	-0.46089235
127	0x3c5a8189	0.013336548
128	0x3d24a2c2	0.04019428
129	0x3c2cf0ce	0.010555459
130	0xbd16a7e8	-0.03678122
131	0xbd691917	-0.056908693
132	0xbd9f4ba7	-0.077781014
133	0xbd58179d	-0.052756894
134	0xbded5b95	-0.115897335
135	0x3bcb7c1f	0.0062098647
136	0x3c09b682	0.00840533
137	0xbdb0d6d9	-0.08634729
138	0x3c703665	0.014661406
139	0xbd572bcd	-0.052532006
140	0xbc5d13ed	-0.01349352
141	0x3e020429	0.126969
142	0x3da91682	0.08256246
143	0x3cd89f54	0.026443161
144	0xbe0874fc	-0.13325876
145	0xbad690f6	-0.0016370106
146	0x3cf6ebc0	0.030141711
147	0xbce2820d	-0.027649904
148	0x3d13204d	0.035919476
149	0x3da04f57	0.07827633
150	0xbda2b7bb	-0.079452
151	0x3ddf443b	0.10901686
152	0xbd812ded	-0.06307588
153	0x3d2c2ca0	0.042034745
154	0x3d3ff1cb	0.04686145
155	0xbe2efba1	-0.17088176
156	0xbcfd3618	-0.030909583
157	0xbdc879a9	-0.0978883
158	0x3c136450	0.008996084
159	0x3c9ecaf9	0.019383894
160	0x3d16ade4	0.03678693
161	0x3c73e7ab	0.014886777
162	0xbcf7fd86	-0.030272257
163	0x3d40712e	0.046982937
164	0xbd68e6a8	-0.056860596
165	0xbcc48317	-0.02398829
166	0x3a229aca	0.0006202875
167	0xbe28efc3	-0.16497712
168	0xbc5b409a	-0.013382101
169	0xbce7ed4e	-0.028311398
170	0x3d3b6261	0.04574812
171	0xbd546bfd	-0.0518608
172	0x3d9e7a54	0.07738176
173	0x3d03d16d	0.032182146
174	0x3d7350aa	0.0594031
175	0x3b86e382	0.0041164765
176	0xbd3665e8	-0.04453078
177	0x3d948cb2	0.07253398
178	0xbccea092	-0.02522305
179	0x3d05ae11	0.032636706
180	0xbd63685e	-0.055519454
181	0x3c1cda44	0.009573523
182	0xbccebe29	-0.02523716
183	0x3d649f0a	0.055815734
184	0x3da982f5	0.08276931
185	0x3dcb266d	0.099194385
186	0xbd193269	-0.03740159
187	0x3d9e02a0	0.077153444
188	0x3b3193f3	0.0027096241
189	0xbd228cf0	-0.03968519
190	0xbd22d2e6	-0.03975191
191	0xbd20653c	-0.039159045
192	0xbefb62dc	-0.4909886
193	0xbe70d415	-0.23518403
194	0x3e4d312f	0.20038293
195	0xbe7682b1	-0.24073292
196	0x3dcc9ee8	0.099912465
197	0x3e60233e	0.21888444
198	0xbe00bfef	-0.12573217
199	0xbef1afa2	-0.4720431
200	0xbf5f8245	-0.8730815
201	0x3e34f76b	0.17672507
202	0xbddce63c	-0.10786101
203	0xbe6af2bb	-0.22944157
204	0xbf2e9280	-0.6819229
205	0x3d3bcba6	0.04584851
206	0xbe688474	-0.22706777
207	0x3d80188c	0.06254682
208	0xbe2b89c8	-0.16751778
209	0xbde0bc4b	-0.10973414
210	0xbf3fbe18	-0.74899435
211	0xbf7a3d94	-0.9775021
212	0xbef730ed	-0.48279515
213	0x3dbe4f73	0.092924975
214	0xbe8385df	-0.25688073
215	0xbec6ffb1	-0.38866952
216	0xbead7578	-0.33878684
217	0xbec17657	-0.377856
218	0xbebd419f	-0.36964127
219	0xbe9efa3e	-0.31050295
220	0xbdcc3c25	-0.09972409
221	0x3e278dcd	0.16362686
222	0xbbe1259c	-0.0068709385
223	0xbea59729	-0.3234189
224	0xbcabecaa	-0.020986874
225	0xbd9e34d0	-0.07724917
226	0xbe46174b	-0.19344823
227	0xbf168102	-0.587906
228	0xbd9f7738	-0.07786411
229	0xbe0d1731	-0.13778378
230	0xbf0166ef	-0.5054769
231	0xbe8c99b0	-0.27461004
232	0xbe370557	-0.1787313
233	0xbe060275	-0.13086875
234	0x3b90e23a	0.0044214996
235	0xbe8e65f8	-0.2781217
236	0xbe1b2143	-0.15149407
237	0xbf132ad8	-0.5748725
238	0xbf23cf82	-0.63988507
239	0xbd63578b	-0.05550341
240	0xbe6f693e	-0.2337999
241	0xbedd888f	-0.43268248
242	0xbea64e1e	-0.32481474
243	0xbf570557	-0.8399252
244	0xbe7f5ca8	-0.2493769
245	0x3e0b04cb	0.13576047
246	0xbe48d14a	-0.19611087
247	0xbe81d082	-0.2535439
248	0xbee92ec6	-0.45543498
249	0xbf4a1291	-0.7893458
250	0x3d7b564c	0.061361596
251	0xbeea3511	-0.4574361
252	0xbeaac1a3	-0.33350858
253	0xbee80a21	-0.45320228
254	0xbf5e13d5	-0.8674901
255	0x3d140b25	0.03614344
